turtlebot3_move_base/save_model_ddpg/2020_11_26-14:49:58/stage_1_300critic.pth (torch_old, 586393 bytes, 13 tensors)

fc1.weight f4 [512, 26]
-0.16539256 0.025917737 -0.055141278 -0.001163855 0.034137208 0.036041547 -0.123237364 -0.1745314
-0.085986614 -0.13997297 0.20883726 0.14342088 -0.101122886 -0.19104013 0.04916861 -0.102109596
-0.1364123 0.14139766 0.051977728 -0.18361276 -0.083681725 0.06982605 -0.22900958 0.09092869
0.17536065 0.09185866 0.053951096 0.004896641 -0.11520716 0.02914474 0.111549556 -0.13501523
-0.1426427 -0.15902977 -0.17278686 -0.11090447 -0.16835026 -0.09985099 0.10129194 0.117535874
-0.13087815 0.19231741 -0.19285585 -0.035653047 -0.09443082 -0.25963178 0.0595577 0.10777351
0.18074612 0.2114793 0.10996702 0.19242722 -0.15803824 0.070098 -0.042078212 -0.22650667
0.118871525 0.033379294 0.07078128 0.10865435 -0.14921041 -0.1451272 -0.15601856 -0.10504709
-0.0066699022 -0.24090484 -4.7453304e-05 0.11555484 -0.21632977 -0.06679816 -0.078849845 0.05406775
-0.09954748 -0.107451804 -0.06032365 -0.021798668 -0.37852693 0.0049818866 -0.04168409 -0.10500853
0.22115113 -0.012203178 0.10516358 -0.09118087 -0.14630336 0.18501583 -0.17614691 -0.13673472
-0.30045068 -0.008103248 -0.11327983 0.16884173 -0.14323401 -0.13903281 0.06424504 0.01920201
0.24655417 0.10091558 -0.13829581 0.14797215 0.16934177 -0.07228351 0.10061827 -0.03817002
-0.101143755 -0.05499116 -0.2166803 0.03911437 0.034632772 -0.040087983 -0.18075629 0.023687514
-0.1186409 -0.04436656 -0.12265693 -0.09095861 -0.16130577 0.1323912 -0.18633625 0.07405334
-0.07811701 -0.06857941 0.1878772 0.07038709 -0.13435848 -0.041885957 -0.008024414 -0.12341676
-0.26214334 0.14599644 -0.13632178 0.17789629 -0.1178121 0.20678908 0.007700434 0.22607732
0.1882822 -0.12830992 0.03267954 0.09153371 0.07164762 0.044711307 -0.045376834 -0.16704646
-0.027870042 0.008505415 -0.018966084 -0.06610935 -0.22282016 -0.16415863 -0.111882865 0.107484095
-0.13657638 0.05301194 -0.38022116 -0.20388569 0.039931882 0.0066396142 -0.01713174 0.13281058
0.19594735 0.16098435 0.15344451 0.15926127 0.21594667 0.20805107 0.18126486 0.0477784
0.12709387 -0.1433869 -0.12728639 -0.017742783 0.096814826 0.014592239 0.22706573 -0.026500415
0.18219873 -0.10945133 -0.08023695 0.011880144 0.008425458 -0.112038754 -0.14042637 0.21599364
-0.13013498 0.032382917 0.10450315 -0.008090363 0.21875775 0.10130408 0.225672 0.012103086
0.08297681 0.050250087 0.009010121 -0.043291934 -0.17896956 -0.19930974 -0.17738044 0.09914353
-0.13490888 -0.104776174 0.11292915 0.102634735 0.12096441 -0.024071656 0.09866914 0.2235996
0.30081984 0.0310468 0.08691751 0.06404133 0.14359517 0.118784525 0.089828305 0.018597052
-0.07226572 0.17641127 -0.16306394 -0.01981354 -0.0045668622 0.10361489 -0.0019586326 0.03614082
0.0745451 0.050451864 0.07403343 0.051740892 0.2818216 -0.07946147 0.21369423 -0.016444001
0.16028017 0.0014265176 0.12590693 -0.02227037 0.06272729 0.17397092 0.07867227 0.11739714
0.17867416 0.26863107 -0.07120521 -0.10476049 -0.05746143 -0.028558044 -0.1575665 -0.03016512
0.016145611 0.07310792 -0.16796656 0.044442914 0.02717237 -0.08103037 0.039950427 -0.118923485
00000000: ab5c 29be 6f51 d43c d2db 61bd 7e8c 98ba
00000010: 75d3 0b3d 4da0 133d df63 fcbd 5cb8 32be
00000020: c019 b0bd 1355 0fbe 6fd9 553e ecdc 123e
00000030: 8419 cfbd 06a0 43be 0665 493d d61e d1bd
00000040: aaaf 0bbe 8cca 103e 99e6 543d fc04 3cbe
00000050: 5361 abbd f600 8f3d 7d81 6abe d238 ba3d
00000060: be91 333e 6520 bc3d d3fb 5c3d 0074 a03b
00000070: bbf1 ebbd f3c0 ee3c 1874 e43d 6f41 0abe
00000080: ee10 12be b3d8 22be 0aef 30be e221 e3bd
00000090: 0364 2cbe ad7e ccbd 2672 cf3d a6b6 f03d
000000a0: ec04 06be dbee 443e 017c 45be ee08 12bd
000000b0: f264 c1bd 75ee 84be c6f2 733d 5cb8 dc3d
000000c0: 8315 393e 088e 583e 6436 e13d a40b 453e
000000d0: c7d4 21be 8a8f 8f3d 345a 2cbd 5df1 67be
000000e0: ea72 f33d bab8 083d c7f5 903d 2c86 de3d
000000f0: 9dca 18be 3a9c 14be 54c3 1fbe ee22 d7bd
00000100: 328f dabb c2af 76be 9908 47b8 04a8 ec3d
00000110: 8d85 5dbe 79cd 88bd 077c a1bd 2576 5d3d
00000120: 8ddf cbbd b10f dcbd ee15 77bd 1f93 b2bc
00000130: 48ce c1be 183f a33b f0bc 2abd b60e d7bd
00000140: 7175 623e d7ef 47bc 0160 d73d 09bd babd
00000150: 8cd0 15be ca74 3d3e db5f 34be 3004 0cbe
00000160: acd4 99be 7cc3 04bc 41ff e7bd d9e4 2c3e
00000170: f0ab 12be 9e5e 0ebe e792 833d 894d 9d3c
00000180: b278 7c3e d4ac ce3d 6b9d 0dbe 0386 173e
00000190: ee67 2d3e 6009 94bd f410 ce3d 2b58 1cbd
000001a0: 7524 cfbd 693e 61bd 71e1 5dbe 6436 203d
000001b0: 18db 0d3d 4c33 24bd 2d18 39be 510c c23c
000001c0: 00fa f2bd b6b9 35bd 8e33 fbbd 8248 babd
000001d0: 572d 25be 8f91 073e eece 3ebe 47a9 973d
000001e0: d0fb 9fbd 5d73 8cbd e162 403e 1b27 903d
000001f0: 4595 09be 9c90 2bbd d578 03bc edc1 fcbd
00000200: a737 86be 1780 153e f097 0bbe 722a 363e
00000210: 7847 f1bd 84c0 533e ec53 fc3b d080 673e
00000220: 0dcd 403e ad63 03be fbda 053d 0776 bb3d
00000230: fdbb 923d 3423 373d 0fdd 39bd 3a0e 2bbe
00000240: b74f e4bc 4c5a 0b3c c35e 9bbc 5764 87bd
00000250: f82a 64be 3319 28be d822 e5bd 9f20 dc3d
00000260: aeda 0bbe 0c23 593d 59ac c2be 69c7 50be
00000270: 9d8f 233d 1f91 d93b dd57 8cbc 7fff 073e
00000280: 6ca6 483e 15d9 243e 8f20 1d3e 6315 233e
00000290: 2021 5d3e 570b 553e 7f9d 393e 49b3 433d
000002a0: e524 023e 04d4 12be 5d57 02be 5059 91bc
000002b0: da46 c63d 4914 6f3c eb83 683e 6617 d9bc
000002c0: 4e92 3a3e 0528 e0bd 4553 a4bd efa4 423c
000002d0: ef0a 0a3c 9374 e5bd eecb 0fbe 702d 5d3e
000002e0: 1b42 05be f3a3 043d bf05 d63d 718d 04bc
000002f0: 0802 603e 8378 cf3d 9016 673e 064c 463c
00000300: bfef a93d 09d3 4d3d 309f 133c e252 31bd
00000310: cc43 37be da17 4cbe 38a3 35be c30b cb3d
00000320: 8e25 0abe e494 d6bd 6647 e73d 2932 d23d
00000330: 30bc f73d ec31 c5bc 0c13 ca3d 4bf7 643e
00000340: 0f05 9a3e dc55 fe3c cf01 b23d 1a28 833d
00000350: 9d0a 133e 4d45 f33d e7f7 b73d d858 983c
00000360: 0d00 94bd 28a5 343e 3cfa 26be 0150 a2bc
00000370: 9ea5 95bb 0b34 d43d 675c 00bb 6508 143d
00000380: 1aab 983d 9da6 4e3d d79e 973d 42ee 533d
00000390: ec4a 903e b2bc a2bd a9d2 5a3e 92b5 86bc
000003a0: 7c20 243e fdf9 ba3a bfed 003e 5a70 b6bc
000003b0: 2a77 803d 6f25 323e ed1e a13d e96d f03d
000003c0: 5cf6 363e 038a 893e 0ad4 91bd ab8c d6bd
000003d0: ad5c 6bbd 8ff2 e9bc 1d59 21be d71c f7bc
000003e0: cd43 843c 9bb9 953d 6dff 2bbe c609 363d
000003f0: 9798 de3c 40f3 a5bd 0fa3 233d 288e f3bd

fc1.bias f4 [512]
0.17411992 0.15808886 0.21104218 -0.05872824 -0.24299027 -0.3407986 -0.052912105 -0.06776623
0.19782224 0.16127405 0.1943167 0.03336419 0.19870085 -0.30148485 0.28910962 -0.029135088
0.086565025 0.057256244 -0.048288316 0.0026696266 -0.12636492 -0.047327563 -0.04168862 0.28817385
0.20690285 -0.055473726 0.061278727 -0.13199662 0.24508432 0.32208216 0.2488841 0.25206867
0.021684418 0.18890204 -0.05167924 -0.09112847 -0.21842963 0.065826885 0.12006867 0.074472025
0.1956449 0.17320852 -0.028962813 -0.1382857 -0.0993004 -0.05218094 0.33295175 0.050516386
0.19352579 0.24496762 -0.0058009056 -0.27045307 0.16885182 0.238336 0.105119854 -0.10378423
0.06640362 0.12160348 0.14478396 0.0977979 0.28977865 -0.21289402 0.15572514 0.11566594
0.018130308 -0.03572883 -0.03926069 0.17315444 -0.09397706 0.17303708 0.17799376 0.1902075
-0.024043838 0.10039011 0.019548258 0.10106673 -0.17032203 -0.06509051 -0.32563543 -0.12423891
0.48688546 -0.049858797 -0.1030786 0.124566376 -0.14384918 0.052296147 -0.06550908 0.04702262
-0.036182597 -0.3869488 -0.16830279 0.27517742 0.1686708 -0.064806156 -0.1412028 -0.038246457
0.07100357 -0.26864514 0.18507555 0.40661505 0.043036345 -0.29114774 -0.33415604 0.006724
0.014154318 0.03500008 -0.020811362 0.14397092 0.11585817 -0.23969682 0.137297 0.00067830074
0.24405137 0.24566582 -0.046040487 0.25373122 0.013660977 0.0017886853 -0.066902615 0.47329623
-0.2731769 -0.15441014 -0.23223184 -0.0070996485 -0.20488572 -0.32639745 0.34432378 -0.11335973
-0.13744637 -0.13425995 0.0908662 -0.11664733 0.23391114 0.22682874 -0.0061890143 0.0138436165
0.0005056845 0.18302101 0.28543285 0.3496774 0.33626732 -0.06366875 -0.028071232 0.23834285
-0.15396155 0.0710392 -0.1046155 0.15067509 0.017292483 0.02753298 -0.017733471 -0.02670347
0.17607032 0.3230974 -0.2480578 0.26805928 0.099466346 -0.08738851 -0.43490142 -0.05468291
0.12924314 0.0027787432 0.15060963 0.16510734 0.09562638 -0.16629168 -0.052024644 0.2003999
0.1547388 -0.21471997 0.12859474 -0.13628478 -0.03271268 0.054510675 0.21949092 0.21272548
-0.08575944 0.20267788 -0.34783778 -0.08565246 -0.28914452 -0.058379754 -0.02486809 -0.16127068
0.31044546 -0.029965272 0.030527448 -0.02756176 0.27593806 -0.11094375 -0.070207156 -0.029157182
0.18680963 -0.36169416 -0.23858613 0.0018401396 -0.26560348 -0.06697881 -0.39101765 0.018439561
-0.068900295 -0.40078068 0.086056516 -0.13730647 0.23106721 0.07526827 -0.03802719 0.25858185
0.037545595 -0.03254229 -0.059934404 0.038973022 -0.11867225 -0.3928599 -0.096439056 -0.075162016
-0.040743537 -0.02762856 -0.45543647 -0.5070564 -0.16828209 -0.17481913 0.0989063 -0.042710822
0.109750114 -0.078112304 -0.15193185 0.101631455 0.20132 -0.073327094 -0.08027014 0.13265304
0.17519854 -0.31963503 0.09387394 0.04862028 0.001972152 0.0047155353 -0.16825746 0.2533357
-0.08326455 -0.13852744 -0.27235308 -0.08295657 0.042506874 -0.102431774 -0.18582107 0.033559468
-0.2332198 -0.31311953 0.2167312 -0.32892832 -0.15076536 0.2577168 0.022853255 0.07248761
00000000: 7e4c 323e 0ce2 213e 711b 583e 068d 70bd
00000010: 71d2 78be 277d aebe 5dba 58bd 05c9 8abd
00000020: ea91 4a3e 0625 253e f5fa 463e e4a8 083d
00000030: 3c78 4b3e 395c 9abe 2d06 943e b5ac eebc
00000040: 0149 b13d 8685 6a3d f8c9 45bd e7f4 2e3b
00000050: ce65 01be 8cda 41bd b0c1 2abd 868b 933e
00000060: 57de 533e 6b38 63bd 67ff 7a3d 1f2a 07be
00000070: 62f7 7a3e f4e7 a43e 79db 7e3e 250f 813e
00000080: 85a3 b13c 896f 413e 9cad 53bd 90a1 babd
00000090: 04ac 5fbe 3fd0 863d 90e6 f53d ca84 983d
000000a0: 2357 483e 935d 313e 6c43 edbc c49a 0dbe
000000b0: 025e cbbd aebb 55bd a778 aa3e 45ea 4e3d
000000c0: a02b 463e cbd8 7a3e 8615 bebb d378 8abe
000000d0: 7ee7 2c3e 5a0e 743e 1449 d73d d48c d4bd
000000e0: 9ffe 873d 3f0b f93d 3f42 143e 444a c83d
000000f0: de5d 943e e400 5abe 6976 1f3e 44e2 ec3d
00000100: 0386 943c 6558 12bd d1cf 20bd 664f 313e
00000110: 0b77 c0bd a230 313e ff43 363e c1c5 423e
00000120: 95f7 c4bc 5499 cd3d ab23 a03c 13fc ce3d
00000130: e668 2ebe 2c4e 85bd b0b9 a6be f870 febd
00000140: 0d49 f93e bd38 4cbd df1a d3bd a81c ff3d
00000150: 334d 13be 7c34 563d a029 86bd ca9a 403d
00000160: 3434 14bd 271e c6be 9157 2cbe 0ee4 8c3e
00000170: 0ab8 2c3e 17b9 84bd 7897 10be 51a8 1cbd
00000180: 526a 913d db8b 89be 7284 3d3e d92f d03e
00000190: e146 303d 5111 95be 8016 abbe 0055 dc3b
000001a0: 83e7 673c 3e5c 0f3d 977c aabc 1d6d 133e
000001b0: 0c47 ed3d 1573 75be 9697 0c3e fecf 313a
000001c0: 9ae8 793e d28f 7b3e f394 3cbd 0fe9 813e
000001d0: 4ad2 5f3c 5272 ea3a 3d04 89bd e253 f23e
000001e0: d8dd 8bbe b11d 1ebe 2fce 6dbe 2ba4 e8bb
000001f0: 90cd 51be 911d a7be 354b b03e 2529 e8bd
00000200: bebe 0cbe 717b 09be 0f18 ba3d cce4 eebd
00000210: 6786 6f3e cb45 683e 37cd cabb 56d0 623c
00000220: ea8f 043a dc69 3b3e 4124 923e eb08 b33e
00000230: 3b2b ac3e c364 82bd a4f5 e5bc 2610 743e
00000240: 19a8 1dbe 007d 913d a740 d6bd 924a 1a3e
00000250: f7a8 8d3c d88c e13c c945 91bc 3cc1 dabc
00000260: c74b 343e 066d a53e dd02 7ebe 113f 893e
00000270: 03b5 cb3d bff8 b2bd 66ab debe 30fb 5fbd
00000280: 5058 043e 931b 363b 6939 1a3e e611 293e
00000290: c3d7 c33d 5e48 2abe cb17 55bd a235 4d3e
000002a0: d973 1e3e 8ddf 5bbe 57ae 033e 3d8e 0bbe
000002b0: bbfd 05bd 9646 5f3d 3ac2 603e b5d4 593e
000002c0: a5a2 afbd ca8a 4f3e cb17 b2be 8f6a afbd
000002d0: c00a 94be 9c1f 6fbd 2ab8 cbbc 2424 25be
000002e0: b5f2 9e3e bb79 f5bc b314 fa3c 33c9 e1bc
000002f0: c147 8d3e 7a36 e3bd c5c8 8fbd 0bdb eebc
00000300: 064b 3f3e fa2f b9be ec4f 74be d730 f13a
00000310: 2efd 87be 302c 89bd 7733 c8be 900e 973c
00000320: 991b 8dbd 2033 cdbe 663e b03d 119a 0cbe
00000330: e29c 6c3e 4026 9a3d 66c2 1bbd d764 843e
00000340: 69c9 193d 104b 05bd c77d 75bd 2da2 1f3d
00000350: 700a f3bd ef24 c9be d781 c5bd 8bee 99bd
00000360: b2e2 26bd 4a55 e2bc f82e e9be 73ce 01bf
00000370: 2452 2cbe c903 33be 638f ca3d 8bf1 2ebd
00000380: abc4 e03d 58f9 9fbd 0694 1bbe 2724 d03d
00000390: d526 4e3e 842c 96bd ac64 a4bd 33d6 073e
000003a0: 3f67 333e 34a7 a3be fb40 c03d 0f26 473d
000003b0: 383f 013b c784 9a3b af4b 2cbe 38b5 813e
000003c0: 9b86 aabd 23da 0dbe dd71 8bbe 22e5 a9bd
000003d0: b01b 2e3d c0c7 d1bd e147 3ebe a775 093d
000003e0: 2cd1 6ebe 3451 a0be c9ee 5d3e 4b69 a8be
000003f0: 3c62 1abe 75f3 833e c036 bb3c 6274 943d

fc2.weight f4 [256, 514]
0.07499648 -0.13364601 -0.0030408953 -0.10282183 0.10739719 0.11908112 0.0044568344 -0.06453473
0.067351975 -0.05907117 -0.083512455 0.050053127 0.039516293 0.055417433 0.027841443 0.052811656
-0.0490187 0.10983934 -0.008898889 -0.06521675 -0.16022314 -0.062142577 -0.011123726 -0.038759444
0.0448564 0.021024143 -0.049555924 0.097538784 -0.09775355 0.03753282 -0.112384915 0.018522095
0.01761987 -0.033257023 -0.16130559 0.06628337 0.08963273 0.07220309 0.034904815 -0.0010125552
-0.018724542 0.015126872 0.05400734 0.219932 -0.080120385 -0.04342444 -0.19770284 -0.019501816
-0.08144652 0.018314602 -0.01862455 0.09730576 -0.045622904 0.014271525 0.0965974 0.0041965563
-0.062736206 0.05218407 0.10027 -0.099387094 -0.09085655 -0.024306286 0.0050288835 0.026115414
0.014184833 -0.06251475 0.06398362 0.03708728 0.18459558 -0.037763532 0.079225115 0.023698049
0.06496241 -0.034501735 0.0059846286 0.038553283 0.079840064 0.06683946 0.097487316 -0.021219732
0.076986566 0.17769846 -0.14824972 -0.012962377 0.07179813 -0.111843444 -0.08960943 0.111811265
-0.045399897 0.043524303 0.0007470244 0.12762958 -0.004430392 -0.07867451 0.054263216 0.07857158
0.034472533 -0.029599037 -0.01859717 -0.06792853 0.03735203 0.09021713 0.12198303 0.091078065
0.01579502 0.018088957 0.04525846 -0.06071486 0.022517862 0.09421357 0.03008905 0.049369577
-0.017137306 -0.0796974 -0.068719 0.02475466 0.038191926 0.027644044 0.07735943 0.14540154
0.15826981 -0.07967061 0.16091485 0.10869784 -0.24273427 0.08408152 -0.009210908 0.019613769
0.081964605 0.09619392 -0.0022858009 0.02245675 0.011233869 0.05089567 -0.02863429 0.00961349
0.02727187 -0.052960526 -0.080721 0.012867265 -0.12168614 0.05249226 -0.01984831 0.03576064
0.009698376 -0.0185694 -0.14801691 0.112580165 0.08674345 0.06826251 0.08486385 -0.044195637
-0.0920514 -0.08465012 0.112325646 -0.1627208 -0.06224629 0.11245737 0.23436894 0.028304484
-0.023180593 0.026988875 0.021915957 0.19786723 0.03772717 -0.10984854 0.054834522 -0.057950012
-0.005266201 0.08468429 0.10782545 0.0806989 0.07012141 -0.0667893 -0.17012756 -0.048477937
0.07106706 -0.107976094 0.21929605 -0.185525 0.08121297 0.066238075 -0.025518732 -0.003289701
0.0008078923 0.030174201 -0.044548053 0.088388145 -0.1570617 0.0733193 0.07570054 0.065881215
-0.046603445 0.16176578 0.1585374 0.05100516 0.17089246 -0.17257595 0.09718521 -0.020790659
-0.004379427 0.03168608 0.012699365 0.058701526 0.07767404 0.0050147455 0.077439286 -0.04235773
-0.011767233 -0.007310489 0.057236906 0.062271915 0.0806958 0.15334566 -0.19628327 0.091584615
0.065027766 -0.057436038 0.10024978 0.20743063 0.04886015 0.04727059 -0.07036758 0.16932245
-0.16834483 0.17286137 -0.21746294 0.06183858 0.033478975 0.025194949 0.011591293 0.026570624
0.12572886 0.14348821 -0.04317662 -0.0066742497 0.039572097 0.08315124 0.015543809 0.0031689017
0.15440024 0.19173792 0.125924 0.18172964 0.123951 -0.10965016 0.04480415 -0.19778511
0.1377349 0.084174864 -0.0934278 0.057646304 0.100569785 -0.06474294 -0.022815328 0.06379551
00000000: c197 993d 80da 08be c249 47bb 4094 d2bd
00000010: 0ff3 db3d cde0 f33d a30a 923b c92a 84bd
00000020: d5ef 893d 9cf4 71bd 9408 abbd 8204 4d3d
00000030: d6db 213d 64fd 623d bd13 e43c 0951 583d
00000040: d5c7 48bd 73f3 e03d a5cc 11bc 5c90 85bd
00000050: 8911 24be 3789 7ebd 4a40 36bc 39c2 1ebd
00000060: 58bb 373d d33a ac3c 27fb 4abd 6ac2 c73d
00000070: 0333 c8bd 04bc 193d 102a e6bd a6bb 973c
00000080: 8c57 903c 8438 08bd 4b2d 25be 93bf 873d
00000090: 5d91 b73d 37df 933d 5af8 0e3d b7b7 84ba
000000a0: 3664 99bc b3d6 773c cd36 5d3d db35 613e
000000b0: 2816 a4bd d3dd 31bd 9d72 4abe 46c2 9fbc
000000c0: 6fcd a6bd 8108 963c 8392 98bc 3e48 c73d
000000d0: 15df 3abd 1dd3 693c dcd4 c53d 4483 893b
000000e0: d77b 80bd f7be 553d 5c5a cd3d 768b cbbd
000000f0: 0013 babd fa1d c7bc 55c9 a43b feef d53c
00000100: 8067 683c bc07 80bd d809 833d d5e8 173d
00000110: a006 3d3e efad 1abd c740 a23d 6922 c23c
00000120: 030b 853d b151 0dbd b41a c43b 0cea 1d3d
00000130: 3083 a33d 20e3 883d 6ea7 c73d 01d5 adbc
00000140: 22ab 9d3d 96f6 353e c6ce 17be 2660 54bc
00000150: e60a 933d 2d0e e5bd 2685 b7bd 4efd e43d
00000160: 3ef5 39bd 8a46 323d f5d3 433a 54b1 023e
00000170: d22c 91bb 1a20 a1bd 1b43 5e3d 23ea a03d
00000180: 1233 0d3d ae79 f2bc 1859 98bc 1d1e 8bbd
00000190: 71fe 183d c2c3 b83d 3dd2 f93d 2387 ba3d
000001a0: 8f64 813c 4b2f 943c ef60 393d 25b0 78bd
000001b0: 6177 b83c 0bf3 c03d 507d f63c c137 4a3d
000001c0: 8963 8cbc 6438 a3bd 8cbc 8cbd 49ca ca3c
000001d0: 236f 1c3d c375 e23c 9f6e 9e3d 24e4 143e
000001e0: 7b11 223e 582a a3bd ddc6 243e f99c de3d
000001f0: 558f 78be ef32 ac3d 59e9 16bc 0ead a03c
00000200: 0fdd a73d 5101 c53d 60cd 15bb 38f7 b73c
00000210: 430e 383c fa77 503d 7592 eabc e681 1d3c
00000220: 4269 df3c 23ed 58bd 0d51 a5bd 39d1 523c
00000230: 9536 f9bd 2002 573d ec98 a2bc c079 123d
00000240: f0e5 1e3c db1e 98bc bf91 17be 6e90 e63d
00000250: 8da6 b13d 37cd 8b3d 19cd ad3d 7c06 35bd
00000260: 7285 bcbd 0b5d adbd fd0a e63d 48a0 26be
00000270: f7f5 7ebd 0d50 e63d 69fe 6f3e cede e73c
00000280: 3ae5 bdbc c617 dd3c 1889 b33c b59d 4a3e
00000290: ce87 1a3d 45f8 e0bd 2a9a 603d fe5c 6dbd
000002a0: 1990 acbb f56e ad3d 97d3 dc3d 7745 a53d
000002b0: d09b 8f3d d4c8 88bd eb35 2ebe cd90 46bd
000002c0: 9b8b 913d 9222 ddbd 258f 603e 44fa 3dbe
000002d0: fc52 a63d d4a7 873d a90c d1bc 0698 57bb
000002e0: bcc8 533a e32f f73c 0578 36bd d804 b53d
000002f0: c8d4 20be 6e28 963d e208 9b3d bbec 863d
00000300: 41e3 3ebd eea5 253e a157 223e c9ea 503d
00000310: 6ffe 2e3e c0b7 30be 0a09 c73d 2c51 aabc
00000320: 4c81 8fbb 43c9 013d ff10 503c 0371 703d
00000330: 9113 9f3d bc52 a43b 7d98 9e3d 4d7f 2dbd
00000340: 5acb 40bc d48c efbb 3f71 6a3d d610 7f3d
00000350: d743 a53d a506 1d3e 7bfe 48be b790 bb3d
00000360: 472d 853d 0d42 6bbd c24f cd3d b268 543e
00000370: 9521 483d ce9e 413d e11c 90bd dd62 2d3e
00000380: 9662 2cbe 9202 313e 9bae 5ebe 734a 7d3d
00000390: 4021 093d a365 ce3c 68e9 3d3c a3aa d93c
000003a0: 11bf 003e 93ee 123e f8d9 30bd aab3 dabb
000003b0: 5a16 223d 334b aa3d 76ab 7e3c 59ad 4f3b
000003c0: 191b 1e3e f256 443e 39f2 003e 5617 3a3e
000003d0: 06da fd3d 4390 e0bd 8e84 373d 2e88 4abe
000003e0: 610a 0d3e df63 ac3d 1357 bfbd 881e 6c3d
000003f0: 88f7 cd3d f297 84bd 36e7 babc 38a7 823d

fc2.bias f4 [256]
-0.04868278 -0.09066746 0.11660807 0.154992 -0.040380105 -0.075170085 0.13027743 0.075295664
0.10457533 -0.0765716 -0.144566 0.15378173 0.03373404 -0.05734313 0.10652124 -0.039499313
-0.07472094 -0.04358577 0.065729775 -0.02752023 0.1472097 -0.025707953 -0.10459001 0.09693995
-0.01792207 0.119171254 -0.084413 -0.021794088 -0.04934648 -0.024416793 0.076140024 -0.027349034
0.12441384 0.11187679 0.19203934 0.14354031 -0.07562239 0.16000739 -0.050527506 -0.029777285
-0.051346865 0.08461817 -0.049274582 0.0017686649 -0.04427746 -0.0020915694 0.1629219 -0.0635929
-0.022699066 0.09715985 -0.020751698 0.12632665 0.0744558 -0.019848114 -0.07628749 -0.0803168
-0.070355505 0.12823234 0.16482936 -0.030292965 0.08902153 -0.015269471 -0.029591247 0.17370456
-0.065790765 0.018400867 -0.076914266 -0.05893054 -0.034884367 0.14417642 0.016369019 -0.04993846
-0.09143029 -0.08439313 -0.009726691 0.11674535 -0.022824738 0.10721591 -0.07657142 -0.0126493275
0.10058285 -0.03238248 0.10270103 -0.03528805 0.028932065 0.028283313 0.13192526 0.15994687
-0.038327113 0.12585682 0.1461816 0.07811711 0.079428956 0.13190797 0.07477619 0.110777065
-0.0025985746 -0.08099874 -0.09202965 0.11061109 -0.040733885 0.1699358 -0.07659405 -0.035631202
-0.021004835 -0.09403987 0.09828531 0.11119793 -0.058077034 0.01668618 0.102615125 -0.07247398
-0.029889014 -0.020892696 0.11868318 0.123169124 -0.03231241 0.09570128 -0.022325229 -0.0753504
-0.08322606 -0.046239495 -0.08510751 -0.066672854 -0.021498604 0.05770043 0.009792027 0.10336618
0.16034344 -0.055810146 -0.09446608 0.11657441 -0.08079377 0.1505803 0.16042873 0.14865164
-0.07340923 0.2062736 -0.056028314 0.17872563 0.14655438 -0.056746185 0.10891031 0.0975994
-0.03451995 0.16436577 -0.07963934 0.10503803 -0.043921135 -0.09238819 -0.08239534 -0.083250254
0.10031244 0.11442828 -0.07804302 -0.046453495 -0.024687577 -0.10283742 -0.064694315 0.14440008
0.15272334 0.10063422 0.14384626 0.12610692 0.056027327 -0.046752043 0.10634819 0.12529069
-0.0662733 -0.003054286 -0.017148867 -0.09821137 0.090022676 0.090001784 -0.014563625 -0.05353492
-0.013908915 -0.09582936 -0.10205523 0.13495584 -0.0390797 -0.050748087 0.17134698 0.002180014
0.16596955 0.09997122 0.185532 0.11364155 -0.057079617 0.121893 -0.111250475 0.12922475
-0.014726148 0.1542497 -0.072477594 -0.074720845 0.13095026 0.10925353 -0.024947174 0.09266043
-0.06853138 0.098900154 -0.16403034 -0.040784374 0.006142599 -0.09088894 -0.043590985 -0.019453961
0.084913924 0.14718005 0.114835314 -0.085506566 -0.011927918 -0.075686745 0.18513398 -0.02031794
0.10196969 0.15445843 0.10781022 -0.02713339 -0.054937076 -0.06582188 0.07418094 0.1391581
0.1070929 0.12637594 0.1287621 -0.107509986 0.12645686 -0.13653286 -0.009327362 -0.044462167
-0.069315575 -0.053946704 0.060967866 0.07711355 -0.089769565 -0.04371329 0.13016322 0.14787799
0.12599236 -0.03902804 -0.051472634 0.1483776 -0.023958804 0.027155334 0.082839034 0.16093351
-0.032919623 -0.10508392 0.13554013 -0.032716323 -0.04148594 0.17787614 -0.091708496 0.12645201
00000000: 9867 47bd dcaf b9bd 36d0 ee3d 39b6 1e3e
00000010: 9c65 25bd c6f2 99bd 7267 053e 9d34 9a3d
00000020: 972b d63d 92d1 9cbd 1c09 14be f578 1d3e
00000030: b42c 0a3d a1e0 6abd cf27 da3d 08ca 21bd
00000040: 4b07 99bd fe86 32bd 559d 863d 1b72 e1bc
00000050: 24be 163e 7c99 d2bc 4a33 d6bd 7488 c63d
00000060: 4ed1 92bc 0f10 f43d b9e0 acbd 8489 b2bc
00000070: 891f 4abd ba05 c8bc 4def 9b3d 150b e0bc
00000080: afcc fe3d a91f e53d f6a5 443e 3bfc 123e
00000090: e9df 9abd fad8 233e eef5 4ebd 7eef f3bc
000000a0: 1751 52bd 4b4c ad3d 25d4 49bd 8cd2 e73a
000000b0: 485c 35bd b612 09bb 00d5 263e ff3c 82bd
000000c0: 64f3 b9bc befb c63d 77ff a9bc c65b 013e
000000d0: 487c 983d 8398 a2bc 9e3c 9cbd 227d a4bd
000000e0: 8c16 90bd 574f 033e 07c9 283e f428 f8bc
000000f0: eb50 b63d ce2c 7abc 5869 f2bc 9cdf 313e
00000100: 4fbd 86bd 6abd 963c 3a85 9dbd 2661 71bd
00000110: e9e2 0ebd fca2 133e 5218 863c 458c 4cbd
00000120: ce3f bbbd 4ed6 acbd b35c 1fbc 3018 ef3d
00000130: f2fa babc 0494 db3d 7ad1 9cbd 203f 4fbc
00000140: 62fe cd3d 7ea3 04bd eb54 d23d 348a 10bd
00000150: f002 ed3c 68b2 e73c 6a17 073e 1dc9 233e
00000160: e4fc 1cbd 9ce0 003e a1b0 153e ddfb 9f3d
00000170: a6ab a23d e212 073e 4224 993d 16df e23d
00000180: d94c 2abb abe2 a5bd 0b7a bcbd 1188 e23d
00000190: 93d8 26bd a603 2e3e 57dd 9cbd 06f2 11bd
000001a0: 5512 acbc fa97 c0bd cf49 c93d bebb e33d
000001b0: 2fe2 6dbd 75b1 883c e127 d23d 3d6d 94bd
000001c0: ced9 f4bc 2927 abbc 2b10 f33d 1840 fc3d
000001d0: 055a 04bd 08ff c33d 66e3 b6bc 4f51 9abd
000001e0: 6d72 aabd a065 3dbd d94c aebd c78b 88bd
000001f0: d71d b0bc 4957 6c3d bd6e 203c a6b1 d33d
00000200: 1231 243e 2e99 64bd 6f77 c1bd 90be ee3d
00000210: 3477 a5bd b931 1a3e 6e47 243e 2338 183e
00000220: 9457 96bd 6339 533e f27d 65bd da03 373e
00000230: 5a12 163e b06e 68bd 5e0c df3d 32e2 c73d
00000240: cb64 0dbd 804f 283e f319 a3bd 2e1e d73d
00000250: a6e6 33bd 0536 bdbd e3be a8bd 1c7f aabd
00000260: 9c70 cd3d 6059 ea3d 05d5 9fbd 0546 3ebd
00000270: 9a3d cabc 6d9c d2bd 747e 84bd 9ddd 133e
00000280: 8263 1c3e 5019 ce3d 6f4c 133e 2c22 013e
00000290: e97c 653d 127f 3fbd 14cd d93d 344c 003e
000002a0: 4cba 87bd 6a2a 48bb c87b 8cbc 0b23 c9bd
000002b0: cf5d b83d db52 b83d 459c 6ebc 6f47 5bbd
000002c0: 38e2 63bc 2f42 c4bd 5502 d1bd dd31 0a3e
000002d0: 0912 20bd 3add 4fbd 9575 2f3e 91de 0e3b
000002e0: ecf3 293e b6bd cc3d 1afc 3d3e e7bc e83d
000002f0: 51cc 69bd 0aa3 f93d 4ad7 e3bd 7e53 043e
00000300: f145 71bc a2f3 1d3e 226f 94bd 3e07 99bd
00000310: d317 063e 51c0 df3d 045e ccbc c0c4 bd3d
00000320: 2e5a 8cbd 2a8c ca3d 92f7 27be 840d 27bd
00000330: db47 c93b fb23 babd 768c 32bd ea5d 9fbc
00000340: 5ae7 ad3d 5eb6 163e c72e eb3d 111e afbd
00000350: 506d 43bc a701 9bbd c393 3d3e cf71 a6bc
00000360: 7cd5 d03d 5a2a 1e3e 9bcb dc3d d846 debc
00000370: b305 61bd 9fcd 86bd 2dec 973d 767f 0e3e
00000380: 8653 db3d b268 013e 36da 033e 322e dcbd
00000390: e87d 013e 45cf 0bbe cbd1 18bc f61d 36bd
000003a0: 53f5 8dbd 38f7 5cbd 71b9 793d b5ed 9d3d
000003b0: 1bd9 b7bd b50c 33bd 8249 053e 546d 173e
000003c0: 2404 013e dedb 1fbd f8d4 52bd 4cf0 173e
000003d0: 4145 c4bc dd74 de3c 83a7 a93d c1cb 243e
000003e0: bad6 06bd 3d36 d7bd 08cb 0a3e 8d01 06bd
000003f0: 29ed 29bd 2a25 363e aad1 bbbd a37c 013e

fc3.weight f4 [1, 256]
-0.23470293 -0.23681903 0.26854265 0.5352077 -0.03987843 -0.1902005 0.48937297 0.41048276
0.6362881 -0.18239188 -0.29997218 0.35937676 -0.017787917 -0.22826435 0.4022476 -0.19693975
-0.17291625 -0.19625081 0.43017343 -0.15559001 0.34378758 -0.1720757 -0.23005037 0.2881927
-0.18181454 0.25227684 -0.1572737 -0.17132019 -0.1823012 -0.17396213 0.6275759 -0.17845127
0.29154932 0.23346472 0.34511763 0.25144523 -0.21010454 0.77664435 -0.1790197 -0.16705868
-0.29890084 0.33965245 -0.22115372 -0.03252167 0.009967173 0.0010935907 0.2957247 -0.16792068
-0.16562639 0.5108057 -0.16862139 0.33548748 0.35677063 -0.176231 -0.15700567 -0.17600946
-0.15507044 0.29871395 0.8330854 -0.21483392 0.6200877 0.015260212 -0.18346612 0.33362386
-0.19576526 0.053660214 -0.15762341 -0.20984364 -0.18783306 0.46850446 0.43037122 -0.16680942
-0.21187343 -0.21501033 -0.17836025 0.7264766 -0.17999512 0.45783192 -0.18153037 -0.0019959
0.3472174 -0.16550127 0.2770558 -0.1760858 0.45744306 -0.0017902671 0.34395418 0.296989
-0.18611407 0.31322694 0.35974967 0.61977226 0.5535054 0.44006157 0.44653034 0.3527047
-0.29978198 -0.21185297 -0.15620351 0.39443037 -0.20365936 0.45993027 -0.19321819 -0.18039334
-0.25831145 -0.19906203 0.3508997 0.2842354 -0.19483003 0.52468604 0.44031733 -0.18697943
-0.17963007 -0.16732566 0.30433246 0.39612624 -0.16991611 0.46229854 -0.1957073 -0.1575619
-0.16357179 -0.16956255 -0.15302666 -0.18831877 0.015242556 0.23914811 0.021291247 0.32275078
0.32727405 -0.16589099 -0.18963657 0.58802944 -0.1893754 0.26275262 0.2938831 0.829255
-0.34069094 0.7272156 -0.16602698 0.46666145 0.3584254 -0.20501861 0.33219916 0.26681134
-0.011454187 0.31265745 -0.1874576 0.46849215 -0.19076666 -0.20485322 -0.2106137 -0.19134058
0.3286985 0.27799737 -0.22237162 -0.17395996 -0.26749974 -0.21036863 -0.15029396 0.31087118
0.49210557 0.36404112 0.24819233 0.77574927 0.6152246 -0.207779 0.27435082 0.29953477
-0.19381343 -0.16829148 -0.19355911 -0.3455671 0.2939389 0.2522812 0.057053316 -0.20056865
-0.18727228 -0.28204435 -0.19721097 0.35395172 -0.15278453 0.013926475 0.36971313 0.0009251616
0.34350103 0.222574 0.5173795 0.43353927 -0.20086518 0.37490395 -0.21486962 0.49362355
-0.16875707 0.31270313 -0.1807888 -0.15874799 0.35033923 0.3307218 0.033464756 0.37377062
-0.20771159 0.29343438 -0.5822077 -0.19621271 0.04666222 -0.18149005 -0.22354132 -0.1737217
0.37185133 0.32863337 0.33054405 -0.6425677 -0.02252553 -0.18802851 0.5304822 -0.20162274
0.23566198 0.3098465 0.2962248 -0.2127756 -0.45575115 -0.17324561 0.31309146 0.7729941
0.28246513 0.48042014 0.3451997 -0.21907999 0.42240098 -0.54489154 -0.16960514 -0.17665327
-0.18920845 -0.20414972 0.44490778 0.3121329 -0.2097792 -0.19452047 0.2683044 0.28292575
0.47241506 -0.15808143 -0.20372447 0.38124952 -0.20479086 -0.004707951 0.62345505 0.36260176
-0.14262629 -0.22337839 0.28449723 -0.1741816 -0.19071421 0.40464538 -0.30780187 0.30117196
00000000: f755 70be b080 72be 6c7e 893e 5f03 093f
00000010: 9157 23bd ebc3 42be 188f fa3e cc2a d23e
00000020: c7e3 223f f0c4 3abe f495 99be 3b00 b83e
00000030: f7b7 91bc 21be 69be 66f3 cd3e 93aa 49be
00000040: f510 31be f9f5 48be b13f dc3e fd52 1fbe
00000050: ed04 b03e 9d34 30be 5392 6bbe fe8d 933e
00000060: 972d 3abe 6e2a 813e 5b0c 21be 8f6e 2fbe
00000070: 2aad 3abe 2123 32be d0a8 203f eebb 36be
00000080: f445 953e 6011 6f3e 42b3 b03e 6ebd 803e
00000090: a525 57be 2ad2 463f f150 37be 6e11 2bbe
000000a0: 8809 99be ede6 ad3e 1f76 62be 7135 05bd
000000b0: 5b4d 233c d156 8f3a 3a69 973e 66f3 2bbe
000000c0: f799 29be 2ac4 023f 16ab 2cbe 04c5 ab3e
000000d0: a4aa b63e e675 34be 18c6 20be d33b 34be
000000e0: c9ca 1ebe 09f1 983e 1645 553f 6cfd 5bbe
000000f0: 11be 1e3f f805 7a3c 8bde 3bbe bfd0 aa3e
00000100: b076 48be d0ca 5b3d 0868 21be 40e1 56be
00000110: 4f57 40be d1df ef3e 9e59 dc3e 17d0 2abe
00000120: 59f5 58be ab2b 5cbe 12a4 36be 5ffa 393f
00000130: a450 38be f268 ea3e 19e3 39be a5cd 02bb
00000140: 7bc6 b13e 2a79 29be 42da 8d3e d64f 34be
00000150: fa35 ea3e 65a7 eaba c31a b03e f10e 983e
00000160: b094 3ebe 485f a03e 1c31 b83e 65a9 1e3f
00000170: 88b2 0d3f c04f e13e a09f e43e b695 b43e
00000180: 067d 99be fcef 58be d0f3 1fbe c7f2 c93e
00000190: 148c 50be fb7b eb3e fdda 45be 08b9 38be
000001a0: 6641 84be ebd6 4bbe 20a9 b33e 4d87 913e
000001b0: 8681 47be d351 063f 4671 e13e 8977 3fbe
000001c0: f2f0 37be 6b57 2bbe 77d1 9b3e 0fd1 ca3e
000001d0: 7dfe 2dbe 65b2 ec3e 7f67 48be e857 21be
000001e0: 5d7f 27be cea1 2dbe 05b3 1cbe a3d6 40be
000001f0: eabb 793c 3ee3 743e fb6a ae3c 973f a53e
00000200: 7790 a73e 54df 29be 1730 42be 1989 163f
00000210: a0eb 41be 8387 863e d877 963e 0e4a 543f
00000220: 0b6f aebe cd2a 3a3f fa02 2abe 40ee ee3e
00000230: 8983 b73e 66f0 51be 0216 aa3e 7f9b 883e
00000240: 58aa 3bbc a314 a03e e3f4 3fbe 34de ef3e
00000250: 5658 43be 0bc5 51be 1eab 57be c9ee 43be
00000260: 2b4b a83e ac55 8e3e 63b5 63be 8f22 32be
00000270: baf5 88be e06a 57be a9e6 19be 822a 9f3e
00000280: 43f5 fb3e 9963 ba3e 2126 7e3e 8197 463f
00000290: 5c7f 1d3f 05c4 54be b677 8c3e 9f5c 993e
000002a0: 0777 46be 9a54 2cbe 5c34 46be 2cee b0be
000002b0: 297f 963e 002b 813e bdb0 693d de61 4dbe
000002c0: 4ec4 3fbe 1e68 90be acf1 49be 2939 b53e
000002d0: 8c73 1cbe df2b 643c 0a4b bd3e 8b86 723a
000002e0: 5edf af3e 70ea 633e fc72 043f dcf8 dd3e
000002f0: 9aaf 4dbe 69f3 bf3e c806 5cbe 3abc fc3e
00000300: a7ce 2cbe a01a a03e b320 39be d58e 22be
00000310: aa5f b33e 5e54 a93e 5712 093d dd5e bf3e
00000320: 59b2 54be 083d 963e 900b 15bf fceb 48be
00000330: e220 3f3d 87d8 39be 04e8 64be 1ae4 31be
00000340: 4c63 be3e a242 a83e 123d a93e 517f 24bf
00000350: 7687 b8bc 8c8a 40be aecd 073f 3176 4ebe
00000360: 6051 713e 33a4 9e3e c7aa 973e d9e1 59be
00000370: 3758 e9be 4c67 31be 864d a03e f1e2 453f
00000380: 459f 903e a1f9 f53e 04be b03e 8156 60be
00000390: f144 d83e 037e 0bbf f8ac 2dbe 98e4 34be
000003a0: dcbf 41be a00c 51be f4ca e33e e2cf 9f3e
000003b0: 5cd0 56be 6030 47be 325f 893e a5db 903e
000003c0: 63e0 f13e 19e0 21be 269d 50be 2333 c33e
000003d0: b2b4 51be 2845 9abb c09a 1f3f f0a6 b93e
000003e0: a00c 12be 4ebd 64be 9fa9 913e a95c 32be
000003f0: 964a 43be ae2d cf3e 3598 9dbe 3633 9a3e

norm.weight f4 [26]
1.0729071 1.0751446 1.0532442 1.0758443 1.0811995 1.0312252 1.0826733 1.0651433
1.1215653 1.0681399 1.1199524 1.0616786 1.0679873 1.092171 1.1219246 1.1037561
1.0958265 1.0702492 1.0480388 1.0948635 1.0881252 1.0777146 1.1152551 1.0839028
1.5409185 1.233702
00000000: 0555 893f 579e 893f b5d0 863f 44b5 893f
00000010: bf64 8a3f 30ff 833f 0a95 8a3f 9e56 883f
00000020: 748f 8f3f cfb8 883f 9a5a 8f3f 16e5 873f
00000030: cfb3 883f 42cc 8b3f 3a9b 8f3f e147 8d3f
00000040: 0b44 8c3f edfd 883f 2326 863f 7d24 8c3f
00000050: b047 8b3f 8df2 893f aec0 8e3f 54bd 8a3f
00000060: d13c c53f f2e9 9d3f

norm.bias f4 [26]
0.26393104 0.20299551 0.19538915 0.17711602 0.2715481 0.23546812 0.20301914 0.054508127
0.08699739 0.010984722 0.18655275 0.15899433 0.1770845 0.14144598 0.13939509 0.13286874
-0.0024138584 0.1108875 0.1759518 0.25323287 0.19400863 0.21136959 0.22238931 0.22882447
-0.015925206 -0.10386139
00000000: f821 873e 0ede 4f3e 1814 483e e75d 353e
00000010: 5a08 8b3e 8e1e 713e 40e4 4f3e ea43 5f3d
00000020: b02b b23d 43f9 333c af07 3f3e 69cf 223e
00000030: a455 353e 37d7 103e 96bd 0e3e be0e 083e
00000040: d331 1ebb fc18 e33d b52c 343e bda7 813e
00000050: 33aa 463e 4571 583e 06ba 633e f650 6a3e
00000060: 9475 82bc 48b5 d4bd

norm.running_mean f4 [26]
1.4105375 1.4267777 1.4776505 1.586446 1.6846371 1.7934657 1.9253505 2.0630736
2.1850536 2.2817247 2.3180726 2.3578727 2.3710442 2.3184762 2.2687411 2.1698968
2.0244915 1.8929605 1.7547663 1.6503919 1.568896 1.4901983 1.4259963 1.4097862
0.016341668 1.6993548
00000000: 7e8c b43f a7a0 b63f a723 bd3f aa10 cb3f
00000010: 30a2 d73f 4990 e53f e371 f63f 6609 0440
00000020: ebd7 0b40 c707 1240 4d5b 1440 63e7 1640
00000030: 30bf 1740 ea61 1440 0e33 1140 97df 0a40
00000040: 4591 0140 884c f23f 2f9c e03f 0b40 d33f
00000050: 96d1 c83f d1be be3f 0c87 b63f e073 b43f
00000060: f6de 853c 7584 d93f

norm.running_var f4 [26]
0.45659718 0.47712666 0.53322935 0.6544313 0.70918983 0.7122077 0.7305913 0.71116877
0.6377505 0.5838531 0.55828065 0.5747822 0.58219665 0.61579657 0.67098016 0.72178876
0.72248095 0.70931995 0.6379908 0.59363663 0.552973 0.49545678 0.44283375 0.45533103
4.0492983 0.46794763
00000000: 1bc7 e93e f249 f43e b881 083f cf88 273f
00000010: 778d 353f 3e53 363f 0808 3b3f 280f 363f
00000020: 9e43 233f 6677 153f 7beb 0e3f ed24 133f
00000030: d70a 153f d8a4 1d3f 5bc5 2b3f 26c7 383f
00000040: 83f4 383f fe95 353f 5d53 233f 92f8 173f
00000050: a38f 0d3f 83ac fd3e 1bbb e23e 2621 e93e
00000060: da93 8140 d596 ef3e

norm_a.weight f4 [2]
1.9784651 1.079678
00000000: 583e fd3f e432 8a3f

norm_a.bias f4 [2]
0.013460734 -0.015891291
00000000: 698a 5c3c 742e 82bc

norm_a.running_mean f4 [2]
0.05809595 0.043544065
00000000: 05f6 6d3d 435b 323d

norm_a.running_var f4 [2]
0.30466786 0.23413292
00000000: 6dfd 9b3e 8ac0 6f3e
