turtlebot3_ddpg/save_model_ddpg/2020_11_29-07_10_23/stage_1_600_critic.pth (torch_old, 586393 bytes, 13 tensors)

fc1.weight f4 [512, 26]
-0.12315223 0.06593329 -0.093869016 0.015004168 0.038607623 0.05756056 -0.10870182 -0.22163296
-0.026709728 -0.06450601 0.17361085 0.2074912 0.013252111 -0.16152908 0.1311434 -0.01382941
-0.15841721 0.11747588 0.041980803 -0.35943148 -0.068151 0.04762541 -0.18121761 0.130414
0.09367151 0.05990034 0.03680788 -0.051862072 -0.16841531 0.039659772 0.09898664 -0.118133694
-0.09249611 -0.11730144 -0.1194452 -0.21982385 -0.21865642 -0.049404126 0.11378759 0.16766125
-0.3688731 0.098586224 -0.20824523 0.024067301 0.067390904 -0.17012261 -0.050498314 -0.027623083
0.17915748 0.18168743 0.085902095 0.19121385 -0.16901451 0.031687085 -0.0082532605 -0.3362239
0.14002235 0.10980372 0.157949 0.121766284 -0.26075363 -0.11973418 -0.10351162 -0.1606047
-0.06452908 -0.16156101 0.027109979 0.2778306 -0.18614082 -0.06480527 -0.11017793 0.07396217
-0.08337622 -0.12465189 -0.15753087 -0.032896787 0.027081482 0.16264564 -0.05524058 -0.18227972
0.13669543 0.08153939 -0.018367479 -0.027495403 -0.2949487 0.24095426 -0.04650986 0.19180445
-0.19768775 0.12734652 -0.2504743 0.25665063 -0.1508836 -0.26394567 -0.12418877 0.009238556
0.16547653 -0.012630007 -0.06610484 0.23759294 -0.010075273 -0.100096956 0.06281767 0.13121207
-0.14191997 0.026799558 -0.1632439 0.16155489 0.1002756 -0.06364078 -0.0741646 -0.019053778
-0.03938216 0.005533893 -0.02489216 -0.03282496 -0.06404935 0.19175288 -0.21161239 0.0962784
-0.007220956 -0.012310689 0.06651551 -0.038381085 -0.21720862 -0.1029759 0.059752814 -0.16947274
-0.44568405 -0.097529 -0.12880294 0.16337243 -0.02133157 0.12424941 0.0927235 0.19434899
0.24325475 -0.13100691 0.059715856 -0.004797944 0.018462839 0.12085811 -0.13178292 -0.27123788
-0.089095265 0.08306314 0.118754975 0.036012832 -0.13472012 -0.24170132 -0.17384622 0.20313562
-0.21814601 0.054949194 -0.38980594 -0.17739125 -0.013147779 -0.040049117 -0.020002427 0.16572073
0.21050541 0.15859815 0.07188078 0.1404712 0.10471568 -0.014651836 0.17024128 0.08024675
0.18879457 -0.12534904 -0.23063332 0.033966072 0.13807958 0.043184366 0.22227354 -0.10950741
0.18162113 -0.1412262 -0.060796797 -0.041865055 0.1186225 -0.009413336 -0.22709265 -0.024898287
-0.16348805 0.086295374 0.022301104 0.033210546 0.09796184 0.029071033 0.18855697 -0.034462944
0.19720584 0.08849511 0.077054314 0.039110776 -0.13553724 -0.19356751 -0.21640505 0.11244428
-0.36168832 -0.2385234 0.16967978 0.09727287 0.08870654 -0.101248346 -0.059560973 0.25065896
0.20770788 -0.08359932 0.06130362 -0.093107074 0.020776572 0.04187707 0.0637914 0.05653961
-0.009527775 0.19211692 0.02443781 -0.022905124 -0.018758165 0.06687148 -0.09023655 0.109862015
0.089268625 0.047389187 -0.081150815 0.15053096 0.18163045 -0.24670312 0.069466636 -0.10342808
0.2801397 0.23997472 -0.08087706 -0.17377497 -0.008898996 0.21286868 -0.021114303 0.12029232
0.16108607 0.21090136 -0.16722055 -0.22083111 -0.064714685 0.021861423 -0.18036853 -0.07779832
0.059001643 0.09976089 -0.09587648 -0.13265304 0.01883877 -0.19521408 -0.06793901 -0.20502314
00000000: 3d37 fcbd 0808 873d 663e c0bd 0bd4 753c
00000010: 0723 1e3d 9fc4 6b3d 0f9f debd c0f3 62be
00000020: 5cce dabc ba1b 84bd 0bc7 313e 9378 543e
00000030: 621f 593c e167 25be 754a 063e c094 62bc
00000040: 1f38 22be 3297 f03d 10f4 2b3d 6707 b8be
00000050: c092 8bbd dd12 433d 1c91 39be 3f8b 053e
00000060: d9d6 bf3d 0f5a 753d dcc3 163d 536d 54bd
00000070: 1075 2cbe 4972 223d 82b9 ca3d 14f0 f1bd
00000080: 9a6e bdbd bd3b f0bd af9f f4bd 8119 61be
00000090: 78e7 5fbe fb5b 4abd 7809 e93d 64af 2b3e
000000a0: efdc bcbe 93e7 c93d 3d3e 55be ca28 c53c
000000b0: 3e04 8a3d 9f34 2ebe 52d7 4ebd ce49 e2bc
000000c0: 0f75 373e 450c 3a3e 70ed af3d 90cd 433e
000000d0: 2412 2dbe 51ca 013d af38 07bc 8a25 acbe
000000e0: 0562 0f3e c6e0 e03d 62bd 213e 9a60 f93d
000000f0: 8081 85be 3237 f5bd e6fd d3bd 8f75 24be
00000100: d327 84bd 4070 25be bf15 de3c d03f 8e3e
00000110: b39b 3ebe a0b8 84bd f7a4 e1bd 7a79 973d
00000120: 27c1 aabd 7d49 ffbd c64f 21be c8be 06bd
00000130: fcd9 dd3c 948c 263e f243 62bd 89a7 3abe
00000140: e3f9 0b3e 20fe a63d 6577 96bc 0a3e e1bc
00000150: 8403 97be b7bc 763e 1f81 3ebd 6368 443e
00000160: a86e 4abe 2067 023e 2b3e 80be b667 833e
00000170: 3b81 1abe e323 87be af56 febd 505d 173c
00000180: ae72 293e 17ee 4ebc f961 87bd 904b 733e
00000190: c212 25bc a2ff ccbd 8da6 803d 755c 063e
000001a0: 7853 11be bf8a db3c 6929 27be a56e 253e
000001b0: 4b5d cd3d 1956 82bd 9ce3 97bd ab16 9cbc
000001c0: 304f 21bd a955 b53b a5ea cbbc 7773 06bd
000001d0: 4e2c 83bd de5a 443e ebb0 58be 9c2d c53d
000001e0: c59d ecbb c6b2 49bc 4939 883d 7c35 1dbd
000001f0: f06b 5ebe 07e5 d2bd 5ebf 743d 438a 2dbe
00000200: b330 e4be 49bd c7bd ebe4 03be 1a4b 273e
00000210: 8bbf aebc 7a76 fe3d d2e5 bd3d 6c03 473e
00000220: c617 793e ad26 06be 9d98 743d 1238 9dbb
00000230: 613f 973c 7584 f73d 1af2 06be b1df 8abe
00000240: 9477 b6bd 021d aa3d cf35 f33d 3182 133d
00000250: 12f4 09be 8d80 77be be04 32be c902 503e
00000260: ab61 5fbe 6812 613d a594 c7be 0da6 35be
00000270: c869 57bc 8b0a 24bd 21dc a3bc b2b2 293e
00000280: bb8e 573e 8e67 223e 3b36 933d afd7 0f3e
00000290: 2d75 d63d 410e 70bc bb53 2e3e 6858 a43d
000002a0: 5d53 413e 805b 00be 242b 6cbe 0220 0b3d
000002b0: bc64 0d3e 17e2 303d ad9b 633e 6c45 e0bd
000002c0: e4fa 393e 9a9d 10be 1006 79bd b17a 2bbd
000002d0: 5af0 f23d 653a 1abc fa8a 68be 7ef7 cbbc
000002e0: 6969 27be a1bb b03d ceb0 b63c c807 083d
000002f0: 38a0 c83d 6026 ee3c 1415 413e 0429 0dbd
00000300: 54f0 493e ed3c b53d a7ce 9d3d 9f32 203d
00000310: 46ca 0abe 9036 46be 4999 5dbe 3049 e63d
00000320: 362f b9be 7a3f 74be 89c0 2d3e 0037 c73d
00000330: c6ab b53d 4b5b cfbd 35f6 73bd 5f56 803e
00000340: 60b1 543e 1f36 abbd 8119 7b3d ecae bebd
00000350: a133 aa3c 4a87 2b3d 11a5 823d 1496 673d
00000360: 631a 1cbc 4cba 443e cd31 c83c 87a3 bbbc
00000370: b9aa 99bc eaf3 883d f1cd b8bd 56ff e03d
00000380: 78d2 b63d 2a1b 423d 6632 a6bd ca24 1a3e
00000390: 55fd 393e be9f 7cbe 8644 8e3d 1ad2 d3bd
000003a0: 796e 8f3e efbb 753e dfa2 a5bd 11f2 31be
000003b0: 18cd 11bc 3ffa 593e e7f7 acbc d25b f63d
000003c0: bff3 243e 87f6 573e dd3b 2bbe 8d21 62be
000003d0: 2289 84bd ba16 b33c 87b2 38be ba54 9fbd
000003e0: b5ab 713d 704f cc3d e35a c4bd 33d6 07be
000003f0: c453 9a3c 33e6 47be 9c23 8bbd 96f1 51be

fc1.bias f4 [512]
0.25516197 0.27852294 0.13341938 0.07409221 0.049026467 -0.17129242 -0.23629259 -0.21334705
0.03905644 0.06292344 0.19590172 0.19126876 0.1037528 0.010467004 0.31258056 0.19884786
-0.012973146 0.17109263 -0.045312762 -0.18613324 -0.17652814 -0.028362295 -0.098062634 0.10993895
0.040421676 -0.0947856 -0.057797927 0.037297893 0.2393433 0.36125344 0.23506582 -0.02438444
0.08550388 0.19653188 0.10111552 -0.038686637 -0.11982025 0.118460454 0.101537496 -0.1268169
-0.034478284 0.26764345 0.27566913 -0.098151006 -0.22355464 -0.060953874 0.29558337 0.0600173
0.10705094 0.2625558 0.17541388 -0.025276264 0.16849266 0.23621434 0.01867787 -0.10061973
-0.07618064 0.2851918 0.11824827 0.034035485 0.11290687 -0.2025828 0.054931525 0.21021055
-0.04719891 -0.25421113 0.10821234 0.2665746 -0.093808085 0.1667104 0.15262249 -0.098035455
0.26473576 0.1365114 0.26921558 -0.055532213 -0.13106722 -0.028609822 -0.14494093 -0.21550657
0.1730759 0.10197298 -0.24975912 -0.1498651 0.1202068 -0.021551052 -0.066290975 -0.013536745
-0.089776784 -0.34525752 -0.1783698 0.14357282 0.33191782 0.077559926 -0.08085538 -0.0060299584
0.19315787 -0.2307971 0.042332944 0.05520476 0.0972917 -0.23718517 -0.22558095 0.057031337
0.007002263 0.20559874 0.1270284 -0.12287221 0.1742648 -0.074709244 0.16828921 -0.079264425
0.20963937 -0.00493742 -0.011826242 0.06902926 0.1489366 0.2642922 0.19406404 0.3587468
-0.09438317 -0.05750267 -0.07261402 0.112765916 -0.2662073 -0.11431943 0.1583522 0.0098426435
-0.07541629 -0.07769553 0.20076992 -0.104641594 0.0990696 0.10333186 -0.158168 0.2308676
0.12131282 0.0622034 0.27225205 0.22355461 0.36578047 0.09437505 -0.06459665 0.23503593
-0.06428071 -0.13287549 -0.09497068 -0.08298445 0.18209945 -0.10630137 0.10891674 0.12952638
0.1690503 0.30194843 -0.09511503 0.2961779 0.37911433 0.045247287 -0.18507467 0.072239056
0.3605063 0.114054196 0.02321735 0.23827533 0.11205222 -0.19329132 0.24926221 0.16873157
0.19027215 -0.12581559 0.02211333 0.10241436 -0.04196702 0.112957664 0.15825133 0.21713944
0.04951096 0.1661172 -0.21250035 0.028818237 -0.06994038 0.013370617 0.08382962 -0.0010184041
0.25645357 0.08539456 0.08720599 0.13815843 0.34563932 0.015486552 -0.10742249 0.28492233
0.1797308 -0.2839548 -0.17357297 0.09611243 -0.27642396 0.047413837 -0.28495425 -0.00034279493
-0.046019297 0.03628082 0.13686179 -0.028661069 0.21311179 0.18644209 0.05876534 0.08879679
0.12602691 -0.06661206 0.17222576 -0.23772721 0.049530476 -0.16379467 -0.2602374 -0.047964666
0.13189875 0.08614748 0.022589067 -0.31380683 -0.16440481 -0.19860256 0.092594266 -0.12154481
0.043816168 -0.24427752 -0.27407682 0.15347952 0.11183944 0.054531906 0.048903488 -0.022248402
0.18076465 -0.07120724 0.083269835 0.086030886 0.09082894 -0.09933484 -0.20646572 0.25300872
-0.04669147 0.049467426 -0.17584471 -0.11274973 -0.0573661 -0.15892316 0.00084651296 -0.12803744
-0.18204357 -0.22845487 -0.030563092 -0.22696798 -0.20690176 0.11657583 -0.17322335 -0.0023988853
00000000: 97a4 823e 8f9a 8e3e 179f 083e a8bd 973d
00000010: facf 483d 4867 2fbe aff6 71be a677 5abe
00000020: a5f9 1f3d 01de 803d 769a 483e f5db 433e
00000030: 597c d43d cc7d 2b3c 8f0a a03e c69e 4b3e
00000040: 518d 54bc e832 2f3e e099 39bd b699 3ebe
00000050: cbc3 34be 0b58 e8bc 10d5 c8bd ac27 e13d
00000060: 3391 253d f41e c2bd 85bd 6cbd adc5 183d
00000070: 6916 753e 36f6 b83e 18b5 703e e1c1 c7bc
00000080: a91c af3d a73f 493e a715 cf3d e175 1ebd
00000090: 5264 f5bd 659b f23d e4f2 cf3d 4adc 01be
000000a0: 1a39 0dbd 9008 893e 8124 8d3e 6503 c9bd
000000b0: 82eb 64be c5aa 79bd b456 973e b3d4 753d
000000c0: 863d db3d b76d 863e b29f 333e 2b10 cfbc
000000d0: 5789 2c3e 2ce2 713e 5502 993c b811 cebd
000000e0: 9804 9cbd a904 923e 262c f23d cb68 0b3d
000000f0: b83b e73d de71 4fbe e1ff 603d 6f41 573e
00000100: a553 41bd f627 82be 6e9e dd3d 777c 883e
00000110: 741e c0bd 22b6 2a3e 1249 1c3e d0c6 c8bd
00000120: 728b 873e a5c9 0b3e a0d6 893e bf75 63bd
00000130: 7c36 06be 255f eabc 656b 14be c1ad 5cbe
00000140: cf3a 313e 36d7 d03d dbc0 7fbe 3d76 19be
00000150: fc2e f63d d58b b0bc 90c3 87bd 39c9 5dbc
00000160: e4dc b7bd 98c5 b0be 93a6 36be c104 133e
00000170: 22f1 a93e bdd7 9e3d 8197 a5bd f596 c5bb
00000180: 2dcb 453e 1356 6cbe 4f65 2d3d 631e 623d
00000190: df40 c73d abe0 72be b1fe 66be b199 693d
000001a0: 3d73 e53b 7a88 523e bc13 023e 6da4 fbbd
000001b0: 7972 323e 2901 99bd 0254 2c3e 6355 a2bd
000001c0: b4ab 563e 15ca a1bb dbc2 41bc 365f 8d3d
000001d0: d682 183e 4f51 873e b9b8 463e a9ad b73e
000001e0: f74b c1bd eb87 6bbd a9b6 94bd d1f1 e63d
000001f0: 534c 88be 4e20 eabd 1427 223e 0a43 213c
00000200: db73 9abd d61e 9fbd a196 4d3e 554e d6bd
00000210: 01e5 ca3d a79f d33d cbf6 21be 8e68 6c3e
00000220: db72 f83d fec8 7e3d 9f64 8b3e 80eb 643e
00000230: 9447 bb3e b547 c13d 404b 84bd 42ad 703e
00000240: 9ba5 83bd 8310 08be fd7f c2bd c0f3 a9bd
00000250: 4778 3a3e 88b4 d9bd bd0f df3d 90a2 043e
00000260: 861b 2d3e fc98 9a3e abcb c2bd a1a4 973e
00000270: 461b c23e 3855 393d 3784 3dbe 12f2 933d
00000280: 4894 b83e 3f95 e93d 5032 be3c 73fe 733e
00000290: a27b e53d 29ee 45be 983e 7f3e f8c7 2c3e
000002a0: b4d6 423e cdd5 00be 0427 b53c 9fbe d13d
000002b0: 9ce5 2bbd 5956 e73d a30c 223e cd59 5e3e
000002c0: 01cc 4a3d a11a 2a3e b199 59be 3914 ec3c
000002d0: e73c 8fbd 6f10 5b3c ddae ab3d f97b 85ba
000002e0: e24d 833e 58e3 ae3d 0e99 b23d 6779 0d3e
000002f0: a3f7 b03e 4fbb 7d3c 5300 dcbd 57e1 913e
00000300: 5a0b 383e 8662 91be 1dbd 31be 98d6 c43d
00000310: 7187 8dbe 0335 423d 86e5 91be 28b9 b3b9
00000320: bb7e 3cbd 329b 143d 7f25 0c3e 9eca eabc
00000330: fa39 5a3e adea 3e3e edb3 703d 17db b53d
00000340: 330d 013e e76b 88bd f35b 303e c36e 73be
00000350: 78e0 4a3d cab9 27be d63d 85be 9976 44bd
00000360: 7710 073e 176e b03d b50c b93c 4aab a0be
00000370: bc59 28be 785e 4bbe 10a2 bd3d 7cec f8bd
00000380: 9578 333d e323 7abe cc53 8cbe bc29 1d3e
00000390: 140c e53d d95c 5f3d 064f 483d 4842 b6bc
000003a0: 5e1a 393e 1ad5 91bd 6089 aa3d f630 b03d
000003b0: 8604 ba3d 1170 cbbd c06b 53be 5c8a 813e
000003c0: 8e3f 3fbd 5b9e 4a3d a310 34be 55e9 e6bd
000003d0: b7f8 6abd c1bc 22be 86e8 5d3a 3f1c 03be
000003e0: a169 3abe 13f0 69be 735f fabc 4b6a 68be
000003f0: 0ede 53be 4fbf ee3d 7661 31be 9e36 1dbb

fc2.weight f4 [256, 514]
0.0776583 0.052475687 -0.015980545 -0.07099994 0.1214358 0.12160241 0.1025209 -0.12642103
0.11434076 -0.002653629 0.1283278 0.052636743 -0.08756393 0.036511846 0.06922629 0.00069269526
-0.10157922 0.058705486 -0.037429202 0.08614977 0.103945315 -0.21013018 0.2120566 -0.10994921
-0.05230934 0.17437269 0.12555969 0.15183406 0.010034654 0.09523984 0.10225382 -0.13683768
0.08705757 -0.0010266617 0.089855604 -0.15845096 -0.015121987 0.12093415 0.12840182 -0.106298044
-0.10412746 0.11618109 0.10781522 -0.11629439 0.038776103 0.10092457 0.013005194 0.013177316
0.11908008 -0.017927077 -0.18784529 -0.010204218 0.12403486 -0.03248428 -0.026738282 0.021592047
0.087809816 0.16261165 -0.04945245 0.09280114 -0.09789332 -0.117370345 -0.02867451 -0.011968027
0.09333198 0.043053363 0.076231055 0.08997959 0.1353851 -0.1527539 0.013535146 0.028482378
0.119104154 0.10806993 0.023811 -0.035973463 0.11137805 -0.094494395 0.114087634 0.027261768
-0.026319008 0.08770222 0.054291695 -0.045216255 0.02429426 0.042389818 0.0088222185 0.09483159
-0.052788734 0.049168266 0.081540875 -0.07865955 0.044268623 0.0027213541 0.051404756 0.012858797
0.101620376 0.07546863 -0.00935884 -0.040308338 0.11772907 0.043922324 -0.12775658 -0.06432387
-0.0071665933 0.111175835 0.057241324 0.09482887 0.0866147 0.05830324 0.07003544 0.092879206
0.07379937 0.07326314 -0.038973756 0.061937764 0.0647315 0.12550367 0.07743211 0.22832747
0.081833206 0.04062844 -0.006978861 0.08287946 -0.14537722 0.06605398 0.042575244 0.0940148
0.09894547 0.10783972 0.14457698 -0.08531446 -0.022024943 -0.03967482 -0.10288094 0.09317924
0.09493165 0.04467526 -0.14880468 0.09008214 0.15613003 0.06823334 -0.06341844 0.02906026
-0.07777126 -0.05475756 -0.0871936 -0.018356748 0.10454799 0.08743057 -0.0357633 -0.09685881
0.057019547 0.04685927 0.05957824 0.06280853 0.045807403 -0.11006207 -0.060511436 0.032842744
-0.018780425 0.073874086 0.08256999 0.09713405 0.10668646 -0.0050691133 0.09263326 -0.07364816
0.047733027 0.115207545 0.063202284 0.11193983 0.11675569 -0.06520534 0.09503814 -0.17525092
0.10393627 0.06764979 0.04789891 0.09971543 0.014661911 0.103239894 0.13100444 -0.0550946
0.1327995 0.016853636 0.038753945 0.009542124 0.04630542 0.05690815 -0.056058012 -0.0531373
-0.09754297 0.026171967 0.1286175 0.1193441 0.1002319 0.071323425 0.07806629 -0.07257577
-0.011866615 0.044641446 0.05130661 0.092616774 0.08655775 0.1129144 0.107996725 0.066464216
0.10040198 -0.11304364 0.103111014 0.036598805 0.05907931 0.07519003 0.12891765 0.02727048
-0.020279972 0.10412332 0.08783188 -0.11825877 -0.0341291 0.11875438 -0.0039694 0.08812228
-0.024689507 -0.042527914 0.026376056 -0.030974224 0.043607436 0.14733982 0.068421856 -0.02247372
0.048415925 0.10579735 0.1571312 0.06790246 0.12569574 -0.050596617 -0.11880601 0.1625923
0.0781256 0.0472842 0.08065407 0.12357658 0.15115789 -0.107463345 -0.025053859 -0.16775292
-0.103897475 0.041844808 0.035976935 -0.05494778 -0.020621536 0.13098314 0.033048037 0.09546307
00000000: 510b 9f3d bff0 563d a2e9 82bc 6b68 91bd
00000010: 55b3 f83d af0a f93d 7af6 d13d 8474 01be
00000020: 7d2b ea3d 82e8 2dbb 5d68 033e a099 573d
00000030: b854 b3bd 728d 153d 83c6 8d3d fe95 353a
00000040: c408 d0bd 2a75 703d 5d4f 19bd 4a6f b03d
00000050: 48e1 d43d 5e2c 57be 5e25 593e 0d2d e1bd
00000060: 5242 56bd c18e 323e b892 003e 637a 1b3e
00000070: 6468 243c 1b0d c33d 736a d13d 2d1f 0cbe
00000080: 3d4b b23d 0d91 86ba 3706 b83d f840 22be
00000090: 36c2 77bc 53ac f73d c47b 033e cab2 d9bd
000000a0: c740 d5bd 5af0 ed3d 3ace dc3d c12b eebd
000000b0: b1d3 1e3d 8ab1 ce3d bd13 553c abe5 573c
000000c0: 42e0 f33d cedb 92bc 845a 40be 982f 27bc
000000d0: fd05 fe3d 3d0e 05bd 3e0a dbbc cee1 b03c
000000e0: a2d5 b33d ab83 263e a78e 4abd 860e be3d
000000f0: 4b7c c8bd dd5f f0bd cee6 eabc 8b15 44bc
00000100: d624 bf3d b958 303d 071f 9c3d 3847 b83d
00000110: 64a2 0a3e 856b 1cbe 84c2 5d3c e053 e93c
00000120: e1ec f33d c453 dd3d 490f c33c e958 13bd
00000130: 2d1a e43d 4786 c1bd c7a6 e93d 1254 df3c
00000140: f69a d7bc 399d b33d f860 5e3d ae34 39bd
00000150: c204 c73c f2a0 2d3d 118b 103c 1137 c23d
00000160: 0039 58bd aa64 493d e7fe a63d 4218 a1bd
00000170: 0453 353d bf58 323b cb8d 523d b4ad 523c
00000180: 581e d03d 4c8f 9a3d d255 19bc 5b1a 25bd
00000190: f01b f13d e5e7 333d 9fd2 02be 3cbc 83bd
000001a0: bed5 eabb 28b0 e33d e175 6a3d a335 c23d
000001b0: 0c63 b13d 61cf 6e3d be6e 8f3d 7437 be3d
000001c0: 2024 973d fc0a 963d f2a2 1fbd 74b2 7d3d
000001d0: f391 843d 0984 003e ba94 9e3d adce 693e
000001e0: 2b98 a73d 026a 263d eeae e4bb b5bc a93d
000001f0: c4dd 14be 4f47 873d 6163 2e3d d58a c03d
00000200: eca3 ca3d 12db dc3d fd0b 143e 59b9 aebd
00000210: a76d b4bc 1082 22bd 3eb3 d2bd c2d4 be3d
00000220: 866b c23d 68fd 363d 4160 18be fc7c b83d
00000230: 8de0 1f3e ecbd 8b3d 87e1 81bd c80f ee3c
00000240: 8a46 9fbd 7749 60bd 8f92 b2bd e460 96bc
00000250: 421d d63d cc0e b33d 8a7c 12bd e95d c6bd
00000260: 548d 693d 82ef 3f3d 5008 743d c2a1 803d
00000270: 8ba0 3b3d 3968 e1bd d7da 77bd 1d86 063d
00000280: 68d9 99bc 4c4b 973d 741a a93d 38ee c63d
00000290: 6e7e da3d ce1a a6bb 82b6 bd3d d9d4 96bd
000002a0: b583 433d eff1 eb3d 3370 813d b640 e53d
000002b0: 9b1d ef3d 618a 85bd 5ba3 c23d fa74 33be
000002c0: 8adc d43d f98b 8a3d a631 443d 9a37 cc3d
000002d0: 8338 703c 706f d33d 0726 063e e0aa 61bd
000002e0: 98fc 073e a310 8a3c 75bc 1e3d 9256 1c3c
000002f0: c1aa 3d3d 8518 693d 169d 65bd 7fa6 59bd
00000300: 9cc4 c7bd 9866 d63c 4eb4 033e ae6a f43d
00000310: 6246 cd3d 0412 923d 38e1 9f3d 9ba2 94bd
00000320: 316c 42bc f3d9 363d e126 523d ddad bd3d
00000330: 3145 b13d aa3f e73d 632d dd3d 641e 883d
00000340: 8e9f cd3d 6d83 e7bd de2b d33d a1e8 153d
00000350: 26fd 713d 3bfd 993d fd02 043e 5766 df3c
00000360: 2f22 a6bc 9b3e d53d 33e1 b33d a731 f2bd
00000370: f5ca 0bbd 7f35 f33d be11 82bb 7479 b43d
00000380: a641 cabc c031 2ebd 9912 d83c a8bd fdbc
00000390: b69d 323d 40e0 163e c220 8c3d cf1a b8bc
000003a0: c74f 463d 48ac d83d 00e7 203e 7210 8b3d
000003b0: 62b6 003e 663e 4fbd 9150 f3bd 997e 263e
000003c0: 5100 a03d 14ad 413d f62d a53d b815 fd3d
000003d0: 22c9 1a3e be15 dcbd c03d cdbc 6cc7 2bbe
000003e0: 33c8 d4bd 7665 2b3d 8d5c 133d ec10 61bd
000003f0: 7fee a8bc 7220 063e 615d 073d 2482 c33d

fc2.bias f4 [256]
0.10699202 0.09816894 -0.03194991 0.1484293 0.086385 0.114868715 0.084219344 -0.0224773
0.010681826 0.111031875 -0.0050003994 0.07497298 0.076306336 -0.03468106 0.05055898 0.13573347
-0.064634405 0.06724015 -0.018983988 0.13146836 0.15424152 -0.018752867 0.06459544 -0.055171214
0.15768252 0.08727454 0.07705897 0.07863793 0.10326768 0.13912739 0.01365765 0.16092621
-0.051663455 0.067646384 0.054117776 0.087986946 0.116188854 0.16273601 0.13254003 0.1547502
0.11900777 0.08674745 0.14236161 0.056108084 0.021379586 0.039334398 -0.00071629684 0.09490885
0.14424817 0.108784124 0.16205032 0.057685774 -0.091751106 0.14663982 0.08347344 0.11115114
0.09475875 0.084136225 0.027700411 0.104540944 -0.025875716 0.099293634 0.1330452 -0.007749995
0.125422 0.04104221 0.10362527 -0.025470415 -0.028184226 0.031049963 -0.008905991 0.14178619
0.10496025 -0.053537566 -0.008163262 -0.011172696 0.09072545 -0.063586526 0.0886762 0.03773734
-0.09368116 0.14621337 0.030283393 0.10906041 -0.013226989 0.12797625 0.06936665 0.118742965
0.0746571 0.05996206 0.16205767 -0.07259607 -0.016409148 0.057791833 0.014711202 0.12794544
0.13230772 0.10217194 0.08755682 0.011377647 0.14763258 0.008346104 -0.053609245 0.111786805
0.06455986 0.045337323 -0.05030023 0.038349137 0.08332823 -0.044993464 -0.005623698 0.0324069
0.16167031 0.1638463 0.15648104 0.10074093 0.016429583 0.07496587 0.16295758 0.09504091
0.073091745 0.13134636 -0.08331117 0.039350234 0.0250546 -0.009361343 0.020055262 0.094754815
0.14307041 -0.04516916 0.09667388 -0.034390997 0.10322425 0.15372096 0.014686797 -0.04064698
0.16347426 0.028439565 0.12189242 0.16016988 0.050755527 0.05263666 -0.043607827 -0.04145066
-0.0049599987 -0.017396796 0.022114703 -0.0071087354 0.12533237 0.06687644 0.07057177 0.05978631
0.109403424 -0.057041258 0.11419258 0.055174123 0.09567379 0.0849737 0.018887088 -0.021928335
0.01259666 -0.06027405 0.15748546 -0.057787742 -0.033183306 0.14494976 -0.046529375 -0.068171345
0.029365662 0.1661168 0.16520242 -0.05876303 0.086749256 -0.077133596 0.10344856 0.095476806
0.0929711 0.08147581 0.084581956 -0.05994397 0.11500808 -0.04554537 0.036260184 0.0069217817
0.096129596 -0.08288837 0.08942337 -0.09569714 0.107559934 -0.015027306 0.01781514 0.13654846
0.092568226 0.13905297 0.083781056 -0.0642198 0.13252953 -0.0048696683 -0.019511946 0.0090448605
0.11639103 0.0018071199 -0.077306606 0.1204287 0.053643476 0.08981556 0.14583412 0.1229549
-0.12589681 0.11086818 -0.039280064 0.108242005 -0.045155983 0.11726362 0.06733786 0.15669495
0.04833072 0.040747155 0.09427153 0.16388123 0.099576205 0.11002215 -0.094219 0.0055898638
-0.001212555 -0.052491315 -0.05634912 0.07444917 -0.032936092 0.10137571 0.068796724 0.13912576
0.07649824 0.039787594 -0.05491007 0.08956304 0.033556487 -0.022127392 0.03454578 -0.025399301
-0.07277785 0.13821825 0.13611042 0.015547776 0.1636589 0.15760003 0.062379155 0.0655625
-0.021243367 0.07920702 -0.038323484 0.106172286 0.064415105 0.153673 -0.06916776 -0.06795823
00000000: a21e db3d cc0c c93d e9dd 02bd dafd 173e
00000010: 9eea b03d 4a40 eb3d 317b ac3d 5122 b8bc
00000020: d302 2f3c ae64 e33d 64da a3bb 6f8b 993d
00000030: 7f46 9c3d ba0d 0ebd ef16 4f3d b7fd 0a3e
00000040: 0b5f 84bd 34b5 893d 4f84 9bbc a49f 063e
00000050: 7df1 1d3e 9d9f 99bc 9d4a 843d 36fb 61bd
00000060: 8777 213e febc b23d 18d1 9d3d ec0c a13d
00000070: 017e d33d 6977 0e3e 56c4 5f3c d7c9 243e
00000080: 0f9d 53bd 308a 8a3d 9aaa 5d3d 8032 b43d
00000090: 6cf4 ed3d 45a4 263e 93b8 073e d676 1e3e
000000a0: 59ba f33d a6a8 b13d 3ec7 113e 97d1 653d
000000b0: 3e24 af3c 1b1d 213d dec5 3bba 925f c23d
000000c0: cbb5 133e 36ca de3d 85f0 253e eb47 6c3d
000000d0: 01e8 bbbd c028 163e 1ff4 aa3d 35a3 e33d
000000e0: e010 c23d 9d4f ac3d f9eb e23c 9019 d63d
000000f0: 4ff9 d3bc 765a cb3d 003d 083e acf3 fdbb
00000100: a06e 003e e01b 283d 7c39 d43d 55a7 d0bc
00000110: 9be2 e6bc 7e5c fe3c 6fea 11bc 6630 113e
00000120: 66f5 d63d 354a 5bbd 34bf 05bc af0d 37bc
00000130: 44ce b93d a739 82bd de9b b53d 7892 1a3d
00000140: e8db bfbd f5b8 153e e114 f83c 105b df3d
00000150: 03b6 58bc 350c 033e 1a10 8e3d 832f f33d
00000160: d2e5 983d c79a 753d 72f2 253e 40ad 94bd
00000170: 7a6c 86bc 21b7 6c3d 4107 713c 2104 033e
00000180: ad7b 073e 863f d13d fd50 b33d 4f69 3a3c
00000190: ff2c 173e 19be 083c 5e95 5bbd 7bf0 e43d
000001a0: f637 843d a1b3 393d 9d07 4ebd fc13 1d3d
000001b0: fea7 aa3d 114b 38bd ff46 b8bb 19bd 043d
000001c0: e78c 253e 53c7 273e 913c 203e 4351 ce3d
000001d0: 5597 863c b587 993d 5ade 263e cfa4 c23d
000001e0: 20b1 953d a97f 063e 0c9f aabd b62d 213d
000001f0: 4e3f cd3c 5260 19bc ef4a a43c d00e c23d
00000200: 0d81 123e 4c03 39bd f5fc c53d 93dd 0cbd
00000210: 3c67 d33d 0769 1d3e e4a0 703c 737d 26bd
00000220: cc65 273e 17fa e83c bca2 f93d 9303 243e
00000230: 07e5 4f3d 8a99 573d 1f9e 32bd 2bc8 29bd
00000240: 7c87 a2bb ba83 8ebc e529 b53c 65f0 e8bb
00000250: 2157 003e 84f6 883d ef87 903d 7de2 743d
00000260: e70e e03d 18a4 69bd cddd e93d 43fe 613d
00000270: 9ff0 c33d b106 ae3d 18b9 9a3c 0da3 b3bc
00000280: 3962 4e3c ece1 76bd de43 213e d7b2 6cbd
00000290: 38eb 07bd b66d 143e 9695 3ebd 6b9d 8bbd
000002a0: 4290 f03c 861a 2a3e d32a 293e 81b1 70bd
000002b0: 98a9 b13d 38f8 9dbd d7dc d33d 5889 c33d
000002c0: a267 be3d cadc a63d 4e39 ad3d cf87 75bd
000002d0: 5b89 eb3d c88d 3abd 8f85 143d 1dd0 e23b
000002e0: 98df c43d 61c1 a9bd 9a23 b73d ddfc c3bd
000002f0: 6248 dc3d 1735 76bc 0ef1 913c 5cd3 0b3e
00000300: 6994 bd3d e763 0e3e 6795 ab3d ac85 83bd
00000310: d2b5 073e bd91 9fbb 84d7 9fbc e530 143c
00000320: 6c5e ee3d e2dc ec3a ed52 9ebd 52a3 f63d
00000330: 43b9 5b3d 38f1 b73d 8a55 153e c7cf fb3d
00000340: 18eb 00be db0e e33d 22e4 20bd fcad dd3d
00000350: 7bf5 38bd e927 f03d 6fe8 893d a474 203e
00000360: 6ff6 453d 7de6 263d 6f11 c13d 7bd0 273e
00000370: 9cee cb3d 4b53 e13d e4f5 c0bd 2d2b b73b
00000380: 98ee 9eba 2201 57bd 56ce 66bd ce78 983d
00000390: ffe7 06bd 119e cf3d 4ce5 8c3d fc76 0e3e
000003a0: 1cab 9c3d 51f8 223d 62e9 60bd d46c b73d
000003b0: 8772 093d 8144 b5bc e07f 0d3d 3212 d0bc
000003c0: 8e0c 95bd 1689 0d3e 8860 0b3e 19bc 7e3c
000003d0: 3396 273e e761 213e 4981 7f3d a245 863d
000003e0: 9206 aebc 4a37 a23d 16f9 1cbd db70 d93d
000003f0: 11ec 833d 745c 1d3e d4a7 8dbd af2d 8bbd

fc3.weight f4 [1, 256]
-0.19618881 -0.23096427 0.5503531 0.70105946 -0.2172653 -0.21380422 0.5905073 0.41823077
0.7297062 -0.19384332 -0.24024723 0.47689617 -0.2043856 -0.32380006 0.48185304 -0.233843
-0.283979 -0.20479414 0.024076946 -0.1771586 0.4754033 -0.29749656 -0.22827762 0.4863713
-0.21335857 0.5208764 -0.18877852 -0.18609874 -0.18875848 -0.16309859 0.67603093 -0.18613306
-0.2875036 -0.16582713 0.42387426 0.5298193 -0.22153538 0.53552705 -0.20064804 -0.17941672
-0.17983243 0.64660954 -0.21789458 -0.21429212 0.4632254 0.6046157 0.54526854 -0.1870731
-0.1914981 0.6462738 -0.20043862 0.36650163 0.56533855 -0.19842295 -0.18966067 -0.18580975
-0.18460031 0.5138361 0.014531434 -0.21575189 0.53966516 0.5528091 -0.2162946 0.550148
-0.21862048 0.66862047 -0.17981093 -0.2908927 -0.32941648 0.5902752 0.50894284 -0.17389664
-0.1998835 -0.30356097 -0.39171153 0.4844742 -0.18643619 0.59597045 -0.20319474 0.39560315
0.5591546 -0.19394511 0.3682996 -0.1717058 0.6489075 0.40886474 0.47362787 0.5461916
-0.2038351 0.5287513 0.51686335 0.6012535 0.50926167 0.42557952 0.47321507 0.5397653
0.39380437 -0.22590192 -0.1705633 0.6179944 -0.21493068 0.5838155 -0.32044256 -0.20518373
-0.29467642 -0.21617247 0.5079487 0.45604065 -0.16930568 0.59778625 0.518371 -0.21847005
-0.1814589 -0.17086726 0.66028106 0.62178224 -0.22881874 0.59397763 -0.20132993 -0.18938644
-0.1919208 -0.18559654 -0.2592202 -0.21821752 0.5233218 0.5629459 0.60930884 0.6114047
0.56187946 -0.27847654 -0.19614063 0.4920605 -0.17975846 0.64198375 0.4062804 0.50151944
-0.20543315 0.47983426 -0.17455615 0.53687996 0.5221979 -0.21604459 0.66811436 0.4852112
-0.18415642 0.55991954 -0.20920064 0.039898515 -0.17754333 -0.18318734 -0.21667042 -0.19706394
0.53871393 -0.47351813 -0.20464948 -0.19605744 -0.17505346 -0.21667193 -0.1768653 0.5094302
0.6109908 0.5258327 0.5707282 0.65322024 0.040903945 -0.21495306 0.3968362 0.46713477
-0.22367007 -0.20206818 -0.22785866 -0.36252132 0.5256688 0.64880097 0.65859896 -0.19225919
-0.19899514 -0.191714 -0.18120044 0.5833469 -0.1734172 0.023122175 0.368491 0.47715747
0.67310965 0.5656763 0.745511 0.5459961 -0.22013491 0.040456597 -0.21854036 0.66860837
-0.18851086 0.57898635 -0.1826454 -0.30384338 0.6024974 0.3759518 0.16077022 0.43763715
-0.23153359 0.34504735 -0.39137596 -0.21270134 0.44749802 -0.20034386 -0.2332921 -0.16475214
0.4144585 0.5335011 0.5048278 -0.21219696 -0.3330357 -0.1891574 0.6558663 -0.22393237
0.49958944 0.3199011 0.61108917 -0.22261694 -0.21079804 -0.19385886 0.5476856 0.047042336
0.41691646 0.42658222 0.49222335 -0.20874058 0.73879135 -0.19003722 -0.21714321 -0.19872925
-0.20292829 -0.22212452 0.4095203 0.6194931 -0.18668728 -0.26614797 0.4834444 0.55849504
0.40427598 -0.18064313 -0.2236983 0.48241732 -0.20328926 -0.17234749 0.5455133 0.5925884
-0.24057509 -0.23438068 0.50268626 -0.1974976 -0.21614811 0.57574546 -0.82509226 0.5142145
00000000: b8e5 48be e681 6cbe f1e3 0c3f a278 333f
00000010: cb7a 5ebe 7eef 5abe 7d2b 173f 5822 d63e
00000020: 07ce 3a3f dd7e 46be 5f03 76be bc2b f43e
00000030: 754a 51be 1fc9 a5be 71b5 f63e 8a74 6fbe
00000040: b265 91be 8eb5 51be 043d c53c 1069 35be
00000050: 1068 f33e 7851 98be 9cc1 69be a905 f93e
00000060: ab7a 5abe 2858 053f 284f 41be ab90 3ebe
00000070: e749 41be 5103 27be 5d10 2d3f aa99 3ebe
00000080: ac33 93be 96ce 29be 0c06 d93e 3da2 073f
00000090: 2cda 62be 4d18 093f ae76 4dbe 04b9 37be
000000a0: fe25 38be 3488 253f c21f 5fbe 656f 5bbe
000000b0: e12b ed3e 18c8 1a3f b896 0b3f 1790 3fbe
000000c0: 1418 44be 3372 253f c83f 4dbe 1aa6 bb3e
000000d0: 07ba 103f 632f 4bbe 6836 42be e944 3ebe
000000e0: dd07 3dbe c38a 033f 4015 6e3c 10ee 5cbe
000000f0: 7f27 0a3f e684 0d3f 557c 5dbe 80d6 0c3f
00000100: 0cde 5fbe b62a 2b3f 5b20 38be e3ef 94be
00000110: 47a9 a8be 471c 173f 144a 023f f611 32be
00000120: 43ae 4cbe 586c 9bbe 6a8e c8be 010d f83e
00000130: 21e9 3ebe 8591 183f 4812 50be 7f8c ca3e
00000140: c224 0f3f 8c99 46be c491 bc3e a5d3 2fbe
00000150: cd1e 263f b856 d13e 5a7f f23e 36d3 0b3f
00000160: 26ba 50be 3f5c 073f 2851 043f c0eb 193f
00000170: f95e 023f 8fe5 d93e 3f49 f23e 0f2e 0a3f
00000180: baa0 c93e d552 67be 25a8 2ebe e234 1e3f
00000190: ca16 5cbe ef74 153f 0c11 a4be af1b 52be
000001a0: d4df 96be 515c 5dbe ed08 023f 297e e93e
000001b0: 785e 2dbe 8508 193f f6b3 043f 9db6 5fbe
000001c0: 5dd0 39be d4f7 2ebe 2e08 293f 1f2d 1f3f
000001d0: 764f 6abe eb0e 183f 6f29 4ebe 85ee 41be
000001e0: e386 44be 050d 3ebe 83b8 84be 6a74 5fbe
000001f0: 6bf8 053f 391d 103f aafb 1b3f 0585 1c3f
00000200: 55d7 0f3f 7a94 8ebe 17d9 48be 5bef fb3e
00000210: 9a12 38be 0c59 243f fc03 d03e 9463 003f
00000220: 115d 52be d6ac f53e d9be 32be f770 093f
00000230: c3ae 053f cb3a 5dbe 8b09 2b3f 9a6d f83e
00000240: 8093 3cbe e356 0f3f b138 56be a06c 233d
00000250: ebcd 35be 7695 3bbe dade 5dbe 21cb 49be
00000260: 28e9 093f f870 f2be a28f 51be 48c3 48be
00000270: 3741 33be 3fdf 5dbe 2d1c 35be 056a 023f
00000280: e569 1c3f f99c 063f 3e1b 123f 7139 273f
00000290: e58a 273d a81c 5cbe 1d2e cb3e 4a2c ef3e
000002a0: c409 65be f6ea 4ebe c853 69be 659c b9be
000002b0: 3b92 063f d217 263f f199 283f 98df 44be
000002c0: 62c5 4bbe ad50 44be 9c8c 39be 3956 153f
000002d0: 4794 31be b76a bd3c daaa bc3e fc4d f43e
000002e0: ea50 2c3f 29d0 103f cfd9 3e3f 67c6 0b3f
000002f0: 0c6b 61be d1b5 253d 0bc9 5fbe eb29 2b3f
00000300: fe08 41be 7338 143f 6507 3bbe 5c91 9bbe
00000310: 453d 1a3f c17c c03e f3a0 243e fa11 e03e
00000320: 2417 6dbe 0caa b03e 6e62 c8be 61ce 59be
00000330: 761e e53e f126 4dbe 20e4 6ebe c9b4 28be
00000340: e833 d43e 8793 083f 653c 013f 294a 59be
00000350: a883 aabe 7ab2 41be dbe6 273f 874e 65be
00000360: 30ca ff3e 14ca a33e 5770 1c3f b2f5 63be
00000370: 71db 57be f082 46be 2035 0c3f 77af 403d
00000380: 1376 d53e fc68 da3e b304 fc3e 17c0 55be
00000390: 6e21 3d3f 1e99 42be ca5a 5ebe ae7f 4bbe
000003a0: 6fcc 4fbe 9c74 63be a5ac d13e 1a97 1e3f
000003b0: f32a 3fbe 8c44 88be 0686 f73e 88f9 0e3f
000003c0: 43fd ce3e 83fa 38be 2b11 65be 67ff f63e
000003d0: 0f2b 50be dc7b 30be c2a6 0b3f e0b3 173f
000003e0: 5159 76be 7d01 70be 0cb0 003f d03c 4abe
000003f0: ee55 5dbe 0e64 133f 3f39 53bf 90a3 033f

norm.weight f4 [26]
1.0799953 1.1190019 1.1516964 1.2182928 1.1503856 1.1554744 1.183195 1.1660427
1.3248367 1.2700858 1.2486494 1.2317915 1.1784223 1.229525 1.334132 1.2715844
1.2549392 1.1828352 1.1880982 1.1089501 1.2051394 1.0993187 1.0608579 1.0901574
1.6149073 1.1377884
00000000: 493d 8a3f 743b 8f3f ca6a 933f 05f1 9b3f
00000010: d63f 933f 96e6 933f ef72 973f e340 953f
00000020: 4094 a93f 2c92 a23f bed3 9f3f 58ab 9d3f
00000030: 8bd6 963f 1361 9d3f d6c4 aa3f 47c3 a23f
00000040: d9a1 a03f 2567 973f 9a13 983f 14f2 8d3f
00000050: 0242 9a3f 7ab6 8c3f 31ca 873f 478a 8b3f
00000060: 48b5 ce3f 0da3 913f

norm.bias f4 [26]
0.07425336 0.09662615 -0.08172676 -0.033123154 -0.031440172 0.013607706 0.0244512 0.038189482
-0.0016113374 0.129231 -0.011870136 -0.099005856 0.14308435 0.048934422 0.04137655 -0.09970158
-0.108158015 -0.019703673 -0.044615295 0.0016667161 0.029765733 0.012959658 0.064243466 0.0063514346
-0.1140463 0.2024762
00000000: 2512 983d eee3 c53d 5c60 a7bd 25ac 07bd
00000010: 69c7 00bd dbf2 5e3c e24d c83c 936c 1c3d
00000020: 8333 d3ba 2255 043e f57a 42bc 95c3 cabd
00000030: b484 123e 766f 483d 757a 293d 5830 ccbd
00000040: f381 ddbd 9969 a1bc 87be 36bd b675 da3a
00000050: 44d7 f33c bf54 543c 1492 833d b21f d03b
00000060: 1b91 e9bd ec55 4f3e

norm.running_mean f4 [26]
1.4138997 1.4475878 1.4504632 1.3670951 1.485166 1.5650209 1.6447397 1.6957214
1.6755102 1.7896525 1.8973887 1.9174892 1.9124178 1.8998752 1.8208673 1.7383255
1.7041466 1.6410874 1.5886952 1.5352719 1.407485 1.3665253 1.4286261 1.4119875
-0.4211757 1.6979451
00000000: aafa b43f 8f4a b93f c7a8 b93f f9fc ae3f
00000010: eb19 be3f 9b52 c83f d586 d23f 660d d93f
00000020: 1e77 d63f 5513 e53f a2dd f23f 4970 f53f
00000030: 1bca f43f 1c2f f33f 2e12 e93f 7381 de3f
00000040: 7a21 da3f 270f d23f 5d5a cb3f ca83 c43f
00000050: 7828 b43f 4dea ae3f 38dd b63f 02bc b43f
00000060: 57a4 d7be 4456 d93f

norm.running_var f4 [26]
0.3873546 0.4225589 0.42779544 0.47635156 0.48557898 0.50572157 0.5088593 0.5528132
0.6528196 0.6289139 0.5739149 0.5361914 0.56963867 0.5687522 0.59564096 0.5788906
0.5412261 0.562988 0.55682534 0.5741427 0.52456516 0.46285146 0.46035448 0.3880703
4.147719 0.35893553
00000000: 5853 c63e a459 d83e 0108 db3e 5ae4 f33e
00000010: cf9d f83e f876 013f 9a44 023f 2a85 0d3f
00000020: 2f1f 273f 8000 213f 16ec 123f d743 093f
00000030: d7d3 113f bf99 113f ed7b 183f 2d32 143f
00000040: cb8d 0a3f fb1f 103f 1b8c 0e3f 04fb 123f
00000050: e749 063f defa ec3e 95b3 eb3e 26b1 c63e
00000060: 1dba 8440 66c6 b73e

norm_a.weight f4 [2]
1.8540711 1.1727962
00000000: 3452 ed3f 301e 963f

norm_a.bias f4 [2]
-0.037316855 0.091337025
00000000: 8fd9 18bd e80e bb3d

norm_a.running_mean f4 [2]
-0.023601236 -0.043383013
00000000: 6157 c1bc 63b2 31bd

norm_a.running_var f4 [2]
0.3442513 0.19558801
00000000: b541 b03e 3948 483e
