turtlebot3_ddpg/save_model_ddpg/2020_11_29-07_10_23/stage_1_4150_critic.pth (torch_old, 586393 bytes, 13 tensors)

fc1.weight f4 [512, 26]
-0.0492471 -0.008889969 -0.060195923 0.023579722 0.048461083 0.1183964 -0.13287993 -0.12021131
-0.123447396 -0.05735146 0.21710947 0.42534307 0.28471887 -0.34583858 0.23824395 -0.11261603
-0.23037033 0.20284031 0.17122354 -0.4931168 -0.13631307 0.046099026 -0.10091524 0.21047936
0.21433309 0.19831571 -0.011386409 0.008118413 -0.07507941 0.11336922 0.05578967 -0.036894914
-0.052591216 -0.042790093 -0.18836688 -0.3292902 -0.304717 -0.016465226 -0.025511732 0.019428197
-0.5682261 -0.22113638 0.076812714 0.12879515 0.062337346 -0.08549178 0.034834206 0.030506557
0.12164625 0.14319672 0.107248746 0.3918678 -0.11357277 -0.06928911 0.009705293 -0.23376076
0.025513114 0.13682066 0.20121303 -0.004355576 -0.43330792 -0.33098444 0.036680214 -0.24975859
0.020167496 -0.045362454 0.00738919 0.45919225 -0.1925304 0.19694193 -0.19516645 0.047807224
-0.1270494 -0.15556467 -0.036688436 0.008686015 0.023445182 0.1519165 0.0058188536 -0.18547651
0.027003832 0.14409125 -0.0025821435 -0.19127455 -0.3627014 0.27264777 -0.1089897 0.33134028
-0.2080224 0.1805091 -0.38566998 0.26096195 -0.25388786 -0.20827577 -0.03974982 0.05150189
0.052649636 0.016167745 -0.21111445 0.16550705 -0.19115068 -0.059899036 -0.041451473 0.022518987
-0.3876308 0.015776483 -0.20981741 0.043766063 -0.03135615 -0.00022036512 -0.10960066 0.04896386
0.057831053 0.10342471 -0.07596783 -0.006567299 -5.4773143e-05 0.05492772 -0.10295827 0.16618052
-0.07275327 -0.13456634 -0.15943043 0.011342881 -0.32031062 0.027660202 0.24403404 -0.4064857
-0.6267047 -0.13980652 -0.10445795 0.06066842 0.04251084 0.2846901 0.29963866 0.38796297
0.26848936 -0.22100899 0.09521241 0.08525335 0.11071484 -0.06791513 0.051309295 -0.1551309
-0.23931852 -0.13603908 -0.1141313 -0.19941054 -0.26289666 -0.113006204 -0.14754285 0.08494801
0.009041438 0.0778147 -0.3032411 -0.281791 -0.02729817 0.14391233 -0.06815687 0.14425793
0.2838726 0.12645443 0.033573158 0.058375992 0.0062996745 -0.021889197 0.33395258 0.0034206328
0.32234704 -0.15759161 -0.24426481 -0.03130614 0.1530835 -0.022763291 0.165899 -0.0886867
0.30144745 -0.30474553 -0.08565951 -0.03349284 0.20050062 -0.0025287329 -0.1439502 -0.16801794
-0.027689079 0.030369276 -0.0013748694 0.011590742 0.13610795 -0.0015086996 0.1572766 0.041950222
0.19529355 0.102270305 -0.018888054 0.09922431 -0.14871351 -0.25188556 -0.108369835 0.45070645
-0.46660703 -0.33831194 0.074199446 0.021830222 0.039576672 -0.019537019 -0.025040952 0.13134839
0.32183507 -0.056667913 0.064445145 0.026622675 -0.001815919 0.08102741 0.009528172 -0.0012695325
-0.004398283 0.0408987 0.1001571 -0.08005215 -0.06043725 0.105325 -0.030510284 -0.0022468849
0.22035627 0.18414947 -0.19469519 0.12803297 0.25025997 -0.4781017 -0.09760596 0.05083848
0.37319228 0.39299843 -0.08478741 -0.4498802 -0.08958726 0.55514276 0.037466522 0.16310424
0.26092333 0.15725604 -0.16545312 -0.31814352 -0.12930618 0.15657471 -0.0050870744 0.05268575
0.034610216 -0.034851406 -0.051083375 -0.12999737 0.023421464 -0.101196215 -0.07653199 -0.14967036
00000000: 54b7 49bd 3ca7 11bc 0090 76bd 432a c13c
00000010: 217f 463d d079 f23d ad11 08be 5931 f6bd
00000020: fdd1 fcbd 5de9 6abd f251 5e3e 91c6 d93e
00000030: acc6 913e c111 b1be 39f6 733e 3ca3 e6bd
00000040: 33e6 6bbe 5fb5 4f3e 3955 2f3e ce79 fcbe
00000050: a795 0bbe 55d2 3c3d a6ac cebd e787 573e
00000060: 227a 5b3e 4613 4b3e 108e 3abc 1803 053c
00000070: 3cc3 99bd 1f2e e83d b683 643d 1f1f 17bd
00000080: e369 57bd aa44 2fbd 3fe3 40be ba98 a8be
00000090: de03 9cbe 15e2 86bc fbfd d0bc e227 9f3c
000000a0: 4477 11bf 9371 62be fc4f 9d3d e0e2 033e
000000b0: 7255 7f3d 5016 afbd 50ae 0e3d e3e8 f93c
000000c0: ab21 f93d 29a2 123e 3ba5 db3d e5a2 c83e
000000d0: d798 e8bd 73e7 8dbd f302 1f3c fb5e 6fbe
000000e0: e100 d13c b71a 0c3e ca0a 4e3e 38b9 8ebb
000000f0: 89da ddbe cb76 a9be fe3d 163d b7c0 7fbe
00000100: 4e36 a53c fbcd 39bd 0521 f23b 3f1b eb3e
00000110: b026 45be 25ab 493e b7d9 47be 82d1 433d
00000120: 3d19 02be 584c 1fbe 9d46 16bd ca4f 0e3c
00000130: 1c10 c03c 0090 1b3e 15ac be3b 8eed 3dbe
00000140: 2437 dd3c a88c 133e 2e39 29bb 7add 43be
00000150: ffb3 b9be 7d98 8b3e fe35 dfbd 6fa5 a93e
00000160: d303 55be 61d7 383e 8976 c5be ce9c 853e
00000170: 97fd 81be 3e46 55be b5d0 22bd a5f3 523d
00000180: 25a7 573d 3872 843c 632e 58be ae7a 293e
00000190: 01bd 43be b158 75bd 05c9 29bd bd79 b83c
000001a0: 8b77 c6be af3d 813c 60da 56be 0b44 333d
000001b0: 4e6f 00bd d011 67b9 5076 e0bd 548e 483d
000001c0: 41e0 6c3d 56d0 d33d 0695 9bbd 7f32 d7bb
000001d0: 37bc 65b8 e4fb 603d c9db d2bd 3a2b 2a3e
000001e0: abff 94bd c2cb 09be bb41 23be 7ed7 393c
000001f0: c1ff a3be a697 e23c 0fe4 793e e51e d0be
00000200: b86f 20bf 7129 0fbe 0dee d5bd 737f 783d
00000210: d91f 2e3d e7c2 913e 3d6a 993e 15a3 c63e
00000220: 7077 893e 2e50 62be b9fe c23d 4f99 ae3d
00000230: 76be e23d 1617 8bbd b229 523d a2da 1ebe
00000240: ea0f 75be d44d 0bbe acbd e9bd 4732 4cbe
00000250: 649a 86be cc6f e7bd 7915 17be 39f9 ad3d
00000260: 8a22 143c 505d 9f3d 6b42 9bbe e946 90be
00000270: 69a0 dfbc c15d 133e d495 8bbd 5ab8 133e
00000280: c057 913e 457d 013e 0284 093d aa1b 6f3d
00000290: 806d ce3b f950 b3bc d5fb aa3e b22c 603b
000002a0: ac0a a53e b25f 21be 8e20 7abe de3a 00bd
000002b0: ecc1 1c3e 157a babc 6de1 293e 5fa1 b5bd
000002c0: 5257 9a3e 9b07 9cbe 416e afbd ca2f 09bd
000002d0: 0950 4d3e 19b9 25bb ae67 13be e50c 2cbe
000002e0: 35d4 e2bc fdc8 f83c f634 b4ba 18e7 3d3c
000002f0: e25f 0b3e 8fbf c5ba 1e0d 213e ffd3 2b3d
00000300: 08fb 473e 1873 d13d 1fbb 9abc 1d36 cb3d
00000310: 5b48 18be 25f7 80be 01f1 ddbd ffc2 e63e
00000320: 1ee7 eebe 3937 adbe e1f5 973d 4bd5 b23c
00000330: 261b 223d 190c a0bc af22 cdbc 3180 063e
00000340: 91c7 a43e 9d1c 68bd d1fb 833d cc17 da3c
00000350: 2104 eeba b3f1 a53d 0d1c 1c3c 7166 a6ba
00000360: 791f 90bb 6585 273d 2a1f cd3d 62f2 a3bd
00000370: 0d8d 77bd a2b4 d73d b4f0 f9bc 7940 13bb
00000380: 13a5 613e ae91 3c3e 2d5e 47be 131b 033e
00000390: 1322 803e bfc9 f4be a2e5 c7bd 033c 503d
000003a0: 0f13 bf3e 1737 c93e 06a5 adbd b356 e6be
000003b0: 8679 b7bd d61d 0e3f 7f76 193d cc04 273e
000003c0: be97 853e ba07 213e 8b6c 29be b5e3 a2be
000003d0: d768 04be 1f55 203e 79b1 a6bb 03cd 573d
000003e0: 71c3 0d3d 59c0 0ebd cd3c 51bd 081e 05be
000003f0: 5fde bf3c f63f cfbd cebc 9cbd 3043 19be

fc1.bias f4 [512]
0.4151091 -0.003202942 -0.017052509 0.28752694 0.054681186 -0.47410125 -0.47904554 -0.26432073
-0.0323189 -0.0999323 0.38894537 0.06654407 0.031724147 -0.042925354 0.5612144 0.07123136
0.09181742 0.21513948 -0.07204327 -0.29397088 -0.26693535 -0.07971975 -0.14720638 0.21460713
-0.08635191 -0.31957138 -0.28006288 0.3274899 0.104580276 0.54148585 0.28419253 -0.15024756
0.1284162 -0.00395442 0.067326546 0.11940251 -0.006754733 -0.06374826 0.1879033 -0.06757101
-0.0049420344 0.06812774 0.12782748 -0.11435592 -0.14903791 -0.19673698 0.076822996 -0.17555752
0.045589298 0.30432582 0.35425013 -0.055133242 0.15230714 0.24605756 0.069523424 -0.19425856
-0.16064239 0.34754732 0.0646064 -0.20123939 0.24000043 -0.43574044 0.2709028 0.19841875
-0.20452638 -0.40642902 0.06172115 0.29714522 -0.13701835 0.22629848 0.3572049 -0.15867631
-0.027542762 0.07148049 -0.06643062 -0.07899689 -0.28008005 0.027165882 -0.109568805 -0.30043325
-0.089727126 0.11390988 -0.5735624 -0.21916673 0.19657518 0.009985057 0.014636766 0.0071773618
-0.2492877 -0.7798921 -0.51269966 0.1990873 0.4846239 0.18637438 -0.17221192 -0.25895554
0.32188502 -0.23277678 0.25466347 0.05893044 -0.16530727 -0.3251177 -0.09219984 0.12102852
-0.02308422 0.17890699 0.11892755 -0.3601074 0.35181016 -0.20694561 0.12781881 -0.22216201
0.30107516 -0.043682314 0.29195765 0.009349625 0.22960196 0.15150987 0.27230927 0.20513448
-0.1900485 -0.29805478 -0.19756876 0.28153232 -0.1142886 -0.360798 0.38441128 -0.11385932
0.01619405 -0.36821735 0.21818575 -0.068522885 0.3773596 0.051651366 -0.048608147 0.34036297
0.19832249 0.047536265 0.31379 0.19187784 0.5189361 -0.24237323 -0.3561194 0.5299086
-0.2905115 -0.12742928 -0.104985625 -0.15977044 0.011079075 -0.1898336 -0.047644127 0.24560186
0.3746355 0.5376164 -0.45296103 0.0046224203 0.414315 -0.011414967 -0.35046884 -0.13519475
0.3460329 0.10979341 -0.075437605 0.598223 0.14079018 -0.30829903 0.036934208 0.37970418
0.1817247 -0.26923597 -0.16828957 0.21107212 -0.067187 0.047151677 0.16819057 0.46470293
0.033950713 0.056110263 -0.36326542 -0.024582662 -0.25232172 0.12237024 0.014673914 0.17838782
0.3077166 0.073639214 0.23421916 0.42450178 0.16587436 -0.17738068 -0.036814325 0.5666463
0.4168229 -0.36152065 -0.260043 0.009099378 -0.6289401 -0.18708058 -0.38700506 -0.061790194
-0.14939441 -0.28043142 0.26839012 0.061924946 0.55046475 -0.29614967 0.028745072 -0.08224302
0.07790002 0.008040726 0.3251469 -0.43400317 -0.043617066 -0.37820402 -0.20195253 -0.079054005
0.26141787 -0.1441397 -0.55333585 -0.38291773 -0.07625078 -0.38040468 0.020881634 -0.25660986
0.06421533 -0.051498484 -0.46241266 0.35970592 -0.17892429 -0.019850451 -0.13477138 0.09549405
-0.091506 -0.33550748 -0.11894186 0.11659117 -0.14292938 0.045013685 -0.28303814 0.061177682
-0.27581027 -0.12954631 -0.32448384 -0.28757727 -0.09708382 -0.16026734 -0.024087753 0.021030888
0.0398779 -0.05310186 -0.14519836 -0.57596594 -0.24575938 0.13364425 -0.039688703 0.06974563
00000000: 2e89 d43e 73e8 51bb b4b1 8bbc bb36 933e
00000010: 61f9 5f3d 66bd f2be 7545 f5be 0c55 87be
00000020: d360 04bd 4ea9 ccbd d923 c73e 4248 883d
00000030: 2ef1 013d 7fd2 2fbd bfab 0f3f bfe1 913d
00000040: c60a bc3d 864d 5c3e 6c8b 93bd 5a83 96be
00000050: c0ab 88be 1c44 a3bd 45bd 16be f9c1 5b3e
00000060: 45d9 b0bd dc9e a3be 6764 8fbe c2ac a73e
00000070: 2f2e d63d d19e 0a3f af81 913e 7fda 19be
00000080: 897f 033e 1494 81bb 80e2 893d 4e89 f43d
00000090: cf56 ddbb 738e 82bd b969 403e ab62 8abd
000000a0: caf0 a1bb 8e86 8b3d 35e5 023e 7033 eabd
000000b0: 659d 18be 6b75 49be 6055 9d3d 5ac5 33be
000000c0: d8bb 3a3d 98d0 9b3e 4660 b53e 65d3 61bd
000000d0: 67f6 1b3e 83f6 7b3e 4c62 8e3d b7eb 46be
000000e0: 707f 24be b9f1 b13e 5c50 843d b311 4ebe
000000f0: acc2 753e 5f19 dfbe c6b3 8a3e 492e 4b3e
00000100: 5d6f 51be 7717 d0be 51cf 7c3d 6b23 983e
00000110: 8a4e 0cbe caba 673e 90e3 b63e 0b7c 22be
00000120: 5ca1 e1bc 5d64 923d c70c 88bd 1fc9 a1bd
00000130: a766 8fbe fc8a de3c 9c65 e0bd 63d2 99be
00000140: dbc2 b7bd 9549 e93d fcd4 12bf 3e6d 60be
00000150: 014b 493e 5d98 233c 0ccf 6f3c 1330 eb3b
00000160: 4645 7fbe 02a7 47bf 4940 03bf 8bdd 4b3e
00000170: a020 f83e edd8 3e3e 5258 30be d295 84be
00000180: 1dce a43e 095d 6ebe 4063 823e 0c61 713d
00000190: 4f46 29be d475 a6be 45d3 bcbd cddd f73d
000001a0: 1e1b bdbc 6533 373e 4a90 f33d ff5f b8be
000001b0: 7620 b43e 8de9 53be efe2 023e 707e 63be
000001c0: 8626 9a3e 3aec 32bd 797b 953e 2b2f 193c
000001d0: c71c 6b3e 6725 1b3e 1f6c 8b3e c60e 523e
000001e0: 139c 42be a39a 98be 774f 4abe 0125 903e
000001f0: 2410 eabd 84ba b8be 8ed1 c43e 132f e9bd
00000200: 62a9 843c fc86 bcbe 166c 5f3e ba55 8cbd
00000210: 4735 c13e 6290 533d 5619 47bd 0e44 ae3e
00000220: 0d15 4b3e 63b5 423d 15a9 a03e a07b 443e
00000230: ffd8 043f b030 78be 4855 b6be 17a8 073f
00000240: ecbd 94be d27c 02be b402 d7bd dd9a 23be
00000250: 0285 353c bd63 42be 7d26 43bd 0e7f 7b3e
00000260: 39d0 bf3e 3aa1 093f 82ea e7be ac77 973b
00000270: 1821 d43e d705 3bbc a770 b3be 7e70 0abe
00000280: 392b b13e 5edb e03d 087f 9abd 2425 193f
00000290: 4d2b 103e 5fd9 9dbe 5348 173d 9668 c23e
000002a0: 0a16 3a3e 4cd9 89be 1a54 2cbe 4a23 583e
000002b0: 5699 89bd 1e22 413d 263a 2c3e 8bed ed3e
000002c0: e70f 0b3d e0d3 653d edfd b9be 9461 c9bc
000002d0: 5030 81be 409d fa3d db6a 703c 4cab 363e
000002e0: 088d 9d3e 28d0 963d 26d7 6f3e 4c58 d93e
000002f0: f8da 293e 48a3 35be 9eca 16bd bb0f 113f
00000300: d069 d53e 3c19 b9be 5b24 85be 8f15 153c
00000310: 3802 21bf 0d92 3fbe 8725 c6be b717 7dbd
00000320: d9fa 18be b594 8fbe 6e6a 893e 03a5 7d3d
00000330: 42eb 0c3f eea0 97be c97a eb3c 076f a8bd
00000340: 0c8a 9f3d 40bd 033c a879 a63e aa35 debe
00000350: cfa7 32bd f5a3 c1be a5cc 4ebe 11e7 a1bd
00000360: 90d8 853e 5c99 13be 6ba7 0dbf cb0d c4be
00000370: 5e29 9cbd 67c4 c2be f60f ab3c 5e62 83be
00000380: 5483 833d 13f0 52bd 5ac1 ecbe 602b b83e
00000390: ee37 37be 6a9d a2bc 8201 0abe 6292 c33d
000003a0: 7f67 bbbd a3c7 abbe ca97 f3bd 5ac7 ee3d
000003b0: 145c 12be 4560 383d 60ea 90be 7395 7a3d
000003c0: 0137 8dbe caa7 04be bf22 a6be 543d 93be
000003d0: e2d3 c6bd 1f1d 24be ae53 c5bc f848 ac3c
000003e0: 0257 233d 5681 59bd e1ae 14be 8172 13bf
000003f0: 59a8 7bbe 0ada 083e 9f90 22bd ccd6 8e3d

fc2.weight f4 [256, 514]
0.1700312 0.12239884 0.024397807 0.075903974 0.07987638 -0.0039723674 0.15792207 -0.08942536
0.103996046 -0.07208203 0.20827872 0.0918159 -0.02565058 0.044921584 0.1308123 0.014652733
0.047491048 0.187403 0.0032239547 0.0495014 0.027485022 -0.10287535 0.15711892 -0.03860833
0.02653752 0.13238409 0.076989 0.055296205 -0.054840848 0.12004094 0.12639861 -0.16203171
0.07924385 0.02602174 0.13705233 -0.10590132 0.028235123 0.10471664 0.1410932 0.04879543
0.03092454 0.084295414 0.16320714 0.048069347 0.13595836 0.20532975 -0.048462376 0.035817284
0.061979525 0.06727878 -0.23323628 0.06959457 0.11817047 0.06413971 -0.029942919 0.082531095
0.08209879 0.16626222 0.018856686 -0.0008125869 0.0029213997 -0.13826169 -0.007885315 0.07516661
0.09326149 0.10591144 0.16792937 0.16203837 0.01221673 -0.08165479 -0.01872978 -0.009617653
0.18499294 0.17759374 0.13026755 0.016064953 0.1365908 0.022573609 0.11680889 0.122486904
0.059718557 0.125508 0.063949235 0.0063420846 0.09949366 0.061458405 0.07692555 0.083160385
0.053834952 -0.07454827 0.05580014 -0.016713155 0.05509546 0.02237724 0.06087374 -0.07184179
0.17169493 0.08930767 0.05017637 -0.0117722405 0.13513921 0.041573547 -0.046264425 -0.071458936
0.12056516 0.1090271 0.06236834 0.066597655 0.14199337 0.08865029 0.05707348 0.15197381
0.13569996 0.13098525 0.053861223 0.0774932 0.14429043 0.170906 0.10803838 0.22013578
0.06929822 -0.039792564 0.046706237 0.13069744 -0.040462367 -0.016975101 0.042337205 0.09274336
0.050814033 0.1190538 0.08354653 0.02232065 0.039173245 0.012663172 -0.10535323 0.11096032
0.13222523 0.11102638 -0.10982908 0.09473126 0.2326007 0.07209321 -0.044709332 0.10136065
-0.061728965 -0.054157045 -0.020299789 0.010796174 0.17200576 0.08499298 -0.084943704 -0.08888867
0.16280617 0.1100806 0.009721821 0.12344748 0.1761989 -0.042313684 0.0031772843 0.15022348
-0.034372836 0.15607844 0.071469605 0.114585206 0.08298876 0.10759365 0.15813115 -0.061233554
0.076030806 0.11396143 0.16310912 0.14397515 0.034591485 0.117858894 0.10558361 -0.16915329
0.08960103 0.07876019 0.15570053 0.11317946 0.0070993546 0.15925638 0.16721946 -0.026483495
0.12618221 0.09043226 0.1252971 0.035919286 0.16128905 -0.046086326 -0.061104655 -0.111524664
-0.09849277 -0.033217125 0.14815715 0.072758675 0.088433765 0.09708909 -0.03135338 -0.034555037
0.058856502 0.08555682 0.110235944 0.06487545 0.20310406 0.15405846 0.17166245 0.06792773
0.106178656 -0.01792858 0.11242156 0.108632594 0.02690827 0.09096176 0.09994724 0.0900913
-0.039773334 0.14296378 0.10935111 -0.050381836 -0.024751646 0.060249012 0.0017800054 0.07333644
-0.019900892 0.008353913 -0.07074253 -0.010315273 0.119630426 0.09552592 0.18905534 0.00532232
0.038371753 0.15108456 0.1727541 0.06841692 0.12572622 0.10178386 -0.13354903 0.14490327
0.12554371 0.11343822 0.005930786 0.112959705 0.18867777 -0.014161483 -0.03352772 -0.04003107
-0.036524758 0.09212936 0.11073126 -0.14112681 -0.019063866 0.18380192 0.08178191 0.13689141
00000000: a91c 2e3e 3eac fa3d e9dd c73c 8b73 9b3d
00000010: 3a96 a33d a22a 82bb 53b6 213e a524 b7bd
00000020: e1fb d43d be9f 93bd 0447 553e f909 bc3d
00000030: 2a21 d2bc b2ff 373d a9f3 053e 0412 703c
00000040: f985 423d 92e6 3f3e fc48 533b fbc1 4a3d
00000050: 4528 e13c 50b0 d2bd c8e3 203e c523 1ebd
00000060: 3765 d93c b28f 073e 69ac 9d3d 467e 623d
00000070: cca0 60bd 06d8 f53d a36e 013e a4eb 25be
00000080: 9a4a a23d 8b2b d53c 7257 0c3e cbe2 d8bd
00000090: 584d e73c ae75 d63d bc7a 103e b8dd 473d
000000a0: 7655 fd3c 13a3 ac3d c61f 273e 5de4 443d
000000b0: ab38 0b3e f641 523e 7c80 46bd 25b5 123d
000000c0: 3ede 7d3d 75c9 893d 7ed5 6ebe 9987 8e3d
000000d0: 5c03 f23d ae5b 833d da4a f5bc 1006 a93d
000000e0: 6923 a83d a540 2a3e 5679 9a3c c903 55ba
000000f0: f474 3f3b 7994 0dbe 6931 01bc f4f0 993d
00000100: e1ff be3d 19e8 d83d adf5 2b3e 63ed 253e
00000110: ae28 483c a03a a7bd 326f 99bc 5c93 1dbc
00000120: ca6e 3d3e 22db 353e db64 053e a69a 833c
00000130: 75de 0b3e 4aec b83c 8039 ef3d 6ada fa3d
00000140: 729b 743d 2b85 003e d1f7 823d 43d1 cf3b
00000150: 55c3 cb3d cfbb 7b3d 258b 9d3d fe4f aa3d
00000160: 0a82 5c3d c3ac 98bd b08e 643d 07ea 88bc
00000170: c7ab 613d 7950 b73c be56 793d ca21 93bd
00000180: ccd0 2f3e f1e6 b63d bd85 4d3d 5be0 40bc
00000190: ef61 0a3e 0649 2a3d c47f 3dbd 1059 92bd
000001a0: deea f63d 9a49 df3d f275 7f3d 5a64 883d
000001b0: b666 113e 498e b53d e2c5 693d 069f 1b3e
000001c0: eef4 0a3e ff20 063e 969d 5c3d c1b4 9e3d
000001d0: dfc0 133e fc01 2f3e 3a43 dd3d 466b 613e
000001e0: 3aec 8d3d 87fd 22bd 0a4f 3f3d 8dd5 053e
000001f0: debb 25bd 5e0f 8bbc c769 2d3d 3bf0 bd3d
00000200: 6022 503d 7bd2 f33d 711a ab3d ccd9 b63c
00000210: 2074 203d 3179 4f3c 6fc3 d7bd 2a3f e33d
00000220: 0d66 073e cc61 e33d 12ee e0bd 7602 c23d
00000230: e12e 6e3e 9ba5 933d 2221 37bd 2c96 cf3d
00000240: 83d7 7cbd c7d3 5dbd be4b a6bc 70e2 303c
00000250: 4722 303e cd10 ae3d f7f6 adbd 430b b6bd
00000260: a9b6 263e f071 e13d 4648 1f3c 08d2 fc3d
00000270: 7c6d 343e 1d51 2dbd fc39 503b 2fd4 193e
00000280: 88ca 0cbd 07d3 1f3e a85e 923d a6ab ea3d
00000290: 03f6 a93d 0f5a dc3d 22ed 213e 09d0 7abd
000002a0: 0ab6 9b3d 9c64 e93d 1406 273e 396e 133e
000002b0: cdaf 0d3d 0160 f13d 383c d83d 8536 2dbe
000002c0: bf80 b73d 064d a13d f66f 1f3e a2ca e73d
000002d0: b4a1 e83b 1b14 233e 943b 2b3e eaf3 d8bc
000002e0: e935 013e 8c34 b93d e24d 003e 1a20 133d
000002f0: f528 253e 04c5 3cbd e048 7abd 0b67 e4bd
00000300: 94b6 c9bd ae0e 08bd 82b6 173e 8002 953d
00000310: c31c b53d a5d6 c63d 676c 00bd 9589 0dbd
00000320: 8413 713d 6a38 af3d 62c3 e13d 6cdd 843d
00000330: 83fa 4f3e 80c1 1d3e 48c8 2f3e b21d 8b3d
00000340: 3274 d93d f5de 92bc 463d e63d c47a de3d
00000350: bb6e dc3c 294a ba3d 23b1 cc3d ca81 b83d
00000360: 5de9 22bd 1965 123e 7af3 df3d 2f5d 4ebd
00000370: f7c3 cabc abc7 763d 124f e93a 6a31 963d
00000380: 3207 a3bc dade 083c 76e1 90bd 6401 29bc
00000390: cc00 f53d 18a3 c33d b997 413e db66 ae3b
000003a0: b32b 1d3d e9b5 1a3e 73e6 303e 2c1e 8c3d
000003b0: 60be 003e 0e74 d03d 14c1 08be 8661 143e
000003c0: 888e 003e 4c52 e83d 0a57 c23b 6b57 e73d
000003d0: bf34 413e 9105 68bc 5d54 09bd 9ff7 23bd
000003e0: fc9a 15bd 51ae bc3d 12c7 e23d 8c83 10be
000003f0: d32b 9cbc 9236 3c3e 467d a73d 432d 0c3e

fc2.bias f4 [256]
0.119193904 0.118874386 0.09341649 0.46179953 0.105531424 0.13405515 0.18565665 -0.025589375
0.017473515 0.12720527 -0.018157147 0.19427957 0.10494763 -0.195604 0.23045582 0.15678434
-0.23289102 0.1390668 -0.043982916 0.14408554 0.50671583 -0.082695946 0.08472144 0.008063768
0.17704758 0.3137016 0.09212542 0.16093849 0.11701058 0.14625227 0.072059564 0.17657351
-0.045351356 0.07294898 0.123377316 0.29217362 0.13668908 0.58228946 0.14975311 0.16910836
0.13254629 0.5134056 0.16192365 0.169452 0.24770318 0.03781246 -0.07785287 0.109257735
0.15981461 0.37418044 0.17922513 0.21995066 -0.13667874 0.16302182 0.098273665 0.12580341
0.10907905 0.43445566 0.027700411 0.117766164 0.044996977 0.31399408 0.15195663 0.024577186
0.14493571 0.027269779 0.11785512 -0.09169872 -0.048767593 0.23351012 0.06749472 0.15475929
0.12160589 -0.04255582 -0.0011376342 -0.03924062 0.091898255 0.0366967 0.10559875 0.1295513
-0.22288676 0.1625141 0.119882606 0.11504234 0.074751265 0.4326412 0.17438641 0.34972093
0.068980634 0.08895131 0.47064564 -0.053265586 -0.07842977 0.31389976 0.14352106 0.6399147
0.5254546 0.122082464 0.09905728 0.069965646 0.16643465 -0.0022075607 -0.05690566 0.12784013
0.09080609 0.061836526 0.18695967 0.19549727 0.10892683 -0.0027507693 0.12357799 0.04543177
0.17640294 0.17612988 0.68316007 0.48960444 0.17204863 0.26310003 0.18013605 0.110828444
0.08851452 0.14618008 0.000769407 0.05652842 0.25511155 0.10891265 0.00011134556 0.35767072
0.36098698 -0.18256979 0.11353927 -0.026136052 0.11634786 0.38705224 0.039616633 0.015080797
0.18152839 0.046271004 0.13387409 0.5734997 0.11595396 0.068967655 -0.020926092 0.036094327
0.04789708 -0.090293 0.030235423 -0.0071087354 0.13685894 0.07853261 0.08753899 0.07474486
0.4922549 -0.0155335115 0.13227744 0.05034785 0.108425625 0.10432294 0.07612042 0.033919618
0.076568164 0.03950963 0.60293365 0.04278208 -0.03942478 0.16397242 -0.0012235282 0.028932173
0.07147026 0.18368022 0.1860569 -0.24430172 0.49366638 -0.10906915 0.45543855 0.10782049
0.09378201 0.097208865 0.09750262 -0.037359092 0.12647691 -0.04554537 -0.0073372195 -0.02167904
0.19154876 -0.22596404 0.10991657 -0.07471324 0.12689361 -0.015027306 0.026683787 0.55103385
0.10543018 0.49694586 0.09623582 -0.03659276 0.58635306 -0.012391124 0.12563385 0.24313506
0.13706164 0.000729343 -0.054393206 0.13866724 0.25849774 0.10581401 0.1669243 0.12628427
-0.37752175 0.58619815 -0.073505715 0.12686901 -0.09802657 0.1328407 0.23885225 0.17706734
0.100858845 0.01091775 0.34256142 0.18426442 0.11679316 0.12559918 -0.15815428 -0.0021495018
0.08214795 -0.17109291 -0.03539454 0.09219513 -0.0026111074 0.11284959 0.06197282 0.15589574
0.09136325 0.1546075 -0.016752845 0.4922814 0.04341694 -0.08755448 0.0985025 0.059925288
-0.14454538 0.15225822 0.15605323 -0.041109465 0.18139774 0.16960336 0.20720625 0.067683764
0.057280492 0.099880956 0.019116832 0.12079277 0.131262 0.47140154 -0.17080376 -0.024266295
00000000: ef1b f43d 6a74 f33d 2551 bf3d fd70 ec3e
00000010: dc20 d83d c145 093e c71c 3e3e cfa0 d1bc
00000020: 9e24 8f3c 1942 023e 4cbe 94bc 39f1 463e
00000030: c8ee d63d 6a4c 48be 9cfc 6b3e 138c 203e
00000040: fc7a 6ebe 8767 0e3e 6e27 34bd 298b 133e
00000050: 21b8 013f 7e5c a9bd 6f82 ad3d e51d 043c
00000060: f64b 353e 7f9d a03e 41ac bc3d 0fcd 243e
00000070: 3ea3 ef3d 28c3 153e f793 933d b0cf 343e
00000080: 58c2 39bd 4666 953d 3fad fc3d c897 953e
00000090: 39f8 0b3e ec10 153f e158 193e be2a 2d3e
000000a0: 37ba 073e 8d6e 033f 50cf 253e d384 2d3e
000000b0: e7a5 7d3e 3de1 1a3d 5371 9fbd 85c2 df3d
000000c0: 71a6 233e 9494 bf3e cb86 373e bf3a 613e
000000d0: 83f5 0bbe 31ef 263e b443 c93d 9cd2 003e
000000e0: d664 df3d f970 de3e f9eb e23c 632f f13d
000000f0: c04e 383d d5c3 a03e 859a 1b3e 1856 c93c
00000100: 076a 143e df64 df3c 065e f13d 8acc bbbd
00000110: 87c0 47bd 471d 6f3e ac3a 8a3d 3879 1e3e
00000120: 820c f93d 034f 2ebd ab1c 95ba c6ba 20bd
00000130: 2735 bc3d 474f 163d 2844 d83d 19a9 043e
00000140: 6d3c 64be 196a 263e 0385 f53d 519b eb3d
00000150: 3117 993d 2683 dd3e 5a92 323e 9f0e b33e
00000160: b845 8d3d 1b2c b63d 77f8 f03e 042d 5abd
00000170: ca9f a0bd 78b7 a03e 2ff7 123e 73d1 233f
00000180: 3184 063f 5f06 fa3d 8bde ca3d 264a 8f3d
00000190: d86d 2a3e b9ac 10bb e915 69bd 86e8 023e
000001a0: 8bf8 b93d 4c48 7d3d 5b72 3f3e 7030 483e
000001b0: 0815 df3d 4046 34bb 7516 fd3d aa16 3a3d
000001c0: f9a2 343e 645b 343e 94e3 2e3f 6fad fa3e
000001d0: 842d 303e 0cb5 863e 9675 383e 06fa e23d
000001e0: 1a47 b53d 3bb0 153e 08b2 493a 588a 673d
000001f0: fb9d 823e 980d df3d 3182 e938 9e20 b73e
00000200: 49d3 b83e 93f3 3abe 4787 e83d 461b d6bc
00000210: c947 ee3d b62b c63e 0d45 223d 7215 773c
00000220: 94e2 393e aa86 3d3d 4a16 093e e0d0 123f
00000230: 4579 ed3d ea3e 8d3d 326d abbc a5d7 133d
00000240: bb2f 443d 89eb b8bd 47b0 f73c 65f0 e8bb
00000250: c024 0c3e b4d5 a03d a447 b33d d513 993d
00000260: d608 fc3e 4580 7ebc bd73 073e 8c39 4e3d
00000270: 410e de3d 44a7 d53d 06e5 9b3d 4cef 0a3d
00000280: c5cf 9c3d dad4 213d dc59 1a3f 433c 2f3d
00000290: e17b 21bd 63e8 273e cb5e a0ba 2a03 ed3c
000002a0: 005f 923d ab16 3c3e b385 3e3e 3b2a 7abe
000002b0: d7c1 fc3e a65f dfbd 3e2f e93e fdd0 dc3d
000002c0: c810 c03d 7115 c73d 74af c73d d905 19bd
000002d0: 2a83 013e c88d 3abd 0f6d f0bb 3e98 b1bc
000002e0: 5c25 443e 1e63 67be f01b e13d 4103 99bd
000002f0: 66f0 013e 1735 76bc f597 da3c 8e10 0d3f
00000300: c7eb d73d b06f fe3e 4917 c53d 4ae2 15bd
00000310: 3c1b 163f 2404 4bbc 29a6 003e 66f8 783e
00000320: e359 0c3e 6131 3f3a 69cb 5ebd c9fe 0d3e
00000330: d159 843e 04b5 d83d 34ee 2a3e aa50 013e
00000340: 884a c1be 1511 163f 2a8a 96bd f3e9 013e
00000350: 28c2 c8bd 6407 083e af95 743e 2451 353e
00000360: 158f ce3d 5de0 323c 3664 af3e d0af 3c3e
00000370: 4131 ef3d 129d 003e 32f3 21be a8de 0cbb
00000380: 2f3d a83d fb32 2fbe ddf9 10bd cdd0 bc3d
00000390: 1d1f 2bbb b01d e73d 36d7 7d3d 22a3 1f3e
000003a0: a81c bb3d 6e51 1e3e 433d 89bc 4f0c fc3e
000003b0: f6d5 313d c34f b3bd aebb c93d 3874 753d
000003c0: b403 14be 94e9 1b3e 6bcc 1f3e 6662 28bd
000003d0: 54c0 393e 81ac 2d3e e02d 543e c99d 8a3d
000003e0: f39e 6a3d 638e cc3d e79a 9c3c 3362 f73d
000003f0: 8c69 063e 8b5b f13e 2ee7 2ebe 1cca c6bc

fc3.weight f4 [1, 256]
-0.10139907 -0.17996313 0.9873539 0.9958712 -0.16582088 -0.16808707 0.64066035 0.698562
1.1071918 -0.14596222 -0.90440995 0.88551694 -0.19884495 -0.8599678 0.7123304 -0.18311101
-0.74152637 -0.26112902 -0.0017064579 -0.120718695 0.7072634 -0.8806628 -0.16914043 0.5579775
-0.1690369 0.83906704 -0.13594666 -0.21639436 -0.122342795 -0.089573994 0.85132205 -0.14229204
-1.2203661 -0.07622603 0.50445557 0.86832154 -0.18243054 0.78170943 -0.15241477 -0.13474183
-0.12801924 0.8902722 -0.17140739 -0.51644295 0.8113265 0.90093654 0.9199451 -0.12978469
-0.14032 1.0200713 -0.15135418 0.63989985 0.94521844 -0.14404708 -0.13349593 -0.1353166
-0.13388826 0.84377086 0.014531434 -0.13640034 0.92911613 1.2124181 -0.1605657 0.6753871
-0.17094886 1.2584054 -0.1346042 -0.68043804 -0.6848674 1.3109796 0.7136817 -0.12683176
-0.14625798 -0.75223273 -0.801958 0.87984157 -0.14606348 1.0087749 -0.14769967 0.7809429
0.9596233 -0.14609021 0.30592737 -0.0745153 0.9876407 0.84643185 0.48444188 0.9882037
-0.14442192 0.7995121 0.73365873 0.99696374 0.94799626 0.91499054 0.68389994 1.1285887
0.59700066 -0.17273815 -0.11882856 0.92058253 -0.16366643 0.7699875 -0.72342783 -0.13505949
-0.33321452 -0.13051678 0.9048515 0.7414505 -0.09226424 0.90930283 0.68804395 -0.185014
-0.13738097 -0.12357065 1.0405877 0.8774612 -0.63199395 0.70772356 -0.15244775 -0.14332476
-0.13781372 -0.13567567 -0.5657939 -0.12824 0.75056535 0.6953606 0.8742035 1.1755043
1.0844625 -0.62452483 -0.1510419 0.6808819 -0.12643518 1.0725915 0.5875703 0.566265
-0.15768242 0.6709949 -0.11978529 0.73428255 0.78113383 -0.11048547 1.2120359 0.62637
-0.22555858 0.94489604 -0.11937261 0.039898515 -0.11144963 -0.10786108 -0.12855738 -0.12555662
0.7075669 -1.0263649 -0.15958203 -0.08155674 -0.12555473 -0.16818812 -0.10851789 0.7023872
1.7817162 0.62639725 0.83114654 0.854181 0.034014076 -0.16475916 0.3904587 0.66056645
-0.17683902 -0.15476787 -0.18330552 -1.0410326 0.76351446 1.3125461 0.9568997 -0.1056589
-0.08722105 -0.14252603 -0.1251743 1.0268182 -0.116286 0.023122175 0.53400767 0.74190587
1.0705888 0.89711845 0.82168996 0.8736554 -0.16707446 0.040456597 -0.18837735 0.92529404
-0.08615367 0.84290963 -0.11336401 -0.7187813 0.84548277 0.53154445 1.6790555 0.6317582
-0.17940924 0.23594886 -1.168948 -0.15713352 0.6558192 -0.14115727 -0.18439095 -0.071151264
1.5193671 0.8493982 0.62498254 -0.16397363 -0.8303897 -0.14378539 1.3341035 -0.17663975
0.76878893 0.24032553 1.167362 -0.1805274 -0.14121796 -0.13777612 0.785819 0.039443817
0.87287605 0.64776605 0.5732491 -0.15310556 1.0957431 -0.10087561 -0.21817094 -0.14836834
-0.12164961 -0.36486837 0.47942385 0.83460367 -0.11163287 -0.433978 0.6769772 0.9513101
0.66336066 -0.1329083 -0.17444439 0.7493265 -0.15575124 -0.119807385 0.94071424 1.3877819
-0.5316699 -0.17915829 0.594314 -0.11902332 -0.2845253 0.8164298 -1.4863119 0.68140465
00000000: 51aa cfbd 4148 38be 3ac3 7c3f 6af1 7e3f
00000010: f3cc 29be 041f 2cbe 5102 243f f6d4 323f
00000020: 76b8 8d3f 1f77 15be 6987 67bf 3db1 623f
00000030: 039e 4bbe da26 5cbf 495b 363f 7481 3bbe
00000040: acd4 3dbf b4b2 85be 3aab dfba 5d3b f7bd
00000050: 370f 353f 1e73 61bf 2633 2dbe 9dd7 0e3f
00000060: 0218 2dbe 19cd 563f 9a35 0bbe 7c96 5dbe
00000070: dc8e fabd 9272 b7bd 3ef0 593f 01b5 11be
00000080: f534 9cbf 651c 9cbd 0024 013f 524a 5e3f
00000090: 12cf 3abe 1c1e 483f 9e12 1cbe c3f9 09be
000000a0: 7a17 03be e1e8 633f 6b85 2fbe 9b35 04bf
000000b0: 18b3 4f3f c7a3 663f 8681 6b3f 47e6 04be
000000c0: 0cb0 0fbe b291 823f 97fc 1abe 7ad0 233f
000000d0: d6f9 713f 1481 13be 28b3 08be 6f90 0abe
000000e0: 011a 09be 5e01 583f 4015 6e3c 88ac 0bbe
000000f0: 8eda 6d3f 8430 9b3f 566b 24be 2be6 2c3f
00000100: 380d 2fbe 6e13 a13f afd5 09be 3031 2ebf
00000110: 7853 2fbf 2ece a73f d8b3 363f 2fe0 01be
00000120: a7c4 15be 5392 40bf 1f4d 4dbf 4c3d 613f
00000130: aa91 15be 891f 813f 953e 17be e0eb 473f
00000140: dfa9 753f ac98 15be 83a2 9c3e 7a9b 98bd
00000150: 05d6 7c3f c2af 583f c408 f83e ebfa 7c3f
00000160: 57e3 13be d3ac 4c3f 0fd1 3b3f 0439 7f3f
00000170: e2af 723f d23c 6a3f 1114 2f3f 9875 903f
00000180: 09d5 183f 45e2 30be 635c f3bd 4cab 6b3f
00000190: 2c98 27be e71d 453f 9132 39bf 094d 0abe
000001a0: 189b aabe 31a6 05be 59a4 673f b3cf 3d3f
000001b0: 09f5 bcbd 12c8 683f a623 303f 4f74 3dbe
000001c0: 99ad 0cbe 9c12 fdbd fa31 853f 4ca1 603f
000001d0: 5bca 21bf 5f2d 353f 431b 1cbe bac3 12be
000001e0: 0a1f 0dbe 90ee 0abe ded7 10bf 5951 03be
000001f0: 0d25 403f 2703 323f cdcb 5f3f ed76 963f
00000200: abcf 8a3f dce0 1fbf baaa 1abe 474e 2e3f
00000210: 3978 01be ae4a 893f 026b 163f bef6 103f
00000220: 8077 21be 52c6 2b3f fd51 f5bd f1f9 3b3f
00000230: 63f8 473f 3546 e2bd fe23 9b3f c959 203f
00000240: d4f8 66be b5e4 713f a079 f4bd a06c 233d
00000250: b43f e4bd 45e6 dcbd 8ca4 03be ea91 00be
00000260: 1b23 353f ed5f 83bf 7969 23be 3807 a7bd
00000270: 6b91 00be 8239 2cbe a13e debd a6cf 333f
00000280: 470f e43f 925b 203f 05c6 543f 9bab 5a3f
00000290: 5852 0b3d a0b6 28be 34ea c73e e21a 293f
000002a0: 4a15 35be 787b 1ebe 71b4 3bbe 8e40 85bf
000002b0: af75 433f 8301 a83f 61f7 743f b263 d8bd
000002c0: f3a0 b2bd 58f2 11be b12d 00be c76e 833f
000002d0: 5b27 eebd b76a bd3c bab4 083f 8bed 3d3f
000002e0: 0e09 893f 8ea9 653f 465a 523f e1a7 5f3f
000002f0: 9115 2bbe d1b5 253d fee5 40be 12e0 6c3f
00000300: 5671 b0bd edc8 573f 642b e8bd 0d02 38bf
00000310: 8f71 583f 4c13 083f 4aeb d63f e8ba 213f
00000320: 0eb7 37be 949c 713e 17a0 95bf 9ce7 20be
00000330: c4e3 273f 888b 10be fbd0 3cbe c1b7 91bd
00000340: 9f7a c23f 2972 593f dbfe 1f3f b4e8 27be
00000350: 6b94 54bf 7a3c 13be e7c3 aa3f 0de1 34be
00000360: 5acf 443f e517 763e 1e6c 953f 2ddc 38be
00000370: 719b 10be 2f15 0dbe 6f2b 493f d78f 213d
00000380: ce74 5f3f ffd3 253f 74c0 123f b4c7 1cbe
00000390: 4f41 8c3f df97 cebd 3468 5fbe dfed 17be
000003a0: 6e23 f9bd 07d0 babe 0b77 f53e 96a8 553f
000003b0: c69f e4bd 5d32 debe 614e 2d3f 0f89 733f
000003c0: 01d2 293f 1d19 08be 8da1 32be ddd3 3f3f
000003d0: 417d 1fbe 935d f5bd a6d2 703f d6a2 b13f
000003e0: 851b 08bf 4575 37be f624 183f 80c2 f3bd
000003f0: 4dad 91be 8b01 513f 783f bebf 8970 2e3f

norm.weight f4 [26]
1.1551175 1.2836645 1.253499 1.1873567 1.1763064 1.1090767 1.1354265 1.1465561
1.2199687 1.2480731 1.2038066 1.0957437 1.0281107 1.1648237 1.2416421 1.1986884
1.2156337 1.2105708 1.1379498 1.0524487 1.2733448 1.2223216 1.1968826 1.1418464
1.9221154 1.3867424
00000000: e4da 933f 1e4f a43f a872 a03f 4efb 973f
00000010: 3591 963f 3af6 8d3f a855 913f 5ac2 923f
00000020: ef27 9c3f dcc0 9f3f 5616 9a3f 5441 8c3f
00000030: 2299 833f f118 953f 21ee 9e3f 9f6e 993f
00000040: e399 9b3f fcf3 9a3f 57a8 913f a4b6 863f
00000050: f6fc a23f 0975 9c3f 7333 993f 0628 923f
00000060: e107 f63f c680 b13f

norm.bias f4 [26]
0.3046104 0.32291365 0.03545129 0.14725687 0.01997158 -0.012150604 0.06918508 -0.07925876
-0.09177276 0.07220963 -0.15165621 -0.2722974 0.1663222 -0.02094971 0.04453339 -0.04787984
-0.0036833645 0.05462322 0.10266881 0.1741255 0.16649632 0.29114237 0.27733418 0.18055531
-0.024517648 0.08580782
00000000: e5f5 9b3e f054 a53e 5f35 113d 81ca 163e
00000010: 709b a33c 5413 47bc e8b0 8d3d 6b52 a2bd
00000020: 5bf3 bbbd a4e2 933d c44b 1bbe 916a 8bbe
00000030: 5e50 2a3e ba9e abbc a568 363d a71d 44bd
00000040: 9a64 71bb 99bc 5f3d 0644 d23d f44d 323e
00000050: 037e 2a3e 9d10 953e bffe 8d3e 7ee3 383e
00000060: 3cd9 c8bc 03bc af3d

norm.running_mean f4 [26]
1.5165931 1.4911648 1.5177376 1.4226242 1.5065606 1.4851425 1.5804422 1.6102452
1.6671182 1.6968874 1.8215761 1.7936412 1.827086 1.7681211 1.7179585 1.7101842
1.6449285 1.6058829 1.5552763 1.5957549 1.4645289 1.4786083 1.4821321 1.5168566
-0.12847295 1.287942
00000000: b91f c23f 7dde be3f 3a45 c23f 8d18 b63f
00000010: fad6 c03f 2619 be3f ee4b ca3f 841c ce3f
00000020: 2164 d53f 9b33 d93f 6829 e93f 0996 e53f
00000030: f4dd e93f cb51 e23f 10e6 db3f 51e7 da3f
00000040: 048d d23f 928d cd3f 4b13 c73f b241 cc3f
00000050: af75 bb3f 0943 bd3f 81b6 bd3f 5b28 c23f
00000060: 6a8e 03be 49db a43f

norm.running_var f4 [26]
0.4605724 0.49880996 0.5758289 0.5623249 0.6151336 0.59050554 0.6301464 0.6408228
0.6455189 0.6189256 0.57228583 0.528622 0.5443837 0.6037018 0.6596351 0.6716588
0.6244686 0.62820584 0.6092607 0.57053787 0.5447739 0.5177123 0.43150708 0.46193624
2.02796 0.40422863
00000000: 25d0 eb3e 0564 ff3e 8669 133f 86f4 0f3f
00000010: 6579 1d3f 5f2b 173f 4651 213f f70c 243f
00000020: ba40 253f e871 1e3f 5381 123f c553 073f
00000030: bb5c 0b3f 338c 1a3f d9dd 283f d5f1 2b3f
00000040: 2ddd 1f3f 19d2 203f 82f8 1b3f c50e 123f
00000050: 4d76 0b3f cb88 043f 7fee dc3e e882 ec3e
00000060: 19ca 0140 0ef7 ce3e

norm_a.weight f4 [2]
2.1389205 1.5964438
00000000: 13e4 0840 4558 cc3f

norm_a.bias f4 [2]
-0.046357337 -0.1524296
00000000: 31e1 3dbd 8116 1cbe

norm_a.running_mean f4 [2]
-0.015074909 -0.014854396
00000000: c0fc 76bc da5f 73bc

norm_a.running_var f4 [2]
0.18452746 0.13323712
00000000: c4f4 3c3e 506f 083e
