turtlebot3_ddpg/save_model_ddpg/2020_11_29-07_10_23/stage_1_6000_actor.pth (torch_old, 584753 bytes, 10 tensors)

fc1.weight f4 [512, 26]
-0.08711163 -0.27069715 -0.19384809 -0.23144831 -0.15457863 -0.1831366 -0.17949703 -0.09452897
-0.22038521 -0.17285919 -0.14722307 -0.22534165 -0.28755587 -0.49368128 -0.122627676 -0.31144252
-0.17856245 -0.18014598 -0.5047654 -0.4136231 -0.54081196 -0.18132013 -0.12920102 -0.15768273
-0.042785764 0.007183774 0.07151095 -0.0110922735 -0.08369998 0.2677026 0.21661319 -0.1157864
0.2475713 -0.0046193027 0.05240488 0.06780428 0.12937683 0.07093383 0.024244484 -0.06439734
-0.088132225 -0.057623725 -0.1647325 0.1345672 0.094159216 0.053647045 0.3961618 0.039697774
-0.5421488 -0.030155059 0.38815862 0.015318537 -0.0081341015 0.211769 0.14967693 -0.062138084
0.022669332 0.04904576 0.14377074 -0.24166816 0.026893107 0.18427567 0.26124644 0.09227863
0.24502648 0.10669217 -0.01485583 0.1195629 -0.34879103 -0.30299613 -0.49298263 0.12193111
0.53211987 -0.3484113 0.41306296 -0.029348874 -0.26085347 0.17449199 0.056838505 -0.09215707
-0.12784146 0.29765394 0.4519469 0.07357596 -0.028304469 0.10176502 -0.22276898 -0.012697048
0.17403197 0.006280179 -0.232488 -0.20071517 -0.26026204 0.048865814 0.2236698 -0.2844194
-0.14969051 0.0658352 0.2358487 0.24374735 -0.14126913 0.29617387 -0.07034427 0.24165216
-0.061619524 0.12031791 0.31221458 0.009493984 -0.32015678 -0.14738314 0.061976783 -0.08949521
0.5058752 -0.27347228 -0.1574902 0.29265916 0.18002948 -0.039402753 -0.19957818 0.44721997
0.18235499 0.09092872 -0.025781583 -0.32022417 -0.05325719 -0.025661713 0.18939401 -0.12293394
-0.07297861 -0.15115863 -0.16626379 -0.15338942 0.48089302 0.041947257 -0.27165276 -0.34657294
-0.053631596 0.2826992 0.2282621 0.25131255 0.527042 -0.030808581 0.19885589 -0.22243062
0.36364013 0.27890715 0.36189163 0.2536568 -0.18192704 -0.17815207 0.10108997 -0.07033185
-0.032797065 -0.22256233 0.024542939 0.040000822 -0.010912189 -0.079457365 -0.018315772 -0.078101516
-0.390284 -0.0070116385 0.42152908 -0.16973212 0.021003604 -0.13819043 -0.022675093 0.2929463
0.2616307 0.39235273 0.5806169 0.048541404 -0.12995492 -0.012684761 0.15293984 0.03737423
-0.23177734 0.21571957 0.372843 -0.035371568 0.06541855 0.12872364 0.265527 -0.022604777
-0.03441392 -0.6640646 -0.2874885 -0.2179786 -0.2287005 -0.091826886 -0.3203093 -0.117004
-0.19361521 -0.051281914 -0.11819882 -0.18405323 -0.047218896 0.19448502 0.13539971 0.045504157
0.30712828 0.27869084 0.17162661 0.14455937 0.25658855 0.04710674 0.5462458 -0.035230048
-0.05173002 -0.08605989 -0.0039886557 -0.05184121 -0.009691155 0.008806857 0.028714888 0.3233956
-0.07286866 -0.01979526 0.0888596 0.17123744 0.06924115 -0.29311162 0.08507616 0.24441509
-0.14091569 -0.07387562 -0.5626821 0.18646193 0.59740657 -0.050548684 0.040114418 -0.05691242
0.073490515 -0.089870706 0.06750461 -0.009637347 0.032263484 0.0035674272 -0.051694356 -0.21290596
0.0823 0.20448351 0.21753447 0.026875312 0.2525885 0.07257418 -0.028644357 0.066451244
0.07072567 -0.14670497 -0.30451417 0.13035944 -0.69014174 0.12126344 0.17108515 -0.04098071
00000000: 9567 b2bd d198 8abe 1d80 46be c900 6dbe
00000010: dc49 1ebe 2988 3bbe 12ce 37be 6898 c1bd
00000020: a9ac 61be 0002 31be a5c1 16be f6bf 66be
00000030: 863a 93be cbc3 fcbe 3824 fbbd 6575 9fbe
00000040: 13d9 36be 3078 38be 4e38 01bf 68c6 d3be
00000050: a772 0abf fcab 39be 464d 04be 9577 21be
00000060: 2040 2fbd dd65 eb3b 5574 923d 5ebc 35bc
00000070: e56a abbd 5110 893e d9cf 5d3e 6c21 edbd
00000080: 5583 7d3e 855d 97bb 80a6 563d f8dc 8a3d
00000090: 5c7b 043e c245 913d 5e9c c63c c1e2 83bd
000000a0: ab7e b4bd db06 6cbd a3af 28be fccb 093e
000000b0: 8cd6 c03d 01bd 5b3d b8d5 ca3e 229a 223d
000000c0: 44ca 0abf be07 f7bc babc c63e 9afa 7a3c
000000d0: e544 05bc f9d9 583e e944 193e 8184 7ebd
000000e0: 09b5 b93c 35e4 483d a338 133e dc77 77be
000000f0: ef4e dc3c c3b2 3c3e 18c2 853e 94fc bc3d
00000100: 39e8 7a3e 6d81 da3d de65 73bc 65dd f43d
00000110: bd94 b2be 4f22 9bbe 3868 fcbe 05b7 f93d
00000120: 0239 083f f762 b2be fd7c d33e 0d6d f0bc
00000130: 968e 85be 07ae 323e 7ecf 683d d9bc bcbd
00000140: dfe8 02be 1966 983e 9665 e73e feae 963d
00000150: c6de e7bc 2e6a d03d 8d1d 64be 4707 50bc
00000160: 7035 323e f6c9 cd3b 5611 6ebe 4788 4dbe
00000170: 1141 85be 8527 483d b209 653e 6b9f 91be
00000180: 7848 19be 9bd4 863d 5282 713e e898 793e
00000190: dba8 10be 1aa4 973e a810 90bd aa73 773e
000001a0: c164 7cbd 3d69 f63d 97da 9f3e a88c 1b3c
000001b0: 97eb a3be 9beb 16be 5edb 7d3d 4449 b7bd
000001c0: 0981 013f 8f04 8cbe 1c45 21be 6cd7 953e
000001d0: a659 383e c864 21bd 395e 4cbe 04fa e43e
000001e0: 44bb 3a3e d638 ba3d e633 d3bc 6cf4 a3be
000001f0: 3624 5abd 8338 d2bc 81f0 413e cac4 fbbd
00000200: cf75 95bd 54c9 1abe 0e41 2abe 1e12 1dbe
00000210: 9c37 f63e e3d0 2b3d 1216 8bbe 0272 b1be
00000220: ceac 5bbd f3bd 903e 8abd 693e 0aac 803e
00000230: 39ec 063f 4762 fcbc e1a0 4b3e dac4 63be
00000240: 0a2f ba3e ebcc 8e3e dc49 b93e 4edf 813e
00000250: 154b 3abe 7f6d 36be 4208 cf3d 250a 90bd
00000260: 3756 06bd 61e7 63be 460e c93c e7d7 233d
00000270: 0ac9 32bc 8bba a2bd f50a 96bc b0f3 9fbd
00000280: 4ed3 c7be e3c1 e5bb a9d2 d73e 42ce 2dbe
00000290: c00f ac3c cb81 0dbe 1ec1 b9bc 0ffd 953e
000002a0: 76f4 853e 75e2 c83e 4fa3 143f 5ad3 463d
000002b0: e712 05be bed3 4fbc 439c 1c3e b815 193d
000002c0: 0a57 6dbe 97e5 5c3e 47e5 be3e c7e1 10bd
000002d0: 29fa 853d 21d0 033e 28f3 873e a72d b9bc
000002e0: 9cf5 0cbd 2300 2abf b131 93be c835 5fbe
000002f0: 7730 6abe bc0f bcbd 95ff a3be cb9f efbd
00000300: 1143 46be fc0c 52bd 3912 f2bd 7378 3cbe
00000310: 9a68 41bd 1527 473e 39a6 0a3e 9162 3a3d
00000320: eb3f 9d3e 91b0 8e3e e3be 2f3e 5f07 143e
00000330: 935f 833e fff2 403d c4d6 0b3f 624d 10bd
00000340: dce2 53bd 2b40 b0bd 45b3 82bb 7357 54bd
00000350: a6c7 1ebc a34a 103c 7c3b eb3c 1c94 a53e
00000360: 2a3c 95bd ab29 a2bc 06fc b53d de58 2f3e
00000370: 4ece 8d3d ba12 96be 693c ae3d f347 7a3e
00000380: 344c 10be 1a4c 97bd ef0b 10bf e0ef 3e3e
00000390: a3ef 183f 230c 4fbd 044f 243d ff1c 69bd
000003a0: 3282 963d 220e b8bd db3f 8a3d f7e5 1dbc
000003b0: b726 043d 7fcb 693b 76bd 53bd 0504 5abe
000003c0: e78c a83d 2064 513e 5bc1 5e3e 9d29 dc3c
000003d0: 4853 813e c6a1 943d 92a7 eabc 9717 883d
000003e0: 9fd8 903d d439 16be 48e9 9bbe f27c 053e
000003f0: 21ad 30bf f758 f83d f230 2f3e 64db 27bd

fc1.bias f4 [512]
-0.23914947 -0.10699538 -0.28450775 -0.3088108 -0.15132496 -0.15391365 -0.18129194 -0.8060944
-0.06673291 -0.042873442 -0.24740775 -0.30101162 -0.1388533 -0.14631163 -0.3386592 -0.12958536
-0.32196733 -0.10121374 -0.39267662 -0.121116646 -0.3421083 -0.17808142 -0.18492337 -0.003494658
-0.17591263 -0.27164322 -0.2912589 -0.433917 -0.14928839 -0.24759161 -0.1981824 -0.062047385
-0.1343361 0.06138206 -0.6593418 -0.56155676 -0.14917694 -0.40362364 -0.012674369 -0.19405663
-0.57883835 -0.16742702 -0.11007775 -0.10412397 -0.28300667 -0.17108092 -0.14956643 -0.22389866
-0.31814206 -0.32063386 -0.0693748 -0.42118987 -0.15698127 -0.10392895 -0.12182128 -0.65203065
-0.17543137 -0.37048963 -0.115559034 -0.24175137 -0.14876464 -0.294541 -0.18547337 -0.2754058
-0.089991726 -0.11547002 -0.21469317 -0.09120202 -0.3806622 -0.3577144 -0.4074263 -0.26912835
0.3126771 -0.2368158 0.14369202 -0.6102156 -0.12733522 -0.3099931 -0.29605904 0.005162073
-0.043851674 -0.3039529 -0.1983983 -0.28446418 -0.26148668 -0.35841066 -0.17283033 -0.057036024
-0.21500325 -0.2215791 -0.14551719 -0.02823839 -0.21669026 -0.23579583 -0.30237845 -0.12540606
-0.12828606 0.0027028855 -0.08087465 -0.44441614 -0.2198102 -0.21786039 -0.13781029 -0.1484025
-0.1742212 -0.15117344 -0.099188104 -0.23581484 -0.2484023 0.018338207 -0.10298652 -0.2343076
-0.48511845 -0.36106208 -0.25278583 -0.19626041 -0.107336245 -0.2401092 -0.12066851 -0.28381312
-0.0848657 -0.36653146 -0.24600269 -0.23267733 -0.4335361 -0.057997014 -0.25712982 0.04034316
-0.15327339 -0.4597001 -0.13955642 -0.11520143 -0.2701568 -0.33477435 -0.06474124 -0.08354073
-0.0373306 -0.17379063 -0.13300169 -0.17461072 -0.19701596 -0.26913604 -0.45216724 -0.19645967
-0.379537 -0.31830487 -0.26345488 -0.42601913 -0.13516028 -0.16516295 -0.22002529 -0.09618903
-0.36166632 -0.24045533 -0.2759767 -0.10921404 -0.3400382 -0.12498333 -0.3148894 -0.2169784
-0.14661017 -0.31546053 -0.48857638 -0.6366359 -0.33669558 -0.20448412 -0.08500912 -0.31630385
-0.27467814 -0.08690856 -0.3454457 -0.070192136 -0.023924956 -0.2844834 -0.16867417 -0.2789619
-0.17842627 -0.43438336 -0.3094597 -0.1754798 -0.15242858 -0.30891785 -0.12366507 -0.085845955
-0.11003838 -0.36995456 -0.060081556 -0.51036 -0.05197495 -0.1569087 -0.20636103 -0.29501027
0.02701499 -0.027104352 -0.11081051 -0.06985085 -0.367376 -0.41972807 -0.22180435 -0.46329302
-0.7222211 -0.2873645 -0.11773039 -0.38181797 -0.20681407 -0.15186998 -0.13180552 -0.61515325
-0.21403216 -0.17845725 -0.17063777 -0.16732256 -0.15775532 -0.20427285 -0.28789592 -0.39674097
-0.23446177 -0.24235617 0.08196254 -0.25410816 -0.2798309 -0.21583785 -0.71359825 -0.18523036
-0.15288569 -0.29242674 -0.06866433 -0.2950132 -0.22942999 0.053030416 -0.27215794 -0.36827746
-0.2629254 -0.07531211 -0.19574282 -0.4219817 -0.30613253 -0.10207885 -0.18616347 -0.21028934
-0.093172744 -0.353554 -0.35639694 -0.3436436 -0.069465764 -0.5180947 0.025546916 -0.07305662
-0.07999047 -0.09798444 -0.06236594 -0.42249924 -0.29047233 -0.21648034 -0.042932622 -0.4619067
00000000: 99e3 74be 6520 dbbd 00ab 91be 731c 9ebe
00000010: eef4 1abe 8a9b 1dbe 98a4 39be 345c 4ebf
00000020: 44ab 88bd 109c 2fbd 7558 7dbe 321e 9abe
00000030: 8f2f 0ebe b7d2 15be bd64 adbe 06b2 04be
00000040: e7d8 a4be 2649 cfbd e90c c9be 010c f8bd
00000050: d228 afbe fa5a 36be 8d5c 3dbe a206 65bb
00000060: 7122 34be d214 8bbe e31f 95be 5e2a debe
00000070: 0edf 18be a888 7dbe 54f0 4abe 6625 7ebd
00000080: 678f 09be c16b 7b3d a0ca 28bf 2fc2 0fbf
00000090: d7c1 18be c2a7 cebe 28a8 4fbc c8b6 46be
000000a0: c02e 14bf fd71 2bbe 7270 e1bd f33e d5bd
000000b0: 40e6 90be d62f 2fbe f127 19be b145 65be
000000c0: 84e3 a2be 1f2a a4be 6014 8ebd 33a6 d7be
000000d0: b3bf 20be b4d8 d4bd 6f7d f9bd 7beb 26bf
000000e0: 48a4 33be d1b0 bdbe 37aa ecbd ac8d 77be
000000f0: c255 18be 14ce 96be bbec 3dbe fd01 8dbe
00000100: 954d b8bd 8c7b ecbd 87d8 5bbe 20c8 babd
00000110: 28e6 c2be 5826 b7be 2e9a d0be 31cb 89be
00000120: 3617 a03e d77f 72be 0024 133e 1737 1cbf
00000130: 2a64 02be 6ab7 9ebe 0d95 97be 9b26 a93b
00000140: d09d 33bd b79f 9bbe ed28 4bbe 4aa5 91be
00000150: 95e1 85be 9a81 b7be 6ffa 30be 9b9e 69bd
00000160: d029 5cbe a2e5 62be 7502 15be 3254 e7bc
00000170: 0de4 5dbe 7674 71be 59d1 9abe 726a 00be
00000180: 6c5d 03be e522 313b 9ca1 a5bd 838a e3be
00000190: ed15 61be cb16 5fbe 241e 0dbe d3f6 17be
000001a0: 0b67 32be 36cd 1abe 2223 cbbd 7279 71be
000001b0: 2c5d 7ebe 023a 963c 99ea d2bd 55ee 6fbe
000001c0: 7261 f8be 21dd b8be 256d 81be 7df8 48be
000001d0: 1bd3 dbbd 30df 75be 0d21 f7bd f44f 91be
000001e0: 11ce adbd 03aa bbbe 21e8 7bbe f742 6ebe
000001f0: 72f8 ddbe 478e 6dbd 85a6 83be df3e 253d
00000200: b3f3 1cbe d05d ebbe e1e7 0ebe baee ebbd
00000210: fe51 8abe 8b67 abbe 0e97 84bd 6717 abbd
00000220: f9e7 18bd 2cf6 31be 9831 08be 27cd 32be
00000230: 8dbe 49be 33cc 89be 7782 e7be b92c 49be
00000240: ac52 c2be dbf8 a2be 8fe3 86be 2e1f dabe
00000250: 7567 0abe 7a20 29be 4f4e 61be c1fe c4bd
00000260: 542c b9be ec39 76be d14c 8dbe 9cab dfbd
00000270: 7d19 aebe 43f7 ffbd 2f39 a1be 962f 5ebe
00000280: fa20 16be 0b84 a1be af26 fabe 92fa 22bf
00000290: 5d63 acbe 4964 51be 4319 aebd 94f2 a1be
000002a0: 9da2 8cbe 1dfd b1bd 42de b0be e5c0 8fbd
000002b0: 45fe c3bc cfa7 91be ecb8 2cbe 18d4 8ebe
000002c0: 60b5 36be 7f67 debe 8071 9ebe fab0 33be
000002d0: 3d16 1cbe 7b2a 9ebe 1d44 fdbd 01d0 afbd
000002e0: cd5b e1bd af6a bdbe 1418 76bd f4a6 02bf
000002f0: afe3 54bd adac 20be 4e50 53be 960b 97be
00000300: 8a4e dd3c f209 debc 9ff0 e2bd f60d 8fbd
00000310: b518 bcbe 99e6 d6be ae20 63be be34 edbe
00000320: 7be3 38bf 7121 93be a11c f1bd a57d c3be
00000330: 11c7 53be ce83 1bbe 07f8 06be af7a 1dbf
00000340: 3f2b 5bbe 7fbd 36be abbb 2ebe 9b56 2bbe
00000350: 9c8a 21be e72c 51be 1867 93be a221 cbbe
00000360: bf16 70be 372c 78be fadb a73d 771a 82be
00000370: ff45 8fbe 9904 5dbe 60ae 36bf 07ad 3dbe
00000380: 118e 1cbe f5b8 95be e29f 8cbd f80b 97be
00000390: b2ef 6abe 6c36 593d 4958 8bbe dd8e bcbe
000003a0: 289e 86be 3c3d 9abd ce70 48be fc0d d8be
000003b0: 67bd 9cbe b70e d1bd a3a1 3ebe 1756 57be
000003c0: 5ad1 bebd 0805 b5be a979 b6be 0ef2 afbe
000003d0: 1144 8ebd dba1 04bf c447 d13c b69e 95bd
000003e0: 0bd2 a3bd 11ac c8bd 6e73 7fbd d251 d8be
000003f0: cab8 94be 06ad 5dbe 1eda 2fbd 097f ecbe

fc2.weight f4 [256, 512]
0.058049586 -0.2420249 -0.42381704 -0.21206698 -0.19937195 0.12405378 0.19079228 0.2662015
0.35213017 0.055345263 0.11689131 -0.2876134 -0.09601794 -0.34217775 0.5374237 -0.15712231
0.22235046 -0.1232931 0.124786824 0.047714062 0.25156775 -0.33892068 0.14857481 0.13674358
0.27470794 -0.21876618 -0.42602754 0.15305848 -0.311833 0.06255716 -0.33673993 -0.054354724
-0.4434493 -0.056386854 -0.13510051 -0.15703152 -0.0588444 0.18760392 -0.22114511 -0.044793207
-0.049260933 0.33062485 -0.037603434 -0.44016635 0.15176697 0.07302164 0.10149945 0.39059493
0.24281943 -0.013156115 -0.28555495 -0.34900123 -0.08724972 0.075092256 -0.13572249 -0.007979012
0.04655754 0.04210114 0.0001076471 -0.47969916 0.0801773 0.38033444 -0.05030758 -0.09045192
0.0014065582 0.027984159 -0.03388528 -0.4742938 -0.034347467 -0.11800843 0.084224544 -0.41254604
-0.0637982 -0.17396319 -0.24406861 -0.055755414 -0.21695022 -0.29545337 -0.013953642 -0.1310582
-0.3298444 -0.13534813 0.16461657 -0.1270473 0.11914848 0.12977879 -0.16646399 0.045065872
-0.12479363 0.26900187 0.27698344 0.058312487 0.16011426 0.23588969 -0.020453101 -0.52375233
0.4522074 -0.14616396 -0.09992583 -0.6262559 0.25215718 -0.45008442 0.035420217 0.3873172
0.17886123 0.16179231 0.097985804 -0.4189634 0.0038721696 0.29142487 0.08542098 0.28504702
-0.004366395 0.3439604 0.6156374 0.05142819 -0.066015854 0.17303637 0.083671674 0.053602625
-0.28358108 0.08469412 -0.10806555 0.0730451 0.06750744 -0.4865885 0.020799408 -0.11964541
0.22126587 0.053318664 0.16360088 -0.06374121 -0.37219197 -0.28089312 0.21931861 0.13744868
-0.06404481 -0.13820349 -0.25166386 -0.12949054 0.19140653 -0.2698198 -0.12106829 -0.0088406615
0.04999698 0.2305736 -0.17824289 0.18173952 -0.05674803 -0.006035164 0.0018297314 -0.13098185
-0.07828152 0.25117642 -0.20296384 -0.024048321 0.070507824 0.37507963 -0.33590242 -0.22390692
-0.15196389 0.19254324 0.041587796 0.036436524 -0.38430125 0.32113993 -0.12548517 -0.28589997
0.23141672 0.32990506 -0.10339617 -0.0864318 0.32988948 0.26159275 -0.15993284 -0.09807476
-0.182371 0.11903094 -0.28532043 -0.030278526 -0.52958035 -0.23152082 0.11081746 0.12904581
0.32255092 -0.018075539 0.0041216444 0.27452162 -0.010562157 -0.48078495 -0.22528206 -0.108248636
-0.47834697 0.43537608 -0.0008802979 -0.24320436 -0.039660774 -0.4297743 -0.15920416 -0.34812784
0.05575012 0.074149825 -0.07116889 0.1603039 -0.34843904 -0.1502854 0.07875242 -0.2264167
0.2015042 -0.008168913 -0.08544137 0.10401286 0.076355696 -0.07470572 0.3825484 -0.2560903
-0.056847554 0.005209658 -0.2116526 0.3330717 -0.2708246 -0.12013098 -0.020957965 0.0070447163
0.2126281 0.6417761 -0.037494004 0.13957427 -0.081641965 -0.020582406 0.040264808 0.15457752
-0.36247894 0.35000315 0.1542698 0.25961635 -0.14031984 -0.2231293 0.42805353 0.14784366
0.12492361 -0.446681 0.08160317 -0.4412234 -0.20192023 -0.79891354 -0.01089663 -0.15814872
-0.42708132 -0.021634752 0.06524261 0.05654597 0.39688963 0.02254075 -0.03427802 -0.2366456
00000000: 67c5 6d3d 60d5 77be 8cfe d8be 1628 59be
00000010: 2928 4cbe e90f fe3d 0d5f 433e 904b 883e
00000020: 684a b43e b7b1 623d b664 ef3d 1042 93be
00000030: 0ea5 c4bd ec31 afbe 9994 093f ace4 20be
00000040: d7af 633e 1881 fcbd 3c90 ff3d d26f 433d
00000050: 7dcd 803e 0387 adbe ff23 183e 8206 0c3e
00000060: 85a6 8c3e 3e04 60be 4820 dabe 5dbb 1c3e
00000070: 93a8 9fbe f81d 803d 2d69 acbe 0fa3 5ebd
00000080: c90b e3be e7f5 66bd ca57 0abe dfcc 20be
00000090: d306 71bd 3e1b 403e dd73 62be 1579 37bd
000000a0: d5c5 49bd a947 a93e 0f06 1abd 7c5d e1be
000000b0: cd68 1b3e 5f8c 953d f2de cf3d 0ffc c73e
000000c0: a8a5 783e bf8c 57bc 4234 92be 4ab0 b2be
000000d0: fbaf b2bd f8c9 993d d6fa 0abe 67ba 02bc
000000e0: 1eb3 3e3d 3f72 2c3d 99c0 e138 219b f5be
000000f0: ff33 a43d 32bb c23e 520f 4ebd db3e b9bd
00000100: 435c b83a 093f e53c 4bcb 0abd a3d6 f2be
00000110: eeaf 0cbd 67ae f1bd eb7d ac3d 3c39 d3be
00000120: a1a8 82bd 6823 32be 1fed 79be ca5f 64bd
00000130: 3328 5ebe aa45 97be d19d 64bc 1f34 06be
00000140: 5de1 a8be b398 0abe 3f91 283e b018 02be
00000150: 1e04 f43d bbe4 043e 8975 2abe fe96 383d
00000160: cd93 ffbd 9dba 893e c6d0 8d3e 13d9 6e3d
00000170: fef4 233e 118d 713e 438d a7bc a214 06bf
00000180: ba87 e73e 01ac 15be eaa5 ccbd 4f52 20bf
00000190: bf1a 813e 7771 e6be ca14 113d 714e c63e
000001a0: 6627 373e e2ac 253e c8ac c83d 5f82 d6be
000001b0: 3ac4 7d3b a435 953e 32f1 ae3d aff1 913e
000001c0: fa13 8fbb 941b b03e 6a9a 1d3f 5ea6 523d
000001d0: 5233 87bd 7230 313e 0e5c ab3d 6d8e 5b3d
000001e0: 8a31 91be 1c74 ad3d 7951 ddbd ab98 953d
000001f0: 5741 8a3d 2122 f9be 8563 aa3c a708 f5bd
00000200: 8593 623e ac64 5a3d fd86 273e c08a 82bd
00000210: f28f bebe 39d1 8fbe 0f95 603e 59bf 0c3e
00000220: ed29 83bd 3785 0dbe 16da 80be 2b99 04be
00000230: 1300 443e d225 8abe a7f2 f7bd 6cd8 10bc
00000240: a2c9 4c3d 7c1b 6c3e 4e85 36be ed19 3a3e
00000250: 9f70 68bd a0c2 c5bb 99d3 ef3a 1b20 06be
00000260: 1052 a0bd 329a 803e c1d5 4fbe fc00 c5bc
00000270: 6866 903d 700a c03e 67fb abbe db47 65be
00000280: 6c9c 1bbe 0e2a 453e f757 2a3d 773e 153d
00000290: 22c3 c4be 746c a43e 2f7f 00be 7b61 92be
000002a0: 81f8 6c3e 51e9 a83e 5fc1 d3bd 2803 b1bd
000002b0: 46e7 a83e 7cef 853e 6fc5 23be 6bdb c8bd
000002c0: 77bf 3abe 7ec6 f33d 8515 92be ac0a f8bc
000002d0: 9492 07bf cb13 6dbe 44f4 e23d 9624 043e
000002e0: 6525 a53e 2713 94bc dc0e 873b 198e 8c3e
000002f0: e60c 2dbc 7229 f6be 57b0 66be 76b1 ddbd
00000300: e5e9 f4be 9de9 de3e cbc3 66ba 900a 79be
00000310: 5673 22bd 610b dcbe 6a06 23be d03d b2be
00000320: 3d5a 643d dddb 973d ffc0 91bd b526 243e
00000330: 9a66 b2be 6ae4 19be f348 a13d c8d9 67be
00000340: 1e57 4e3e e8d6 05bc e3fb aebd b204 d53d
00000350: 6060 9c3d 50ff 98bd 62dd c33e 451e 83be
00000360: fbd8 68bd c7b5 aa3b 76bb 58be 6088 aa3e
00000370: 86a9 8abe 3b07 f6bd 0ab0 abbc 5dd7 e63b
00000380: 2ebb 593e 704b 243f 5093 19bd 8fec 0e3e
00000390: e733 a7bd 6f9c a8bc b6ec 243d 9249 1e3e
000003a0: d796 b9be 9d33 b33e e7f8 1d3e 6fec 843e
000003b0: 01b0 0fbe 027c 64be d529 db3e 5464 173e
000003c0: f3d7 ff3d 5fb3 e4be 901f a73d 09e8 e1be
000003d0: 2dc4 4ebe 9985 4cbf c787 32bc bdf1 21be
000003e0: 67aa dabe 5d3b b1bc eb9d 853d bf9c 673d
000003f0: 1e35 cb3e 61a7 b83c 1c67 0cbd 3953 72be

fc2.bias f4 [256]
-0.059069738 -0.12744221 -0.5617672 -0.040235795 -0.048660684 0.07138573 -0.09890312 0.075693764
0.1522054 0.1887596 -0.08641357 0.0110595105 0.0849481 0.028353041 0.42401722 0.0047052205
0.020591618 -0.080992684 -0.013644868 0.08227594 -0.05320427 -0.25385326 0.08620024 -0.18276732
0.03462135 -0.026429314 0.012023125 0.010948482 -0.103191234 -0.35629806 0.08011064 0.24501859
-0.009531079 -0.28976196 0.07284452 0.19994745 0.22191891 0.15908328 0.09358294 0.0025318407
-0.042996235 -0.04058376 0.08748368 -0.058376364 -0.28496987 -0.24309707 -0.04575551 0.095647916
-0.0992595 0.123841606 0.03507126 0.15563846 0.10069242 0.0050788 -0.29980376 0.14722334
-0.040622354 0.16687343 -0.3116372 0.03935197 0.042401046 0.17581692 0.018801898 0.16111143
0.10133528 0.27998647 -0.012063504 -0.17573334 0.17897071 0.16060448 -0.074438825 0.20562772
-0.023944076 0.030414928 -0.050633524 -0.10263693 -0.014292307 -0.57551074 -0.10872893 0.023563532
0.05432273 0.09807399 0.012211001 -0.019240135 -0.3994607 -0.11216894 0.42931688 0.11018233
0.08593495 -0.28564972 -0.11906146 0.19989671 0.017680597 0.08244224 0.033548713 -0.11103641
-0.020024037 0.032740973 -0.1222141 0.16677983 -0.00039532254 0.13968682 0.031566035 -0.054502796
0.09214055 0.24251606 0.017206313 0.2934185 0.22250943 -0.005195007 0.01254609 0.58151466
-0.035804685 0.0889169 -0.20320764 0.06264596 -0.20265481 0.14266922 -0.011310225 -0.043046467
-0.608415 0.014047194 0.044478208 0.19903575 -0.018729797 0.31125352 -0.22713938 -0.019043442
0.08017731 -0.25784698 -0.019782491 0.24701174 -0.057487056 -0.020491157 -0.06331182 -0.2775099
-0.10071902 0.046687335 -0.049658492 0.06988557 -0.25227952 0.07852531 -0.18620956 -0.10906865
0.117556356 0.012762955 -0.088388965 0.10323025 0.15058364 -0.101806566 0.08471844 -0.39189452
-0.043665726 0.110386364 -0.05104295 -0.45363185 -0.034852296 -0.02307268 0.10829341 0.08236981
0.12693973 -0.017324805 0.10134334 0.15622543 -0.0700848 0.018683152 -0.11913696 0.32883367
-0.32992214 0.32744345 -0.057625 0.037681 0.10953175 0.23703341 -0.006346803 -0.029008476
0.28704324 0.08584147 -0.19566607 0.21326904 0.08904059 -0.055843968 0.27185005 0.08325968
0.29506862 0.09563431 -0.03595731 0.26864356 0.08535916 0.019257946 -0.046790205 0.0044795466
0.32827565 0.07923729 -0.15230829 0.09189832 -0.13003848 -0.019529698 0.31794602 0.13776056
-0.067598104 -0.03238004 0.021461774 0.10289347 0.16546091 0.03767497 0.001626612 0.33832186
0.20891854 0.16582327 0.041736383 -0.24079451 -0.09677248 -0.29941922 -0.113447 -0.2216072
0.14294204 0.0013979177 0.14794135 -0.04045901 -0.009318986 0.16970772 -0.12824099 0.105284974
-0.052438885 -0.58402854 -0.045355547 -0.89943355 -0.20907807 -0.037754744 -0.06809098 -0.14184713
0.25642997 0.42942685 0.021414965 -0.027874818 -0.18566284 -0.37659684 0.0066506634 -0.22883767
-0.08161145 -0.21831179 0.1270844 -0.040084306 0.15141281 -0.15473868 0.15236822 0.19625275
-0.42722008 0.0072793085 -0.3377086 -0.06614783 0.13402236 -0.23772241 -0.16466057 0.057160776
00000000: 1cf3 71bd 3680 02be facf 0fbf 4ace 24bd
00000010: 6d50 47bd ae32 923d b88d cabd 5505 9b3d
00000020: bbdb 1b3e 324a 413e 99f9 b0bd f332 353c
00000030: 45f9 ad3d a344 e83c c918 d93e 402e 9a3b
00000040: c1af a83c 7edf a5bd b98e 5fbc 4a80 a83d
00000050: b8ec 59bd 0ef9 81be c089 b03d 5b27 3bbe
00000060: 1ecf 0d3d 4a82 d8bc a4fc 443c 4361 333c
00000070: ed55 d3bd b36c b6be 0c11 a43d 27e6 7a3e
00000080: 3e28 1cbc ae5b 94be 822f 953d 06bf 4c3e
00000090: b63e 633e bae6 223e 6aa8 bf3d 3ded 253b
000000a0: d21c 30bd 283b 26bd a52a b33d 0e1c 6fbd
000000b0: 92e7 91be 70ee 78be 216a 3bbd 0ee3 c33d
000000c0: 9148 cbbd aba0 fd3d e2a6 0f3d b05f 1f3e
000000d0: d437 ce3d 106c a63b e17f 99be b7c1 163e
000000e0: a063 26bd dee0 2a3e e98e 9fbe 882f 213d
000000f0: b8ac 2d3d 5a09 343e 7006 9a3c 65fa 243e
00000100: df88 cf3d 635a 8f3e 01a6 45bc 71f3 33be
00000110: 1944 373e 8075 243e 6273 98bd 1390 523e
00000120: 5e26 c4bc ba28 f93c 1965 4fbd 5033 d2bd
00000130: 482a 6abc ac54 13bf 46ad debd 4f08 c13c
00000140: 8381 5e3d 04db c83d a610 483c 7d9d 9dbc
00000150: 1d86 ccbe d4b8 e5bd 6ccf db3e 46a7 e13d
00000160: aafe af3d ae40 92be 7fd6 f3bd b9b1 4c3e
00000170: e6d6 903c 7ad7 a83d 606a 093d 0f67 e3bd
00000180: 7309 a4bc 661b 063d 634b fabd 55c8 2a3e
00000190: 4b43 cfb9 100a 0f3e 634b 013d 533e 5fbd
000001a0: 2fb4 bc3d 2156 783e 41f4 8c3c f33a 963e
000001b0: 83d9 633e e13a aabb 1e8e 4d3c 25de 143f
000001c0: efa7 12bd 101a b63d aa15 50be 864c 803d
000001d0: be84 4fbe e117 123e 864e 39bc 7e51 30bd
000001e0: 16c1 1bbf 3426 663c c82e 363d 07d0 4b3e
000001f0: 3b6f 99bc 9f5c 9f3e 3a97 68be fe00 9cbc
00000200: 0034 a43d 8504 84be e40e a2bc a5f0 7c3e
00000210: 8c77 6bbd 12dd a7bc a1a9 81bd c715 8ebe
00000220: c645 cebd 383b 3f3d b466 4bbd 2a20 8f3d
00000230: c82a 81be e1d1 a03d b8ad 3ebe 625f dfbd
00000240: 63c1 f03d b71b 513c 4605 b5bd 626a d33d
00000250: 9932 1a3e f67f d0bd dd80 ad3d 66a6 c8be
00000260: d5da 32bd 3f12 e23d 6a12 51bd 6f42 e8be
00000270: 48c1 0ebd eb02 bdbc efc8 dd3d 81b1 a83d
00000280: 7dfc 013e c0ec 8dbc 198d cf3d 8ff9 1f3e
00000290: 9f88 8fbd 690d 993c 14fe f3bd e35c a83e
000002a0: 8eeb a8be aba6 a73e 3108 6cbd 6457 1a3d
000002b0: 2f52 e03d e3b8 723e d8f8 cfbb 2fa3 edbc
000002c0: 55f7 923e a7cd af3d b05c 48be 3363 5a3e
000002d0: ea5a b63d a5bc 64bd ee2f 8b3e 0d84 aa3d
000002e0: 3c13 973e ecdb c33d f947 13bd a68b 893e
000002f0: c9d0 ae3d d7c2 9d3c 16a7 3fbd 29c9 923b
00000300: bf13 a83e 2947 a23d b4f6 1bbe 3035 bc3d
00000310: cf28 05be bffc 9fbc d2c9 a23e 1b11 0d3e
00000320: e070 8abd efa0 04bd 9ad0 af3c d0b9 d23d
00000330: 966e 293e 1251 1a3d 0b34 d53a 8638 ad3e
00000340: beee 553e 93cd 293e c5f3 2a3d d692 76be
00000350: a630 c6bd 7a4d 99be e756 e8bd ffec 62be
00000360: 665f 123e 563a b73a f07d 173e 59b8 25bd
00000370: a9ae 18bc dcc7 2d3e 9b51 03be a69f d73d
00000380: 28ca 56bd e582 15bf bdc6 39bd 4741 66bf
00000390: 9018 56be b8a4 1abd 4973 8bbd 6040 11be
000003a0: ca4a 833e d6dd db3e 706e af3c bb59 e4bc
000003b0: 661e 3ebe 4dd1 c0be cfed d93b 6c54 6abe
000003c0: e723 a7bd 208d 5fbe 6a22 023e 712f 24bd
000003d0: f60b 1b3e d173 1ebe 6a06 1c3e 7bf6 483e
000003e0: 97bc dabe 4487 ee3b 24e8 acbe 8378 87bd
000003f0: 283d 093e 816d 73be c89c 28be 6b21 6a3d

fc3.weight f4 [2, 256]
0.06339534 0.11617746 -0.059766404 -0.021148797 0.11777113 -0.05982938 -0.03361691 -0.5956484
0.34522957 -0.023883723 0.078150384 -0.016863441 -0.085558675 0.06359321 -0.09340187 -0.04435741
-0.039706208 0.48777086 -0.04731522 0.0009291944 0.029588971 0.015637958 0.030481933 -0.012893743
0.0038183338 0.07712988 -0.02281279 0.00058519753 -0.07601013 0.077033065 0.009697984 0.41483837
0.22313355 0.15540187 -0.0115745375 0.012148553 0.031744067 0.074819595 0.012228719 0.06634528
0.03940101 -0.025345165 0.61343527 -0.00042229486 0.06290449 0.09203213 -0.0567785 0.35558036
-0.008312143 -0.06865504 -0.013878957 -0.034488477 -0.03364708 -0.009229765 0.20792674 -0.10644578
0.051619522 0.031049468 -0.079973556 -0.0590251 -0.017957268 -0.014149946 0.009330206 -0.053281117
-0.043168887 -0.021144262 0.058183808 0.021884384 -0.00052565016 0.0012521447 -0.035591844 0.5383033
0.009599641 -0.00031387463 0.0026578812 0.4542601 -0.010004601 -0.6701932 0.030430978 -0.0066825384
0.044178102 0.019389482 0.43583298 0.008376726 0.15772487 -0.66222 -0.062064067 -0.008923936
0.021198513 0.18283768 -0.050516218 0.041521784 -0.011424694 -0.033115596 0.06569301 -0.17053773
0.03162443 -0.11010775 0.012557101 -0.042945407 0.011076724 0.6186316 0.06644222 -0.016392965
0.07535036 -0.030800765 0.016407944 -0.037446477 0.048935182 0.014711323 0.0610027 -0.05198435
-0.66184145 -0.054523222 0.12589316 0.3895599 -0.03270373 -0.031453703 -0.020347733 0.018500574
-0.5228738 -0.023935549 -0.18846262 -0.04558921 -0.038686827 -0.04339498 0.0025476324 0.0014417495
-0.014046238 -0.005682579 -0.008603794 -0.052269105 -0.03796293 0.019851822 -0.019823333 0.09266965
0.064613126 -0.637502 -0.036775235 -0.049331244 0.0145629635 -0.061616957 0.047336806 0.038929068
0.7010925 0.4645263 -0.04982123 -0.07769214 0.040362094 -0.22815278 -0.026270319 0.2094175
-0.004381944 0.0118462695 0.020075658 0.30879745 0.10674046 0.002577596 0.008203781 0.052153833
-0.033819754 -0.0061229984 0.048577998 0.008443694 -0.0028898388 -0.082622565 0.23194398 -0.055628654
-0.11985586 0.06404096 -0.035234485 -0.055906568 -0.013211848 0.006812702 -0.08544128 -0.020649573
0.0029148478 -0.0060735396 -0.010704613 -0.07049052 0.05776235 -0.024095792 -0.056591067 -0.059712067
0.029205205 -0.016077215 -0.04914001 0.038452018 -0.0295093 -0.023149688 -0.008171565 0.07286621
-0.07061359 -0.02808125 0.020435661 -0.09310219 0.018785708 0.21178736 0.038012456 0.037448585
0.03814215 -0.07347443 -0.076463886 -0.048797265 0.04072377 0.5477996 -0.050755795 -0.031894807
-0.0119896475 -0.040941376 0.2661074 0.17509794 0.12598427 -0.08188632 -0.498817 -0.15677063
0.70937836 0.08635104 0.010620449 -0.20448563 0.035750393 0.03317451 0.11015999 0.021462914
-0.027499562 0.11787579 -0.014694093 -0.4760493 0.08310447 -0.06829611 0.07231515 -0.0582998
0.011442328 0.06581055 0.48727196 -0.023966756 0.04365371 -0.10217814 -0.04001871 0.06634616
0.03714361 0.07861557 -0.04868196 0.20292798 0.055602748 0.031330977 0.020679919 -0.012842112
0.47091344 0.11030601 0.08786113 -0.023962723 0.35461837 -0.032586772 0.08736501 0.41580036
00000000: 6bd5 813d 73ee ed3d 9ecd 74bd 3e40 adbc
00000010: fd31 f13d a70f 75bd e3b1 09bd 6a7c 18bf
00000020: eec1 b03e cca7 c3bc 4f0d a03d 3325 8abc
00000030: 6339 afbd 283d 823d 7b49 bfbd 1eb0 35bd
00000040: faa2 22bd 1abd f93e 9bcd 41bd 2e95 733a
00000050: 9264 f23c 2d1b 803c 3fb5 f93c 4740 53bc
00000060: 033d 7a3b 45f6 9d3d e3e1 babc f167 193a
00000070: 33ab 9bbd 83c3 9d3d 4be4 1e3c b265 d43e
00000080: 1f7d 643e ab21 1f3e 21a3 3dbc b90a 473c
00000090: 1106 023d 043b 993d f75a 483c 09e0 873d
000000a0: f462 213d aaa0 cfbc 180a 1d3f 7567 ddb9
000000b0: 12d4 803d 577b bc3d 9390 68bd a10e b63e
000000c0: a82f 08bc 039b 8cbd 9164 63bc ca43 0dbd
000000d0: 85d1 09bd 7138 17bc bfea 543e 3f00 dabd
000000e0: fe6e 533d 745b fe3c 2dc9 a3bd 4ec4 71bd
000000f0: 1f1b 93bc 2dd5 67bc b8dd 183c 4d3d 5abd
00000100: dcd1 30bd bb36 adbc 2552 6e3d e146 b33c
00000110: c9cb 09ba 011f a43a c1c8 11bd 3fce 093f
00000120: d047 1d3c 8a8f a4b9 d92f 2e3b c894 e83e
00000130: 57ea 23bc c891 2bbf 634a f93c 32f9 dabb
00000140: 19f4 343d b1d6 9e3c 8025 df3e 893e 093c
00000150: a182 213e 4087 29bf e436 7ebd b335 12bc
00000160: 81a8 ad3c cd39 3b3e 18ea 4ebd bf12 2a3d
00000170: a42e 3bbc 38a4 07bd 0f8a 863d 71a1 2ebe
00000180: 9e88 013d 2c80 e1bd 4dbc 4d3c 86e7 2fbd
00000190: 267b 353c a45e 1e3f dc12 883d 8a4a 86bc
000001a0: 4a51 9a3d e351 fcbc f469 863c 7a61 19bd
000001b0: 4270 483d c307 713c f8dd 793d 8bed 54bd
000001c0: 716e 29bf be53 5fbd 23ea 003e 6574 c73e
000001d0: 59f4 05bd 99d5 00bd 4ab0 a6bc 848e 973c
000001e0: 0fdb 05bf 7c14 c4bc 58fc 40be c0bb 3abd
000001f0: 1476 1ebd efbe 31bd 2ef6 263b 16f9 bc3a
00000200: 3122 66bc ed34 babb edf6 0cbc 2118 56bd
00000210: 047f 1bbd 4aa0 a23c 8b64 a2bc 96c9 bd3d
00000220: e353 843d 5533 23bf a1a1 16bd 8f0f 4abd
00000230: 7f99 6e3c 1062 7cbd 3de4 413d 1674 1f3d
00000240: cc7a 333f 64d6 ed3e 5911 4cbd 0f1d 9fbd
00000250: b952 253d e2a0 69be da34 d7bc 8b71 563e
00000260: 6996 8fbb db16 423c b575 a43c b31a 9e3e
00000270: be9a da3d e3ec 283b 2769 063c 429f 553d
00000280: 9586 0abd 6fa3 c8bb b9f9 463d 6b57 0a3c
00000290: 7363 3dbb 0536 a9bd b982 6d3e dfda 63bd
000002a0: fd76 f5bd e827 833d 0952 10bd 49fe 64bd
000002b0: 8276 58bc 163d df3b d6fb aebd 4b29 a9bc
000002c0: 0807 3f3b 8b04 c7bb 6762 2fbc 555d 90bd
000002d0: 3798 6c3d 8a64 c5bc 09cc 67bd a494 74bd
000002e0: c13f ef3c 5db4 83bc 0947 49bd dd7f 1d3d
000002f0: 7dbd f1bc 6aa4 bdbc 07e2 05bc e13a 953d
00000300: dc9d 90bd a60a e6bc b068 a73c 5cac bebd
00000310: 7ce4 993c c9de 583e f3b2 1b3d b063 193d
00000320: f13a 1c3d c379 96bd 1999 9cbd a4df 47bd
00000330: f8cd 263d 983c 0c3f 4fe5 4fbd 21a4 02bd
00000340: 3a70 44bc 25b2 27bd 3b3f 883e e04c 333e
00000350: 0502 013e 04b4 a7bd f164 ffbe 7b88 20be
00000360: d299 353f d0d8 b03d 6401 2e3c ae64 51be
00000370: 016f 123d ffe1 073d 909b e13d fed2 af3c
00000380: c346 e1bc dd68 f13d 7ebf 70bc bcbc f3be
00000390: ad32 aa3d d5de 8bbd f719 943d c5cb 6ebd
000003a0: 9a78 3b3c aec7 863d b67b f93e ee55 c4bc
000003b0: 3cce 323d c642 d1bd a9ea 23bd 7fe0 873d
000003c0: e623 183d 3301 a13d bc66 47bd 5acc 4f3e
000003d0: b5bf 633d e954 003d ef68 a93c b967 52bc
000003e0: 911b f13e 1ee8 e13d 89f0 b33d 794d c4bc
000003f0: 8a90 b53e b579 05bd 6dec b23d c9e3 d43e

fc3.bias f4 [2]
-0.041959006 0.05550617
00000000: 35dd 2bbd 705a 633d

norm.weight f4 [26]
0.24660003 0.3649203 0.3449253 0.31627285 0.27273434 0.22761232 0.23203868 0.22249837
0.22033094 0.21420747 0.21619344 0.19423874 0.20254798 0.21248958 0.21932639 0.22757904
0.25119114 0.24722785 0.24442247 0.2489112 0.3672819 0.40381873 0.36175117 0.2249043
0.750663 0.5812868
00000000: b884 7c3e d5d6 ba3e 0d9a b03e 84ee a13e
00000010: d6a3 8b3e 3413 693e 8c9b 6d3e 9dd6 633e
00000020: 6f9e 613e 3459 5b3e d061 5d3e 85e6 463e
00000030: bd68 4f3e de96 593e 1997 603e 7b0a 693e
00000040: 209c 803e 4c29 7d3e e249 7a3e 94e2 7e3e
00000050: 600c bc3e 54c1 ce3e 7337 b93e 504d 663e
00000060: 732b 403f 36cf 143f

norm.bias f4 [26]
0.11524219 0.1478878 0.07354747 0.04101893 -0.0016431451 -0.038063575 -0.08719099 -0.07000843
-0.0844796 -0.05396555 -0.08412585 -0.0951986 -0.051958412 -0.040288385 -0.024564166 -0.019556805
-0.03608805 -0.057075832 -0.0003886444 0.006203544 0.06388935 0.19723336 0.14079964 0.10147224
0.06456589 0.24690539
00000000: 1904 ec3d e66f 173e 0ea0 963d 7703 283d
00000010: cd5e d7ba 8de8 1bbd 3191 b2bd 9460 8fbd
00000020: a403 adbd fb0a 5dbd 2c4a acbd 7cf7 c2bd
00000030: 58d2 54bd 6f05 25bd ca3a c9bc 9835 a0bc
00000040: 10d1 13bd 59c8 69bd f8c2 cbb9 1947 cb3b
00000050: 6bd8 823d 8bf7 493e c82d 103e aed0 cf3d
00000060: 1f3b 843d c4d4 7c3e

norm.running_mean f4 [26]
1.6131657 1.6600609 1.671246 1.6414769 1.5593512 1.5056574 1.4908514 1.5184761
1.5975591 1.6683805 1.7104164 1.7119856 1.6475722 1.6733774 1.6181325 1.609555
1.4662006 1.3510069 1.384211 1.5103142 1.5920783 1.6284456 1.6186609 1.6127445
0.027701646 1.2154418
00000000: 377c ce3f e07c d43f 64eb d53f ea1b d23f
00000010: d298 c73f 62b9 c03f 38d4 be3f 6d5d c23f
00000020: d17c cc3f 7e8d d53f edee da3f 5822 db3f
00000030: a5e3 d23f 3b31 d63f f71e cf3f e605 ce3f
00000040: 76ac bb3f cbed ac3f d32d b13f fa51 c13f
00000050: 39c9 cb3f e870 d03f 4830 cf3f 696e ce3f
00000060: 90ee e23c 9993 9b3f

norm.running_var f4 [26]
0.47368342 0.47886372 0.5370173 0.62571883 0.70196766 0.76248425 0.78792083 0.73087174
0.6772448 0.6220109 0.52801764 0.49762332 0.46934876 0.5587312 0.6076583 0.74279994
0.8269224 0.780515 0.79509956 0.7914828 0.7469933 0.596169 0.53550285 0.47306538
1.2213144 0.43728417
00000000: a286 f23e a02d f53e f779 093f 1c2f 203f
00000010: 27b4 333f 2b32 433f 2eb5 493f 691a 3b3f
00000020: ea5f 2d3f 1b3c 1f3f 2a2c 073f 7cc8 fe3e
00000030: 7b4e f03e 0209 0f3f 7f8f 1b3f 2328 3e3f
00000040: 30b1 533f d5cf 473f a58b 4b3f 9e9e 4a3f
00000050: f43a 3f3f 889e 183f b716 093f a035 f23e
00000060: 0854 9c3f b6e3 df3e
