turtlebot3_ddpg/save_model_ddpg/2020_11_29-07_10_23/stage_1_5150_actor.pth (torch_old, 584753 bytes, 10 tensors)

fc1.weight f4 [512, 26]
0	0xbda5418c	-0.08069143
1	0xbe162a86	-0.14664659
2	0xbd5db778	-0.054130048
3	0xbe3a1ad3	-0.18174295
4	0xbdff868e	-0.12476836
5	0xbdaec567	-0.08533745
6	0xbdb31853	-0.08744874
7	0xbdfa580b	-0.12223824
8	0xbd716a2c	-0.058939144
9	0xbe12f170	-0.14349914
10	0xbe255b2d	-0.16148062
11	0xbde883eb	-0.11353286
12	0xbe434af3	-0.1907156
13	0xbe782f0f	-0.24236701
14	0x3d7f5850	0.06234008
15	0xbe7e9f1b	-0.24865381
16	0xbcf6b388	-0.030114904
17	0xbe00fac5	-0.12595661
18	0xbe3b0706	-0.18264398
19	0xbe425cf1	-0.18980767
20	0xbe5b8b2d	-0.2143981
21	0xbde0cedb	-0.109769545
22	0xbdbd076f	-0.092299335
23	0xbe1fe355	-0.15614064
24	0x3c5ea17d	0.0135883065
25	0xbc0d2212	-0.00861408
26	0x3d4d1f3e	0.050078623
27	0xbc9a30ee	-0.01882216
28	0x3d97b96e	0.07408415
29	0x3e866be6	0.26254195
30	0x3e81fbc5	0.25387397
31	0x3d910892	0.07081713
32	0x3e34d348	0.17658722
33	0x3dc2f56e	0.09519468
34	0x3daa6c33	0.083214186
35	0x3e0b525a	0.13605633
36	0x3dd5438f	0.104132764
37	0xbd511d08	-0.051053077
38	0x3d86f8af	0.065904014
39	0x3ddd1774	0.10795489
40	0x3de05d8f	0.10955345
41	0x3e32d121	0.17462589
42	0xbdea5283	-0.11441519
43	0x3e3443fd	0.1760406
44	0x3d0d8186	0.03454735
45	0x3d5b67ad	0.05356567
46	0x3ea7cc86	0.32773226
47	0x3da52061	0.080628164
48	0xbeabb8f5	-0.3353955
49	0xbd673d4d	-0.056454945
50	0x3ec216ae	0.37907928
51	0x3c6a0617	0.0142836785
52	0x3d873a74	0.06602946
53	0x3df84a54	0.12123552
54	0xbc987b18	-0.018613383
55	0x3daef2a4	0.08542374
56	0xbe557cff	-0.20848463
57	0x3bfcb4ca	0.0077119814
58	0x3e724522	0.23659185
59	0xbdb0de29	-0.08636124
60	0x3e328f50	0.17437482
61	0x3d80e48d	0.062935926
62	0x3e15f7ca	0.14645305
63	0x3d2a5c6a	0.04159204
64	0x3dd4d38d	0.103919126
65	0x3dc99aad	0.09843955
66	0xbd02a3a2	-0.031894334
67	0xbc0ab4c2	-0.008465948
68	0xbe1c828a	-0.15284172
69	0xbe41b3af	-0.189162
70	0xbea71266	-0.32631224
71	0x3d2f2c77	0.042767014
72	0x3ed32edd	0.4124669
73	0xbe934f96	-0.28771657
74	0x3e854dc0	0.2603588
75	0x3d493fb7	0.04913303
76	0xbe5d5f5b	-0.21618406
77	0x3e3ea3b5	0.18617137
78	0x3d155eb3	0.036467265
79	0xbcb48925	-0.022038052
80	0xbd762440	-0.060093164
81	0x3dbf699b	0.093463145
82	0x3e6d851c	0.23195308
83	0x3d6ca815	0.057777483
84	0xbe0df793	-0.13863973
85	0x3d10d22f	0.035356697
86	0xbe320808	-0.17385876
87	0x3d8d8315	0.069097675
88	0x3e077a8b	0.1323034
89	0xbd1be01b	-0.03805552
90	0xbe33cb19	-0.17557944
91	0xbdc80271	-0.09766091
92	0xbe486f99	-0.19573821
93	0xbdb9d3a9	-0.09073574
94	0x3e27df33	0.16393737
95	0xbeaae453	-0.33377323
96	0xbe9218b0	-0.2853446
97	0x3d7ba1d8	0.061433643
98	0x3e28c4d1	0.1648133
99	0x3e49c4cb	0.19703977
100	0xbe239273	-0.15973835
101	0x3e91308e	0.28357357
102	0xbe08f487	-0.1337453
103	0x3e7e855f	0.24855565
104	0xbd123381	-0.03569365
105	0x3e1ab9e7	0.15109979
106	0x3e82e670	0.25566435
107	0xbcb06148	-0.021530762
108	0xbe6868f8	-0.22696292
109	0xbd729412	-0.059223242
110	0x3d9c8a4c	0.076435655
111	0x3e836550	0.25663233
112	0x3e916b37	0.2840211
113	0xbe2f5d75	-0.17125495
114	0xbe06e59c	-0.13173527
115	0x3e0acc18	0.13554418
116	0x3d372b45	0.044719
117	0xbd42ff22	-0.047606595
118	0xbe577565	-0.21040876
119	0x3e82d29c	0.25551307
120	0x3df4f48e	0.119607076
121	0x3d950600	0.07276535
122	0x3d1a3890	0.0376516
123	0xbe298986	-0.16556367
124	0x3d11a877	0.03556105
125	0xbcedda2a	-0.029034693
126	0x3e07a178	0.13245189
127	0xbdda7a61	-0.10667873
128	0xbd48230f	-0.04886156
129	0xbdb89d22	-0.09014346
130	0xbdf7d352	-0.12100853
131	0xbdfced85	-0.12349991
132	0x3e96a23b	0.29420647
133	0xbd092663	-0.033483874
134	0xbe23aabe	-0.15983102
135	0xbe016439	-0.12635888
136	0x3d9c16fe	0.07621573
137	0x3d8264aa	0.063668564
138	0x3e54ebf4	0.20793134
139	0x3ddb459a	0.10706635
140	0x3e860b9a	0.26180726
141	0xbc9ecc94	-0.01938466
142	0x3e4b8186	0.19873628
143	0xbd060f5f	-0.032729503
144	0x3ec381af	0.38184878
145	0x3dd8a575	0.105784334
146	0x3e41b867	0.18918
147	0xbbfd843f	-0.007736712
148	0xbe27234d	-0.1632206
149	0xbe007ccb	-0.12547605
150	0x3e483fa1	0.19555523
151	0xbd43f823	-0.047844063
152	0x3e43252c	0.19057149
153	0xbe2de3d9	-0.16981448
154	0x3d54e882	0.05197955
155	0xbc459343	-0.012059036
156	0xbdc74a98	-0.097310245
157	0x3e227704	0.15865713
158	0xbdb89397	-0.090125255
159	0xbdcbb157	-0.09945934
160	0xbe15a5a8	-0.14613974
161	0x3d0deb3c	0.034648165
162	0x3e4c2c79	0.1993884
163	0xbe9d5330	-0.3072753
164	0xbb03c4d9	-0.0020106344
165	0xbe87b3ea	-0.2650445
166	0xbd325406	-0.043537162
167	0x3d74a48c	0.059727237
168	0x3e63f812	0.222626
169	0x3e6681d1	0.22510459
170	0x3ea5ede2	0.32408053
171	0x3de58ba0	0.11208272
172	0xbe297c69	-0.16551365
173	0xbe052d03	-0.13005452
174	0x3dcb495b	0.09926101
175	0xbd6d738d	-0.057971526
176	0xbde103e9	-0.10987074
177	0x3d28fd8f	0.041257437
178	0x3e309a97	0.17246471
179	0xbddc62f5	-0.10761062
180	0x3d45f8fc	0.048333153
181	0x3e431ebb	0.19054691
182	0x3e1209e9	0.14261593
183	0xbcad6b3b	-0.021169296
184	0xbd803d29	-0.062616654
185	0xbe8d8732	-0.27642208
186	0xbe00b550	-0.12569165
187	0xbdd021ac	-0.101626724
188	0xbe26692c	-0.16251057
189	0xbe3dc2b4	-0.18531305
190	0xbe90efc6	-0.28307933
191	0xbd2e5345	-0.04255988
192	0x3d6ee62f	0.05832499
193	0xbd3966c3	-0.045264017
194	0xbdbfbeb0	-0.09362543
195	0xbce75cd6	-0.02824251
196	0xbbbb5d3e	-0.0057179024
197	0x3e5df5da	0.21675816
198	0x3e032bfa	0.12809744
199	0xbe20bca6	-0.15696964
200	0x3e00a4eb	0.12562911
201	0x3e0cdf35	0.13757022
202	0x3e1ac8f5	0.15115722
203	0x3d460c84	0.04835178
204	0x3dcdf77d	0.1005697
205	0xbdd80e90	-0.105496526
206	0x3edeab13	0.43489894
207	0xbcb33554	-0.021876015
208	0x3d23883f	0.039924856
209	0xbdc2dcd1	-0.09514774
210	0xbc6b2042	-0.014350953
211	0x3b7abbe7	0.0038258971
212	0x3d9a466a	0.07532962
213	0x3e11c17f	0.14233969
214	0xbd88083c	-0.066421956
215	0x3e1035a0	0.14082956
216	0x3d22c254	0.039736107
217	0x3dcb8fd9	0.09939546
218	0x3d7f1a4b	0.062280934
219	0x3d7ed0ec	0.062210962
220	0x3e7fee92	0.24993351
221	0xbdea1c42	-0.11431171
222	0x3d8744d3	0.06604924
223	0x3dcb0db2	0.099147215
224	0x3d727b59	0.059199665
225	0xbd983f63	-0.07433965
226	0xbe94536e	-0.28969902
227	0x3d649145	0.055802602
228	0x3ec1a3bd	0.37820235
229	0xbc0724c0	-0.008248508
230	0xbd9b36d7	-0.07578819
231	0x3c878957	0.01654498
232	0x3da4d282	0.08047964
233	0xbd48ae16	-0.048994146
234	0x3e4b0209	0.19824995
235	0xbceaa2a6	-0.02864201
236	0xbc8c7d94	-0.017149724
237	0x3e1ce43f	0.15321444
238	0x3c937eb4	0.018004753
239	0xbe171870	-0.14755416
240	0x3e40127b	0.1875705
241	0xbcc37c85	-0.023863086
242	0x3e379ac4	0.17930132
243	0xbcf21fa0	-0.029556096
244	0x3d8404e7	0.064462475
245	0xbcc6420c	-0.024201415
246	0xbdd74154	-0.10510507
247	0x3e46b9c1	0.19406797
248	0x3d8f11ff	0.06985854
249	0xbe3c171f	-0.18368195
250	0xbe7edc08	-0.24888623
251	0xbcc7b8b5	-0.024380067
252	0xbee56ba5	-0.4480869
253	0x3b0afcd7	0.0021207833
254	0x3e63cf13	0.22246961
255	0x3dfc1158	0.123079956

fc1.bias f4 [512]
0	0xbe248746	-0.16067228
1	0xbdd7b416	-0.105323955
2	0xbea72bdf	-0.32650658
3	0xbebdffac	-0.37109125
4	0xbe3f3fa7	-0.18676625
5	0xbe517f9d	-0.20458837
6	0xbe7889d9	-0.24271335
7	0xbf463aa4	-0.7743323
8	0x3d127a9d	0.035761464
9	0xbdda4c25	-0.10659055
10	0xbe8460f1	-0.2585521
11	0xbe4ea179	-0.20178784
12	0xbdd71f57	-0.105040245
13	0xbbeddb79	-0.007258829
14	0xbee5fee7	-0.44921038
15	0xbdf95eeb	-0.12176307
16	0xbeaf241c	-0.34207237
17	0xbd7f41b3	-0.062318515
18	0xbf059ef2	-0.52195656
19	0xbdc5dace	-0.09660874
20	0xbebef6c1	-0.37297633
21	0xbe1caca3	-0.1530023
22	0xbe745ac0	-0.23862743
23	0x3dff4b14	0.12465492
24	0xbd935b3f	-0.07195138
25	0xbe6188d5	-0.22024854
26	0xbeb81198	-0.35950923
27	0xbec2a4de	-0.3801641
28	0xbe6a2f94	-0.22869712
29	0xbea357f4	-0.3190304
30	0xbe345d3c	-0.17613691
31	0x3d340c11	0.04395682
32	0xbe1d10e3	-0.15338473
33	0x3d8c03fe	0.06836699
34	0xbf2448c8	-0.64173555
35	0xbf11ec5d	-0.57001287
36	0xbdf7e462	-0.121041074
37	0xbe92f0aa	-0.28699237
38	0x3c93a1f1	0.018021556
39	0xbe5b9d25	-0.21446665
40	0xbeac8c42	-0.33700758
41	0xbe4ecd79	-0.20195569
42	0xbd9f00c0	-0.07763815
43	0xbd8b5fa2	-0.0680535
44	0xbe8f16ee	-0.2794718
45	0xbe95a4ae	-0.29227203
46	0xbe14ced0	-0.14532018
47	0xbe8d0318	-0.27541423
48	0xbe88d49f	-0.26724717
49	0xbe955d3f	-0.29172704
50	0xbd92493c	-0.071428746
51	0xbef86a5e	-0.48518652
52	0xbddc763e	-0.107647404
53	0xbd084d73	-0.033276986
54	0x3d46e4f5	0.048558194
55	0xbf30056e	-0.68758285
56	0xbe1a34ef	-0.15059255
57	0xbee532d4	-0.4476534
58	0xbe5e170b	-0.21688478
59	0xbe35565f	-0.17708729
60	0xbd91a4f7	-0.07111543
61	0xbead1ad4	-0.3380953
62	0xbd7d1fb1	-0.0617978
63	0xbe8d922e	-0.2765059
64	0xbd4423a4	-0.047885552
65	0xbe03e001	-0.1287842
66	0xbdddba02	-0.10826494
67	0xbd9721f9	-0.07379527
68	0xbeb70918	-0.35749125
69	0xbec48507	-0.38382742
70	0xbed7114b	-0.4200538
71	0xbea47260	-0.3211851
72	0x3e87c1d2	0.2651506
73	0xbe4045a5	-0.18776567
74	0x3dc468d5	0.095903076
75	0xbf0dd00a	-0.5539557
76	0xbe63fd53	-0.22264604
77	0xbeafe3d9	-0.3435352
78	0xbea4d255	-0.3219172
79	0x3e415e2f	0.18883584
80	0xbd194cf2	-0.037426896
81	0xbed70f48	-0.42003846
82	0xbe621291	-0.22077395
83	0xbe0b384d	-0.13595696
84	0xbe4c2476	-0.19935784
85	0xbeb51836	-0.35370034
86	0xbdecbc1d	-0.11559317
87	0x3e3e545b	0.18586867
88	0xbe06be87	-0.13158618
89	0xbe4058fb	-0.18783943
90	0xbcb63453	-0.022241747
91	0xbd6ca6f5	-0.05777641
92	0xbe4212c8	-0.18952477
93	0xbe7309d9	-0.23734225
94	0xbe99ace6	-0.30014724
95	0xbdb665b0	-0.08906114
96	0xbe8b5a94	-0.27217543
97	0x3d0d9d45	0.034573812
98	0xbd7a1492	-0.061054774
99	0xbf04ae3b	-0.51828355
100	0xbeb72eda	-0.35777932
101	0xbe59e238	-0.21277702
102	0xbdac2691	-0.084057935
103	0xbe6cc939	-0.23123635
104	0xbe262f1b	-0.16228907
105	0xbe1c15af	-0.15242647
106	0xbe267ed0	-0.16259313
107	0xbe5ddd89	-0.2166654
108	0xbe0d2594	-0.13783866
109	0x3df7643d	0.12079666
110	0xbe34e7cc	-0.17666548
111	0xbdc16874	-0.09443751
112	0xbef668ef	-0.48126933
113	0xbe8793d5	-0.26479974
114	0xbea6c517	-0.32572243
115	0xbe77d0d9	-0.24200763
116	0xbe0b7a23	-0.1362081
117	0xbe905a92	-0.281941
118	0xbe0f06f2	-0.13967493
119	0xbe5cc512	-0.21559551
120	0xbd0f8c97	-0.035046186
121	0xbed4fec6	-0.41600627
122	0xbe4a7190	-0.19769883
123	0xbe4cf0f4	-0.20013791
124	0xbeeef2f4	-0.46669734
125	0xbd80b509	-0.0628453
126	0xbe86938b	-0.2628444
127	0x3e4a35c6	0.19747075
128	0xbe28739c	-0.16450351
129	0xbe9acb91	-0.30233434
130	0xbdf9cb74	-0.12197009
131	0x3be54be4	0.0069975723
132	0xbec479da	-0.38374215
133	0xbe9afcc0	-0.30270958
134	0xbc42fd54	-0.011901218
135	0xba6fa570	-0.00091417786
136	0x3daf0f79	0.08547873
137	0xbe19b04b	-0.15008657
138	0xbdfdb091	-0.12387193
139	0xbdf093b8	-0.11746925
140	0xbe37611c	-0.17908138
141	0xbe4a1417	-0.19734226
142	0xbef1efd1	-0.47253278
143	0xbe2f094f	-0.17093395
144	0xbea5dbb6	-0.3239419
145	0xbe9b7e44	-0.3036977
146	0xbe5afd2e	-0.21385643
147	0xbee08bb1	-0.43856576
148	0xbe233c6e	-0.15941021
149	0xbe072c74	-0.13200551
150	0xbe537613	-0.2065051
151	0xbdd1be8a	-0.102414206
152	0xbee1bda2	-0.4408999
153	0xbe113408	-0.14180005
154	0xbe5d6d20	-0.21623659
155	0xbce228be	-0.027607318
156	0xbe45218a	-0.19251075
157	0xbdb6b732	-0.089216605
158	0xbe908e29	-0.2823346
159	0xbec8b4a0	-0.39200306
160	0xbe721592	-0.23641041
161	0xbe7f42bd	-0.24927802
162	0xbea2cb18	-0.31795573
163	0xbf088a40	-0.5333595
164	0xbe949d07	-0.29026052
165	0xbe50458c	-0.2033903
166	0x3cd81810	0.026378661
167	0xbe7eaa6d	-0.248697
168	0xbe9c41df	-0.30519006
169	0xbd8b8395	-0.06812207
170	0xbed5bdba	-0.41746312
171	0xbc79e22b	-0.015251677
172	0x3d803be1	0.06261421
173	0xbe997cc1	-0.29977992
174	0xbe3d9cb1	-0.18516804
175	0xbe809e3d	-0.25120726
176	0xbe1b7aa0	-0.15183496
177	0xbef63df0	-0.4809413
178	0xbe86efdd	-0.26354876
179	0xbe70ed24	-0.23527962
180	0xbe7d7bec	-0.24754304
181	0xbe6d1b20	-0.23154879
182	0xbdb8e92e	-0.090288505
183	0xbe36ebad	-0.1786334
184	0xbe0b6f32	-0.13616636
185	0xbea13516	-0.31485814
186	0xbc96ad6c	-0.01839324
187	0xbf0434e3	-0.516432
188	0xbd1ee78c	-0.03879504
189	0xbe13fe55	-0.14452489
190	0xbe99feba	-0.30077153
191	0xbe6eb17b	-0.23309891
192	0x3d7bdd08	0.06149009
193	0xbbad37c7	-0.00528619
194	0xbd7b74e7	-0.061390784
195	0xbd8512d2	-0.0649773
196	0xbeb7e2bb	-0.3591517
197	0xbea4fc2b	-0.3222364
198	0xbdf4b910	-0.1194936
199	0xbf0d1c80	-0.5512161
200	0xbf1e9a57	-0.61954254
201	0xbe927085	-0.2860147
202	0xbc15df0b	-0.009147416
203	0xbeb37860	-0.35052776
204	0xbe3103fd	-0.17286678
205	0xbe0bddf1	-0.13658883
206	0xbde9ca10	-0.114154935
207	0xbef206b0	-0.47270727
208	0xbe7fec8f	-0.24992584
209	0xbe0e1ff9	-0.13879384
210	0xbe07d5ef	-0.13265203
211	0xbe38bd80	-0.18041039
212	0xbe0745a3	-0.13210158
213	0xbe551cdb	-0.20811789
214	0xbe9e79cb	-0.30952296
215	0xbeb92a69	-0.3616517
216	0xbe2273f2	-0.15864542
217	0xbe6fc1e5	-0.23413809
218	0x3e4773a9	0.19477715
219	0xbe14e539	-0.14540567
220	0xbe80706d	-0.25085774
221	0xbe8cc595	-0.27494493
222	0xbf18c3f9	-0.5967403
223	0xbe782e3d	-0.24236389
224	0xbde1f26b	-0.11032566
225	0xbe9a7321	-0.3016596
226	0xbccfe59f	-0.025378047
227	0xbe63a09c	-0.22229236
228	0xbea60993	-0.3242918
229	0x3e12163f	0.14266299
230	0xbe75c434	-0.24000627
231	0xbed2a86e	-0.41144127
232	0xbe919542	-0.28434187
233	0x3d451cc6	0.048123144
234	0xbea169e7	-0.3152611
235	0xbf01c68a	-0.5069357
236	0xbec3ab13	-0.38216457
237	0xbe803d30	-0.25046682
238	0xbe4dfd78	-0.20116222
239	0xbe9bb56f	-0.3041186
240	0xbcd6d4ca	-0.026224513
241	0xbecff22b	-0.40614447
242	0xbe8bd8a9	-0.27313736
243	0xbe99323f	-0.29921147
244	0xbd7bc65f	-0.06146848
245	0xbefef70f	-0.49797866
246	0x3d44abac	0.04801528
247	0xbd8a9702	-0.06767084
248	0xbd4b431e	-0.049624555
249	0xbd440e93	-0.04786546
250	0xbd02531b	-0.031817537
251	0xbef5d72b	-0.48015723
252	0xbe8f839d	-0.280301
253	0xbe480d85	-0.19536407
254	0xbc93ef8f	-0.018058566
255	0xbeffa8b9	-0.49933413

fc2.weight f4 [256, 512]
0	0x3e1b67a6	0.15176257
1	0xbe45ac27	-0.19303952
2	0xbe699733	-0.22811584
3	0xbdc361c7	-0.09540134
4	0xbcb9e924	-0.022694178
5	0xbccf22fb	-0.025285235
6	0x3d5f63fe	0.05453872
7	0x3e52135f	0.20515202
8	0x3dfda253	0.123844765
9	0x3ce03ff6	0.027374249
10	0xbd205e0f	-0.0391522
11	0xbd1b6096	-0.03793391
12	0xbe2e1529	-0.1700026
13	0xbdbbf88a	-0.091782644
14	0x3e5d5e3e	0.21617982
15	0x3b8e9926	0.004351753
16	0xbe0ac449	-0.1355144
17	0x3e0241cc	0.12720412
18	0x3dbf239f	0.09332966
19	0xbc878b8c	-0.016546033
20	0x3c8239d7	0.01589672
21	0xbd61d275	-0.055132348
22	0x3e2365c8	0.15956795
23	0xbc40ed0b	-0.011775265
24	0x3e40055d	0.18752046
25	0xbd4db1ff	-0.05021858
26	0xbdf12ec3	-0.11776497
27	0x3e6b211e	0.22961852
28	0xbe367311	-0.17817332
29	0x3dc7173d	0.09721229
30	0xbdeae6e0	-0.11469817
31	0xbd9f29cd	-0.07771645
32	0xbd8a30a4	-0.06747559
33	0x3cf646bd	0.030063028
34	0xbe338575	-0.17531379
35	0xbe0706ce	-0.1318619
36	0xbda639a2	-0.08116461
37	0x3e105814	0.14096099
38	0x3d913293	0.070897244
39	0x3b37cd96	0.0028046123
40	0xbd800d2b	-0.062525116
41	0xbcc90e67	-0.024543
42	0xbd47e2ea	-0.048800386
43	0xbdc5799e	-0.09642337
44	0xbd09e0c5	-0.033661623
45	0xbc0d6aa1	-0.008631379
46	0x3d97a4c1	0.07404471
47	0x3e76c0f9	0.2409705
48	0x3e165663	0.14681391
49	0xbe1aba4c	-0.15110129
50	0xbe8283e6	-0.25491256
51	0xbdddd842	-0.108322635
52	0xbccb4530	-0.024813265
53	0x3da0a383	0.078436874
54	0xbcfdb5cd	-0.030970478
55	0xbcdce4e0	-0.026964605
56	0x3c850eea	0.016242463
57	0xbb87fadd	-0.0041497783
58	0xbdd1bdd4	-0.10241285
59	0xbed6afc3	-0.4193097
60	0x3c43c478	0.011948697
61	0x3ea3e3bc	0.32009685
62	0x3e213e59	0.1574644
63	0xbd31ea4e	-0.04343634
64	0x3be9484f	0.0071192156
65	0xbd6c9f59	-0.057769153
66	0x3c818180	0.01580882
67	0xbe8ea2de	-0.27858633
68	0xbb9e04dd	-0.004822357
69	0xbdeb59c5	-0.114917316
70	0x3e13c6c7	0.14431296
71	0xbe0acd10	-0.13554788
72	0x3ba0adf4	0.0049035493
73	0xbe64997e	-0.22324178
74	0xbe1d393a	-0.15353861
75	0xbeac6dea	-0.33677608
76	0xbc9f299b	-0.019429019
77	0xbde0f7be	-0.10984753
78	0xbe4d1f24	-0.2003141
79	0x3c8026a1	0.01564342
80	0xbd509347	-0.050921705
81	0x3e0b4127	0.13599072
82	0xbe2ca7dc	-0.16860908
83	0xbd5ce23b	-0.053926688
84	0x3d8b2fb0	0.06796205
85	0x3c8676dc	0.016414098
86	0xbda3c49a	-0.07996483
87	0x3d84e0bf	0.064881794
88	0xbd849fe1	-0.06475807
89	0x3e307306	0.17231378
90	0x3e81b80c	0.2533573
91	0x3d44769f	0.04796469
92	0x3e47e92d	0.19522543
93	0x3e617c56	0.22020087
94	0x3e3d6bbf	0.18498133
95	0xbe798da0	-0.24370432
96	0x3daeb98d	0.08531485
97	0x3d9b622c	0.07587084
98	0x3ca7623e	0.020432588
99	0xbe1b60b2	-0.15173605
100	0x3e1cf91f	0.15329407
101	0xbd4e3177	-0.050340142
102	0xbbc78960	-0.0060893744
103	0x3e68a168	0.22717822
104	0xbe0031f1	-0.12519051
105	0xbc98baba	-0.018643726
106	0x3dc1f105	0.09469799
107	0xbe86af5e	-0.2630567
108	0xbd9e5f7a	-0.077330545
109	0x3d86d890	0.06584275
110	0xbe1217e2	-0.14266923
111	0x3e31a192	0.1734679
112	0x3e046773	0.12930088
113	0x3dbfed20	0.093714
114	0x3e920f1d	0.28527156
115	0xbd79e8a8	-0.061012894
116	0xbca7c99c	-0.020481877
117	0xbe36d3ae	-0.17854187
118	0xbe0015ed	-0.12508364
119	0x3dda3cea	0.1065615
120	0x3d355fe3	0.044280898
121	0xbe4ad29c	-0.19806904
122	0xbdce27ba	-0.10066171
123	0xbd3e4ec1	-0.046461824
124	0xbcd516bc	-0.026011817
125	0xbe63c854	-0.22244388
126	0xbce8ab0a	-0.02840187
127	0xbb8d8c28	-0.0043196864
128	0x3df29715	0.11845223
129	0x3d1d0a40	0.038339853
130	0xbe31be48	-0.17357743
131	0xbc579f6f	-0.0131605705
132	0x3c8aa75d	0.016925508
133	0xbe73de23	-0.23815207
134	0x3e41f91d	0.18942685
135	0x3e3427ed	0.17593355
136	0x3d41608f	0.047211226
137	0x3db789e0	0.089618444
138	0xbd3cdf2a	-0.046111263
139	0x3d688381	0.056766037
140	0xbd71d5e0	-0.059041858
141	0xbd627174	-0.05528398
142	0xbd649666	-0.055807494
143	0x3d128d98	0.035779566
144	0x3c35dd2e	0.011100097
145	0x3e1d3a23	0.15354209
146	0x3df8428a	0.12122066
147	0x3db75a7c	0.089528054
148	0xbe085f88	-0.13317692
149	0xbd0af5cc	-0.033925816
150	0x3e27c6c1	0.16384412
151	0xbcec0923	-0.02881295
152	0x3d375440	0.04475808
153	0x3e33645e	0.17518756
154	0xbeaf399d	-0.34223643
155	0x3aa9d143	0.0012956042
156	0x3d90e09a	0.07074089
157	0x3e2e6230	0.17029643
158	0xbe8a7837	-0.27044842
159	0xbe0e74b2	-0.13911703
160	0x3e0a610d	0.13513584
161	0x3e2630c4	0.1622954
162	0xbd448848	-0.04798153
163	0xbd36e8cf	-0.044655617
164	0xbe69b172	-0.22821596
165	0xbd8454cf	-0.064614885
166	0xbe3d8133	-0.18506317
167	0xbe1cac4d	-0.15300103
168	0xbc8baf14	-0.017051257
169	0x3e0f7c27	0.14012204
170	0xbe65334b	-0.22382848
171	0xbe207867	-0.1567093
172	0x3ddf294c	0.10896549
173	0xbb08bde3	-0.0020865134
174	0x3e392256	0.18079504
175	0x3e149581	0.14510156
176	0xbe81a481	-0.2532082
177	0xbcd6b1d7	-0.026207848
178	0xbd09cbe2	-0.033641703
179	0x3d2e58c3	0.04256512
180	0xbe57f186	-0.21088228
181	0xbb867394	-0.0041031335
182	0x3eaca44b	0.33719096
183	0xbed5137e	-0.41616434
184	0x3dc9bf85	0.098509826
185	0x3e45085c	0.1924147
186	0x3cc86c1c	0.024465613
187	0xbd7e84e3	-0.06213845
188	0xbc9ba24d	-0.01899829
189	0xbec3dc92	-0.3825422
190	0xbd9b86c1	-0.07594062
191	0xbe51b234	-0.20478135
192	0xbed2574b	-0.41082224
193	0x3e9d7067	0.3074982
194	0x3da989a9	0.0827821
195	0xbe8836ea	-0.26604396
196	0xbe61ae38	-0.22039115
197	0x3d9aa8ee	0.07551752
198	0x3dc37f4b	0.095457636
199	0x3d809087	0.062775664
200	0x3dd6d395	0.10489575
201	0xbe5d186f	-0.21591352
202	0xbdb642d1	-0.08899463
203	0x3c9cde96	0.019149106
204	0xbe64b340	-0.22334003
205	0x3e243246	0.16034803
206	0xbe113a82	-0.14182475
207	0x3e337b10	0.17527413
208	0x3d89e600	0.06733322
209	0x3e50f881	0.20407297
210	0xbd124df0	-0.03571886
211	0x3c48117d	0.012211201
212	0x3d1ba6f7	0.038001027
213	0xbb845157	-0.004038017
214	0x3d390835	0.045173842
215	0x3cb081c9	0.021546261
216	0xbd0a5975	-0.03377672
217	0xbe00269b	-0.12514727
218	0x3e38476c	0.17995995
219	0x3ea211c3	0.31654176
220	0xbe9783ab	-0.29592642
221	0xbe199242	-0.14997199
222	0xbe4a389f	-0.19748162
223	0xbd4cdec8	-0.05001715
224	0x3caa0180	0.020752668
225	0x3ec12852	0.37726074
226	0x3d3dbdb8	0.046323508
227	0xbe846dfa	-0.25865155
228	0x3dd04489	0.10169322
229	0x3c973868	0.018459514
230	0xbdef3b0a	-0.11681183
231	0xbe4884e8	-0.1958195
232	0x3d02fba2	0.031978257
233	0x3dfae8eb	0.12251457
234	0x3e29f8c6	0.16598806
235	0x3df133fc	0.11777493
236	0xbe6c47c6	-0.23074254
237	0xbda44e00	-0.0802269
238	0x3da156be	0.07877873
239	0x3e79982c	0.24374455
240	0xbde5c81b	-0.11219808
241	0xbec0eefd	-0.37682334
242	0x3d83e167	0.064394765
243	0xbed4abd6	-0.4153735
244	0xbcf8db94	-0.03037814
245	0xbf110501	-0.5664826
246	0x3c309e00	0.010779858
247	0xbebf4031	-0.37353662
248	0xbe5cf4a2	-0.21577695
249	0xbe2ade2b	-0.16686313
250	0x3c46d962	0.012136789
251	0xbdf224f7	-0.11823457
252	0x3d87e449	0.06635339
253	0xbda46b51	-0.080282815
254	0x3e0afcef	0.13573049
255	0xbe9ed2e3	-0.3102027

fc2.bias f4 [256]
0	0x3db6fb54	0.08934656
1	0x3bd2251f	0.0064131166
2	0xbf1c48ff	-0.61048883
3	0xbd24ce4a	-0.040235795
4	0x3e1c9457	0.15290962
5	0x3dfd8028	0.123779595
6	0xbd30a30f	-0.043124255
7	0x3d97193d	0.07377861
8	0x3d8f069a	0.06983681
9	0x3e1858a2	0.1487756
10	0xbc9b0a44	-0.018925793
11	0x3cbdebe6	0.023183774
12	0x3dd596e3	0.1042917
13	0xbd1297af	-0.035789188
14	0x3ea7d262	0.32777697
15	0x3b9a2e40	0.0047052205
16	0xbddf3805	-0.10899357
17	0xbbad29a4	-0.005284505
18	0x3ca3f7ce	0.020015623
19	0x3dbeaf2c	0.09310755
20	0x3cd490f0	0.025948018
21	0xbe345b3a	-0.17612925
22	0x3dff918e	0.12478934
23	0xbd72c150	-0.05926639
24	0x3adeb30c	0.0016990616
25	0xbb62c5e7	-0.0034602822
26	0x3dbffe6c	0.09374699
27	0x3e1639a1	0.14670421
28	0xbaebcf1e	-0.0017990803
29	0xbe84fa24	-0.25972092
30	0x3c6eb6fb	0.014569993
31	0x3e5745e4	0.21022755
32	0x393d9fa1	0.00018083911
33	0xbde8ed26	-0.113733575
34	0x3d2fe28e	0.04294067
35	0x3e1bb295	0.15204842
36	0x3e803577	0.2504079
37	0x3d90df9d	0.07073901
38	0x3dde4c9a	0.10854454
39	0x3e051efb	0.130001
40	0xbd1fb199	-0.03898773
41	0xbd263b28	-0.04058376
42	0x3d4243e8	0.04742804
43	0xbdce8df3	-0.100856684
44	0xbd886388	-0.06659609
45	0xbda961f1	-0.08270634
46	0xbb5f93f7	-0.0034115294
47	0x3d83cb76	0.064352915
48	0x3d4ccfce	0.050002865
49	0x3e1af2aa	0.15131631
50	0x3d991c0a	0.07476051
51	0x3dc98dab	0.09841474
52	0x3e676690	0.22597718
53	0x3db36204	0.08758929
54	0xbe458251	-0.19287993
55	0x3df92a27	0.12166243
56	0x3def533d	0.11685798
57	0x3e78d759	0.24300899
58	0xbce77a27	-0.028256489
59	0x3da53400	0.08066559
60	0x3d507a86	0.050898097
61	0x3e112957	0.14175926
62	0x3c9f935b	0.019479444
63	0x3e82e288	0.25563455
64	0x3d75ed79	0.060040925
65	0x3e6cd035	0.231263
66	0x3cf53b19	0.029935407
67	0xbe69a816	-0.22818026
68	0x3ded8f22	0.11599566
69	0x3debaf3b	0.11508032
70	0xbe4295bd	-0.19002433
71	0x3e4b9c2e	0.19883797
72	0x3d202e0a	0.039106406
73	0xbbe5445c	-0.0069966745
74	0x3d598f77	0.053115334
75	0xbc1a0fb2	-0.009403156
76	0xbc6a2a48	-0.014292307
77	0xbecba367	-0.39773104
78	0xbd58a3b1	-0.052890483
79	0x3c763d35	0.015029241
80	0xbaa1d5cf	-0.0012347045
81	0x3db5fcf3	0.08886137
82	0x3d446ace	0.04795342
83	0x3b95a4da	0.004566771
84	0xbe92fb9b	-0.28707585
85	0xbda79e9a	-0.08184548
86	0x3ea66c66	0.32504576
87	0x3dc329d6	0.09529464
88	0xbc189c93	-0.009314674
89	0xbdb32308	-0.08746916
90	0xbde463e1	-0.11151863
91	0x3e8320ed	0.25611058
92	0x3d9d474b	0.07679614
93	0x3dc18d9b	0.09450837
94	0x3dd55161	0.104159124
95	0x3cdf4c87	0.02725817
96	0xbca40973	-0.020024037
97	0x3d817699	0.06321449
98	0xbc8315b2	-0.016001556
99	0x3e0165bc	0.12636465
100	0x3da16251	0.078800805
101	0x3e059ea0	0.13048792
102	0x3d6bf32c	0.057604954
103	0xbd5f3e53	-0.054502796
104	0x3d90078e	0.07032691
105	0x3e88dd33	0.26731262
106	0xbc3d8031	-0.011566208
107	0x3e70df99	0.23522796
108	0x3e381d7d	0.17979999
109	0xbbaa3ae1	-0.005195007
110	0x3dd0427b	0.1016893
111	0x3f0c5283	0.548134
112	0x3d550296	0.05200442
113	0x3ddac1ad	0.10681472
114	0xbc91043d	-0.017702216
115	0x3daf6f2f	0.085661285
116	0xbe872aba	-0.26399785
117	0x3e12b356	0.14326224
118	0xbc858b78	-0.016301855
119	0x3d40f513	0.04710872
120	0xbef318f0	-0.47479963
121	0x3d82bfcb	0.06384238
122	0x3e0b9933	0.1363266
123	0x3eafd5d1	0.34342816
124	0x3cfedcfb	0.031111231
125	0x3e7f2d02	0.24919513
126	0xbd117279	-0.03550956
127	0xbd40ce38	-0.047071666
128	0x3d8becf4	0.068323046
129	0xbe29393a	-0.16525736
130	0xbc345ed4	-0.011008937
131	0x3e5b6782	0.21426204
132	0xbd6b778c	-0.057487056
133	0x3d2e4b30	0.042552173
134	0x3d9ca6f4	0.07649031
135	0xbd4f8d8d	-0.050672103
136	0xbda66fdc	-0.08126804
137	0x3d94b8f6	0.07261841
138	0xbbcb0401	-0.0061955457
139	0x3d97a454	0.0740439
140	0xbca76ab6	-0.020436626
141	0x3e0a72c9	0.1352035
142	0xbe0a0333	-0.13477783
143	0xbcf3639e	-0.029710587
144	0x3dc4e912	0.09614767
145	0x3daea12e	0.08526836
146	0xbdae9699	-0.08524818
147	0x3dbfc648	0.09363991
148	0x3e414817	0.18875156
149	0x3b487830	0.0030589215
150	0x3cf1fe22	0.029540125
151	0xbe5ed179	-0.21759595
152	0x3d063720	0.032767415
153	0x3d749f37	0.05972215
154	0x3ce54e2f	0.027991382
155	0xbe6c60af	-0.23083757
156	0xbd0ec148	-0.034852296
157	0xbd039bb4	-0.032130912
158	0x3e11bbc5	0.14231785
159	0x3d299810	0.041404784
160	0x3e375e7f	0.17907141
161	0xbbdd50ee	-0.0067540323
162	0x3e1c1029	0.1524054
163	0x3dd242a5	0.10266618
164	0x3d65f8ca	0.056145467
165	0xbcc1fc3b	-0.023679843
166	0x39a8d318	0.00032200734
167	0x3e60e0ad	0.21960707
168	0xbe11d20c	-0.14240283
169	0x3e97ef56	0.29674786
170	0xbd6c0831	-0.057625
171	0x3d9a6ead	0.07540641
172	0x3e86fb8a	0.26363784
173	0x3e411858	0.18856943
174	0xbbcff8d8	-0.006346803
175	0xbceda32f	-0.029008476
176	0x3e765596	0.24056086
177	0x3e0f6cd4	0.14006358
178	0xbe2e577d	-0.17025562
179	0x3e78dbc1	0.2430258
180	0x3cd7c5a7	0.026339365
181	0xbd1c6e2c	-0.038191006
182	0x3e4c7554	0.19966632
183	0x3e7979f6	0.2436293
184	0x3e9620ed	0.29321995
185	0x3dd16e5b	0.10226127
186	0xbd1347f9	-0.03595731
187	0x3e7af366	0.24506912
188	0x3cebf23d	0.028802032
189	0xbd6d7015	-0.057968218
190	0xbce1e465	-0.027574727
191	0x3e208cad	0.15678664
192	0x3e834482	0.25638205
193	0x3b99c43f	0.004692584
194	0xbe383713	-0.17989759
195	0x3dbee02d	0.09320102
196	0xbe2b6230	-0.16736674
197	0x3d50087f	0.050789353
198	0x3ea79d34	0.32737124
199	0x3df71428	0.120643914
200	0x3d3f0b52	0.046641655
201	0xbd04a0ef	-0.03238004
202	0x3daf8647	0.08570533
203	0xb9dadd7a	-0.00041745213
204	0x3e8c5874	0.27411234
205	0xbc3b584a	-0.011434624
206	0x3c6ada0c	0.014334213
207	0x3ed52f6b	0.4163774
208	0x3e703045	0.23455913
209	0x3e25d5a3	0.16194777
210	0x3e149b01	0.14512254
211	0xbd351a5d	-0.044214595
212	0xbdded8f7	-0.108812265
213	0xbe76f701	-0.24117662
214	0x3d3737dd	0.04473101
215	0xbd21fccd	-0.03954773
216	0x3dbcd912	0.092210904
217	0x3d804527	0.0626319
218	0x3e26d195	0.16290887
219	0x3c0fd937	0.008779815
220	0xbc0ed2e6	-0.008717274
221	0x3e184930	0.14871669
222	0xbd951bf4	-0.07280722
223	0x3dfa6319	0.12225933
224	0xbd56ca28	-0.052438885
225	0xbeb1980c	-0.34686315
226	0xbe26afe2	-0.16278031
227	0xbed28af5	-0.4112164
228	0xbe17f16e	-0.14838192
229	0x3c2791cc	0.010227632
230	0xbcce69c2	-0.025196914
231	0x3d05e152	0.032685585
232	0x3e5311dd	0.20612283
233	0x3ec10873	0.3770176
234	0x3d9b7b87	0.0759192
235	0x3da7c5f7	0.08192056
236	0xbe80bf1b	-0.25145802
237	0xbeb601a6	-0.35548133
238	0x3bd9edcf	0.0066506634
239	0xbd9c6f39	-0.076384015
240	0xbd555bc0	-0.052089453
241	0xbdb7a9de	-0.089679465
242	0x3d32ba3a	0.04363463
243	0xbcdf9163	-0.027291005
244	0x3e4d804e	0.20068476
245	0xbe3bd9ff	-0.18344878
246	0x3d6a2873	0.05716748
247	0x3e39ca9a	0.18143693
248	0xbe3faf08	-0.18719113
249	0x3c83586b	0.016033372
250	0xbe5e96b1	-0.21737172
251	0xbd5f4d71	-0.054517213
252	0x3e45d058	0.19317758
253	0x3c800227	0.015626026
254	0xbe1e3321	-0.15449192
255	0x3da60a6c	0.081074566

fc3.weight f4 [2, 256]
0	0x3d3fa38b	0.046786826
1	0x3d706cdf	0.058697578
2	0xbe50bed4	-0.20385295
3	0xbcad403e	-0.021148797
4	0x3db5a0ef	0.08868586
5	0xbd94f3c3	-0.07273056
6	0xbd2747f4	-0.040840104
7	0xbeac1419	-0.33609083
8	0x3d9fca01	0.07802201
9	0xbb4a162c	-0.003083597
10	0x3dabb4dd	0.08384106
11	0xbc8f620a	-0.017502803
12	0xbdc34b9c	-0.09535906
13	0x3daff8d7	0.08592384
14	0xbd1835bf	-0.03716063
15	0xbd35b01e	-0.04435741
16	0xbd01ee89	-0.031721625
17	0x3e1bea5b	0.15226118
18	0xbd890a39	-0.06691403
19	0xbc32680f	-0.010889067
20	0x3ca13176	0.019676905
21	0x3c7fafb0	0.015605852
22	0x3d3f9d05	0.046780605
23	0x3acd3e22	0.0015658776
24	0xbbf581c9	-0.0074922782
25	0x3d9cb24f	0.07651197
26	0xbc9665ff	-0.018359182
27	0x3c62258b	0.013802896
28	0xbd8eecf6	-0.069787905
29	0x3d8204c3	0.063485645
30	0x3ceac449	0.02865805
31	0x3e902816	0.28155583
32	0x3e0e70e2	0.13910249
33	0x3d9cff32	0.07665862
34	0x3bb3482f	0.0054712514
35	0x3b81db32	0.0039628977
36	0x3d085517	0.033284273
37	0x3d766631	0.06015605
38	0x3b07731b	0.0020667973
39	0x3d8ab071	0.06771935
40	0x3d3772d3	0.04478724
41	0xbccfa0aa	-0.025345165
42	0x3db4c077	0.08825772
43	0x3c8cef3f	0.017203925
44	0x3ddcf406	0.10788731
45	0x3de25fc2	0.110534206
46	0xbd41796d	-0.04723494
47	0x3e240b41	0.16019918
48	0x3b4b21ff	0.0030995605
49	0xbdad95f1	-0.08475865
50	0xbc6f0641	-0.014588893
51	0xbe085b1d	-0.13316007
52	0xbd30ee36	-0.043195926
53	0xb93ef4f6	-0.00018211067
54	0x3e1558fc	0.14584726
55	0xbd96bb47	-0.07359939
56	0x3d2830fb	0.041062336
57	0x3c95462c	0.018221937
58	0xb942c78d	-0.0001857562
59	0xbe081297	-0.13288341
60	0xbae449c2	-0.0017417001
61	0xbca0b482	-0.019617323
62	0x3d1b8cc6	0.03797605
63	0xbd80f6fa	-0.06297107
64	0xbd8285fb	-0.06373211
65	0xbcc2eb65	-0.023793885
66	0x3d7f1e3f	0.062284704
67	0x3c5b2164	0.01337466
68	0xbb0917d1	-0.0020918737
69	0xbb8298f1	-0.003985517
70	0xbd3ad19f	-0.045610067
71	0x3e015811	0.12631251
72	0xbb994685	-0.004677596
73	0xbd48238c	-0.048862025
74	0xbb8068ff	-0.0039187665
75	0xbc90ae6b	-0.017661294
76	0xbc23ea57	-0.010004601
77	0xbead99e6	-0.33906478
78	0x3c920552	0.017824803
79	0x3c152d83	0.009105089
80	0x3d040685	0.03223278
81	0x3c0d9404	0.008641247
82	0x3e6ba406	0.23011789
83	0x3ce47f65	0.027892778
84	0x3dc7f255	0.09763018
85	0xbe4f5f58	-0.20251215
86	0xbd42a48d	-0.04752021
87	0x3b7a0281	0.0038148465
88	0x3cd67806	0.026180279
89	0x3de91854	0.11381593
90	0xbd111979	-0.035424683
91	0x3d731d12	0.059353895
92	0x3c4ce802	0.012506487
93	0xbd97bd85	-0.07409195
94	0x3d6ef329	0.058337364
95	0xbdf9c346	-0.121954486
96	0x3d01889e	0.03162443
97	0xbdd657ec	-0.104659885
98	0x3bcd5ae9	0.006266941
99	0xbd48f17b	-0.04905842
100	0x3c73b708	0.014875181
101	0x3e184063	0.14868312
102	0x3deb33fa	0.11484523
103	0xbc864a8a	-0.016392965
104	0x3d34e8bd	0.04416727
105	0xbd00cee1	-0.031447295
106	0x3c718f6c	0.014743667
107	0xbcdcfae0	-0.026975095
108	0x3d72449f	0.059147473
109	0x3c7107c3	0.014711323
110	0x3d895411	0.067054875
111	0xbd631932	-0.05544395
112	0xbe8057ab	-0.25066885
113	0xbd3354e0	-0.043782115
114	0x3dd926ea	0.106031254
115	0x3d7d06b1	0.06177396
116	0xbd925b1e	-0.071462855
117	0xbd08ff15	-0.03344639
118	0xbbc6aa9b	-0.006062818
119	0xbc2db538	-0.010602288
120	0xbe20385e	-0.15646502
121	0xbd0ed395	-0.03486975
122	0xbd9a2526	-0.07526617
123	0xbd398a90	-0.04529816
124	0xbc95d64f	-0.018290667
125	0xbd253303	-0.04033185
126	0x3d027b2b	0.031855743
127	0x3b48b869	0.0030627495
128	0xbc7fecc1	-0.015620411
129	0x3ce92b7b	0.028463116
130	0x3c436f8d	0.011928451
131	0xbdb86172	-0.09002961
132	0xbd1b7f04	-0.03796293
133	0x3bddce27	0.00676896
134	0xbc891575	-0.016733864
135	0x3db98a2a	0.09059556
136	0x3d5c420b	0.05377392
137	0xbe18fe7f	-0.14940833
138	0xbd43c8e2	-0.047799
139	0xbd7f3a97	-0.062311735
140	0x3c151d09	0.009101161
141	0xbd3c31cc	-0.045945928
142	0x3db906c6	0.09034495
143	0x3ca48d44	0.020086892
144	0x3ec54f84	0.38537228
145	0x3d56bd92	0.052426882
146	0xbc7d7d1c	-0.015471723
147	0xbd75291e	-0.059853666
148	0x3cd7a771	0.02632496
149	0xbe16bc2c	-0.1472022
150	0xbbfc55f9	-0.0077006784
151	0x3de61f60	0.11236453
152	0x3b166eea	0.0022954294
153	0x3d338c87	0.04383519
154	0x3c92ae2d	0.01790532
155	0x3e42bc27	0.19017087
156	0x3dda9abe	0.10674046
157	0x3c5c9149	0.013462373
158	0x3c04045f	0.008057683
159	0x3cc52936	0.024067502
160	0xbd2d5ec9	-0.042326722
161	0xbca6be7e	-0.020354506
162	0x3d405fc0	0.046966314
163	0x3c9c4ccc	0.019079588
164	0xbce311d7	-0.027718468
165	0xbd3046f5	-0.04303642
166	0x3e00cbb3	0.12577705
167	0xbd632e39	-0.055464003
168	0xbdefc106	-0.11706738
169	0x3d9db178	0.07699865
170	0xbd105209	-0.035234485
171	0xbdd34492	-0.10315813
172	0xbc9bac38	-0.019003019
173	0x3c351940	0.011053383
174	0xbdaefbd6	-0.08544128
175	0xbca9294b	-0.020649573
176	0x3c888ce6	0.016668748
177	0xbb9967ef	-0.0046815793
178	0x3ce8cc3d	0.0284177
179	0xbd93e66e	-0.07221685
180	0x3d96a7dc	0.073562354
181	0xbd0383c1	-0.032108072
182	0xbd78225c	-0.060579643
183	0xbd8ca3df	-0.068671934
184	0x3cd5f0b7	0.026115758
185	0xbd238137	-0.03991815
186	0xbd494709	-0.04914001
187	0x3d238ff3	0.039932203
188	0xbce9cf0e	-0.028541114
189	0xbd355e60	-0.044279456
190	0xbb595ace	-0.0033165696
191	0x3d2dff45	0.042479772
192	0xbdfe9516	-0.1243078
193	0xbd2bbc49	-0.04192761
194	0x3cd178e6	0.025570344
195	0xbdd3197b	-0.103075944
196	0x3c4acacf	0.012377455
197	0x3d8e70b9	0.06955094
198	0x3d1610eb	0.036637228
199	0x3d1046b6	0.035223685
200	0x3c9d98db	0.019237926
201	0xbd9679c3	-0.07347443
202	0xbdf07235	-0.11740533
203	0xbdab5192	-0.08365168
204	0x3cfb8f7d	0.030708069
205	0x3e417950	0.18893933
206	0xbd7532e2	-0.05986298
207	0xbc7d4397	-0.015458009
208	0xbc801e67	-0.015639497
209	0xbcfe151d	-0.031015927
210	0x3dce1846	0.100632235
211	0x3d808bae	0.06276642
212	0x3ddf813b	0.10913321
213	0xbd9c4dae	-0.07632004
214	0xbdde2e5f	-0.10848688
215	0xbe1aeccf	-0.15129398
216	0x3e7ebed6	0.24877486
217	0x3d9bed2d	0.07613597
218	0xbc59a576	-0.013284078
219	0xbdf3952d	-0.118936874
220	0x3d214d77	0.039380517
221	0x3d19cf91	0.037551466
222	0x3d84cd58	0.06484479
223	0x3d180b02	0.037119873
224	0xbce146c3	-0.027499562
225	0x3d9f7d69	0.07787592
226	0xbd1b066d	-0.037847925
227	0xbe5a5367	-0.21320878
228	0x3dfa86c3	0.12232735
229	0xbd14c60e	-0.036321692
230	0x3db45947	0.08806091
231	0xbd728e3e	-0.059217684
232	0x3c9dad65	0.01924772
233	0x3d93a79a	0.07209702
234	0x3df33ab3	0.1187643
235	0xbc74b95f	-0.014936774
236	0x3d0fc2dc	0.03509794
237	0xbdc625e9	-0.096751995
238	0xbd23eaa9	-0.04001871
239	0x3dc51ba8	0.09624416
240	0x3d094fec	0.033523485
241	0x3df16ee4	0.11788729
242	0xbdacac71	-0.08431328
243	0x3de2bab8	0.1107077
244	0x3d4ed8fa	0.050499894
245	0x3cc577ad	0.024104917
246	0x3d06a76d	0.032874513
247	0xbbf2901d	-0.0074024335
248	0x3e6108b8	0.21975982
249	0x3df06a87	0.117390685
250	0x3dae400d	0.085083105
251	0xbd4674b4	-0.04845114
252	0x3df135ba	0.11777826
253	0xbd0ca362	-0.0343355
254	0x3d511680	0.05104685
255	0x3e017633	0.12642746

fc3.bias f4 [2]
0	0xbd12148b	-0.035664123
1	0x3cb91ccf	0.022596745

norm.weight f4 [26]
0	0x3ed5bd12	0.41745812
1	0x3f156214	0.5835278
2	0x3f0c78bb	0.5487172
3	0x3f00d045	0.50317794
4	0x3ee13a0a	0.43989593
5	0x3ed09deb	0.40745482
6	0x3ed82d71	0.4222217
7	0x3ec56548	0.38553834
8	0x3edbedf0	0.4295497
9	0x3eda148c	0.425938
10	0x3ed63b79	0.4184225
11	0x3ec1b2ea	0.37831813
12	0x3ec802a1	0.39064506
13	0x3ed9764d	0.4247307
14	0x3edd6eb5	0.43248525
15	0x3edb2747	0.42803404
16	0x3eea23b1	0.45730355
17	0x3ef7ff4a	0.48436958
18	0x3ee58e9f	0.44835374
19	0x3edcc006	0.43115252
20	0x3f0b9e28	0.545382
21	0x3f18fe89	0.5976339
22	0x3f190858	0.59778357
23	0x3ed4859b	0.41508183
24	0x3f882b2c	1.0638175
25	0x3f4728c7	0.77796596

norm.bias f4 [26]
0	0x3e506ca0	0.20353937
1	0x3e170227	0.14746915
2	0x3d898274	0.06714335
3	0x3be8985e	0.0070982417
4	0x3b6b8bb2	0.003594142
5	0xbc89c424	-0.01681716
6	0xbe61eaaa	-0.22062173
7	0xbe21d802	-0.15805057
8	0xbe61ccca	-0.22050777
9	0xbd840e05	-0.064479865
10	0xbe39a162	-0.18127969
11	0xbe28c29a	-0.16480485
12	0xbd416146	-0.047211908
13	0xbd5a4417	-0.05328759
14	0xbd4b5fa3	-0.049651753
15	0xbd69742f	-0.056995567
16	0x3c2b27e0	0.010446519
17	0xbdd9acd0	-0.106286645
18	0x3cab3dc6	0.02090348
19	0x3d62c71b	0.055365663
20	0x3d8714c0	0.065957546
21	0x3e74382f	0.23849557
22	0x3e03013f	0.12793444
23	0x3e05f72a	0.13082567
24	0x3d9a6b3b	0.07539984
25	0x3e2e2c01	0.17008974

norm.running_mean f4 [26]
0	0x3fce4ac4	1.6116567
1	0x3fcbd58c	1.5924544
2	0x3fcb3801	1.5876466
3	0x3fbf401d	1.4941441
4	0x3fc473aa	1.5347798
5	0x3fc160eb	1.5107702
6	0x3fc09eff	1.5048522
7	0x3fcabc55	1.5838724
8	0x3fd0c885	1.6311194
9	0x3fd6bd33	1.6776489
10	0x3fe2dd9f	1.7723883
11	0x3fe2d224	1.772038
12	0x3fe660ad	1.7998253
13	0x3fe3d2e6	1.7798736
14	0x3fd86739	1.6906501
15	0x3fd32a3f	1.6497267
16	0x3fc4e0a3	1.5381054
17	0x3fbd20f6	1.4775684
18	0x3fc076cb	1.5036253
19	0x3fc7509f	1.5571479
20	0x3fc3ea47	1.5305871
21	0x3fc8cbe9	1.5687228
22	0x3fcaf339	1.5855476
23	0x3fce3118	1.6108732
24	0xbda4ce43	-0.08047154
25	0x3f9e3b81	1.2361909

norm.running_var f4 [26]
0	0x3ed7b4c0	0.4213009
1	0x3ee81124	0.45325577
2	0x3f05836f	0.52153677
3	0x3f185052	0.5949756
4	0x3f1d5d34	0.6147034
5	0x3f2778c7	0.65418667
6	0x3f2fcf62	0.68675816
7	0x3f297974	0.6620095
8	0x3f22fd65	0.636679
9	0x3f1f565d	0.62241155
10	0x3f0431f5	0.5163873
11	0x3eff352e	0.4984526
12	0x3eff008a	0.498051
13	0x3f061f7b	0.52391785
14	0x3f2383da	0.63873065
15	0x3f31357f	0.69222254
16	0x3f387839	0.72058445
17	0x3f2e4f5a	0.6808983
18	0x3f30cab5	0.69059306
19	0x3f2788d8	0.6544318
20	0x3f1c1bdb	0.60980004
21	0x3f05e424	0.5230124
22	0x3eeffe8b	0.46873888
23	0x3ed836e3	0.42229375
24	0x3fdecf02	1.7406924
25	0x3ed4715f	0.41492745
