turtlebot3_ddpg/save_model_ddpg/2020_11_29-07_10_23/stage_1_1300_actor.pth (torch_old, 584753 bytes, 10 tensors)

fc1.weight f4 [512, 26]
-0.040040273 -0.0136646805 -0.047905378 0.034871265 -0.045742188 0.060692728 0.027734462 -0.10475869
-0.056532104 -0.033178464 -0.08642089 0.014857444 -0.030463593 -0.18497567 0.08537414 -0.15928
0.11041173 -0.124591336 -0.036676627 -0.17162849 -0.17785075 0.017296068 -0.13579236 -0.12699874
0.031052522 0.046821687 0.017030815 -0.025613967 -0.021455597 0.13252169 0.09981107 -0.019093646
0.040125083 0.10720151 0.015482773 0.1839977 -0.049747217 0.065585986 0.017966624 -0.0022560651
0.04454709 -0.025673158 0.017370157 0.2436668 0.1968976 0.111545965 0.2887924 0.06661203
-0.017550806 -0.09517925 0.3305364 0.14766543 0.19218293 0.088253185 -0.0772612 -0.057268776
-0.19417742 0.035741683 0.22667597 0.12623571 0.2729113 -0.017459534 0.08265068 -0.04780955
0.014254783 0.049429335 -0.018298129 -0.07635095 -0.03145804 -0.056428637 -0.14109738 -0.02960466
0.1723793 0.016385479 0.15920734 0.16064368 -0.25501114 0.04948237 -0.072549604 0.14763352
0.030079804 -0.062618725 0.10387481 0.08557555 -0.17343435 -0.02923607 -0.009226996 0.23055646
0.09434498 0.046832398 -0.055204075 -0.120431356 -0.14483763 0.004389863 0.044926092 -0.20729992
-0.09018407 0.11901224 -0.023906147 0.10818999 -0.18624915 0.15845697 -0.1408766 0.09269878
-0.005427033 0.07196468 0.037486132 -0.034193225 -0.19505586 0.03101951 0.13906807 0.076191686
0.08323236 0.07787123 -0.13818704 0.07127035 -0.06005197 0.061345045 -0.118501194 0.05910522
-0.0735466 -0.018316671 0.09183831 -0.08080398 -0.05941526 -0.0072633633 0.051109355 -0.09207486
-0.038881786 -0.16886444 -0.008986272 -0.086756095 -0.040159326 -0.061746504 0.008906071 -0.08879824
0.1797726 0.057987373 0.05285236 0.036328863 0.07519203 -0.1395988 0.13998699 0.045675516
0.15970406 0.116958834 0.13604917 -0.081179105 -0.16976984 -0.023760326 0.13650423 0.21948184
0.14349869 -0.04648095 0.18483235 -0.02400036 -0.17197336 0.16042039 0.018806009 -0.12852584
-0.07552766 -0.15359761 0.1313266 -0.17754187 0.13595542 -0.059954815 -0.053465888 0.08020527
0.0826325 0.0742854 0.23746784 0.22856778 -0.10664263 -0.12680203 -0.013468082 -0.0956683
0.035642125 -0.079638444 -0.0092571685 -0.198118 -0.020086344 0.08219398 0.11500926 -0.13412638
-0.17546566 -0.11841861 -0.11913275 -0.12747031 0.0174502 -0.032831136 0.05543717 0.07908142
-0.0750359 0.028347867 0.06744869 0.19352841 0.26042974 0.14211828 0.08289982 -0.050312523
-0.05389748 0.065919794 0.10136385 -0.10762136 -0.02517506 -0.15396488 0.1897601 0.15754457
0.01386159 -0.14022437 -0.069052376 -0.034930117 -0.04565115 0.005458179 -0.09754602 0.03787884
-0.1121766 0.0039062419 0.012909806 0.03853171 0.13741952 -0.11594465 -0.005964363 0.05766524
0.13713229 0.0114547005 -0.10175306 -0.004576407 0.18709786 -0.1117132 -0.03687703 -0.010204558
0.13905779 0.0083810985 0.12946376 -0.024327725 -0.13445292 0.028529381 -0.119504064 -0.13278514
0.045020085 -0.1262426 0.07215102 -0.19474536 -0.07575204 -0.112437814 0.14802827 0.10396646
0.07444343 -0.11285774 -0.14751479 -0.086050615 -0.10384333 0.04860319 0.09973155 0.16693786
00000000: 4501 24bd d3e1 5fbc 6e38 44bd 2cd5 0e3d
00000010: 295c 3bbd f098 783d 6233 e33c b98b d6bd
00000020: 358e 67bd 24e6 07bd 70fd b0bd a36c 733c
00000030: c98e f9bc 436a 3dbe a3d8 ae3d 4c1a 23be
00000040: 8c1f e23d be29 ffbd 3b3a 16bd 61bf 2fbe
00000050: 821e 36be 7cb0 8d3c 270d 0bbe f50b 02be
00000060: dc61 fe3c 19c8 3f3d 3584 8b3c 62d4 d1bc
00000070: a6c3 afbc c4b3 073e bf69 cc3d 476a 9cbc
00000080: 335a 243d 778c db3d 75ab 7d3c e569 3c3e
00000090: bdc3 4bbd f251 863d be2e 933c 7eda 13bb
000000a0: 0277 363d 8450 d2bc dc4b 8e3c ca83 793e
000000b0: 869f 493e 3672 e43d 99dc 933e e36b 883d
000000c0: b5c6 8fbc 57ed c2bd 113c a93e 9b35 173e
000000d0: 9acb 443e 16be b43d 1f3b 9ebd aa92 6abd
000000e0: 72d6 46be df65 123d bf1d 683e ef43 013e
000000f0: 08bb 8b3e 4c07 8fbc c244 a93d f2d3 43bd
00000100: e58c 693c 6a76 4a3d f5e5 95bc e35d 9cbd
00000110: 25da 00bd b721 67bd d57b 10be 7985 f2bc
00000120: 3384 303e d73a 863c 4007 233e c77f 243e
00000130: d290 82be 07ae 4a3d e394 94bd 3e2d 173e
00000140: ec69 f63c 3f3e 80bd 51bc d43d 3c42 af3d
00000150: c698 31be 7c80 efbc d42c 17bc fe16 6c3e
00000160: f137 c13d 54d3 3f3d ab1d 62bd b7a4 f6bd
00000170: 5150 14be d7d8 8f3b 6c04 383d 6e46 54be
00000180: 6db2 b8bd b0bc f33d d3d6 c3bc b792 dd3d
00000190: 19b8 3ebe 8b42 223e f541 10be dcd8 bd3d
000001a0: 41d5 b1bb 3862 933d 0f8b 193d 320e 0cbd
000001b0: b9bc 47be a11c fe3c dc67 0e3e 630a 9c3d
000001c0: ba75 aa3d f47a 9f3d e780 0dbe 30f6 913d
000001d0: 0ef9 75bd f144 7b3d c1b0 f2bd 5118 723d
000001e0: 9a9f 96bd d80c 96bc b915 bc3d 8f7c a5bd
000001f0: 6a5d 73bd 8201 eebb 0b58 513d bf91 bcbd
00000200: 8242 1fbd cdea 2cbe 283b 13bc 2ead b1bd
00000210: 1b7e 24bd e7e9 7cbd c5ea 113c dadb b5bd
00000220: 4f16 383e 2b84 6d3d b77b 583d 93cd 143d
00000230: 47fe 993d fdf2 0ebe c058 0f3e 4016 3b3d
00000240: 7689 233e 1d88 ef3d 7950 0b3e 3b41 a6bd
00000250: 25d8 2dbe 04a5 c2bc c4c7 0b3e d9bf 603e
00000260: 52f1 123e cf62 3ebd b144 3d3e 679c c4bc
00000270: c919 30be 3e45 243e 0f0f 9a3c 479c 03be
00000280: 3fae 9abd b148 1dbe 7b7a 063e 89cd 35be
00000290: e637 0b3e 2e93 75bd 0cff 5abd a942 a43d
000002a0: 3a3b a93d f222 983d c52a 733e ac0d 6a3e
000002b0: 7467 dabd 64d8 01be 3ba9 5cbc beed c3bd
000002c0: 7afd 113d 7b19 a3bd 61ab 17bc 72df 4abe
000002d0: 1e8c a4bc 5155 a83d fa89 eb3d 6d58 09be
000002e0: 45ad 33be 7585 f2bd dffb f3bd 9487 02be
000002f0: b9f3 8e3c f179 06bd 1612 633d 71f5 a13d
00000300: 6cac 99bd c939 e83c 8a22 8a3d 502c 463e
00000310: 0c57 853e 7487 113e 61c7 a93d 8114 4ebd
00000320: 9bc3 5cbd f500 873d da97 cf3d 9668 dcbd
00000330: ed3b cebc f8a8 1dbe 7950 423e 5d53 213e
00000340: b91b 633c fa96 0fbe 556b 8dbd e212 0fbd
00000350: b3fc 3abd 86da b23b 35c6 c7bd d826 1b3d
00000360: d8bc e5bd ddff 7f3b a783 533c 6dd3 1d3d
00000370: b4b7 0c3e 6374 edbd b470 c3bb 6332 6c3d
00000380: 686c 0c3e 7fac 3b3c e963 d0bd aff5 95bb
00000390: 9596 3f3e e4c9 e4bd 5e0c 17bd 0531 27bc
000003a0: 2a65 0e3e e050 093c 2692 043e f04a c7bc
000003b0: 07ae 09be 73b6 e93c 8cbe f4bd d4f8 07be
000003c0: fb66 383d bd45 01be eac3 933d 546b 47be
000003d0: e323 9bbd cc45 e6bd b994 173e 5eec d43d
000003e0: cc75 983d f521 e7bd 1e0e 17be 4e3b b0bd
000003f0: d0ab d4bd 2314 473d 0e40 cc3d c2f1 2a3e

fc1.bias f4 [512]
0.1657888 0.051001765 -0.20111316 -0.1582254 0.10380517 -0.11119419 -0.25054678 -0.2660786
0.16512837 0.03717187 -0.13830486 -0.121433325 -0.16053653 0.23682003 -0.2986651 0.06838495
-0.16111457 0.0403658 -0.37903267 -0.05500062 -0.27043745 -0.1571904 -0.13079241 0.08511081
0.16431996 -0.012231877 -0.29607916 -0.013688252 -0.25149643 -0.20439532 -0.1752097 0.21894537
-0.14875692 0.13074327 -0.36265045 -0.28707695 -0.05872543 -0.29280823 0.15008259 -0.24067408
-0.16533181 -0.21024486 -0.0063843112 0.13929388 -0.19361214 -0.016142035 -0.009121487 -0.21894415
-0.26830226 -0.16336206 0.12087205 -0.16529657 0.15953454 0.19326298 0.084432535 -0.1351607
0.07538817 -0.3171313 -0.18790099 0.008067828 -0.041762874 -0.1985759 0.055918843 -0.13513568
-0.15498632 0.26180094 -0.004121901 -0.08766884 -0.24478674 -0.27103654 -0.19153042 -0.26094612
0.20266685 -0.1661442 0.045117296 -0.28420165 -0.149069 -0.22723922 -0.08773937 0.28754795
-0.06909816 -0.18332595 -0.04245774 -0.10044147 0.028257037 -0.06815376 -0.14652686 0.17254275
0.06931276 -0.10061995 0.13283223 0.03657349 0.05398053 -0.25100914 -0.24114135 0.11774214
-0.21108899 0.25978792 0.12002936 -0.21333914 -0.18105954 -0.20467365 0.05607171 -0.19029373
-0.04342124 0.001358964 -0.0886706 -0.18238974 0.045321736 0.27730757 -0.060501963 -0.12631334
-0.16328496 0.01604711 -0.23409419 -0.1013327 -0.04712067 -0.081170544 0.042485293 -0.18541594
0.15755874 -0.34977394 0.03449642 -0.05216669 -0.22907609 -0.12289481 -0.12459519 0.27363563
-0.12007123 -0.25166002 -0.085886605 0.12011243 -0.3374643 -0.13149987 -0.0722974 0.22745486
0.20324239 -0.07224217 -0.014930535 -0.017248843 -0.2006386 -0.1363214 -0.3488981 -0.11728899
-0.29983822 -0.21777694 -0.0089249415 -0.19820574 0.024542356 0.07660466 0.0926196 0.22281359
-0.17748861 0.06512346 -0.12804946 0.07394339 -0.09533703 0.1985772 -0.08180244 -0.2768676
-0.20256402 -0.043878395 -0.14114274 -0.2132469 -0.07341685 0.02010027 0.174457 -0.19044198
-0.08331937 0.16513452 -0.28195375 0.040907133 0.23436162 -0.07003987 0.09611563 -0.13958532
-0.00825268 -0.11593939 -0.16538307 -0.20798144 -0.22643472 -0.22984326 0.009286746 -0.10644495
-0.11824515 -0.019888373 -0.060710818 -0.18516451 0.21050198 -0.17844488 -0.31173936 -0.11937614
0.10234129 0.00918474 0.07918569 0.050232667 -0.20432448 -0.27313638 0.011007483 -0.21012405
-0.3612606 -0.23066457 0.07908409 -0.30043072 0.005515314 0.040841315 -0.039392576 -0.29902872
-0.12293641 0.06820373 -0.09235279 -0.15549743 -0.0014956712 -0.20481177 -0.14451246 -0.10849496
0.031793695 0.0030846866 0.052464467 -0.14434917 -0.11694841 -0.06948573 -0.21526985 -0.21676925
-0.0073982943 -0.15168807 0.12677404 -0.1082326 -0.2519038 0.16216809 0.037892245 -0.24038108
-0.2514776 0.1127995 -0.24687707 -0.27981034 -0.21184827 -0.17387088 -0.22625135 -0.1432141
-0.082114115 -0.23377538 -0.24664451 -0.24379665 0.040859953 -0.31613815 0.22695749 -0.056532063
-0.02210742 -0.20635746 -0.11027614 -0.02318279 -0.14020701 -0.13200015 -0.06267933 -0.24016592
00000000: 8ac4 293e 3ae7 503d 9cf0 4dbe d705 22be
00000010: ce97 d43d c8b9 e3bd ab47 80be 743b 88be
00000020: 6917 293e 8841 183d ca9f 0dbe 09b2 f8bd
00000030: b063 24be f380 723e a2ea 98be 690d 8c3d
00000040: 38fb 24be 9c56 253d 9210 c2be 5548 61bd
00000050: c776 8abe 85f6 20be 72ee 05be 944e ae3d
00000060: 7e43 283e 3668 48bc b097 97be b144 60bc
00000070: 24c4 80be 024d 51be 2c6a 33be 3733 603e
00000080: bc53 18be 90e1 053e 52ad b9be c0fb 92be
00000090: 148a 70bd f6ea 95be 40af 193e 4473 76be
000000a0: be4c 29be 6e4a 57be 7c33 d1bb 0ea3 0e3e
000000b0: 4342 46be 4d3c 84bc 4a72 15bc e532 60be
000000c0: ea5e 89be 6248 27be c48b f73d 8143 29be
000000d0: 065d 233e bbe6 453e f7ea ac3d 9167 0abe
000000e0: 1d65 9a3d 095f a2be 1e69 40be ec2e 043c
000000f0: 8c0f 2bbd 7b57 4bbe 280b 653d 0261 0abe
00000100: bcb4 1ebe c60a 863e 0311 87bb b98b b3bd
00000110: 60a9 7abe 4dc5 8abe 8d20 44be bb9a 85be
00000120: e687 4f3e b521 2abe eacc 383d e182 91be
00000130: 8ba5 18be 66b1 68be b3b0 b3bd 7c39 933e
00000140: 5683 8dbd ccb9 3bbe 2be8 2dbd 42b4 cdbd
00000150: 4d7b e73c 3394 8bbd 230b 16be 0caf 303e
00000160: d9f3 8d3d d511 cebd 2c05 083e 15ce 153d
00000170: b01a 5d3d 4584 80be c2ed 76be cb22 f13d
00000180: b627 58be ec02 853e f4d1 f53d 9375 5abe
00000190: ac67 39be f895 51be 73ab 653d 5cdc 42be
000001a0: 78da 31bd 441f b23a ee98 b5bd 60c4 3abe
000001b0: 49a3 393d 42fb 8d3e e8d0 77bd 4958 01be
000001c0: 2c34 27be 3b75 833c 63b6 6fbe 8587 cfbd
000001d0: 9b01 41bd be3c a6bd 0f05 2e3d addd 3dbe
000001e0: 1457 213e 9215 b3be 1e4c 0d3d bdac 55bd
000001f0: ec92 6abe 46b0 fbbd c32b ffbd f819 8c3e
00000200: e8e7 f5bd 95d9 80be 51e5 afbd 81fd f53d
00000210: 1fc8 acbe e7a7 06be a910 94bd ede9 683e
00000220: c61e 503e b4f3 93bd 349f 74bc 724d 8dbc
00000230: 3574 4dbe d697 0bbe c6a2 b2be 3635 f0bd
00000240: 6584 99be eb00 5fbe eb39 12bc 72f6 4abe
00000250: 0d0d c93c e7e2 9c3d 58af bd3d 3f29 643e
00000260: 93bf 35be 735f 853d 661f 03be a26f 973d
00000270: 1040 c3bd d257 4b3e 0a88 a7bd 97c1 8dbe
00000280: f16c 4fbe d5b9 33bd b987 10be 655d 5abe
00000290: 935b 96bd 52a9 a43c dba4 323e 3903 43be
000002a0: 59a3 aabd 0619 293e 3e5c 90be 3d8e 273d
000002b0: 7efc 6f3e 1071 8fbd 45d8 c43d 74ef 0ebe
000002c0: 4036 07bc a271 edbd 2e5a 29be 16f9 54be
000002d0: 81de 67be 085c 6bbe 7027 183c cfff d9bd
000002e0: 832a f2bd f1ec a2bc e8ab 78bd c49b 3dbe
000002f0: d58d 573e 41ba 36be 4d9c 9fbe 7a7b f4bd
00000300: 4f98 d13d 977b 163c 1b2c a23d c5c0 4d3d
00000310: 703a 51be 88d8 8bbe bb58 343c c22a 57be
00000320: 26f7 b8be 5533 6cbe d7f6 a13d 0ed2 99be
00000330: cfb9 b43b 3949 273d 1c5a 21bd 4b1a 99be
00000340: 16c6 fbbd 66ae 8b3d 7623 bdbd b83a 1fbe
00000350: 660a c4ba 2dba 51be 13fb 13be 9b32 debd
00000360: 1b3a 023d 7428 4a3b fbe4 563d 45d0 13be
00000370: a682 efbd 894e 8ebd b36f 5cbe c2f8 5dbe
00000380: 646d f2bb 1e54 1bbe 0ed1 013e 0ea9 ddbd
00000390: 89f9 80be 640f 263e e634 1b3d 7526 76be
000003a0: acc1 80be 6d03 e73d 58cd 7cbe 4d43 8fbe
000003b0: c1ee 58be 350b 32be 6fae 67be b8a6 12be
000003c0: 722b a8bd d062 6fbe 6190 7cbe d4a5 79be
000003d0: c45c 273d dcdc a1be 8b67 683e 2a8e 67bd
000003e0: 9f1a b5bc 5f4f 53be 75d8 e1bd d6e9 bdbc
000003f0: 6d92 0fbe 0c2b 07be 055e 80bd 0eee 75be

fc2.weight f4 [256, 512]
0.057244312 -0.04617004 0.06879706 0.0639393 0.055963147 -0.05715345 0.05227263 -0.060476247
0.03913817 -0.025327062 0.06878425 -0.14377701 -0.003337755 -0.006475319 0.08827678 0.021491017
0.10509544 -0.033654608 0.13031426 0.044174343 0.018140828 -0.09829358 0.06824582 -0.078862175
0.0076400493 0.00067426433 0.018626068 0.07840513 -0.041885026 0.039817467 0.005944714 0.061351337
0.021551052 0.01877171 -0.027663495 0.014339432 -0.0016254784 -0.055803724 -0.0028898134 0.04335047
0.08979946 0.020138377 -0.016573958 -0.06375324 -0.069714524 0.030484067 0.04745938 0.026110565
-0.043065835 -0.013691004 0.007905547 0.03261214 -0.03702343 0.046534702 -0.013795397 0.046686925
0.005424653 0.042154692 -0.0706703 -0.019583458 0.008326268 -0.011162396 0.039598383 0.040093884
-0.11072295 0.021688052 0.063065715 -0.06896783 -0.11650691 -0.051137265 0.043319345 -0.037139826
-0.02124302 -0.111500226 -0.060290135 -0.16608413 0.01882665 0.028480588 -0.029968476 -0.0060784942
0.09345935 -0.00814251 -0.122028135 -0.012204196 -0.06676343 -0.054347027 -0.04953364 -0.029313399
-0.05271414 0.050565075 0.04626657 -0.04667741 0.07556 -0.0014649701 -0.045931336 9.0538e-05
0.00667869 -0.001260575 0.09954534 0.0316941 0.023314083 -0.043518126 0.014871844 0.099631235
0.0039427164 0.021321716 -0.037050728 -0.046567507 0.070775494 0.0316991 0.017185004 -0.062291693
-0.08127508 -0.0034484626 0.06778497 0.04566036 0.013545646 -0.02662729 -0.023562582 0.04192844
0.044182315 0.057057247 0.009440396 0.014682899 -0.011365206 -0.050714817 -0.0600391 0.08748683
-0.007202755 0.045916237 0.0028187819 -0.010026445 -0.05753433 -0.18039218 0.06705712 0.050021254
0.011423691 -0.01379111 0.0803084 0.00091173244 -8.557925e-05 0.0143286 0.017979465 0.15657097
-0.06244529 -0.012124152 0.043976787 -0.06957014 -0.027376564 -0.13632043 0.029668527 0.072479375
-0.013686768 0.11406778 -0.08117115 -0.06324746 0.06772129 0.020227324 -0.042493094 -0.06690942
0.11162475 0.036610324 -0.0072787213 0.056762177 -0.03258644 -0.056050107 -0.002633311 -0.06507033
-0.045248564 0.07485962 0.069968686 0.0008912149 0.01773408 0.027591493 0.011784916 -0.017404506
0.040236276 0.04518033 -0.13576451 -0.009733433 -0.017664628 -0.050564416 -0.009816446 -0.21849655
0.03617352 0.07521484 -0.022368463 -0.13452846 -0.030060062 -0.14131072 -0.019965965 -0.07013585
-0.11639978 0.12011455 -0.0024150722 -0.05904056 -0.040602405 0.028034767 0.033929296 0.040677775
-0.04395425 0.014078408 -0.038081974 0.0712061 -0.020526953 0.06631624 -0.13615385 0.083544314
-0.008698262 0.079588056 -0.1303148 -0.031993218 -0.046637505 -0.045770593 0.01260437 -0.012958743
-0.049079683 -0.07144863 0.17315717 -0.2977471 -0.024035428 -0.13085537 -0.052926604 0.043867648
-0.08626224 0.08577927 -0.033999268 0.01939577 0.012020321 0.016403465 -0.027061626 -0.07506632
-0.10849348 -0.02606091 0.072539136 -0.02784103 -0.052394453 -0.009130615 -0.05559758 -0.022170244
-0.1454473 -0.008827734 -0.032627914 -0.19822346 -0.0154103115 -0.13594034 0.021677742 -0.19684093
0.055067826 -0.0017071535 0.023293613 -0.14145938 -0.004295302 -0.077356614 -0.044572815 0.010750385
00000000: 0379 6a3d cc1c 3dbd 79e5 8c3d 9cf2 823d
00000010: 9d39 653d bc19 6abd d31b 563d f1b5 77bd
00000020: 594f 203d b37a cfbc c2de 8c3d 483a 13be
00000030: 3dbe 5abb ea2e d4bb 75ca b43d ee0d b03c
00000040: 473c d73d 6ad9 09bd 1a71 053e 28f0 343d
00000050: 139c 943c 254e c9bd 77c4 8b3d 7e82 a1bd
00000060: 6159 fa3b 1dc1 303a b295 983c de92 a03d
00000070: a28f 2bbd a417 233d e0cb c23b 8a4b 7b3d
00000080: d58b b03c 21c7 993c 8e9e e2bc f0ef 6a3c
00000090: 010e d5ba 7292 64bd 0663 3dbb 4390 313d
000000a0: c7e8 b73d 3df9 a43c 1cc6 87bc 0f91 82bd
000000b0: 7dc6 8ebd b9b9 f93c c464 423d d3e5 d53c
000000c0: cd65 30bd 3c50 60bc 4486 013c 4f94 053d
000000d0: e1a5 17bd 2c9b 3e3d 1706 62bc ca3a 3f3d
000000e0: 4ac1 b13b 66aa 2c3d 97bb 90bd 7d6d a0bc
000000f0: e66a 083c 7be2 36bc ea31 223d 7c39 243d
00000100: b7c2 e2bd 24ab b13c 9928 813d 013f 8dbd
00000110: 2d9b eebd 4f75 51bd a06f 313d ee1f 18bd
00000120: d805 aebc 3b5a e4bd caf2 76bd f511 2abe
00000130: 593a 9a3c 1f50 e93c 7380 f5bc 1b2e c7bb
00000140: 9e67 bf3d 2a68 05bc e3e9 f9bd 1cf4 47bc
00000150: 44bb 88bd fd9a 5ebd c9e3 4abd a722 f0bc
00000160: c8ea 57bd 531d 4f3d 0482 3d3d d030 3fbd
00000170: 34bf 9a3d 3d04 c0ba 7f22 3cbd 38df bd38
00000180: ead8 da3b e139 a5ba 6dde cb3d acd1 013d
00000190: 2dfd be3c 1040 32bd 09a9 733c 760b cc3d
000001a0: e731 813b e1aa ae3c 81c2 17bd 92bd 3ebd
000001b0: bef2 903d ead6 013d 91c7 8c3c 9325 7fbd
000001c0: 8d73 a6bd 9aff 61bb d9d2 8a3d 5c06 3b3d
000001d0: 8fee 5d3c 7921 dabc 5106 c1bc 28bd 2b3d
000001e0: 84f8 343d dcb4 693d e4ab 1a3c 8b90 703c
000001f0: 2135 3abc 57ba 4fbd 8feb 75bd 4c2c b33d
00000200: 1705 ecbb aa12 3c3d 50bb 383b f545 24bc
00000210: 1ea9 6bbd bab8 38be 3e55 893d 16e3 4c3d
00000220: 6f2a 3b3c 1cf4 61bc bb78 a43d 5401 6f3a
00000230: 0379 b3b8 81c2 6a3c ac49 933c 2454 203e
00000240: a2c6 7fbd 61a4 46bc 0121 343d ca7a 8ebd
00000250: d144 e0bc 9597 0bbe 690b f33c 1170 943d
00000260: 773e 60bc 5e9c e93d 0f3d a6bd e287 81bd
00000270: 76b1 8a3d c6b3 a53c 3d0d 2ebd ce07 89bd
00000280: 849b e43d b5f4 153d 5782 eebb 757f 683d
00000290: 5c79 05bd cc94 65bd a193 2cbb 9843 85bd
000002a0: 8f56 39bd 0050 993d be4b 8f3d 6ba0 693a
000002b0: 1047 913c 8e07 e23c 8515 413c e593 8ebc
000002c0: cbce 243d 020f 393d da05 0bbe fa78 1fbc
000002d0: 69b5 90bc a21c 4fbd 29d5 20bc 8fbd 5fbe
000002e0: af2a 143d 3d0a 9a3d 113e b7bc d4c1 09be
000002f0: 8540 f6bc c2b3 10be aa8f a3bc 62a3 8fbd
00000300: 0263 eebd 9efe f53d 3046 1ebb 84d4 71bd
00000310: b54e 26bd 2ba9 e53c 72f9 0a3d bd9d 263d
00000320: 5f09 34bd 1fa9 663c d8fb 1bbd 81d4 913d
00000330: 2428 a8bc cfd0 873d ea6b 0bbe 4819 ab3d
00000340: 2883 0ebc 10ff a23d 3e71 05be 520b 03bd
00000350: f806 3fbd f279 3bbd 8f82 4e3c e850 54bc
00000360: c707 49bd a953 92bd 1d50 313e 4f72 98be
00000370: f2e5 c4bc f3fe 05be 91c9 58bd 90ae 333d
00000380: 42aa b0bd 0bad af3d d142 0bbd e1e3 9e3c
00000390: e1f0 443c 8f60 863c 58b0 ddbc 5fbc 99bd
000003a0: d431 debd b17d d5bc 668f 943d df12 e4bc
000003b0: 919b 56bd 9398 15bc 4aba 63bd 5f9e b5bc
000003c0: 23f0 14be 33a2 10bc d9a4 05bd 17fb 4abe
000003d0: 887b 7cbc f233 0bbe 8595 b13c ab90 49be
000003e0: cd8e 613d 91c2 dfba 3fd2 be3c bada 10be
000003f0: 9bbf 8cbb 256d 9ebd fc91 36bd 6222 303c

fc2.bias f4 [256]
0.02275809 0.08026631 -0.12210154 -0.040235795 0.16624033 0.08160658 0.059369467 0.037427668
0.008491046 0.09983557 0.045814585 -0.06514739 0.13324681 0.014697372 0.19447072 0.0047052205
-0.16313273 0.03587505 -0.04047927 0.036993522 0.033297367 0.007870127 0.10539297 0.045074932
0.044212006 0.019147964 0.05607535 0.16150385 0.014162008 -0.14132306 0.04765534 0.049342573
0.031484332 -0.00945016 0.016859336 0.13625392 0.08377236 0.0321014 -0.026692625 0.12999707
-0.03898773 -0.04058376 0.074302204 0.017505215 0.06325919 0.030380119 0.022569403 0.036905106
-0.0129239885 0.06435732 0.12646666 0.022159938 0.15451227 0.073160626 -0.022513168 0.06681695
0.057994343 0.10938824 0.025315523 0.08058834 0.032423314 0.042254165 0.069648735 0.14087844
0.089879945 0.11006006 -0.03726855 -0.16040944 0.061123602 0.055538747 -0.13395716 0.14318785
0.037580855 -0.011223485 0.0070235245 -0.008850979 -0.002511396 -0.123466894 0.038660552 -0.01441477
-0.028212287 0.08631023 0.017810632 0.004566771 -0.033348024 -0.031866647 0.21359605 -0.0037460707
0.029929115 0.03091729 -0.054048687 0.113172196 0.02104259 0.107656114 0.15083472 0.12614998
-0.020024037 0.10066687 0.031779487 0.05365193 0.06902738 0.07453599 0.10999561 -0.049812634
-0.043617073 0.18103153 0.01998189 0.21953174 0.1538139 0.0027415298 0.087224275 0.2193417
0.060750008 0.024724687 0.03857357 0.055706248 -0.076258235 0.16102234 -0.055030134 0.04286349
-0.14910124 0.058176838 0.12793432 0.17814837 0.1147482 0.10794577 -0.008816386 -0.025154984
0.0027954145 -0.090223275 -0.011008937 0.1850653 -0.057487056 0.01955772 0.033644356 0.048105467
0.014338602 0.031946104 0.0074438904 0.09110056 -0.04062849 0.12956847 -0.07054683 -0.07811909
0.061188687 0.020188337 -0.10185161 -0.01641813 0.13958825 0.1000679 -0.048435766 -0.06993752
0.056983646 -0.0026309362 0.052952416 -0.0070385095 -0.034852296 -0.019273315 0.03898411 0.014420198
0.15717979 -0.0067540323 0.042173434 0.1125429 0.085415915 0.0064050895 0.03586914 0.08992845
0.06392426 -0.031102233 -0.057625 0.061941456 0.18550046 0.04256337 0.0015942635 -0.020564243
0.17287143 0.1283133 -0.099332124 0.075020276 0.02762106 -0.06008287 0.16514152 0.2096723
0.15326098 0.06738685 -0.028017703 0.17868182 -0.0187563 -0.18445164 0.0077434094 0.12919079
0.095320754 0.029168636 -0.07475668 0.03653115 -0.086649425 0.0030566717 0.18260458 0.08971288
0.059940334 -0.024439001 -0.015453726 -0.053452298 0.18819173 -0.042316616 0.014334213 0.23815782
0.1451281 0.15708323 0.017969431 -0.014676824 0.066871844 -0.12902737 0.020623403 0.00032636253
0.06350742 0.14973308 0.09623379 0.010587769 0.014123393 0.060333773 0.031073483 0.0004993331
-0.044500645 -0.058650244 -0.06700259 -0.06518939 -0.107876964 -0.06024315 0.07832835 0.08332807
0.111034095 0.20548092 0.055304106 0.14279029 -0.09162243 -0.21379128 0.0066506634 0.13986309
0.008206534 0.1238961 0.02774894 0.020667471 0.12604827 -0.10158427 0.056346152 0.13621405
0.029946035 0.016033372 0.0026142818 -0.054517213 0.1007589 0.110699266 -0.09577877 0.11107717
00000000: 2d6f ba3c aa62 a43d 5f10 fabd 4ace 24bd
00000010: e83a 2a3e 5a21 a73d 662d 733d c14d 193d
00000020: 071e 0b3c 9776 cc3d 13a8 3b3d ff6b 85bd
00000030: da71 083e 3fcd 703c 5523 473e 402e 9a3b
00000040: 440c 27be b7f1 123d 97cd 25bd 8586 173d
00000050: d262 083d b5f1 003c 45d8 d73d 7ea0 383d
00000060: a617 353d 31dc 9c3c 44af 653d 4461 253e
00000070: c407 683c feb6 10be 3f32 433d 701b 4a3d
00000080: b7f5 003d d8d4 1abc 971c 8a3c 2686 0b3e
00000090: d890 ab3d c27c 033d 7eaa dabc f41d 053e
000000a0: 99b1 1fbd 283b 26bd c12b 983d 1967 8f3c
000000b0: 098e 813d badf f83c 78e3 b83c cf29 173d
000000c0: 23bf 53bc c5cd 833d 7a80 013e c288 b53c
000000d0: 7738 1e3e 3dd5 953d 896d b8bc 53d7 883d
000000e0: 7a8b 6d3d f106 e03d 8062 cf3c 800b a53d
000000f0: 4fce 043d b412 2d3d ffa3 8e3d 7042 103e
00000100: fa12 b83d 2b67 e13d e8a6 18bd 5f42 24be
00000110: be5c 7a3d 997c 633d 112c 09be d69f 123e
00000120: 62ee 193d b5e2 37bc 9825 e63b b203 11bc
00000130: 3c96 24bb 36dc fcbd 875a 1e3d ed2b 6cbc
00000140: 741d e7bc 6bc3 b03d 9ae7 913c daa4 953b
00000150: f097 08bd 9a86 02bd ecb8 5a3e a380 75bb
00000160: e72d f53c 4246 fd3c 2862 5dbd d3c6 e73d
00000170: 8261 ac3c cf7a dc3d 6b74 1a3e 762d 013e
00000180: 7309 a4bc 6f2a ce3d 352b 023d 20c2 5b3d
00000190: 3a5e 8d3d 53a6 983d 6145 e13d 5508 4cbd
000001a0: d1a7 32bd 5460 393e 10b1 a33c eecc 603e
000001b0: 6481 1d3e 3dab 333b a4a2 b23d 1c9b 603e
000001c0: 00d5 783d 6d8b ca3c 52ff 1d3d 3c2c 643d
000001d0: 472d 9cbd 0ae3 243e 4767 61bd a091 2f3d
000001e0: ffad 18be d64a 6e3d 3701 033e 876c 363e
000001f0: 1b01 eb3d ac12 dd3d 9a72 10bc d311 cebc
00000200: 4633 373b fbc6 b8bd d45e 34bc c281 3d3e
00000210: 8c77 6bbd 8337 a03c aace 093d 3d0a 453d
00000220: 75ec 6a3c ebd9 023d e1eb f33b ee92 ba3d
00000230: 0f6a 26bd 99ad 043e db7a 90bd e7fc 9fbd
00000240: fda0 7a3d 0362 a53c 9497 d0bd 507f 86bc
00000250: 39f0 0e3e 66f0 cc3d 9564 46bd 673b 8fbd
00000260: af67 693d c96b 2cbb a2e4 583d 4ca3 e6bb
00000270: 48c1 0ebd 12e3 9dbc cdad 1f3d b242 6c3c
00000280: bdf3 203e ee50 ddbb 0dbe 2c3d e47c e63d
00000290: 8aee ae3d c9e1 d13b 85eb 123d 682c b83d
000002a0: b9ea 823d 1cca febc 3108 6cbd 53b6 7d3d
000002b0: d5f3 3d3e ee56 2e3d 9bf6 d03a 5876 a8bc
000002c0: 3505 313e 9064 033e a46e cbbd 3ba4 993d
000002d0: 9045 e23c 7519 76bd dc1a 293e 56b4 563e
000002e0: 72f0 1c3e 1e02 8a3d 6285 e5bc 5ef8 363e
000002f0: d0a6 99bc e4e0 3cbe 6dbc fd3b 974a 043e
00000300: 8737 c33d 10f3 ee3c 081a 99bd b0a1 153d
00000310: 4175 b1bd 7152 483b b2fc 3a3e 63bb b73d
00000320: ff83 753d 4d34 c8bc a031 7dbc ccf0 5abd
00000330: 55b5 403e 3054 2dbd 0cda 6a3c a5df 733e
00000340: 769c 143e 6dda 203e a134 933c 1077 70bc
00000350: 1bf4 883d c01f 04be 69f2 a83c a31b ab39
00000360: 2e10 823d a153 193e 3916 c53d 5278 2d3c
00000370: ce65 673c 8c20 773d d18d fe3c ade5 023a
00000380: 4f46 36bd 3d3b 70bd a738 89bd 0482 85bd
00000390: 99ee dcbd 85c1 76bd 9d6a a03d e8a7 aa3d
000003a0: d865 e33d 9769 523e 8f86 623d 9e37 123e
000003b0: 8aa4 bbbd 1aec 5abe cfed d93b 4538 0f3e
000003c0: b374 063c 3dbd fd3d bf51 e33c d44e a93c
000003d0: cc12 013e 6a0b d0bd 39cb 663d b27b 0b3e
000003e0: 6351 f53c 6b58 833c 5f54 2b3b 714d 5fbd
000003f0: af5a ce3d 4cb6 e23d a927 c4bd 6d7c e33d

fc3.weight f4 [2, 256]
0.016293366 -0.0064572194 -0.099691354 -0.021148797 -0.036144685 -0.06238225 -0.010891131 -0.049687885
0.05594884 0.018935893 0.04845495 -0.023412004 -0.06323848 0.009463306 -0.055907864 -0.04435741
-0.055039734 0.06400074 -0.041018452 -0.017846169 -0.011893919 0.014455079 0.005456078 -0.03597108
-0.0020035498 0.119502224 -0.025721645 0.060744032 -0.016151156 0.08976385 0.010392664 0.086337075
0.02303278 0.07434157 -0.0018438122 -0.016590003 0.03431784 0.026738107 0.0007468693 0.064835876
0.04478724 -0.025345165 0.16391106 0.030434776 0.030651014 0.119247936 -0.052235696 0.08798188
-0.027657429 -0.016316531 -0.014449688 -0.029903531 -0.02296131 0.047514163 0.043871704 -0.029925516
0.045128457 0.07042417 -0.020646567 -0.066529475 -0.039712667 0.022234691 0.024476852 -0.06936124
-0.044527035 -0.033951648 0.02262081 -0.0579902 -0.018858142 -0.02566401 -0.055086464 0.096486025
0.01788667 -0.042696495 0.0020884925 -0.026576024 0.0073283287 -0.23583685 0.048228074 0.00058451074
0.07743954 0.014475486 -0.013556021 0.027892778 0.09686305 -0.08160146 -0.049758267 0.012224361
0.0056415354 0.18775783 -0.0064345375 0.049383406 -0.016926158 0.017642174 0.036853243 -0.06538351
0.03162443 -0.16505064 0.01906803 -0.0016827002 -0.030900527 0.106590986 0.054596487 -0.02416308
0.03394733 -0.039603643 -0.003659894 -0.03623982 0.029565187 0.02260777 0.03594039 -0.030713605
-0.09702675 -0.0047472804 0.07413857 0.01876085 -0.042031154 -0.042108025 -0.021316402 0.033256073
-0.06251296 -0.029462015 -0.08610412 -0.04606295 0.008775412 -0.028672654 0.056895483 0.04674799
0.06599604 0.048964195 0.011928451 -0.11758027 -0.03796293 0.015655177 -0.059773948 0.06680009
0.050412677 -0.045687504 -0.06726974 -0.12992483 0.08442026 -0.009898289 0.12802546 0.046092965
0.076034576 0.077507555 0.016794952 -0.06295212 0.08504884 -0.10958462 -0.01771369 0.07947978
0.025239429 0.017383013 0.004062103 0.1440208 0.10674046 0.017271828 0.0072747413 0.055183433
-0.043908913 -0.020354506 0.042544287 0.019783137 -0.024572037 -0.00023228861 0.022759045 -0.026173396
-0.057288032 0.021878071 -0.035234485 -0.107672945 -0.020932496 -0.0093766935 -0.09338232 -0.016052565
0.0070378855 -0.008414394 0.047861926 -0.0538658 0.05592209 -0.012482028 0.016944744 -0.051677134
0.05915462 -0.039797284 -0.056976408 0.021776456 0.11894659 -0.09310167 0.0027296045 0.04045926
-0.036090404 -0.04934356 0.078675896 -0.03966014 -0.019206027 0.057468474 0.03381789 0.017359525
0.012599256 -0.08139901 -0.023732617 -0.093999915 0.070361845 0.09653341 -0.05986298 -0.08486413
-0.03810067 -0.024384052 0.09242779 0.2273833 0.10110595 -0.068321116 -0.027937202 -0.06263579
0.060278084 0.018308451 -0.046409406 -0.045951024 0.03524296 0.07670425 0.34458482 0.039032537
-0.03543792 0.099489115 -0.06325007 -0.08421353 0.06450691 -0.055313166 -0.028824324 -0.023246914
-0.004735033 0.06727361 0.02713422 -0.023427702 0.042288214 -0.19689451 -0.04001871 0.03441213
0.05756987 0.072891876 -0.053638957 0.05590497 0.01310859 0.03749473 0.04634024 -0.042616546
0.08370265 0.117390685 0.06806817 -0.04845114 0.02425781 0.009904414 0.0817408 0.09863291
00000000: aa79 853c 1597 d3bb fb2a ccbd 3e40 adbc
00000010: 730c 14bd 8884 7fbd b770 32bc 8685 4bbd
00000020: 9c2a 653d 721f 9b3c b378 463d 88ca bfbc
00000030: 2d83 81bd fb0b 1b3c a5ff 64bd 1eb0 35bd
00000040: 5871 61bd d212 833d f702 28bd 2132 92bc
00000050: b6de 42bc ffd4 6c3c e6c8 b23b 6956 13bd
00000060: fd4d 03bb 95bd f43d 33b6 d2bc bcce 783d
00000070: 6e4f 84bc 1cd6 b73d fe45 2a3c 7ed1 b03d
00000080: 3eaf bc3c 6540 983d 12ac f1ba c2e7 87bc
00000090: dd90 0c3d e009 db3c 8dc9 433a acc8 843d
000000a0: d372 373d aaa0 cfbc 4dd8 273e 5a52 f93c
000000b0: d617 fb3c 4338 f43d 19f5 55bd d82f b43d
000000c0: d591 e2bc 3faa 85bc 62be 6cbc 40f8 f4bc
000000d0: 5b19 bcbc 369e 423d d1b2 333d 5b26 f5bc
000000e0: 9ed8 383d 8c3a 903d fd22 a9bc 9b40 88bd
000000f0: c0a9 22bd 8725 b63c ae83 c83c 440d 8ebd
00000100: fb61 36bd e210 0bbd 474f b93c 2287 6dbd
00000110: 647c 9abc 543d d2bc 58a2 61bd 779a c53d
00000120: 1187 923c 85e2 2ebd 17df 083b f6b5 d9bc
00000130: 7a22 f03b 377f 71be cd8a 453d da39 193a
00000140: 9f98 9e3d 972a 6d3c 131a 5ebc 657f e43c
00000150: 2260 c63d ab1e a7bd 53cf 4bbd b048 483c
00000160: a1dc b83b 9743 403e d0d8 d2bb 4146 4a3d
00000170: baa8 8abc 5286 903c 6df3 163d cae7 85bd
00000180: 9e88 013d 0903 29be 8f34 9c3c 0d8e dcba
00000190: 1a23 fdbc 604c da3d 91a0 5f3d a7f1 c5bc
000001a0: 5b0c 0b3d 6e37 22bd d5da 6fbb 3570 14bd
000001b0: b132 f23c ee33 b93c 3b36 133d 199b fbbc
000001c0: f6b5 c6bd 138f 9bbb f6d5 973d 5bb0 993c
000001d0: dc28 2cbd 7779 2cbd bc9f aebc 8537 083d
000001e0: cb06 80bd 535a f1bc 5b57 b0bd 81ac 3cbd
000001f0: bfc6 0f3c eae2 eabc 3d0b 693d d27a 3f3d
00000200: ef28 873d ae8e 483d 8d6f 433c edcd f0bd
00000210: 047f 1bbd 493f 803c 87d5 74bd 7cce 883d
00000220: 867d 4e3d d222 3bbd b8c4 89bd 040b 05be
00000230: 87e4 ac3d 6f2c 22bc 1b19 033e facb 3c3d
00000240: 04b8 9b3d 48bc 9e3d 9195 893c 0bed 80bd
00000250: 162e ae3d e76d e0bd 4d1c 91bc 4bc6 a23d
00000260: ebc2 ce3c d266 8e3c 641b 853b 307a 133e
00000270: be9a da3d a67d 8d3c f460 ee3b 0608 623d
00000280: d5d9 33bd 7ebe a6bc eb42 2e3d 3f10 a23c
00000290: 4c4b c9bc 8092 73b9 2d71 ba3c 9769 d6bc
000002a0: dba6 6abd a439 b33c 0952 10bd a283 dcbd
000002b0: a07a abbc b4a0 19bc 3b3f bfbd ab80 83bc
000002c0: 109e e63b 87dc 09bc de0a 443d 63a2 5cbd
000002d0: 900e 653d 6c81 4cbc b4cf 8a3c 67ab 53bd
000002e0: 1d4c 723d 7a02 23bd 1860 69bd 8a64 b23c
000002f0: 459a f33d 17ac bebd 2ae3 323b 9cb8 253d
00000300: 88d3 13bd 791c 4abd d420 a13d ac72 22bd
00000310: f555 9dbc 1064 6b3d a184 0a3d 9035 8e3c
00000320: 1c6d 4e3c 86b4 a6bd e86a c2bc 0783 c0bd
00000330: df19 903d 4fb3 c53d e232 75bd 3fcd adbd
00000340: 730f 1cbd 10c1 c7bc c84a bd3d 2bd7 683e
00000350: a310 cf3d f1eb 8bbd 8fdc e4bc 3147 80bd
00000360: 27e6 763d 9bfb 953c ca17 3ebd 2437 3cbd
00000370: ec5a 103d 1e17 9d3d 6c6d b03e 95e0 1f3d
00000380: 5a27 11bd f3c0 cb3d 4189 81bd 2578 acbd
00000390: 331c 843d 0f90 62bd fd20 ecbc 5070 bebc
000003a0: 5628 9bbb bfc6 893d 9548 de3c 74eb bfbc
000003b0: 6836 2d3d b79e 49be a9ea 23bd bcf3 0c3d
000003c0: 62ce 6b3d 5648 953d 86b4 5bbd 9cfc 643d
000003d0: 69c5 563c 1394 193d 43cf 3d3d b08e 2ebd
000003e0: 4c6c ab3d 876a f03d 5367 8b3d b474 46bd
000003f0: 51b8 c63c 2046 223c b867 a73d 0d00 ca3d

fc3.bias f4 [2]
0.04481573 0.044915702
00000000: b390 373d 87f9 373d

norm.weight f4 [26]
0.8339199 0.8432337 0.85604495 0.851102 0.8335797 0.7807607 0.81554615 0.7535858
0.7961504 0.767458 0.7800029 0.73099875 0.7472636 0.7924751 0.84352326 0.8476791
0.77205205 0.87222266 0.8779162 0.9015171 0.8979934 0.86765724 0.88488925 0.78975207
1.3237832 1.0950509
00000000: c67b 553f 2ade 573f c325 5b3f d2e1 593f
00000010: 7b65 553f efdf 473f a2c7 503f 00eb 403f
00000020: 83d0 4b3f 2178 443f 45ae 473f bc22 3b3f
00000030: ab4c 3f3f a6df 4a3f 24f1 573f 7f01 593f
00000040: 34a5 453f fc49 5f3f 1ebf 603f d3c9 663f
00000050: e5e2 653f c91e 5e3f 1a88 623f 312d 4a3f
00000060: ba71 a93f a12a 8c3f

norm.bias f4 [26]
0.18802273 0.13774121 0.069060326 -0.057396866 0.062735096 0.050010026 -0.13951123 -0.12205571
-0.1214867 -0.07638314 -0.13568285 -0.14522153 -0.0136355795 0.02770123 0.056884732 -0.06314985
0.032023568 -0.009739723 0.068448074 0.0810021 0.08326592 0.14176188 0.1192013 0.16044965
0.014390445 0.061726373
00000000: 0889 403e 080c 0d3e 806f 8d3d fa18 6bbd
00000010: 427b 803d 50d7 4c3d 08dc 0ebe 58f8 f9bd
00000020: 05ce f8bd c46e 9cbd 72f0 0abe f4b4 14be
00000030: c467 5fbc b1ed e23c f7ff 683d b554 81bd
00000040: 252b 033d 5c93 1fbc 812e 8c3d 6ee4 a53d
00000050: 5387 aa3d 072a 113e d01f f43d ea4c 243e
00000060: e7c5 6b3c cbd4 7c3d

norm.running_mean f4 [26]
1.4454291 1.462105 1.4999286 1.4667963 1.5333815 1.5608631 1.6343999 1.72313
1.7547108 1.759578 1.8431311 1.8827083 1.9022307 1.8257341 1.7270995 1.7113167
1.7149895 1.6494039 1.6092017 1.6016842 1.4314541 1.4729797 1.4531674 1.4438589
-0.25401354 1.510607
00000000: d203 b93f 4226 bb3f a9fd bf3f fbbf bb3f
00000010: d845 c43f 5dca c73f 0434 d13f 868f dc3f
00000020: 5d9a e03f da39 e13f b8eb eb3f 96fc f03f
00000030: 4c7c f33f a8b1 e93f 9911 dd3f 6d0c db3f
00000040: c784 db3f ab1f d33f 52fa cd3f fd03 cd3f
00000050: e339 b73f 998a bc3f 6401 ba3f 5ed0 b83f
00000060: 100e 82be 925b c13f

norm.running_var f4 [26]
0.40358147 0.40033644 0.4335745 0.4920114 0.55243844 0.5674493 0.55091584 0.5232456
0.59254545 0.5982913 0.54163975 0.50224924 0.48532584 0.54213035 0.616075 0.6012452
0.51966906 0.5146618 0.47380397 0.48981127 0.4863921 0.45381394 0.42081583 0.40371147
3.577997 0.2914133
00000000: 3ba2 ce3e e6f8 cc3e 7afd dd3e ebe8 fb3e
00000010: 9b6c 0d3f 5b44 113f d208 0d3f 6cf3 053f
00000020: 0fb1 173f 9e29 193f e7a8 0a3f 6893 003f
00000030: a17c f83e 0ec9 0a3f 17b7 1d3f 35eb 193f
00000040: 0809 053f e0c0 033f 6f96 f23e 8bc8 fa3e
00000050: 6308 f93e 4d5a e83e 2c75 d73e 45b3 ce3e
00000060: e7fd 6440 2034 953e
