turtlebot3_ddpg/save_model_ddpg/2020_11_28-06_59_58/stage_1_200_critic.pth (torch_old, 586393 bytes, 13 tensors)

fc1.weight f4 [512, 26]
00000000: a685 13be a3f9 963d 740f 2ebd 8063 a13c
00000010: 0cbf 953a 7018 173d 12c1 adbd 4453 f0bd
00000020: 657f 3abd d7d5 38be 7b23 2b3e 1d02 2b3e
00000030: 7a19 19bd 285f 54be dac7 d9bc 8337 08be
00000040: a60f fbbd e71b 3c3e 3474 533c 48d5 60be
00000050: 9968 dcbd 4bfe e63c ec8b 90be 2b76 cc3d
00000060: 54c2 1e3e a742 433e 4318 90bb c18a 84bd
00000070: 419d 2ebe 1061 813d 87b1 9c3d 7f26 5ebe
00000080: f960 1abe 907e f7bd 1699 4dbe 4fd9 4bbe
00000090: 4f3c 8cbe 9c25 5fbe d8a2 54bd e247 2fbd
000000a0: 0781 79be 62ab 193e a5af b9bd c3de a33d
000000b0: d05a 673d 3665 4bbe d0d3 3a3d 286d 3f3e
000000c0: d7ef d23d 634f 113e 69e9 e63d 1513 9cbd
000000d0: 5bb6 1fbe 7766 253d a1e0 b2bd 8a97 91be
000000e0: 47ee f23d e2c5 5d3d cc1f 473e 27e8 423e
000000f0: e973 cfbd 7498 aebd 4e2d 153a e175 c1bc
00000100: 1b5c 0f3c b021 21be 4597 863c 5cb2 0d3e
00000110: c3c7 6cbe 6142 dabd 0a66 dabd 842d 92bd
00000120: fc2b 5dbe 2a6c 53be 0b08 0bbe e192 a5bc
00000130: 5698 97be 3289 0f3e 4a5c 6bbd af02 33bd
00000140: d2d3 573e cc00 333c 43a3 d53d 24b2 bebd
00000150: cdc7 1abe 168e 113e 0aaa 5dbe 3e41 05bd
00000160: 9366 dabd 10ec f03c b160 49be 1d70 a33d
00000170: 70ab 24be 1af4 43be 40ed 7a3c 9c97 62bd
00000180: 500f 623e e3f7 703d cbe8 0cbe 470c 843e
00000190: 43b1 db3d a04b e4bd 8afb dd3d 8788 58be
000001a0: 1a89 08be af85 9fbd 185e 3dbe dda6 6fbc
000001b0: cdfb 80bc e3f8 33bd 91cc 0fbe f2d1 153d
000001c0: 0593 e6bd 0ca9 4b3d c093 643d f61d ad3c
000001d0: b28a 9abd 42c1 4d3e 081f a8bd 1448 073e
000001e0: 85d4 10be f620 00be fb37 aa3d a470 dc3c
000001f0: 87e1 2dbe 5b54 9abd 629a e9bc 4ef5 27be
00000200: 07b1 81be c730 de3d c026 4dbe 538b f83d
00000210: 6534 47be 7ba7 2c3e 3dbe 2fbc 5855 393e
00000220: 3ff7 353e 9602 b2bd c5d7 de3c 5369 103e
00000230: 9aaa 813e 3f42 593e 43c0 bd3c 4d2a 2fbd
00000240: 671c 3838 72d9 5e3c 7516 513d 2ef2 6cbd
00000250: 657e 55be 82f6 7fbe 2ebd 58be 2fe8 9b3d
00000260: 5c53 7bbe a1ca 09bc bdea 13be 6e2d cbbd
00000270: 02f5 3b3d f638 c63c 05eb 8e3b dfc7 353e
00000280: a113 2b3e b172 073e 1416 0a3e 9f6b 073e
00000290: a59c 523e 018a 3c3e 2884 463e f752 033e
000002a0: 36a7 893e b7cc 83bd 6d31 f4bd 1f12 e1bc
000002b0: 7246 623d fb57 56bd 7f33 513e e08b 87bd
000002c0: cc4f 2a3e 3da8 c5bd e69f c0bd 065d b63c
000002d0: a825 593e 2609 4fbc b635 22be 7ae6 333e
000002e0: 700a e8bd cdf4 2a3d 3191 cf3d 413a 36bd
000002f0: 4acd df3d 9a9e 9b3c 67cb 473e 7206 4bbd
00000300: 78b3 b23d f1ab d73d 624c c93d 7318 2d3d
00000310: d034 c2bd 357c 55be 05d8 69be 5bc1 883c
00000320: ad19 64be 9ce7 09be 54a3 143e 58c0 253e
00000330: 9a9c 433e 68c4 06bd 4e42 a03e 284c af3d
00000340: 8621 393e fe1d 16bd eb93 df3d ba58 3dbc
00000350: 74e2 bb3c 9da8 9e3c 23b4 b83c 50bb 4bba
00000360: ffa0 babd 96dc 4d3e e38b e7bd c3bb 85bd
00000370: 8bff 683d 703d ad3d 6f4f 01bc 2199 b63d
00000380: b283 093e eff7 7f3d 0bc7 05bd eb61 293c
00000390: 0c94 353e d54d 1fbe a4e5 e53c c093 0ebe
000003a0: c12a ff3e 55b8 ca3d 2554 703c a710 cfbd
000003b0: bf3f 043d a8cd 123e 992f 3f3c 5b57 9bbc
000003c0: 6737 ac3d 23e0 df3d 01b5 32be c69b 06be
000003d0: d3c2 96bb 8392 a3bc a18c f8bd 16a4 3fbd
000003e0: e5f1 8e3d 1477 d53d 9c53 21be 7371 2dbd
000003f0: 5e8b 1ebd e0a1 3cbe c971 39bd 7576 23be
-0.14406452 0.07371833 -0.042495206 0.019700766 0.0011424734 0.03688854 -0.08484091 -0.11734632
-0.04553165 -0.18050323 0.16712753 0.16700025 -0.037377812 -0.20739424 -0.026584554 -0.13302426
-0.12258844 0.18370019 0.012906123 -0.2195636 -0.10762138 0.028197428 -0.28231752 0.09983476
0.15503818 0.19068395 -0.0043974235 -0.06471778 -0.17052175 0.06317341 0.07651048 -0.21694373
-0.15076055 -0.12084687 -0.20077929 -0.19907115 -0.27389762 -0.2179169 -0.051913112 -0.042793162
-0.24365626 0.15006784 -0.09066705 0.08001473 0.05648309 -0.19862828 0.045612156 0.18693984
0.10299652 0.1419044 0.11274988 -0.07620827 -0.15596907 0.04038092 -0.08734251 -0.28435928
0.11861854 0.054143794 0.19445723 0.19033872 -0.1012953 -0.08525172 0.000569065 -0.02361578
0.008749987 -0.15735507 0.016429553 0.1383757 -0.23123078 -0.10657192 -0.10663994 -0.07137588
-0.2159881 -0.2064673 -0.13577287 -0.020211639 -0.2960841 0.1401718 -0.05746106 -0.04370373
0.21076897 0.010925483 0.1043153 -0.093113214 -0.1511528 0.14214358 -0.21646896 -0.032532923
-0.10664096 0.029409438 -0.19665791 0.07980368 -0.16081023 -0.19136086 0.015315354 -0.055320367
0.22076154 0.058830153 -0.13760678 0.25790617 0.10727169 -0.11147237 0.10838993 -0.21145831
-0.1333355 -0.0778917 -0.18492925 -0.014627186 -0.015745068 -0.04393853 -0.1404288 0.036577173
-0.112585105 0.049721763 0.055804968 0.02113245 -0.07545985 0.20093253 -0.08209044 0.1321109
-0.1414357 -0.12512574 0.08311459 0.02690918 -0.16980563 -0.07535621 -0.028515998 -0.1640217
-0.25330374 0.10849147 -0.20034313 0.12135949 -0.1945358 0.16860764 -0.010726509 0.18098962
0.17770098 -0.086918995 0.027202496 0.14102678 0.2532547 0.21216677 0.023162967 -0.04276495
4.389547e-05 0.013601648 0.051046807 -0.057848148 -0.20848997 -0.24996379 -0.21165916 0.07612645
-0.24543518 -0.008410127 -0.14445014 -0.099207744 0.045887955 0.024197083 0.0043615126 0.17752026
0.16706707 0.13227345 0.13484985 0.13224648 0.20567568 0.1841202 0.19386351 0.12824617
0.26885384 -0.06435531 -0.1192349 -0.027474461 0.055242963 -0.05233 0.204298 -0.06618476
0.16632003 -0.096512295 -0.09405498 0.022261154 0.21205771 -0.0126364585 -0.15840802 0.17568389
-0.11330116 0.041737366 0.10135115 -0.04448915 0.10927828 0.018996526 0.19511186 -0.049566694
0.08725637 0.10530842 0.09829022 0.042259645 -0.094827294 -0.20848162 -0.22836311 0.016693762
-0.2227542 -0.13467258 0.1451543 0.16186655 0.19102708 -0.03290215 0.31300586 0.085594475
0.18079194 -0.036649697 0.10916885 -0.011556799 0.02293513 0.01936751 0.022546833 -0.0007771747
-0.09112739 0.20103678 -0.11305978 -0.06529953 0.05688433 0.08458984 -0.007892474 0.08915926
0.13429144 0.062492307 -0.032660525 0.010338287 0.17732257 -0.15557034 0.028063603 -0.1392355
0.49837306 0.0989844 0.014668499 -0.10110598 0.032287356 0.14336264 0.011669063 -0.018962553
0.08409005 0.109314226 -0.1745186 -0.1314536 -0.0046008616 -0.019967323 -0.12136198 -0.046787344
0.069797315 0.10423103 -0.1575455 -0.04234452 -0.03870713 -0.18421125 -0.04527453 -0.15963157

fc1.bias f4 [512]
00000000: d99b 1e3e 4990 8d3d 8008 2d3d 9259 0bbd
00000010: ff32 eabd edfd 17be 0f5b 63bc 8e61 c8bd
00000020: 9369 ed3d 375f 20bc ac41 f53d 7b5b 0e3e
00000030: c11e 683e b429 5abe 6be3 a13d 9260 e13c
00000040: 9de8 1abe 0134 053e f01f a03d 66b7 85bd
00000050: 4578 7fbe 2376 773d c1e6 20be a00d 633e
00000060: 51a8 aa3e 7daf bf3d 8063 08be 89fe b6bd
00000070: 88a5 383e a4bb 863e 76f9 413e bf41 b13e
00000080: ff75 d0bd d68c ba3d f403 6bbe d8f7 43bd
00000090: 899c 49be 97b7 163e 6588 913e 3375 3f3c
000000a0: 0ec6 2d3e 1b19 133e 728b a8bc 9065 f5bd
000000b0: 9a63 96bd 7467 91be e3f9 9c3e 79b2 373d
000000c0: 9573 b73d a9ce 9e3e 2612 5d3e 43b7 22be
000000d0: 7f24 843e 4ee5 9d3e 95a7 663e d9ec 13be
000000e0: f152 08be 47e5 213e bf41 e03d f82e 89bb
000000f0: 183f ee3d 546e 76be c890 fa3d e453 cf3d
00000100: 4997 8cbd 4500 823d f879 4e3d ec19 283e
00000110: 23e9 853d e6e2 1d3e 8286 823e d8eb 88bd
00000120: 395d 8f3e 0ad5 a83d c1c7 313e 1fd9 4b3e
00000130: af52 01be abcc 2a3c a6df 76be c3ae 04be
00000140: b9fd ac3e 2082 9c3a 4e3f 1ebd 47f5 033e
00000150: 2295 9ebd e6cf 023e 0607 2ebe ae79 a03c
00000160: 403a fabd 1951 5bbe 353b 2bbd 5bc8 0e3f
00000170: 53c0 733e b03c 30be 960f 9cbd 8172 333d
00000180: 44ef c73d 90be 73be 931d fe3d cd5c dd39
00000190: 6b17 213d 2dea fabd 88a8 b2be dc7a 123e
000001a0: 8d35 943c ee27 80bd dbbf 303e 23e2 3e3e
000001b0: 0245 d23d 8f14 54be d794 423e 2ed9 fc3d
000001c0: 1c4b a93e a532 b33d 8ce1 b4bd 31b4 1d3e
000001d0: 3075 b03d e1d9 b53d 7df3 3abd 3934 bb3e
000001e0: 99ed 35bb 2b5a 0fbe cc54 30be 66d0 cc3c
000001f0: 8fa4 1abe 2303 6cbe 8e67 4e3e f33c 92bd
00000200: 72e9 1cbc 1282 21bd 64d7 b43d bbd1 08be
00000210: a6eb e63e b144 503e dab6 dbbc 8ff3 213e
00000220: 72c5 e3bc e54e f73d dfd4 6a3e 8051 ea3d
00000230: 1f0d ab3d e4bb c7bd 8441 78bd 2b5b 923e
00000240: 8e0d 0ebe ad9d 8f3d 0bdb a6bd 8eb0 18be
00000250: 7987 253e 995a 99be 3890 e3bd 6579 2a3e
00000260: b720 65bc 263f 4f3e 3b01 7ebd 3cbe b23e
00000270: 27b0 103e 2e83 99bc 3923 bbbe 42fa 413d
00000280: 6c6f e03d 2807 b13d bbaf 8c3d 58c4 7d3e
00000290: 683f 973d 5aaa 84be 9f3b 133e 3409 293e
000002a0: 82cb 113e 4032 e0bd 1118 933e be5a 463d
000002b0: b131 f93c a763 013d 16f0 063e 14a9 513e
000002c0: 7c1e 0abe a04e cc3d f2de 6dbe 3624 28be
000002d0: 98ac 01be 80e4 cdbd 40ff b2bd c380 23bd
000002e0: e7b6 cc3d bd40 2e3e 8794 8f3d 55ae f4bd
000002f0: e6d0 763e ed29 8fbc 7f42 04bb 2f06 783e
00000300: 3835 6b3e c707 6cbe 71a5 3ebe ea10 513d
00000310: 7d90 a13b b981 d2bc 20ce b8be ea1d a2bc
00000320: a962 6dbd c4fd 8cbe 8227 093e b367 48bc
00000330: 2986 953e 8506 0ebe eae8 9abd 7621 ca3d
00000340: 8643 bcbd 6ce5 60bd fdac 1a3d bfdb 2b3d
00000350: cfa8 a03d 555c 17be 12f2 85be 50c9 793b
00000360: 248d 8fbc cc00 163d ad50 57be 2b10 bebe
00000370: f9ca a0bd 8e94 61bc a45a 0b3e d0d3 0dbe
00000380: 884b 01be 4e92 a7be a323 3dbe ff8c 7b3e
00000390: e72e 743e b520 00be b639 f2bd 4349 b63d
000003a0: ca5d ae3e 3a71 25be 9515 9d3d 736e 6a3e
000003b0: 0e6b 49bd 9801 75bd 14d5 7abe bfb2 873d
000003c0: 31e4 10be 3018 1d3d dafa a8be bf6a 50be
000003d0: 1f50 0c3d f7ed 803d 1908 d8bc d1d7 0bbe
000003e0: 0460 39be fe72 79be 27ee 15bd 79e3 32be
000003f0: 9590 a8bd e83a fb3d 29fc b9bd 9ee2 7cbc
0.15489139 0.06912286 0.042244434 -0.034020968 -0.11435508 -0.14842959 -0.0138766905 -0.09784232
0.11592402 -0.009788326 0.119754165 0.13902085 0.22667982 -0.21304971 0.07904705 0.027511869
-0.15127797 0.13008119 0.078185916 -0.06529121 -0.24948223 0.0604154 -0.15713026 0.22173166
0.3333154 0.093596436 -0.13319206 -0.089352675 0.18031895 0.26315033 0.18942818 0.34620473
-0.10178756 0.091088936 -0.22950727 -0.047843784 -0.1968862 0.14718471 0.28424373 0.011685657
0.16970083 0.14365046 -0.020574305 -0.11982262 -0.07343216 -0.2839924 0.30659398 0.04484794
0.089575924 0.31017044 0.21588954 -0.15890221 0.25809094 0.30839008 0.22524865 -0.14445819
-0.1331289 0.15810119 0.1095004 -0.0041865073 0.11633128 -0.24065524 0.12234646 0.10123423
-0.06864793 0.06347708 0.050409287 0.16416138 0.06538608 0.15418586 0.25493246 -0.066856086
0.2800081 0.08243759 0.17361356 0.19907044 -0.12629198 0.010424773 -0.24108753 -0.12957291
0.33787325 0.0011940636 -0.03863459 0.12886535 -0.077432886 0.1277462 -0.16994867 0.019589271
-0.122181416 -0.21417655 -0.04180451 0.5577447 0.23803835 -0.1721065 -0.0762016 0.04381037
0.09762433 -0.23803163 0.124079846 0.00042221547 0.039328974 -0.12251697 -0.34894204 0.1430468
0.018091941 -0.06257616 0.17260687 0.18640952 0.102670684 -0.20710967 0.1900209 0.12346111
0.33065116 0.08749894 -0.08832082 0.15400769 0.08616102 0.08879448 -0.045642365 0.3656328
-0.0027760027 -0.1399924 -0.17219847 0.025001716 -0.15101837 -0.23048072 0.2015669 -0.071405314
-0.009577142 -0.039430685 0.08830145 -0.13361256 0.4510166 0.20338704 -0.026820589 0.15815566
-0.02780411 0.12075595 0.22932766 0.11441326 0.08352112 -0.09752634 -0.060609356 0.2858518
-0.13872358 0.07012496 -0.08147248 -0.149111 0.1616496 -0.29951933 -0.11111492 0.16647871
-0.013984851 0.20238933 -0.062012892 0.34910762 0.14129697 -0.01873931 -0.3655031 0.047357805
0.10958752 0.08643943 0.068694554 0.2478193 0.07385141 -0.25911218 0.14378212 0.16507417
0.14237788 -0.109470844 0.287293 0.048426382 0.030419203 0.031589177 0.13177523 0.20474654
-0.13488191 0.09975934 -0.23229578 -0.16420063 -0.12663496 -0.100533485 -0.08740091 -0.03991772
0.09995823 0.17016883 0.07010751 -0.11947314 0.24103126 -0.017476046 -0.0020181236 0.24221109
0.2296952 -0.23049842 -0.18617798 0.05104152 0.0049305544 -0.025696622 -0.3609476 -0.019789655
-0.057955418 -0.27537358 0.13393977 -0.012231755 0.2920392 -0.13869675 -0.07563956 0.098696634
-0.091925666 -0.054906294 0.03776263 0.041957613 0.07844698 -0.14781316 -0.26161247 0.0038114376
-0.017523356 0.036621854 -0.21026869 -0.3712171 -0.07851214 -0.013768328 0.13608795 -0.13850331
-0.12626469 -0.3272881 -0.18470626 0.24565504 0.23846017 -0.12512477 -0.11827414 0.08900692
0.3405593 -0.16156474 0.07670132 0.22893696 -0.04917436 -0.059815973 -0.24495345 0.0662589
-0.14149548 0.038353145 -0.33003885 -0.2035322 0.034256097 0.06295388 -0.026371049 -0.13656546
-0.18103033 -0.24360272 -0.036604073 -0.17469586 -0.08230702 0.12267095 -0.09081299 -0.015434889

fc2.weight f4 [256, 514]
00000000: 4fdc 173d 35a7 f23b 81b6 9bbd 2666 073d
00000010: a6d7 fe3c 483c c23d 4cef 963d 8f22 e5bc
00000020: d0c8 8a3d a4d8 5dbd 1ae1 963d 89dd 713d
00000030: ce43 3a3d 4040 41bd e154 44bb 47de 46bd
00000040: 95ee b63e 8653 093e 19fd 26bc 88a6 9f3c
00000050: 13ac f53b b196 74bd 00b6 fd3c 4822 3a3e
00000060: b354 763e 4a24 5fbd 74ab 0c3d 56e8 493d
00000070: fdbd ec3c 1375 a03d 68dd 0f3c cf16 713a
00000080: 6aa7 6abd 7aac 3f3d d2a0 32be 3ba7 583d
00000090: 0453 3ebe cfba 913d 0681 ab3d 0fd7 39bc
000000a0: b710 7bbd 877c 6b3d 2db7 aa3d 10c5 b7bc
000000b0: 7c6c fc3c 2b93 db3d bf32 813d e571 3b3c
000000c0: 34ce 853d 2847 1d3e c7d2 583e 1a71 d0bc
000000d0: 5672 073e 260a a93d 0020 f73c 5d8b d4bc
000000e0: 0a38 5d3c 2a43 923d 6bc3 7e3d fa94 0fbd
000000f0: 1bb7 193e 84e0 10bd 4585 adbc 8c80 47bc
00000100: 35c7 1c3b 94d8 c0bd 4b32 993c bd42 173d
00000110: 3469 053c 4105 d6bd 539a 913d f81a 3b3c
00000120: 2523 3c3e e102 163e 56d1 233c a9dd 97bd
00000130: c51a b23c 78fe 253b 975a ca3c 119c 8f3d
00000140: 0fea 743e 0b80 7b3d cda1 4cbd 6f4d 913d
00000150: 8ce3 923d 2ffa a83c a835 863d 1d12 9a3e
00000160: 94b1 1d3e b179 e33c 6430 66bd 669c 3f3d
00000170: 13fc fe3c 34d2 4b3d 8355 a03c d4a4 e33d
00000180: 3fd2 28bd caaf 96bc cb00 fcbc ca86 bb3d
00000190: 0621 d73d b104 a93d f144 dfbc 172d 96bc
000001a0: ef3b 85bb 6f31 19bd 0295 a4bb 050b a93d
000001b0: 208f 993d f1b7 2ebd 757e d13d 7787 343d
000001c0: 10ae 543d ed1b 92bd 00cd c7bd 42a9 38bd
000001d0: 3ab2 943d f0a3 973d f97e 053e e0d7 693e
000001e0: 6d2e a23c 4dd3 763d ea9c dd3d b3f2 293d
000001f0: 9927 4fbe 05e3 35bb 200d ff3c 04ef d6bd
00000200: dbb8 c23d b1a8 233d 4774 f1bb 9bcf debd
00000210: 6da3 fa3b 7048 073d 2cd9 a43d 0615 c23b
00000220: 4d51 1bbc b71f c1bd f2bf 0fba 766c d63b
00000230: 9809 093d 2a54 9dbc a539 613d 78af fb3d
00000240: 8344 6abe b8d3 b83c a693 32bd 19b6 4e3d
00000250: 424d e53d 6661 083e beb3 0dbd 53f7 f43b
00000260: 7004 4f3d 5aef 31bd e48d 143c a320 e2bc
00000270: 4c37 9e3a 1e4d 003e b706 233d 0930 5339
00000280: 5fea c03d dc58 2a3d c55d 52bd 08c1 d03b
00000290: bd02 14bc 8f1e 493e fedb 3f3c 46d3 cb3d
000002a0: 6f9b 8f3b 09f1 6b3e bcda 293d 6d51 e43d
000002b0: 0aaf 153d 70c3 cd3c d36b 3c3d deeb a7bd
000002c0: e363 773d 8e44 a53d d521 a73d 6fe3 913c
000002d0: 0bea a6bc 8be1 1f3d 7b2f 353d 0acd c83c
000002e0: 38b1 4e3d 9bbb 3cbc 0826 ad3c e825 b63c
000002f0: 3e8b 073d 65cd cd3c 14b0 85bd 389d c2bc
00000300: da33 dd3c 1f52 a13d e241 1a3e ee59 223d
00000310: 7964 c2bd fd6d a73c 654d fb3c 313f 85bb
00000320: c5f3 0a3d 6e75 44ba 67ae 2e3d 1f74 6d3d
00000330: b658 b43d ddcc ee3d e4a8 0c3d f1d5 d4bc
00000340: 322c 01bc ba50 15bd 6113 613d c60a 973c
00000350: 3633 813d 6a25 833d 87b7 973b 9b29 813d
00000360: deee ae3d a525 373d 425a 513d 0cad 4ebd
00000370: 2aef 823d 3906 efbc c129 333d 60c5 e13d
00000380: d502 2c3d 4e2a ab3d 356b b0bd ad3a 043e
00000390: 2e57 923d 59cb 383e 9c95 a73d 2510 eebc
000003a0: 8933 833d 5cce 723d 1e60 023d aa80 b33d
000003b0: 3553 ff3d 7249 b53e 21db 0b3d 3ed8 af3d
000003c0: f262 da3c 9b81 29bd 55b2 fc3a 511b 6a3e
000003d0: 274f d0bd a202 1cbe 46ca 33bd 91f8 09bd
000003e0: 4976 bc3d f9ce b03c 870c 52bd b532 4f3c
000003f0: 78e9 cc3d 0cb6 923d 8a66 92bd a857 723d
0.037075337 0.0074051865 -0.07603169 0.0330564 0.031108689 0.09484154 0.07369861 -0.02797058
0.06776583 -0.054161683 0.073671535 0.059049163 0.04547482 -0.047180414 -0.0029957818 -0.048551824
0.357289 0.13410768 -0.010192179 0.019488588 0.0074973195 -0.059714023 0.030970573 0.1817714
0.24055748 -0.054477967 0.034343198 0.04929384 0.028899187 0.0783483 0.008780815 0.0009196819
-0.057288565 0.046795346 -0.1744416 0.05289386 -0.18586355 0.07115709 0.08374219 -0.011342778
-0.061295237 0.057491805 0.08335719 -0.022432834 0.030813448 0.107214294 0.06308507 0.011440729
0.06533471 0.15359175 0.21174155 -0.025444556 0.1322721 0.08253889 0.030166626 -0.02594536
0.01350213 0.07141717 0.062198084 -0.035054184 0.15011255 -0.035370365 -0.021181712 -0.012176644
0.0023922448 -0.09416309 0.01870074 0.03692888 0.008142758 -0.10450221 0.07109513 0.011420004
0.18372782 0.14649536 0.00999864 -0.07415325 0.02174128 0.0025328677 0.0247014 0.07012189
0.23917411 0.06140141 -0.049958993 0.070948474 0.07172307 0.02062711 0.06553203 0.30091944
0.15399772 0.027767988 -0.056198493 0.046780013 0.031126058 0.049761012 0.019572025 0.11115423
-0.04121613 -0.01839437 -0.030762097 0.09156568 0.105043456 0.08252848 -0.027254554 -0.018332047
-0.0040659825 -0.03740066 -0.005022646 0.08254055 0.07498002 -0.04265589 0.10229198 0.0440745
0.05192381 -0.07134233 -0.097558975 -0.04508329 0.072605565 0.074043155 0.13036717 0.22836256
0.019797528 0.060260106 0.108209446 0.04149122 -0.20229949 -0.0027753722 0.031134188 -0.10494807
0.09507915 0.0399558 -0.0073685977 -0.10879441 0.0076488764 0.033028066 0.08049235 0.0059229163
-0.009479833 -0.09429877 -0.0005483619 0.0065436913 0.033456415 -0.019205172 0.054986615 0.122893274
-0.22877698 0.022561893 -0.04359784 0.05046663 0.111963764 0.13318405 -0.034595244 0.0074757724
0.05054134 -0.043441154 0.0090670325 -0.027603453 0.0012070923 0.12529418 0.039801326 0.00020140423
0.09419703 0.04158865 -0.051358957 0.0063706674 -0.009033856 0.19640563 0.011710165 0.099524066
0.004382543 0.23041166 0.041468367 0.11148343 0.036543883 0.025117606 0.046001267 -0.08199285
0.060397994 0.080697164 0.0816075 0.017808644 -0.020375272 0.039033454 0.044234734 0.024511833
0.050461978 -0.011519338 0.021136299 0.022234872 0.033091776 0.025122354 -0.06527725 -0.023756608
0.027002264 0.078769915 0.15064195 0.039636545 -0.0949182 0.020438189 0.030676553 -0.004066371
0.033923883 -0.0007494305 0.04264679 0.05797207 0.08805983 0.11660168 0.034340754 -0.025980921
-0.007884072 -0.03645394 0.05495012 0.018437754 0.06308596 0.064036205 0.0046300325 0.06306764
0.08541654 0.044713635 0.051111467 -0.050458 0.06393273 -0.029177772 0.04374099 0.110239744
0.04199489 0.08357678 -0.08614198 0.12913008 0.071455345 0.18046321 0.081828326 -0.029060433
0.06406314 0.05927883 0.031829946 0.08764775 0.12467042 0.35407597 0.034144524 0.08586167
0.026658509 -0.041383367 0.0019279221 0.22861983 -0.10171347 -0.1523538 -0.043894075 -0.033684317
0.092022486 0.021583067 -0.05128148 0.012646367 0.10005468 0.07163629 -0.07148464 0.059165627

fc2.bias f4 [256]
00000000: 235c 3a3d 6d8e d5bb 775f e03d 9b1d 7e3e
00000010: 29dc 73bc 6bd3 ea3b ec71 873c ae31 9c3d
00000020: 170c 8c3d fbe3 9d3b 49d0 973c d26b d53d
00000030: 6f5c 9f3b 75a7 ea3c db03 5dba e498 313d
00000040: 0f2e 52bc 1f09 113d 1e14 bbbc 98e5 f43c
00000050: edbc 383e d91b 4d3d 7f67 c3bc 3107 1b3d
00000060: baf3 4e3d d4ec d23d f758 bdbc c110 4a3d
00000070: 23a7 a23c bf0d 683d 15c9 32bd 9cd3 4f3d
00000080: 4359 5dbc 013d 083a 350f 763e 9cf4 313e
00000090: 630c 833b 8099 0c3d 477f de3c 295e 333d
000000a0: 76be e33c 1b69 373d 8e66 0a3d e2aa babb
000000b0: a39e d43d 9d9a 13ba 12f4 b63d 22f1 123c
000000c0: 2616 653d 033f 58bc 581c 6c3d 52b0 273e
000000d0: 10bd 47bd 1ddc 353d 4b31 67bc 54e0 ab3b
000000e0: f761 743b aae3 723d 9063 0f3d c0bf 693d
000000f0: bd26 a7bc 1f6a 03bd 58b2 123d 4959 063e
00000100: 9fc6 8a3c 3c8f 6c3e 55d7 fbbb 5403 d63c
00000110: 9438 de3c 816d 433e 234b ab3d 5f24 0a3d
00000120: dad6 533a 7a83 293a b9b9 853d 53ef db3b
00000130: e27f 753d df09 4f3e 8a62 3fbc c754 1abc
00000140: 3a12 3dbd 0aca 1c3d 0fd2 893d 0ecb 343d
00000150: 521e abbd fba1 e23c c99f d03d 7b37 be3c
00000160: 72ff e33c 0672 3c3e e49d 443e 60b3 43bd
00000170: f695 30bd 4db4 1dbd c61a 8b3d 1023 c23d
00000180: e557 0c3c 487f 2d3c 3f96 94bc 08d8 213d
00000190: d8b0 303d 74c0 d33d 845f 29bd bf93 593a
000001a0: 431c 2a3c c577 d4bc 1873 293d c6ba 543e
000001b0: 2d12 183d 8677 0abd 6ef7 663d 4fb1 b1bb
000001c0: d5b3 493d 17d0 623d ab76 2a3e b313 83bc
000001d0: 4bcb 0d39 a1fb 1ebe 71c5 293d aadd 62bc
000001e0: e865 bbbc 611f ba3c 2dd6 81bd 1091 b7bb
000001f0: 944b 723d 90d2 433b 94cd 013c d234 963d
00000200: efef 4f3c 4d56 013c a976 53bc 9214 be3d
00000210: eb99 e1ba 44a5 053e 0d09 323e 24ff 08bb
00000220: 62b9 6f3d f2f0 1f3e b9ab 803c 2901 243e
00000230: ed43 0f3d e57c 9a3c d7a0 28bd e629 393c
00000240: fdf9 92bd 93ba 2b3e 7733 2fbd eb8d de3d
00000250: 395e 523c 7732 aaba 0020 1b3c 7bbe 98bc
00000260: 32b7 fc3d 22ef a0bc 9dc5 e13b 0453 b23c
00000270: 61bf 33bc 34c1 b4bc 2e99 44bb 7e9e 273e
00000280: a790 e83d a0df 3abd c5e4 d53d 840e 5a3e
00000290: e15c 05bd fe05 243d 1daa e33c 8089 0bbd
000002a0: 8df2 1eba e424 733d 8d29 683d 4093 b93b
000002b0: 01c3 fc3d 6321 853d dac5 963d 569e d03c
000002c0: 9c26 fb3c 8fd5 c6bc 7e39 aabc 832a 0c3e
000002d0: 0c37 883c 1a67 2b3e 9269 043e 539a 053b
000002e0: 59f9 003d 309c 333e 495c 7b3e a37e 393e
000002f0: d455 c63b 33da c3bb f51f bdbc 71ef ce3d
00000300: 928c 6d3d 9d45 143e c8a6 b73a dc6a 1dbc
00000310: 1da7 793d e88d 103e f105 c4bc f551 3fbd
00000320: a03a 383c aa0e 043d 896c 87bc 3bb5 023d
00000330: 47a9 913b b754 dabb 4f15 313d d2a5 873d
00000340: e512 5cbd 4b77 2f3e a4e9 d6bc 2266 4bba
00000350: 2319 1ebd 2fc2 7b3b 7b84 783e 7acd 08bb
00000360: 6890 eabb 29ea ca3c fd26 e63d 729c 573d
00000370: 737b 873c 0874 6fbc 6b85 8b3d c9d9 b13b
00000380: 7c99 8d3d 6b90 e0bc de8a 28bd a2c0 13bd
00000390: 0d57 a3bc fbb1 003d 2868 833d 4474 fd3c
000003a0: 7914 e23b 393e 1d3c 6982 80bd 0e37 27bd
000003b0: 172b d5bb 213a 153d 0d03 1c3e 8d30 173e
000003c0: a838 f63b fd24 033d 3adb 003d 8e94 02bb
000003d0: 46db 743d ca58 5d3d 6b82 313e 4120 0e3d
000003e0: bafc 283d c0a7 a2bc e522 af3d 42a0 043d
000003f0: 84b7 bd3c eed8 f73c 0007 42bd 9fbf 923b
0.045498025 -0.0065172226 0.109557085 0.24815981 -0.014884033 0.0071663163 0.016533814 0.07626663
0.068382435 0.004818437 0.018531935 0.10420956 0.004863314 0.028644303 -0.00084310555 0.0433587
-0.012828364 0.03540909 -0.022836741 0.029894635 0.1804082 0.050075386 -0.023853062 0.037848655
0.050525405 0.10299078 -0.02311371 0.049332384 0.019855088 0.056653734 -0.043648798 0.050738916
-0.013510051 0.00051970786 0.24029239 0.17378467 0.0039992793 0.034326077 0.0271603 0.04379097
0.02780078 0.04477797 0.03378921 -0.0056966403 0.1038182 -0.0005630644 0.089332715 0.008968623
0.055929326 -0.013198617 0.05764422 0.16375855 -0.04876429 0.04439937 -0.014110873 0.005245248
0.0037289837 0.05929915 0.03500706 0.057067633 -0.020404214 -0.032083627 0.035814613 0.13119997
0.016940413 0.23101515 -0.0076855817 0.026124634 0.027126588 0.19084741 0.083639406 0.033726092
0.00080810266 0.000646643 0.065295644 0.0067118793 0.05993641 0.2021861 -0.011681208 -0.009419627
-0.04615996 0.038278617 0.067295186 0.04413896 -0.083553925 0.027665129 0.101867266 0.023219815
0.027831767 0.18402871 0.19200855 -0.047778487 -0.043111764 -0.038502026 0.06792216 0.09479344
0.008565878 0.010589428 -0.01813805 0.039512664 0.0431374 0.10339442 -0.041350856 0.0008299909
0.010382715 -0.025936017 0.041369528 0.20774373 0.03712671 -0.033805393 0.05638831 -0.005422748
0.049243767 0.05537423 0.1664683 -0.016000604 0.0001352254 -0.15525676 0.04144806 -0.013846794
-0.022875741 0.02272004 -0.06339679 -0.0056020096 0.05915411 0.0029880144 0.007922549 0.073342934
0.012691482 0.007894111 -0.012906709 0.09281267 -0.0017212009 0.13051325 0.17386265 -0.0020904029
0.058526404 0.15619257 0.015706884 0.16016068 0.03497689 0.018858382 -0.041169014 0.011301493
-0.07176588 0.16770391 -0.04277369 0.108669125 0.012839847 -0.001298501 0.009468079 -0.018645516
0.12339629 -0.019645277 0.0068900124 0.0217681 -0.010970921 -0.022064783 -0.0029998529 0.16369054
0.11355715 -0.04562342 0.10444025 0.212946 -0.03255928 0.040044777 0.027791077 -0.034066677
-0.00060633646 0.059361354 0.05668025 0.0056633055 0.123418815 0.06500509 0.07361956 0.025466125
0.030658059 -0.024271755 -0.020779368 0.13688092 0.01662781 0.16738549 0.12930897 0.0020386174
0.031487796 0.1754005 0.24546923 0.18114714 0.006052712 -0.005976939 -0.023086527 0.101042636
0.057995386 0.1447968 0.0014011497 -0.009607997 0.060950387 0.14116633 -0.023928614 -0.04670902
0.011244446 0.032240547 -0.016531246 0.031911116 0.0044452283 -0.006662931 0.043233212 0.066234246
-0.053728957 0.1713535 -0.026234455 -0.00077590544 -0.03859819 0.0038415303 0.24269287 -0.0020874427
-0.007158328 0.02476986 0.11237905 0.052639432 0.016538357 -0.014615066 0.06812557 0.0054275733
0.069140404 -0.027412614 -0.04114806 -0.03607238 -0.01993897 0.031419735 0.064163506 0.030939229
0.006899413 0.009597355 -0.06274874 -0.04082399 -0.006505381 0.03643239 0.15235539 0.14764614
0.007514078 0.032017697 0.03145907 -0.0019924971 0.059779428 0.054039754 0.17334907 0.03469873
0.041256644 -0.01985538 0.085515775 0.032379396 0.023158796 0.030254807 -0.047369957 0.0044784094

fc3.weight f4 [1, 256]
00000000: da6a 08be 3005 24be f823 b73e 5a0f 383f
00000010: c458 10be 6160 13be 3288 a73c 0b48 e83e
00000020: aaaa c53e 2b84 f4bd b4bf cfbd f0c5 d73e
00000030: d751 c1be d1fd 17be 665a 223d 617a 24be
00000040: f2ff 0ebe bcc1 0ebe 8e44 063c dd2f d7bd
00000050: de2a c23e d068 febd d8c8 25be 8447 043f
00000060: 12cf 0ebe 1583 033f a39e ecbd dd1a f8bd
00000070: 3ff0 01be 3638 d7bd a591 663d cf29 e9bd
00000080: 4540 08be a506 cbbd cb75 233f c0ac bc3e
00000090: f8a5 1bbe bb14 c73c a433 0abe b490 dabd
000000a0: cf8a debd 6c64 e73e f09a 15be 8834 cdbc
000000b0: 917f c43e a20a 993a de27 fd3e fb45 f4bd
000000c0: 8e8f f8bd 4e9e 2c3d e22e f8bd bb2e ce3e
000000d0: e259 5e3d b4bd 03be 98a6 f9bd 3816 eabd
000000e0: f602 e6bd ea9a 043f c2ac 9b3c 0b38 1fbe
000000f0: a36a 503a f181 f83e 6bc9 12be a5cb cf3e
00000100: cbc7 15be f1b3 2e3f 64de e6bd b901 09be
00000110: e2d4 1ebe 9197 f03e 2e10 d13e b2aa d6bd
00000120: e270 f8bd 53cb 0ebe 98bc 0ebe 36bd 1e3f
00000130: 4276 e8bd 55e4 2c3f d84b 07be 4d55 b93b
00000140: f49c 383d ff76 f0bd e2e2 e23e e7b0 e7bd
00000150: 4cd5 113f c3de 8d3a eb5b c73e 67aa 0b3f
00000160: 4723 13be a9f1 c23e b72c 123f d57a 603d
00000170: 7efb 1d3d b669 0a3b e5ba b53e c6c7 d63e
00000180: 5fd6 f8be c821 21be 7669 d3bd f8f5 d93e
00000190: 6a3e 0cbe f187 f73e afae 3dbe 76d4 10be
000001a0: c18d 34be 353e 11be 53ef e13e 1768 2c3f
000001b0: a41b dbbd 564c 113c a5ff a43e d637 1cbe
000001c0: 74b4 e6bd 134b cabd 6b7c d13e 3862 623d
000001d0: 121c 0bbe 8034 d23e 9c26 0fbe 7981 eabd
000001e0: 7d8c f0bd 5ff4 f1bd c215 12be 5c5c 16be
000001f0: 0db6 a53e eaa3 0b3f 4dfb a83c 4c27 b93e
00000200: fcb7 993c 2bcd f9bd 213a 01be 81e4 c73e
00000210: 8c01 d9bd 3725 da3e 08a4 ef3e c18f da3c
00000220: f3c6 05be c0a7 9b3e f137 d1bd 5105 f93e
00000230: ff07 103f 2e0d 1abe 7d5d fb3b e94c cb3c
00000240: 9bfc 9abe 37be 063f 98f1 18be daf2 e33e
00000250: cff8 eabd a8a4 06be e69f 16be 6c3d 06be
00000260: 1360 ba3e 0fc6 13b8 c502 0bbe c0bb 01be
00000270: ff4e d7bd 1118 14be abf4 d3bd a619 fa3e
00000280: 7664 f73e 2f8c ea3c 2490 d53e 99d5 1b3f
00000290: e659 293d c2ec 0abe 7031 ba3e b30d 243f
000002a0: 8517 1fbe 55f5 ffbd 41fd 1dbe a893 08be
000002b0: 05cb 023f f946 9d3e f400 fe3e 6da3 08be
000002c0: 92c9 0fbe 8f37 f1bd 626d e2bd fbd2 d53e
000002d0: 9288 ccbd 63d1 2a3f 975b c03e c908 883a
000002e0: 0329 f63c b48f 223f 0ab8 393f b85a 1e3f
000002f0: b7a4 16be dec2 473d a106 1dbe f8de d43e
00000300: 9bcb fabd 3fde b33e b366 fabd ad4d f0bd
00000310: 5145 003f e000 eb3e db66 0e3d 2e7f 803c
00000320: 32e5 1ebe 6ea0 db3e 0126 1ebe 97c4 12be
00000330: d03a 3b3d e18f febd e0b8 23be adcf d1bd
00000340: 3a76 323d 33fd d73e 93cd e4be cfc9 0ebe
00000350: b67d 26be 154a f2bd 8d8e 293f 4d94 2cbe
00000360: 6e43 cc3c b956 803c 210c 063f 7aa7 16be
00000370: fd50 16be 3753 04be 988d bb3e 133b 423d
00000380: 8534 333f 42e2 2e3d 9aa4 183f e473 1bbe
00000390: 88f1 c33c aa7c 03be 4980 dcbd 07a0 ffbd
000003a0: 57c1 0ebe 2262 1cbe f094 cf3e 8f95 1a3d
000003b0: 07be f1bd 4f23 e4bd 4176 f83e ffc2 eb3e
000003c0: e39a 013d 714a dabd e668 17be 9d08 0f3c
000003d0: 8bf0 07be 0d79 d0bd 0d17 cc3e 8822 233d
000003e0: 0faa c9bd db3c 1fbe 4478 d03e 46ad 04be
000003f0: 1560 18be db43 033d 9682 733b ef5f a13e
-0.1332201 -0.16017604 0.3576963 0.71898425 -0.14096361 -0.14392234 0.020450685 0.45367464
0.3860677 -0.119392715 -0.10143986 0.42143202 -0.3775775 -0.14842917 0.039636992 -0.16062309
-0.13964823 -0.13941091 0.008195056 -0.10507176 0.3792333 -0.12422335 -0.16189897 0.51671624
-0.13946179 0.5137189 -0.11553695 -0.12114499 -0.12689303 -0.10508768 0.05629124 -0.113849275
-0.13305767 -0.09913377 0.6385161 0.36850548 -0.15200031 0.024301877 -0.13496262 -0.10672131
-0.108663194 0.45193803 -0.14609885 -0.025049463 0.38378575 0.0011676142 0.4944448 -0.1192741
-0.12136756 0.04214316 -0.12118317 0.40270028 0.054284938 -0.12865335 -0.12189978 -0.11430019
-0.112310335 0.5179888 0.019003276 -0.15548722 0.00079504604 0.48536637 -0.14334647 0.40585056
-0.14626996 0.6824332 -0.112728864 -0.13379563 -0.15510896 0.46990636 0.40832657 -0.10481776
-0.12130906 -0.1394475 -0.1393913 0.6200746 -0.11350681 0.6753591 -0.13212526 0.0056559206
0.045071557 -0.11741447 0.44313723 -0.11313038 0.5696609 0.0010823834 0.38937315 0.5455689
-0.14368926 0.38074997 0.5709948 0.05480464 0.03856992 0.0021120138 0.35494152 0.4194929
-0.48601052 -0.15735543 -0.103228495 0.42570472 -0.13695684 0.48345903 -0.18523668 -0.14143547
-0.176322 -0.14183886 0.44127902 0.6734633 -0.106986314 0.008868298 0.3222629 -0.15255675
-0.112648875 -0.098776005 0.40915236 0.05526945 -0.13584927 0.4105568 -0.13979572 -0.11450476
-0.11745546 -0.11814188 -0.14266112 -0.1468367 0.32365456 0.5454699 0.020627642 0.36162794
0.018764488 -0.12197336 -0.1261983 0.39041522 -0.10595998 0.42606518 0.46804833 0.026679875
-0.13064174 0.3040142 -0.10215748 0.4863687 0.562622 -0.1504409 0.007671057 0.024816947
-0.30270848 0.52633995 -0.1493591 0.4452122 -0.11473238 -0.13148749 -0.14709434 -0.13109368
0.36401424 -3.5231988e-05 -0.13575275 -0.12669277 -0.10513114 -0.14462306 -0.10349401 0.48847693
0.48318833 0.028631298 0.41711533 0.608728 0.0413455 -0.13566878 0.36365843 0.64083403
-0.15536316 -0.12497965 -0.1542864 -0.13337576 0.51091033 0.3071821 0.49610102 -0.13343592
-0.14041737 -0.11778175 -0.11056019 0.41762528 -0.09986986 0.6672575 0.37569878 0.0010378595
0.030048853 0.63500524 0.72546446 0.61857176 -0.14711271 0.048769824 -0.1533456 0.41576362
-0.12245866 0.35130498 -0.122266196 -0.117335655 0.5010577 0.45899105 0.03476606 0.015685644
-0.15517119 0.42895836 -0.15444185 -0.14332806 0.045710385 -0.124297865 -0.15988493 -0.10244689
0.04356978 0.42185363 -0.4468809 -0.13944171 -0.16258892 -0.11830536 0.6623314 -0.16853447
0.024934497 0.015666353 0.5236226 -0.14712325 -0.14679332 -0.12922369 0.36631465 0.04741962
0.70002013 0.042696245 0.5962616 -0.15180928 0.023918882 -0.12840524 -0.10766656 -0.12481695
-0.13940941 -0.1527181 0.40543318 0.037740286 -0.11803823 -0.11139547 0.4852772 0.46047208
0.031641852 -0.1065873 -0.1478611 0.008730081 -0.13275354 -0.101793386 0.39861336 0.039827853
-0.09846889 -0.15550558 0.40716755 -0.12956724 -0.14880402 0.032047134 0.0037156693 0.31518504

norm.weight f4 [26]
00000000: d086 843f 1cbf 873f 3bfc 7b3f 9130 823f
00000010: 67c9 853f f024 733f 6f06 843f 63b5 823f
00000020: af8f 853f 533f 8d3f 23d7 873f b013 8c3f
00000030: 1692 863f 4290 933f 7b16 8b3f faf5 8b3f
00000040: 32d3 843f 1a5e 823f 9f2d 7a3f 191d 7c3f
00000050: 3114 833f 4bc3 803f 3c2e 8a3f c9be 843f
00000060: ec98 db3f 943d 993f
1.0353642 1.0605197 0.9843175 1.0171071 1.0452088 0.9497824 1.0314463 1.0211605
1.0434474 1.103495 1.061253 1.0943508 1.0513332 1.1528399 1.0866235 1.0934441
1.0376952 1.0184968 0.9772586 0.984819 1.0240537 1.0059599 1.079536 1.0370723
1.7156043 1.1971917

norm.bias f4 [26]
00000000: 3965 293e 9dae 113e 6e0c 153e c5de 353e
00000010: fbd8 143e 75ea 863e 5695 ec3d d659 633e
00000020: af26 053e a7f0 393e cdba f03d f63b 083e
00000030: 49c7 203e 6991 483e 1abf c63d 8086 233e
00000040: 31fd 023e 3b80 233e 89d3 733e fcf0 3e3e
00000050: 4625 4d3e d5fb 7a3e 20c8 073e 9bdc 073e
00000060: 9035 39bd 6b15 93bd
0.1654252 0.14226766 0.14555523 0.17760761 0.14535896 0.26350752 0.11551921 0.22202238
0.13003038 0.18158208 0.117543794 0.13304123 0.15701021 0.1958672 0.097044185 0.15969276
0.12791897 0.15966885 0.23811163 0.18646616 0.2003375 0.24510129 0.13259935 0.13267748
-0.045217097 -0.071818195

norm.running_mean f4 [26]
00000000: 5883 db3f 9af2 da3f 5ef2 dc3f 4f94 e03f
00000010: 3cee e43f 9482 ea3f aba8 ef3f 95ce f63f
00000020: d51b 0040 c2aa 0340 a30e 0740 6e4f 0840
00000030: b08d 0940 fab2 0940 8456 0940 2e8d 0840
00000040: 9ff9 0440 7b7e 0040 f6e0 f83f 399d f23f
00000050: 39fc eb3f 0a73 e33f 38f1 dd3f 5d7b db3f
00000060: 907e 0ebd 8a27 a43f
1.7149458 1.7105286 1.7261465 1.754526 1.7885203 1.8321099 1.8723348 1.9281794
2.0016987 2.0572972 2.1102684 2.129848 2.149273 2.1515489 2.1459055 2.133617
2.0777357 2.0077198 1.9443653 1.895423 1.8436347 1.7769482 1.7339239 1.7147022
-0.03478867 1.2824566

norm.running_var f4 [26]
00000000: 3c61 053f 7311 033f 8ae5 083f eccd 0e3f
00000010: 0ba7 123f e80e 193f 333f 143f 67d3 163f
00000020: 7fca 163f e54e 0e3f 3fe7 0c3f f641 053f
00000030: 0f29 023f 07f4 083f 4067 093f f586 103f
00000040: f1c0 183f 11d0 193f 1908 183f 1b67 1c3f
00000050: 926c 153f 4892 043f fe26 063f ac59 053f
00000060: e585 3540 ec33 cc3e
0.5210149 0.511985 0.5347525 0.5578296 0.5728614 0.5978837 0.57908934 0.58916324
0.58902735 0.55589134 0.55040354 0.52053773 0.508439 0.53497356 0.5367317 0.5645593
0.59669405 0.6008311 0.59387356 0.61094826 0.5836879 0.5178571 0.5240325 0.52089953
2.8362973 0.39883363

norm_a.weight f4 [2]
00000000: 79a8 0240 400c 9d3f
2.0415328 1.2269363

norm_a.bias f4 [2]
00000000: 7af7 b8bb 1cec 073e
-0.005644736 0.13273662

norm_a.running_mean f4 [2]
00000000: 69c1 9b3c 992c 9ebd
0.019013124 -0.0772335

norm_a.running_var f4 [2]
00000000: f11a 903e 37a8 513e
0.28145555 0.20474325
