turtlebot3_ddpg/save_model_ddpg/2020_11_28-06_59_58/stage_1_250_actor.pth (torch_old, 584753 bytes, 10 tensors)

fc1.weight f4 [512, 26]
-0.09240722 0.02471466 -0.095273614 -0.12722419 -0.17287354 -0.027830811 -0.07567783 -0.02741945
-0.036467418 0.030526405 -0.075972244 -0.07816348 -0.093445025 -0.21112657 -0.032547217 -0.23775919
0.023227978 -0.23608999 -0.08922781 -0.17215365 -0.19591945 0.006823231 -0.2340777 -0.16817811
-0.016659755 0.050103266 0.05404662 -0.008489346 -0.08705349 0.010709777 0.09380243 -0.12026167
0.044458583 0.120428756 0.07177271 0.11843472 -0.061834294 0.08369891 -0.014542628 0.111366674
0.028144829 -0.066314995 0.050934188 0.21806775 0.18280147 0.08504134 0.18067741 -0.14217824
0.060546562 -0.059076473 0.23256826 0.14269865 0.07329194 0.01111067 -0.08318746 -0.13518648
-0.16611232 0.08536876 0.16065444 0.13437665 0.0502358 -0.03981829 0.017201962 -0.1972286
0.012685727 -0.014550038 -0.14267676 -0.11241549 -0.017875703 -0.058093634 -0.16833541 -0.053236824
0.069733046 0.015297476 0.12721196 0.041192107 -0.1848804 -0.016550358 -0.09069244 0.00329509
0.0716019 -0.17188641 0.003621918 0.09934202 -0.18221316 -0.060566008 -0.08012696 0.14300168
0.09197263 -0.0021018996 -0.09163691 -0.14687559 -0.18173552 -0.109996945 0.045488723 -0.13817108
0.07762392 0.11251384 -0.10085689 0.14233023 -0.21474391 0.14843716 -0.06891619 0.010141362
0.008659829 0.022004155 0.036750767 0.0073311487 -0.19802424 -0.033857904 0.10153297 -0.016659722
0.0747248 0.051511396 -0.15915658 -0.001971853 -0.012549434 0.06846115 -0.07914488 0.06376492
0.015847743 -0.06319649 0.14850983 -0.13806865 -0.1315359 -0.011423408 0.075777054 -0.07809402
-0.07188977 0.08679444 -0.008206441 -0.06190926 -0.044990357 -0.026819624 -0.062487394 -0.051482562
0.1733145 -0.0698827 -0.0020223048 0.016614892 0.07842676 -0.2534692 0.051137205 -0.07955407
-0.015953606 0.020845568 0.06047051 -0.03007546 -0.096853174 -0.076359846 0.008752027 0.008039153
-0.031019319 -0.041544795 0.30345005 0.06819337 -0.0018281648 0.15544878 0.13385706 -0.13118902
-0.041292604 -0.048443977 0.12082549 -0.053059623 0.18320256 0.07615267 -0.13097863 0.06738521
0.105088785 -0.05964657 0.05022852 0.13312474 -0.12659542 0.037995726 0.02720841 -0.059914824
0.06766797 -0.0367089 0.14622478 -0.02262595 -0.447347 0.044934485 0.21970697 -0.035391714
-0.085192904 0.091643 -0.02363318 -0.15541077 0.07108035 -0.09487813 -0.021634085 0.04081953
-0.13769612 -0.05541521 0.07479201 0.10545006 0.057860218 0.11459344 0.03484015 -0.024443367
-0.07394065 0.04570372 0.18771878 -0.06790771 0.10383357 -0.047912583 0.35401142 0.09596138
0.024807343 -0.0008052563 -0.0140734315 -0.051589962 -0.057325047 0.0024255472 -0.12012961 0.10565477
-0.10750327 0.011844213 0.02242279 -0.048675958 0.02727708 -0.11814401 0.032901205 0.03279845
0.13136373 0.032944046 -0.10359347 0.0052541853 0.1502946 -0.06722005 -0.09265169 0.00077505125
0.19728813 0.0195488 0.05599156 -0.11245424 -0.06689796 0.04869953 -0.16356894 -0.13670023
-0.06684781 -0.06077669 0.055738483 -0.12261627 -0.17222823 -0.13847066 0.09567617 0.079556264
0.047866475 -0.095428914 -0.082158804 -0.07315235 -0.14071125 -0.08877424 -0.14333044 0.09244213
00000000: ff3f bdbd 6676 ca3c d01e c3bd 0f47 02be
00000010: c305 31be 71fd e3bc fafc 9abd c19e e0bc
00000020: dc5e 15bd 8312 fa3c 5697 9bbd 2d14 a0bd
00000030: 1b60 bfbd 9031 58be 3b50 05bd 2577 73be
00000040: 9a48 be3c 93c1 71be 12bd b6bd 0c49 30be
00000050: 1c9f 48be 6995 df3b 11b2 6fbe e236 2cbe
00000060: 0a7a 88bc 1539 4d3d fd5f 5d3d e616 0bbc
00000070: 1a49 b2bd 0f78 2f3c 7d1b c03d c04b f6bd
00000080: 341a 363d 5aa3 f63d 92fd 923d e78d f23d
00000090: f545 7dbd 566a ab3d 3444 6ebc 3614 e43d
000000a0: fc8f e63c 28d0 87bd 5ea0 503d 274d 5f3e
000000b0: 4f30 3b3e 272a ae3d 8003 393e 2c97 11be
000000c0: acff 773d 2cfa 71bd 6026 6e3e 981f 123e
000000d0: 161a 963d 8709 363c 305e aabd 536e 0abe
000000e0: 5919 2abe d1d5 ae3d 9982 243e 089a 093e
000000f0: 0ec4 4d3d 8118 23bd 21eb 8c3c 4bf6 49be
00000100: ccd7 4f3c 4863 6ebc db19 12be 183a e6bd
00000110: 1170 92bc 97f3 6dbd 1e60 2cbe db0e 5abd
00000120: 33d0 8e3d 44a2 7a3c da43 023e 0eb9 283d
00000130: 4a51 3dbe 9e94 87bc f5bc b9bd 70f2 573b
00000140: 04a4 923d fe02 30be b35d 6d3b d473 cb3d
00000150: 1696 3abe 1014 78bd 9b19 a4bd 086f 123e
00000160: 255c bc3d 06c0 09bb 22ac bbbd 8e66 16be
00000170: e018 3abe 1446 e1bd 6252 3a3d b87c 0dbe
00000180: 4af9 9e3d a86d e63d 0f8e cebd 04bf 113e
00000190: d4e5 5bbe e9ff 173e ee23 8dbd f527 263c
000001a0: f5e1 0d3c 0f42 b43c f987 163d 223a f03b
000001b0: dec6 4abe 96ae 0abd 85f0 cf3d f879 88bc
000001c0: 5109 993d 9dfd 523d f1f9 22be 343a 01bb
000001d0: 249c 4dbc 5c35 8c3d b616 a2bd 2f97 823d
000001e0: 20d3 813c 296d 81bd f612 183e de61 0dbe
000001f0: 59b1 06be 3f29 3bbc 0031 9b3d c2ef 9fbd
00000200: f23a 93bd 49c1 b13d 4f74 06bc 9094 7dbd
00000210: cf47 38bd d4b4 dbbc c8f2 7fbd 61df 52bd
00000220: 5b79 313e a91e 8fbd a588 04bb f41b 883c
00000230: 369e a03d b7c6 81be 3f75 513d 3fed a2bd
00000240: 23b1 82bc 53c4 aa3c edaf 773d d060 f6bc
00000250: f55a c6bd 8d62 9cbd a964 0f3c a7b6 033c
00000260: 3a1c febc e02a 2abd ce5d 9b3e f7a8 8b3d
00000270: 089f efba f72d 1f3e d311 093e 6a56 06be
00000280: 6f22 29bd 316d 46bd 5b73 f73d 0c55 59bd
00000290: 7499 3b3e eef5 9b3d 431f 06be 4201 8a3d
000002a0: ca38 d73d f64f 74bd 6cbc 4d3d da51 083e
000002b0: 3ba2 01be 68a1 1b3d 2ce4 de3c 3f69 75bd
000002c0: 8195 8a3d 125c 16bd f3bb 153e 0e5a b9bc
000002d0: aa0a e5be 390d 383d ddfa 603e e7f6 10bd
000002e0: 9e79 aebd 53af bb3d 5f9a c1bc 0024 1fbe
000002f0: 9392 913d 774f c2bd f739 b1bc 6132 273d
00000300: 3600 0dbe 0ffb 62bd 8e2c 993d 33f6 d73d
00000310: d6fe 6c3d f7af ea3d 8cb4 0e3d 753d c8bc
00000320: 326e 97bd d333 3b3d 5a39 403e 3313 8bbd
00000330: b2a6 d43d fc3f 44bd fc40 b53e 6687 c43d
00000340: c538 cb3c d617 53ba 4094 66bc ff4f 53bd
00000350: abcd 6abd eef5 1e3b 8306 f6bd 8761 d83d
00000360: ad2a dcbd 3b0e 423c 00b0 b73c 7160 47bd
00000370: 2f74 df3c 7df5 f1bd 6ac3 063d ab57 063d
00000380: 3784 063e 56f0 063d d028 d4bd 4d2b ac3b
00000390: d4e6 193e aaaa 89bd 2bc0 bdbd cf2c 4b3a
000003a0: e605 4a3e ce24 a03c 6857 653d 694e e6bd
000003b0: cc01 89bd 2979 473d 9e7e 27be 25fb 0bbe
000003c0: 81e7 88bd faf0 78bd 094e 643d 3d1e fbbd
000003d0: 995c 30be 41cb 0dbe def1 c33d 65ee a23d
000003e0: a30f 443d 3c70 c3bd e042 a8bd e6d0 95bd
000003f0: 9c16 10be 45cf b5bd 37c5 12be 4d52 bd3d

fc1.bias f4 [512]
-0.18287766 0.21154416 -0.19657086 -0.11957394 -0.14270136 -0.17066425 -0.18159454 -0.35669008
0.2407024 -0.057198998 -0.13319094 -0.17035733 -0.20155297 0.2362116 -0.35347456 -0.16167681
-0.32237145 -0.21123296 -0.17430444 -0.00026125627 -0.16024385 0.09492193 -0.11480282 0.00091681327
0.08261226 -0.12887743 -0.34746292 -0.10964395 -0.35551885 -0.31438413 -0.019683834 0.035228696
0.07042134 0.07390702 -0.28256103 -0.39414406 -0.041929435 -0.06032581 0.13413836 -0.2522448
-0.30035052 -0.13635671 -0.023840057 3.6171165e-05 -0.23274952 0.053444136 -0.096335605 -0.2051327
-0.31365484 -0.103278875 0.055491053 -0.2651743 0.10154011 2.9827872e-05 0.072885446 -0.15405947
0.26977777 -0.34004495 -0.094006516 0.13695322 -0.25570872 -0.09263942 -0.07217101 -0.31008378
-0.08002781 0.2485427 0.04020512 -0.3709861 -0.27384642 -0.2594863 -0.3244549 -0.25990668
0.15942942 -0.34006852 0.12753108 -0.16680716 -0.22010079 -0.15646651 -0.14925942 0.06387978
-0.068684004 -0.23977204 0.07284809 -0.2325663 0.051264305 -0.1914423 -0.09501596 -0.025467133
0.15950076 -0.3222311 -0.117561035 -0.013864439 0.12227875 -0.28627673 -0.18571535 0.2229713
-0.30443376 0.20172434 0.14922412 -0.3115916 -0.3852941 -0.33706325 0.052617706 -0.16166186
0.11377846 -0.08408219 0.15346274 -0.26392785 -0.08167335 0.15568677 -0.17306477 -0.23304564
-0.38032636 0.101837404 -0.2176704 -0.04353303 -0.05323927 -0.0050183535 -0.27116752 -0.16831562
0.03334629 -0.22678746 0.010402326 -0.034403 -0.21390496 -0.1698702 -0.27191657 0.120705046
-0.18904342 -0.22809322 -0.14951703 0.021620322 -0.38544744 -0.34729147 -0.12660988 0.109954126
0.2791404 -0.14419332 -0.05267512 -0.038961496 -0.34918255 -0.23184648 -0.31074852 -0.045239497
-0.31401825 -0.19204868 -0.01265684 -0.12702528 0.14732811 0.10175352 0.012444888 0.07307312
-0.06600949 0.0253254 -0.1244931 0.17904672 -0.118510686 0.22154522 -0.14750698 -0.37214014
-0.27976272 0.034361143 0.09723197 0.038878243 -0.060510967 0.25179288 0.14010635 -0.33724627
-0.13880225 -0.017048445 -0.24175002 0.12453893 0.09255243 -0.10102258 0.020547632 -0.038324382
0.023475233 -0.26037082 -0.2483731 -0.3163932 -0.03834195 -0.1469996 0.06516059 -0.053487748
-0.1736395 -0.073202744 -0.27951804 -0.17930523 0.028831962 -0.31108412 -0.23485857 -0.17583986
-0.007647596 -0.11417794 0.23797238 0.061563946 -0.35611832 -0.08170708 0.03438229 -0.17152254
-0.37897655 -0.30610898 0.054141097 -0.2597202 -0.075222015 -0.013858299 -0.16102509 -0.21555418
-0.09071893 0.0057719075 0.055913545 -0.22208221 0.012326679 -0.11456926 -0.26480356 -0.23546018
-0.124178186 -0.0017606847 -0.03126389 -0.23493786 -0.147731 -0.16636463 -0.3215729 -0.20239522
0.06534519 -0.16027834 0.08165778 -0.24380133 -0.1983551 0.1915795 0.022949275 -0.26725504
-0.17389494 0.28066626 -0.25160533 -0.2735845 -0.20007615 -0.033437368 -0.2134781 -0.25527757
0.22294527 -0.3654085 -0.37006992 -0.14671025 0.04120589 -0.36173314 0.15841016 -0.06731835
-0.04571451 -0.14645177 -0.19202878 0.0064318874 -0.039304327 0.041751206 -0.15428153 -0.22154218
00000000: 4844 3bbe 089f 583e df49 49be 2fe3 f4bd
00000010: 4e20 12be 9cc2 2ebe ebf3 39be 15a0 b6be
00000020: b17a 763e 7f49 6abd 3563 08be 2772 2ebe
00000030: e763 4ebe 74e1 713e 9efa b4be 9b8e 25be
00000040: df0d a5be 744d 58be dd7c 32be 39f9 88b9
00000050: f716 24be 6e66 c23d be1d ebbd 4c56 703a
00000060: 9e30 a93d 72f8 03be a9e6 b1be 028d e0bd
00000070: 9106 b6be f5f6 a0be fe3f a1bc f74b 103d
00000080: 1039 903d 905c 973d d7ab 90be 40cd c9be
00000090: 33be 2bbd 3218 77bd 915b 093e 3b26 81be
000000a0: 8bc7 99be 18a1 0bbe 394c c3bc 7eb6 1738
000000b0: e455 6ebe 3de8 5a3d 9a4b c5bd 4e0e 52be
000000c0: 5e97 a0be e083 d3bd 964a 633d edc4 87be
000000d0: 43f4 cf3d de36 fa37 f744 953d c4c1 1dbe
000000e0: 5020 8a3e 5f1a aebe 7d86 c0bd 773d 0c3e
000000f0: 41ec 82be bcb9 bdbd 65ce 93bd 4dc3 9ebe
00000100: 9fe5 a3bd fa81 7e3e 20ae 243d e4f1 bdbe
00000110: 9935 8cbe 63db 84be f41e a6be 7d12 85be
00000120: 7741 233e 761d aebe 8297 023e 7fcf 2abe
00000130: 1a62 61be c238 20be 76d7 18be 67d3 823d
00000140: 33aa 8cbd cd86 75be 6131 953d dc25 6ebe
00000150: 85fa 513d 7309 44be ba97 c2bd 73a0 d0bc
00000160: 2b54 233e 7afb a4be d7c3 f0bd ac27 63bc
00000170: 486d fa3d dd92 92be 2a2c 3ebe 9752 643e
00000180: bede 9bbe d390 4e3e 35ce 183e ef88 9fbe
00000190: 4545 c5be 8e93 acbe aa85 573d b08a 25be
000001a0: ae04 e93d 4933 acbd 5625 1d3e 8d21 87be
000001b0: 5b44 a7bd 5a6c 1f3e e437 31be 84a3 6ebe
000001c0: 23ba c2be 2190 d03d fde4 5ebe b14f 32bd
000001d0: 6c11 5abd 0071 a4bb 78d6 8abe ee5a 2cbe
000001e0: 1f96 083d f93a 68be 846e 2a3c 29ea 0cbd
000001f0: e709 5bbe 74f2 2dbe a638 8bbe 3534 f73d
00000200: 9994 41be 4591 69be fe1a 19be 1a1d b13c
00000210: 5e59 c5be 30d0 b1be 05a6 01be a12f e13d
00000220: 7eeb 8e3e 6aa7 13be dec1 57bd 1796 1fbd
00000230: 0ec8 b2be 2a69 6dbe 6e1a 9fbe 0d4d 39bd
00000240: 00c7 a0be 69a8 44be a25e 4fbc ea12 02be
00000250: 2edd 163e 2664 d03d a5e5 4b3c 5ca7 953d
00000260: fc2f 87bd 3777 cf3c 3df6 febd 0658 373e
00000270: bbb5 f2bd c0dc 623e 120c 17be 2789 bebe
00000280: 0f3d 8fbe 45be 0c3d 8e21 c73d cb3e 1f3d
00000290: 59da 77bd ffea 803e 0a78 0f3e 8bab acbe
000002a0: 2d22 0ebe 2ea9 8bbc 518d 77be 440e ff3d
000002b0: 218c bd3d ede4 cebd 8253 a83c 07fa 1cbd
000002c0: 224f c03c 534f 85be 8555 7ebe 4afe a1be
000002d0: 730c 1dbd 1087 16be ea72 853d f815 5bbd
000002e0: 8ece 31be 52eb 95bd fd1c 8fbe ca9b 37be
000002f0: 0231 ec3c 6b46 9fbe c47e 70be 5d0f 34be
00000300: af98 fabb 20d6 e9bd 08af 733e 7a2a 7c3d
00000310: 2455 b6be 0b56 a7bd 72d4 0c3d 9ba3 2fbe
00000320: 3709 c2be 51ba 9cbe 0ec3 5d3d 0cfa 84be
00000330: 000e 9abd eb0d 63bc c3e3 24be 3cba 5cbe
00000340: d9ca b9bd 4522 bd3b 9a05 653d 8569 63be
00000350: d7f5 493c 4aa3 eabd 5594 87be 791c 71be
00000360: 2251 febd c6c6 e6ba 910e 00bd 8d93 70be
00000370: cc46 17be 7d5b 2abe 34a5 a4be b140 4fbe
00000380: b3d3 853d 0120 24be 323c a73d 0ea7 79be
00000390: 991d 4bbe 6b2d 443e 1e00 bc3c a7d5 88be
000003a0: 8411 32be 7db3 8f3e 6ad2 80be 4513 8cbe
000003b0: c3e0 4cbe 9ff5 08bd 019a 5abe beb3 82be
000003c0: c44b 643e d316 bbbe ce79 bdbe 363b 16be
000003d0: 82c7 283d 1635 b9be 4636 223e 34de 89bd
000003e0: 233f 3bbd 74f7 15be 31a3 44be 95c2 d23b
000003f0: 93fd 20bd 5003 2b3d fafb 1dbe f4db 62be

fc2.weight f4 [256, 512]
0.036248293 -0.011673755 0.03074967 0.03632833 -0.013451219 -0.016912522 -0.018269049 -0.006103473
0.03247639 -0.03493094 -0.016490359 -0.01809128 -0.018809814 -0.02315508 0.016797487 -0.040752377
0.031046208 -0.042681742 0.011070398 -0.017959535 -0.000980063 -0.026507795 -0.014870004 -0.024213092
-0.00838066 -0.03567232 -0.004515583 0.03221494 -0.013442366 0.035934698 -0.03904046 -0.012759854
0.013612875 -0.013355401 0.03216163 0.030077752 0.0027366607 0.004000661 -0.028946418 0.011755418
0.029923772 -0.045646712 -0.04175787 -0.033122808 -0.025759656 -0.0066963877 -0.008821302 -0.04438018
0.027221074 -0.048786633 -0.035173327 0.011585407 -0.012173291 -0.011880811 0.006826799 -0.0018847293
-0.049723547 -0.0261404 -0.0388825 0.025628356 -0.042326707 0.023235986 -0.04679477 -0.011403341
0.023307258 -0.00302965 0.031673238 -0.021473542 -0.041177243 -0.04323253 -0.012539478 -0.012593552
-0.026096277 0.0007979523 -0.010781168 -0.013124792 -0.028454736 0.010156482 -0.0077748327 0.0075919777
0.03627026 0.025422277 -0.013392492 -0.03940003 0.0065355264 -0.0035232166 -0.02289009 0.017013365
0.028898844 0.017297903 0.03397666 -0.009457168 0.022502638 0.03223778 -0.036049213 -0.032137033
-0.026239006 0.030106459 0.040446896 0.032288827 -0.019200569 -0.01155433 -0.024689086 -0.023901481
0.025688542 0.02312272 -0.030334692 -0.008531198 -0.009078071 -0.027911806 0.024634635 -0.03738352
-0.03421294 0.035875086 -0.030469801 -0.022064082 0.008887054 -0.04596984 0.026426652 0.034306116
-0.044127744 0.01858545 0.0059868507 0.018896276 -0.022837311 0.010799512 -0.04741897 0.025959458
-0.025117265 0.02825205 0.0037349507 0.012897051 -0.019079266 -0.011694692 0.017983772 0.026888875
-0.014556348 0.030801564 0.0125045935 -0.04393267 -0.040713407 -0.019705199 0.028205434 0.02201357
-0.0030343079 0.004165646 0.012698475 0.022810757 -0.004863751 -0.04534463 0.0023482305 0.03169019
0.033210624 0.009615514 0.004901188 -0.035483796 -0.034186997 0.0035656674 -0.009853732 -0.034874734
0.02278688 0.007889935 0.002611311 0.019537797 0.0069826078 0.019638956 0.0368351 -0.03184252
0.03184964 0.030568777 0.022772646 -0.036827244 -0.011335208 -0.008817182 0.0059239753 -0.047749996
0.011139031 -0.01367988 -0.03616703 -0.046971858 -0.042206094 -0.04231902 -0.041853476 0.021411715
0.013609391 0.0076354025 -0.04627622 -0.031236174 -0.014998154 -0.037926964 0.02188358 -0.040679045
-0.035709787 0.042977516 -0.04311263 0.03551202 -0.034346268 -0.014565567 0.03321524 0.003625536
0.018170236 -0.0037579632 -0.01877839 0.019226018 0.008241333 0.022704652 -0.037347153 0.035226673
-0.014763309 0.00812422 -0.038331345 0.011288654 -0.037395492 -0.006733287 -0.024116727 -0.0036359911
0.03571921 -0.03311685 0.027776573 -0.04931398 -0.041429926 -0.019845733 -0.046913035 0.020347208
-0.039681923 0.007810401 -0.034471277 0.015723046 0.0050346423 0.009957072 -0.030169707 0.021312933
0.027956504 -0.012297149 -0.006841166 -0.044457804 -0.044508286 -0.033063196 -0.039195202 0.0063665533
-0.035617203 0.020869507 -0.013916082 -0.004145468 -0.033500813 -0.015798861 0.044202194 -0.01966698
0.016015304 0.029265178 -0.020437554 -0.030829735 -0.031994686 0.016488826 -0.021429244 0.019502657
00000000: 1779 143d 4743 3fbc bbe6 fb3c 04cd 143d
00000010: 8062 5cbc 218c 8abc f9a8 95bc a4ff c7bb
00000020: f705 053d bf13 0fbd ca16 87bc 2a34 94bc
00000030: 0a17 9abc b9af bdbc e29a 893c f7eb 26bd
00000040: 9e54 fe3c 0dd3 2ebd 9d60 353c e01f 93bc
00000050: 7575 80ba e026 d9bc 51a1 73bc 895a c6bc
00000060: 094f 09bc 231d 12bd 75f7 93bb d0f3 033d
00000070: 5f3d 5cbc 4330 133d e4e8 1fbd b50e 51bc
00000080: 8908 5f3c 9dd0 5abc eabb 033d 9e65 f63c
00000090: 8c59 333b fa17 833b 0a21 edbc cc99 403c
000000a0: b322 f53c 0cf8 3abd 4d0a 2bbd c8ab 07bd
000000b0: ea05 d3bc 5f6d dbbb 3987 10bc fec7 35bd
000000c0: bbfe de3c 7ed4 47bd e811 10bd b8d0 3d3c
000000d0: 7c72 47bc bca7 42bc 57b3 df3b 0509 f7ba
000000e0: ebaa 4bbd 6424 d6bc 4243 1fbd 8ff2 d13c
000000f0: c55e 2dbd 6559 be3c dfab 3fbd 14d5 3abc
00000100: ddee be3c 188d 46bb ccbb 013d 48e9 afbc
00000110: 78a9 28bd 9814 31bd 6272 4dbc 2f55 4ebc
00000120: dcc7 d5bc ac2d 513a 7fa3 30bc 5e09 57bc
00000130: e819 e9bc 6067 263c 06c4 febb 20c6 f83b
00000140: 2090 143d 6142 d03c 2f6c 5bbc ed61 21bd
00000150: f827 d63b c4e5 66bb ff83 bbbc 9d5f 8b3c
00000160: 45bd ec3c 55b4 8d3c 1c2b 0b3d 3df2 1abc
00000170: 7457 b83c c30b 043d 57a8 13bd 1fa2 03bd
00000180: 2ff3 d6bc d2a1 f63c a5ab 253d 4a41 043d
00000190: 834a 9dbc 5f4e 3dbc c440 cabc 0acd c3bc
000001a0: c770 d23c dc6b bd3c 7680 f8bc 70c6 0bbc
000001b0: 31bc 14bc 4da7 e4bc 93ce c93c 761f 19bd
000001c0: de22 0cbd c1f1 123d ce9b f9bc bcbf b4bc
000001d0: 029b 113c df4a 3cbd b57c d83c 9284 0c3d
000001e0: 4bbf 34bd 8340 983c 582d c43b 5dcc 9a3c
000001f0: 5015 bbbc 70f0 303c 653a 42bd eea8 d43c
00000200: b9c2 cdbc d870 e73c 13c6 743b 274e 533c
00000210: 1f4c 9cbc 189b 3fbc b452 933c 0f46 dc3c
00000220: c07d 6ebc 9053 fc3c 11e0 4c3c bef2 33bd
00000230: 1ac3 26bd cc6c a1bc 150f e73c cd55 b43c
00000240: 3ddb 46bb f97f 883b 440d 503c a0dd ba3c
00000250: 1a60 9fbb 4abb 39bd c5e4 193b 93cd 013d
00000260: dd07 083d 648a 1d3c 259a a03b 7557 11bd
00000270: aa07 0cbd f9ad 693b 8c71 21bc cfd8 0ebd
00000280: 8dab ba3c c944 013c 8722 2b3b bb0d a03c
00000290: 5cce e43b e0e1 a03c 67e0 163d 4d6d 02bd
000002a0: c574 023d 5f6b fa3c b38d ba3c 2ad8 16bd
000002b0: 4fb7 39bc f175 10bc e81d c23b 8095 43bd
000002c0: 7b80 363c 9321 60bc e123 14bd 9065 40bd
000002d0: 4ce0 2cbd b556 2dbd 8d6e 2bbd 9f67 af3c
000002e0: ecf9 5e3c 6632 fa3b 228c 3dbd 01e3 ffbc
000002f0: d1ba 75bc 4e59 1bbd 3245 b33c 129f 26bd
00000300: 6d44 12bd 3109 303d de96 30bd 0d75 113d
00000310: acae 0cbd 6aa4 6ebc b40c 083d 679a 6d3b
00000320: bfd9 943c 2948 76bb 23d5 99bc e27f 9d3c
00000330: a806 073c 1bff b93c 54f9 18bd d849 103d
00000340: cee1 71bc 731b 053c 5401 1dbd 0cf4 383c
00000350: 042c 19bd e8a2 dcbb 7190 c5bc cf49 6ebb
00000360: 4e4e 123d 89a5 07bd b28b e33c 75fd 49bd
00000370: 6db2 29bd 8593 a2bc e227 40bd 30af a63c
00000380: 8389 22bd 64ee ff3b c131 0dbd 9ecd 803c
00000390: a4f9 a43b fd22 233c 7626 f7bc 7698 ae3c
000003a0: 0a05 e53c fb79 49bc dc2b e0bb 6319 36bd
000003b0: 524e 36bd 466d 07bd 268b 20bd 859e d03b
000003c0: 58e3 11bd 87f6 aa3c 4700 64bc b5d6 87bb
000003d0: 2638 09bd 9d6c 81bc 5c0d 353d a51c a1bc
000003e0: 8732 833c 87bd ef3c a86c a7bc a48e fcbc
000003f0: dc0c 03bd 9313 873c 628c afbc 09c4 9f3c

fc2.bias f4 [256]
0.018566791 0.043211043 0.022270398 -0.028381364 0.010673636 0.16704056 0.047833536 -0.026872585
-0.11866019 0.04083679 -0.034781978 -0.17122139 -0.024056341 -0.009754722 0.061928302 0.06190828
0.032099392 0.10078222 -0.01744953 -0.027364718 -0.01649789 0.009069845 0.10152904 0.11669154
0.015561285 -0.03971845 0.079080716 0.011954106 -0.093984805 -0.0062132385 0.084440835 0.029050095
-0.0016571755 0.07033461 -0.050748345 0.078921616 0.053028807 0.08902246 0.0047362847 0.12058937
-0.034305435 0.09060417 0.0836695 -5.6054574e-05 -0.046567105 -0.056233928 0.050349947 -0.03149247
-0.045600895 -0.028183091 0.02023919 -0.12089355 -0.010127812 -0.021005623 -0.021317732 0.18696785
-0.07420331 -0.017238569 0.030871186 0.015033268 0.024889888 0.08156664 0.10620734 0.04617357
0.020545762 0.040447988 -0.006148204 -0.071762644 0.13286707 0.110930726 0.032034755 0.010352148
-0.034289926 0.12919237 -0.09354721 0.005607847 0.0063836584 0.075031474 -0.10426039 -0.048130292
0.06694786 -0.0740903 0.006031377 0.016228158 -0.046991684 0.065175146 0.0896759 -0.05851335
0.044689156 0.046615183 -0.13184522 0.0084483 0.035264697 0.086512506 0.022415798 0.09929877
-0.10101211 0.015808592 0.031669352 0.12602173 0.053259775 0.08525834 0.03681388 -0.03647112
-0.041852094 0.09819906 0.010526106 0.021334507 0.105304174 0.00293982 0.011242981 0.009563152
-0.03605695 0.01971305 0.061657816 -0.044853352 0.12616804 0.13490756 0.025684856 0.05177323
0.13582276 -0.091398776 0.07379804 0.1279617 -0.024945393 -0.11338862 0.054653645 0.041218694
0.11694884 0.010290714 0.015374313 0.1373793 -0.12730305 -0.07133916 -0.055581775 0.024258157
-0.019038752 0.041441508 0.014156981 0.015303873 -0.056198683 0.16062188 0.0449874 -0.0017784251
0.041821018 0.12047467 -0.0309678 0.08265721 0.051254187 0.03131181 0.11090024 -0.041812185
0.14010912 0.064996384 0.082600825 0.018121855 0.111800924 0.055846497 0.1064032 -0.012508699
0.054848216 0.016354391 0.016243929 0.08758303 0.12388946 -0.00791172 -0.004523836 -0.022610657
-0.021022614 -0.040383305 -0.047381952 -0.025001572 0.068420365 -0.028449563 0.18805005 0.02393617
0.15437457 -0.06066885 0.09114756 0.16071919 0.12893899 -0.037968326 -0.03213156 0.07587237
0.013061271 0.079047546 0.03504237 0.11651905 0.046300754 -0.113685735 0.03453556 -0.061060276
0.15957126 -0.004800584 0.096662596 -0.05034319 0.12940682 0.09320043 -0.04750566 -0.02266682
-0.040866118 0.0035694975 -0.033763286 0.0070868297 0.09319105 -0.084693626 0.1467326 0.05600566
0.005801562 -0.022099009 0.123935655 0.047659066 -0.017788343 0.053695258 0.05838111 0.10009001
0.056245696 0.026090736 0.1234224 0.0442783 -0.018911308 0.0006761271 -0.0091828555 0.047832087
0.06795647 0.069658734 -0.044392455 -0.03782227 -0.044625364 -0.12589823 0.04152178 -0.038615454
-0.10177578 0.035220668 0.04242549 0.012447864 -0.038491517 -0.044502612 0.091241226 0.037370805
0.042327628 0.05970851 0.059359018 0.018208329 0.024945378 0.005308068 0.063698485 0.15540878
-0.028033214 -0.009164148 -0.008742901 -0.20212413 -0.020398635 0.059079602 -0.022152143 0.011780275
00000000: 6219 983c 10fe 303d 6970 b63c 0980 e8bc
00000010: 79e0 2e3c ae0c 2b3e 19ed 433d e523 dcbc
00000020: 1d04 f3bd 7a44 273d 8c77 0ebd a954 2fbe
00000030: ce11 c5bc 45d2 1fbc 88a8 7d3d 8993 7d3d
00000040: a77a 033d e966 ce3d 51f2 8ebc f92b e0bc
00000050: 9526 87bc b099 143c 75ee cf3d f9fb ee3d
00000060: c3f4 7e3c d0af 22bd 12f5 a13d 28db 433c
00000070: 1b7b c0bd 6c98 cbbb 51ef ac3d 77fa ed3c
00000080: 9535 d9ba 980b 903d 7fdd 4fbd a8a1 a13d
00000090: bc34 593d 6851 b63d d632 9b3b 8ff7 f63d
000000a0: db83 0cbd ae8e b93d ea5a ab3d 241c 6bb8
000000b0: 26bd 3ebd 8c55 66bd bf3b 4e3d 40fe 00bd
000000c0: 01c8 3abd 3ae0 e6bc a8cc a53c 0a97 f7bd
000000d0: 1fef 25bc fc13 acbc 86a2 aebc 8074 3f3e
000000e0: e8f7 97bd e637 8dbc 92e5 fc3c 194e 763c
000000f0: e1e5 cb3c 690c a73d 3c83 d93d 7f20 3d3d
00000100: 964f a83c caac 253d e076 c9bb 4bf8 92bd
00000110: 4e0e 083e a62f e33d e036 033d 0e9c 293c
00000120: 9873 0cbd 014b 043e ae95 bfbd 08c2 b73b
00000130: 022e d13b 1aaa 993d 7986 d5bd 4524 45bd
00000140: f61b 893d a8bc 97bd dba2 c53b eaf0 843c
00000150: 5a7a 40bd 8c7a 853d 00a8 b73d b2ab 6fbd
00000160: fa0b 373d 90ef 3e3d 6f02 07be bd6a 0a3c
00000170: b771 103d 782d b13d 56a1 b73c 275d cb3d
00000180: 70df cebd 0581 813c b9b7 013d d70b 013e
00000190: ec26 5a3d ed9b ae3d 27ca 163d be62 15bd
000001a0: 1a6d 2bbd 971c c93d b075 2c3c b4c5 ae3c
000001b0: b7a9 d73d ffa9 403b 7b34 383c c4ae 1c3c
000001c0: 74b0 13bd 437d a13c e88c 7c3d 26b8 37bd
000001d0: 3232 013e 3525 0a3e 0c69 d23c 2b10 543d
000001e0: 1f15 0b3e 482f bbbd 6d23 973d 6408 033e
000001f0: 485a ccbc 4b38 e8bd 80dc 5f3d efd4 283d
00000200: e082 ef3d 629a 283c 8be4 7b3c 29ad 0c3e
00000210: bb5b 02be 441a 92bd b7a9 63bd 0bb9 c63c
00000220: 28f7 9bbc 92be 293d aff2 673c 19bd 7a3c
00000230: 9730 66bd 107a 243e b544 383d 0b1a e9ba
00000240: 844c 2b3d 6cbb f63d 2fb0 fdbc 2f48 a93d
00000250: e9ef 513d d040 003d aa1f e33d 4143 2bbd
00000260: c478 0f3e d31c 853d 9f2a a93d 4974 943c
00000270: e2f7 e43d 4cbf 643d ece9 d93d 49f1 4cbc
00000280: 86a8 603d a5f9 853c fd11 853c bb5e b33d
00000290: c2b9 fd3d 29a0 01bc b03c 94bb fc39 b9bc
000002a0: 9e37 acbc f768 25bd 9413 42bd 19d0 ccbc
000002b0: fa1f 8c3d 0f0f e9bc 3190 403e c915 c43c
000002c0: 5e14 1e3e e67f 78bd 92ab ba3d 9293 243e
000002d0: 9508 043e ad84 1bbd 629c 03bd f962 9b3d
000002e0: f1fe 553c aee3 a13d 9788 0f3d 8aa1 ee3d
000002f0: dca5 3d3d 11d4 e8bd 2975 0d3d 571a 7abd
00000300: a666 233e 384e 9dbb 0af7 c53d a934 4ebd
00000310: 3983 043e dedf be3d 4c95 42bd c4af b9bc
00000320: 3b63 27bd 3bee 693b 5f4b 0abd a338 e83b
00000330: f3da be3d da73 adbd 1241 163e 3166 653d
00000340: 081b be3b fb08 b5bc fad1 fd3d 2736 433d
00000350: dcb8 91bc 8fef 5b3d 0821 6f3d fefb cc3d
00000360: e361 663d 3dbc d53c e2c4 fc3d 2a5d 353d
00000370: e3eb 9abc 1f3e 313a b073 16bc 94eb 433d
00000380: c32c 8b3d 3da9 8e3d ddd4 35bd 86eb 1abd
00000390: 16c9 36bd 77eb 00be be12 2a3d 3d2b 1ebd
000003a0: d26f d0bd 8c43 103d 5ac6 2d3d 20f2 4b3c
000003b0: 48a9 1dbd 5f48 36bd aedc ba3d 2112 193d
000003c0: bc5f 2d3d e990 743d 7122 733d a229 953c
000003d0: 405a cc3c 4def ad3b 5a74 823d 7b23 1f3e
000003e0: e9a5 e5bc 3925 16bc 623e 0fbc a1f9 4ebe
000003f0: 0a1b a7bc 74fd 713d 6978 b5bc 0e02 413c

fc3.weight f4 [2, 256]
0.008918255 -0.010500072 -0.100233026 -0.014862477 -0.054032788 -0.034674343 -0.013038656 -0.014308975
0.02133904 0.03358128 0.17953548 -0.052738674 -0.037564173 0.0103928335 -0.0744634 -0.026547901
0.072447285 0.058020234 0.0009419693 -0.0030675926 0.058517635 -0.046752453 -0.07096478 -0.082616925
-0.0004884571 0.035442043 0.01869255 0.039343223 0.005981154 0.00012671792 0.043078747 0.04152316
0.08131084 -0.01870576 0.049040448 0.027551735 -0.006283243 -0.0038403324 -0.113373995 0.03954037
0.0042348546 -0.02498665 -0.05206003 0.039236855 -0.0012875175 -4.0303535e-06 -0.058099374 0.03523436
-0.026553804 -0.0289141 -0.09100276 -0.102897234 -0.02152779 -0.0738295 0.01760167 -0.06979918
0.0036111462 0.036742665 -0.012700216 -0.038736627 0.027943369 -0.11554731 -0.2117704 0.0051562316
0.019731201 -0.028025344 0.011238956 -0.06487649 -0.08616888 -0.042460848 0.0076942686 0.019363571
-0.0019999808 -0.0961734 0.001127578 -0.025394281 0.04141212 -0.048616465 0.016423991 -0.001995488
0.0664782 0.04230544 0.034162607 0.019919908 -0.0032616055 0.01760762 0.0029591254 -0.028742764
0.008782584 0.07267152 -0.08818532 0.035003085 -0.031700253 0.03061231 0.05500387 0.0073707723
-0.026327346 -0.011968729 -0.0014328788 0.059349842 0.03848733 0.033250093 -2.5633632e-05 -0.053951677
0.049932487 -0.015285146 0.047754545 -0.023067193 0.043953214 0.013476649 -0.04941669 0.004108832
-0.0032389401 0.027670864 0.20030776 0.10372846 -0.016286941 -0.12871592 -0.11808797 0.10761356
-0.040988818 -0.03401817 0.028404435 0.00095781457 0.0015502288 -0.069953576 0.076904796 0.029778998
0.052121613 0.07437807 0.17887463 0.06767171 -0.12661195 0.021959305 0.037803788 0.03024782
0.061150044 -0.023960022 -0.03335812 -0.0465923 -0.003888876 -0.058581922 0.007986914 0.20888372
0.060517915 0.08773138 0.026022201 -0.047449473 0.01782561 4.4774162e-05 -0.098187156 0.014132041
0.026600763 0.0521755 0.014039334 0.018009799 0.05163979 0.010158634 0.16894637 0.08144412
0.060535558 -0.04976119 0.026680395 0.1046945 -0.21546012 -0.12246961 0.008464796 -0.045619354
-0.01817528 0.0900719 -0.0062759006 -0.054845266 0.0067459177 -0.17180586 -0.046551175 -0.16242436
0.05928852 -0.004960305 0.031077143 -0.046904393 0.044597518 -0.017913708 0.026880978 -0.010431582
0.0061043203 -0.079485 -0.006092185 0.068699546 0.14458212 -0.019180004 0.0066310796 0.08621296
-0.053726397 0.01742831 0.08813401 -0.025000714 -0.036123753 0.0190262 0.084305674 0.036165025
0.08930785 -0.05823064 -0.017968126 -0.012076986 0.027792715 0.04356741 -0.04902168 -0.017917948
-0.015297462 -0.0031211334 0.018793039 -0.0049639656 -0.039114684 -0.0006676398 0.012405703 -0.05088003
0.13450657 0.02069206 -0.09444719 0.0037499722 0.03759099 -0.03485168 0.24531592 -0.024119945
0.00035572957 -0.23417054 -0.01533225 0.14598785 -0.012809895 -0.06610047 0.0004192462 -0.027676197
-0.0064047617 0.15194425 0.02227163 -0.04263303 0.020068571 0.017044632 -7.224602e-05 -0.058005117
0.04675428 0.04967271 -0.11465869 0.036318198 0.04208433 0.014050638 0.14752625 -0.050528567
0.0014267627 -0.09445326 0.048931666 -0.055760916 0.034551393 -0.09475698 0.052411824 0.052815154
00000000: df1d 123c 7e08 2cbc f946 cdbd bf81 73bc
00000010: 7c51 5dbd af06 0ebd 16a0 55bc 3170 6abc
00000020: 36cf ae3c 868c 093d 26d8 373e 8204 58bd
00000030: e4dc 19bd b446 2a3c 4480 98bd fc7a d9bc
00000040: 3e5f 943d a0a6 6d3d 7dee 763a aa09 49bb
00000050: 30b0 6f3d 807f 3fbd fc55 91bd 1033 a9bd
00000060: cd0b 00ba ad2b 113d 1e21 993c 5c26 213d
00000070: 8efd c33b 95df 0439 5773 303d 3014 2a3d
00000080: 4c86 a63d d23c 99bc a3de 483d 2db4 e13c
00000090: aae3 cdbb 16ae 7bbb a030 e8bd 15f5 213d
000000a0: 89c4 8a3b ceb0 ccbc e63c 55bd d3b6 203d
000000b0: ebc1 a8ba 793c 87b6 9cf9 6dbd e751 103d
000000c0: 5d87 d9bc 43dd ecbc a85f babd c9bb d2bd
000000d0: 0c5b b0bc ec33 97bd 6131 903c dff2 8ebd
000000e0: fba8 6c3b 7a7f 163d 9114 50bc 4caa 1ebd
000000f0: 7ee9 e43c 11a4 ecbd 57da 58be 9bf5 a83b
00000100: 54a3 a13c 6895 e5bc 9923 383c f7dd 84bd
00000110: 4f79 b0bd 6deb 2dbd 3420 fc3b 5aa0 9e3c
00000120: 1c12 03bb 8ff6 c4bd 3dcb 933a ab07 d0bc
00000130: c19f 293d 0f22 47bd 9b8b 863c bcc6 02bb
00000140: b925 883d 7848 2d3d 17ee 0b3d 132f a33c
00000150: a9c0 55bb db3d 903c e3ed 413b f275 ebbc
00000160: d4e4 0f3c ced4 943d 819a b4bd 655f 0f3d
00000170: 20d8 01bd abc6 fa3c bd4b 613d 8586 f13b
00000180: 72ac d7bc 7d18 44bc 6fcf bbba d218 733d
00000190: e4a4 1d3d 4031 083d ce07 d7b7 6ffc 5cbd
000001a0: 0286 4c3d 8d6e 7abc 459a 433d 69f7 bcbc
000001b0: 4908 343d 2acd 5c3c 2869 4abd 62a3 863b
000001c0: 6644 54bb 02ae e23c 7a1d 4d3e 966f d43d
000001d0: 316c 85bc 1bce 03be 1bd8 f1bd 8064 dc3d
000001e0: e4e3 27bd a356 0bbd 6bb0 e83c d915 7b3a
000001f0: 0c31 cb3a d243 8fbd 4380 9d3d 16f3 f33c
00000200: 797d 553d 8853 983d e92a 373e 7797 8a3d
00000210: 90a6 01be 00e4 b33c 25d8 1a3d 47ca f73c
00000220: 7878 7a3d cf47 c4bc 86a2 08bd 91d7 3ebd
00000230: 83dc 7ebb 99f3 6fbd 8cdb 023c 9de5 553e
00000240: a2e1 773d 82ac b33d 832c d53c 615a 42bd
00000250: 0307 923c e4cb 3b38 5916 c9bd 138a 673c
00000260: d8e9 d93c fab5 553d 3c05 663c 4989 933c
00000270: 3f84 533d 6670 263c 4700 2d3e 2dcc a63d
00000280: 22f4 773d 64d2 4bbd d890 da3c 126a d63d
00000290: 94a1 5cbe 59d1 fabd edaf 0a3c 5cdb 3abd
000002a0: 53e4 94bc 9e77 b83d 12a6 cdbb 6ea5 60bd
000002b0: dc0c dd3b e0ed 2fbe 72ac 3ebd 9252 26be
000002c0: 85d8 723d 0e8a a2bb 7e95 fe3c d21e 40bd
000002d0: e3ab 363d c5bf 92bc 7f35 dc3c 3ae9 2abc
000002e0: c006 c83b 08c9 a2bd f4a0 c7bb 59b2 8c3d
000002f0: 560d 143e 621f 9dbc 8749 d93b 6c90 b03d
00000300: 3610 5cbd d1c5 8e3c 9b7f b43d 4cce ccbc
00000310: 80f6 13bd d5dc 9b3c 74a8 ac3d c721 143d
00000320: 09e7 b63d 4083 6ebd e431 93bc 8dde 45bc
00000330: 8cad e33c be73 323d f5ca 48bd a9c8 92bc
00000340: 35a2 7abc ee8b 4cbb dcf3 993c c3a8 a2bb
00000350: b836 20bd 8c04 2fba 4a41 4b3c 9467 50bd
00000360: 17bc 093e 6582 a93c 876d c1bd 18c2 753b
00000370: 03f9 193d a3c0 0ebd 1934 7b3e 3197 c5bc
00000380: 3781 ba39 67ca 6fbe 1e34 7bbc d77d 153e
00000390: 98e0 51bc af5f 87bd 46ce db39 31b9 e2bc
000003a0: 09df d1bb 4697 1b3e fe72 b63c f99f 2ebd
000003b0: d866 a43c 2fa1 8b3c c982 97b8 c696 6dbd
000003c0: 6a81 3f3d 9d75 4b3d 2dd2 eabd 64c2 143d
000003d0: 9e60 2c3d a634 663c 1f11 173e 0bf7 4ebd
000003e0: 3602 bb3a b670 c1bd 926c 483d 8f65 64bd
000003f0: c385 0d3d f30f c2bd c8ad 563d b454 583d

fc3.bias f4 [2]
-0.029887235 -0.11215742
00000000: 13d6 f4bc cab2 e5bd

norm.weight f4 [26]
0.77235544 0.76762927 0.7407206 0.7893714 0.73871577 0.756027 0.8162918 0.7524912
0.7858191 0.7798958 0.7505138 0.8039055 0.7829702 0.84915227 0.8830316 0.8277751
0.8012343 0.7855198 0.7835119 0.75404686 0.76329434 0.8180277 0.8365335 0.78601813
1.3737916 0.9958083
00000000: 16b9 453f 5a83 443f de9f 3d3f 3e14 4a3f
00000010: 7a1c 3d3f fc8a 413f 80f8 503f 43a3 403f
00000020: 712b 493f 40a7 473f ac21 403f c0cc 4d3f
00000030: bc70 483f 0b62 593f 5c0e 623f 12e9 533f
00000040: b11d 4d3f d317 493f 3c94 483f 3709 413f
00000050: 4267 433f 436a 513f 0f27 563f 7c38 493f
00000060: 67d8 af3f 4bed 7e3f

norm.bias f4 [26]
0.23419482 0.2281168 0.17235984 0.11182678 0.1475206 0.1297286 0.020636134 0.027409656
-0.06238331 0.05411266 0.09867494 0.11272425 0.06340462 0.14073187 0.07478506 0.12823215
0.08977044 0.14227681 0.24229625 0.11808367 0.112725444 0.27826357 0.2712056 0.21664989
0.02093152 -0.18176016
00000000: c4d0 6f3e 7397 693e 197f 303e 7005 e53d
00000010: a40f 173e 93d7 043e 1c0d a93c 378a e03c
00000020: a485 7fbd 3da5 5d3d 1616 ca3d f9db e63d
00000030: 48da 813d 041c 103e e928 993d 4a4f 033e
00000040: 90d9 b73d 03b1 113e 821c 783e dad5 f13d
00000050: 99dc e63d 9078 8e3e 76db 8a3e 78d9 5d3e
00000060: 9478 ab3c 561f 3abe

norm.running_mean f4 [26]
1.7092068 1.7132151 1.7288058 1.7568809 1.7740602 1.8083701 1.8655674 1.9254619
1.9812235 2.035743 2.0769598 2.1058493 2.1239495 2.1472945 2.1336732 2.1128528
2.072785 2.0117667 1.9477295 1.8860831 1.8296547 1.76379 1.7266598 1.7088666
-0.1699924 1.269709
00000000: 4ac7 da3f a24a db3f 8249 dd3f 79e1 e03f
00000010: 6814 e33f ac78 e73f eaca ee3f 8975 f63f
00000020: bb98 fd3f 9d49 0240 e9ec 0440 3cc6 0640
00000030: caee 0740 466d 0940 1a8e 0840 fb38 0740
00000040: 82a8 0440 c9c0 0040 334f f93f 2c6b f13f
00000050: 2032 ea3f dfc3 e13f 3003 dd3f 24bc da3f
00000060: 7d12 2ebe d385 a23f

norm.running_var f4 [26]
0.5372202 0.5518597 0.58255 0.6291541 0.6444972 0.6518557 0.65750843 0.6266012
0.58497936 0.5759637 0.55744755 0.5428814 0.550423 0.5762449 0.57987714 0.6136738
0.6367664 0.6394392 0.6432495 0.64101946 0.60948914 0.55702806 0.5444841 0.5373523
2.8484256 0.416266
00000000: 4387 093f ad46 0d3f ff21 153f 3e10 213f
00000010: c5fd 243f 04e0 263f 7952 283f f068 203f
00000020: 35c1 153f 5b72 133f e2b4 0e3f 47fa 0a3f
00000030: 86e8 0c3f c984 133f d472 143f ba19 1d3f
00000040: 1f03 233f 4ab2 233f 00ac 243f da19 243f
00000050: 7b07 1c3f 6499 0e3f 4f63 0b3f ec8f 093f
00000060: 9b4c 3640 d120 d53e
