turtlebot3_ddpg/save_model_ddpg/2020_12_02-07_05_34/stage_1_500_actor.pth (torch_old, 588881 bytes, 10 tensors)

fc1.weight f4 [512, 28]
00000000: 3251 52bd 9e51 7a3d 3e0d 22bc de1e 25bd
00000010: 5bba 29bd a4f7 5b3d ccc2 0bbd 0eda a9bc
00000020: a955 a2bd f741 0f3d e5cf bdbd 5a39 e03b
00000030: 8e77 d4bc 37f7 1abe 830c d53b e228 25be
00000040: 0b83 8b3d f4d9 42be a283 b9ba 559b 1cbe
00000050: b9d1 1fbe 119b 953d 3175 2ebe be93 08be
00000060: b9e2 b6bd 5c3f 2dbd 6ad7 fe3b fa8b a9bd
00000070: 4716 77bd d3e7 0c3d 5ec3 a83d 90fe a7bd
00000080: a572 dd3d 6f3c 513e b70a ba3d 066a 143e
00000090: 39dd dfbb a431 7d3d 253f 8fbd 2b76 9a3d
000000a0: 56cc efbc c0d6 80be 75ad 603b e681 4b3e
000000b0: 0e3a f93d 0c09 3d3b fad0 8f3d 197a 27be
000000c0: 6b05 f13c 369b 98bd 2c97 3d3e d6a6 dc3d
000000d0: 60fa 193e 1aca 133e 1923 143c 05ba b9bd
000000e0: 3d3b 23be 1b02 913d 5874 c13d 8865 143e
000000f0: 505c c73c f4b9 acbd 6413 c1bc 4b42 10be
00000100: dfd9 a13d 5f41 42bc b389 10be b887 89bd
00000110: 1ca4 0c3e dfa5 ee3c 61c5 30be 0830 2abc
00000120: 8c53 8d3d 12e5 84bd 1cb9 bc3d f7a9 5c3d
00000130: 935b 23be 2d1f e73b 6fce a6bd 3cf2 9e3d
00000140: 5ed0 d43d 88b1 28be 1521 d43d 3e73 ff3d
00000150: e8fb c8bd 89bb 82bd 3220 f6bd 442a 123e
00000160: 65ff c73d fdba 4abd c409 1abe 3e1a 64be
00000170: 1be9 44be 5764 05be be71 b53d 49d0 53be
00000180: b6f7 5cbc 21f2 b93d 631b 58bc 414e 9e3e
00000190: fa8b 83bd 7acf 143e d0ba cbbd 68aa 2e3e
000001a0: b1bc c93d 1aaa bf3d 44c4 063d c9fd 323d
000001b0: b733 1bbe 1dc2 39bc 4f5c 523e ec6d 1abb
000001c0: 1972 17bb 4308 ad3d 62f0 22bd 54f9 ef3d
000001d0: f1d8 153e 6c94 aa3d f878 30be f21a 6a3b
000001e0: 9529 8f3c 5e7d c6bd 8e13 bebb 911b 26be
000001f0: 9ad7 98bd 8f24 dd3c 80a9 843d 9f61 04bd
00000200: f7f6 04be 812c 56bd 9c86 fabb 07fe a5bd
00000210: 6fd2 d2bd cb33 57bd 906a b1bd 4e0e 51be
00000220: 62d5 ab3e 797f 9c3c e195 003e 22bc 783e
00000230: 96a0 933e 6366 87be 081e 213e b62b c03d
00000240: a222 993d 4b55 c53d 1fe9 c2bc 436d 2ebd
00000250: 7df7 f8bc 0cc8 eebd b448 66bd fd86 1dbc
00000260: 52ec 1d3d cdf6 3abd 6d6a 223e 881e 0b3e
00000270: 9c6c 3bbd 6c8a 2c3e 7f4e e93d 9bde b4bd
00000280: 5ed9 9cbd 0e92 c3bd b72e b03d f8a4 92bd
00000290: da37 783e fc1c bd3d 82fb 07be 8dbd 3a3c
000002a0: 2abe 8a3d 8523 ca3d 4803 623e f214 573e
000002b0: 155e adbc 896d 573d 9d22 313d 32b3 0bbe
000002c0: dca5 07bd a440 08be 6593 e23d 795e 4b3d
000002d0: 2de5 023c d515 303e 436f 503e 5cfc b3bd
000002e0: 4ca2 0bbe 8a88 1d3d 6c10 353d 6afe afbd
000002f0: 3d34 743d 2a13 d2bd 7cf2 95bd 1460 b53d
00000300: d873 71bd c5d7 323d 315b 6f3e d982 4c3e
00000310: 46c2 2e3e 1912 343e 5796 a63d 965e 03be
00000320: 63e7 00bd 20aa 793d 2ba2 303e 2b0d 4fbd
00000330: f1f8 153d aed5 063d f23c 2b3e b0ec 4f3e
00000340: 529e 9c3d 9a23 e2bd b877 f6bd bf07 1fbd
00000350: 1ce3 d2bd 9937 a33c b37d eabd 3625 993d
00000360: 8624 93bd 3cae a43c 2530 023e b578 b43c
00000370: d43b bd3d d376 8f3d 28d5 463e 2ac1 b6bc
00000380: 5466 9d3d dae0 043c e45a 2abd 2f76 e93d
00000390: 436c 803e d6d7 ad3d 3e22 183c 8700 3c3d
000003a0: 9765 153e 8048 c9bd f99f b6bb 456a 04be
000003b0: 4da5 8bbd 44a7 8b3d 77ec a4bd e9f8 bebd
000003c0: 6d0e 01be e615 84bd bbea 423d adb4 14be
000003d0: 766a 64be 3fb1 86be 4de3 0a3d 39c1 533d
000003e0: dee4 c93d cb25 9fbd d126 fcbd 0890 2e3d
000003f0: 0220 023d b5be 043e e28f 7b3d f519 753e
-0.051346965 0.061112992 -0.0098908525 -0.04031264 -0.041437488 0.053702965 -0.03412132 -0.02073386
-0.07926495 0.03497502 -0.09268168 0.0068427743 -0.025935914 -0.15133367 0.0065017357 -0.16128877
0.06812104 -0.19028455 -0.001415361 -0.1529363 -0.15607347 0.07304967 -0.17036892 -0.13337609
-0.08929963 -0.042296752 0.007777144 -0.082786515 -0.06032398 0.034400772 0.08240388 -0.08202851
0.10812882 0.2043321 0.09084075 0.1449357 -0.0068317917 0.06181492 -0.06994466 0.0754207
-0.02927224 -0.2516384 0.0034283076 0.19873771 0.12169276 0.0028844504 0.07022281 -0.1635517
0.029421529 -0.07451479 0.18514699 0.10774009 0.15036917 0.14432564 0.009041571 -0.090686835
-0.15940566 0.0708048 0.09446019 0.14491856 0.02433601 -0.08433905 -0.023568816 -0.14087789
0.07902884 -0.011856406 -0.14115028 -0.067153394 0.13734478 0.029131828 -0.17262794 -0.010387428
0.06900701 -0.06489004 0.09214994 0.05387303 -0.15952902 0.007053277 -0.08144843 0.07761046
0.103913054 -0.16473973 0.103578724 0.124731526 -0.09813672 -0.06383426 -0.120178595 0.14273936
0.097655095 -0.049494732 -0.15042788 -0.22275636 -0.19229548 -0.13026558 0.08859585 -0.20684923
-0.013486793 0.090793855 -0.013190123 0.30919078 -0.06423183 0.14532271 -0.09947741 0.17057192
0.09850443 0.09358616 0.032902017 0.04369906 -0.15156446 -0.011337784 0.20543025 -0.0023564054
-0.002310878 0.084488414 -0.03978003 0.117174774 0.14633538 0.083290905 -0.17233646 0.0035721627
0.017475883 -0.09691881 -0.005800671 -0.16221453 -0.07462998 0.026994972 0.06477642 -0.03231966
-0.12984835 -0.052288536 -0.007645441 -0.081050925 -0.10294043 -0.052539628 -0.08662903 -0.20415613
0.33561236 0.019103752 0.12557174 0.24290517 0.28833455 -0.26445302 0.15734112 0.09383337
0.07477309 0.09635409 -0.023792801 -0.04258467 -0.03039145 -0.1165925 -0.05622168 -0.009614703
0.03855545 -0.045645524 0.1586091 0.13585865 -0.045757875 0.16849679 0.11391925 -0.08831521
-0.07658647 -0.09549342 0.0860266 -0.071603715 0.24240056 0.09234044 -0.13279536 0.0113977315
0.06774552 0.09870056 0.22071564 0.21004084 -0.021163026 0.052594695 0.0432459 -0.13642576
-0.03311716 -0.13305908 0.110632695 0.049650643 0.00798921 0.17195828 0.20354943 -0.08788368
-0.1363613 0.038460292 0.044205114 -0.085934475 0.05962013 -0.102575615 -0.07321641 0.08856216
-0.058948368 0.043662805 0.2337463 0.1997179 0.17066297 0.17585029 0.08134144 -0.1282905
-0.031470668 0.06095326 0.17249362 -0.050549667 0.036614362 0.032918625 0.16722468 0.20305133
0.07647385 -0.11041947 -0.12034553 -0.038825747 -0.10297224 0.019923972 -0.114497565 0.074778005
-0.07184701 0.020102613 0.12713678 0.022030214 0.09239927 0.07005086 0.1941725 -0.022308905
0.07685533 0.008110249 -0.041590586 0.11399495 0.25082597 0.08488433 0.009285508 0.04589894
0.14589535 -0.098282814 -0.0055732694 -0.12931164 -0.06818638 0.06819013 -0.080529146 -0.093248196
-0.12603159 -0.06449489 0.047587138 -0.14522047 -0.22306237 -0.26307103 0.033908177 0.051697943
0.09858106 -0.0777088 -0.12312091 0.042617828 0.031768806 0.12963374 0.061416514 0.23935683

fc1.bias f4 [512]
00000000: 5301 d6bc 00e3 9a3e 30dc 38be 1b03 6abe
00000010: ebfe bbbc ef32 43be 8a28 03be 82d6 98bd
00000020: fdb4 2abc d237 d1bd 1934 623c b726 a6bd
00000030: a28e f73d e882 9bbe 4439 993e 30ee 92bd
00000040: a1f8 0b3d 7f4f 97bd 2df4 59be 93d6 2ebd
00000050: 2f5d 483e c052 953d 98df 41be 7e63 89bd
00000060: 325e 2f3e 5462 623e f27e 4b3d ec09 28be
00000070: 71f8 6e3d 884d 573e b987 ac3d bf8a 8d3e
00000080: 286d 93bb 50d1 f03d 49ed 89be cebe 29be
00000090: 2a7e 58bd 05e2 253e 46f0 c6bd 72bd d2bc
000000a0: 2eb3 143e 065d 543e 8654 743a 2cf0 61be
000000b0: 5fb0 783d ab9d 11be 096a 1ebd 7115 0fbe
000000c0: 2f16 b93d ae17 e3bd 0958 953c 4832 76be
000000d0: ddac 6e3e 1c73 24be 5df5 85bd f1a9 17be
000000e0: 8da8 c73d 49c9 80be 6212 6bbe 07ba d9bd
000000f0: 842b 3fbe 2dbb fb3a 8941 833b 32b2 f73d
00000100: b703 0abe be59 f4bb dde2 2fbd e2f9 4e3b
00000110: d2ca 61bd 8397 403e 5b2e 063d 365b 1e3e
00000120: 6cf5 76bd 3dd5 5cbd 6d23 5abe ca48 cc3d
00000130: 9dd3 513d 5c3c a1bd d9e1 13be ec94 fa3d
00000140: f65d e73d 9f07 29be 1906 32bc c981 2b3e
00000150: dcf8 80be ef86 913d 3141 6b3d d4ba 6f3d
00000160: 2d60 8bbd 9e56 14be 953c 30be 9799 7e3e
00000170: 27ca 493e 24cd 98bc 92d9 6f3e 7dbb 9abe
00000180: e8c9 cdbd 2a65 573d 906d 10be a099 fabd
00000190: 96f3 193e 3fd8 223d 2467 adbb 16c6 4d3e
000001a0: 8f02 71bc 4186 d7bb 6375 ed3c 76ca b5bd
000001b0: 7edd 5f3d 108c 00be 939e 81be e754 88be
000001c0: cbfa 003d 65a1 a43d f966 b53d 3dbd 8c3d
000001d0: 7bca 433e 2307 6fbd 63a5 e2bd f405 a23e
000001e0: 6f37 94be 8dca d53c be67 b0bd 4251 5abd
000001f0: 4474 3d3e d2b8 ac3d da7c 82be 076a 8b3e
00000200: fd03 2d3d a280 293c 3ec7 1fbe 7ec5 3fbd
00000210: 8150 403e 536b 44bc 1d04 e0bd f949 1dbe
00000220: a044 743d ea97 b5bd 313e e93b a9c1 e63b
00000230: f4da f73d ff87 39be d986 bfbc 5cfd 93be
00000240: db10 86be 438b 343e a677 42bd 30af f6bd
00000250: c3b5 1c3d 2fec 80be 3c82 51be 79d7 653e
00000260: 1cb8 86bd f56f 0d3e 6d97 debd aad8 aebd
00000270: 4b5c 4a3e 6542 6cbc 90bc 5cbe 8e40 253e
00000280: 94e0 99be 666f c43d 9a50 a0be d787 12be
00000290: 21d1 b73d 2e72 88be 440b db3d 5b5a 043e
000002a0: 41fb 4b3d 6cf0 363e a5eb c6bd 2c66 fd3d
000002b0: 523d 4ebe d3e1 36be 3edf 8d3d 1eba eb3d
000002c0: 7803 5a3b d0eb 73bd 155f 79be acb5 a03e
000002d0: 6e6f 0fbe b313 32be fe82 c2bd 3664 873e
000002e0: 5e05 f0bd 5da2 cd3d c541 533d af63 873d
000002f0: 0532 55be a227 79bc f35b 99bc d8f8 7abe
00000300: 8dcc 57be b68c 90bd fb62 c63d c8aa 9bbc
00000310: 9267 9dbd 524b 89bd fa71 d0bd 48b3 40bc
00000320: a8d1 38be 7931 cbbd eb8c fa3c c217 fe3d
00000330: 81ef 9a3d b98c 5bbe 1086 babd e487 8abe
00000340: 4395 d43d 08a6 833d d1fe 75be 5893 fa3d
00000350: e4b2 7d3e 2a1f 37be 9aff 74be d480 54be
00000360: 4918 913e 2d81 03bd f1aa 86be f139 62bd
00000370: 7145 f53c 1f5a 823d af05 493e d1d3 95be
00000380: 2ddb 9fbe cdbe 55be 302c 59be d705 3f3d
00000390: de95 61be fcf2 1ebd c1eb e43b 978d 98bd
000003a0: 90f7 ffbd 3b27 063e 20b2 953b ea05 cc3d
000003b0: 6477 efbd 3b11 61bd 2028 22be 378a 44be
000003c0: fc18 8abe 8924 ed3d 4857 063e 67a0 9d3d
000003d0: 47bf 433e 234d 68be 8409 0e3e 48b2 b63b
000003e0: e1a9 203e 28d9 dcbd 546f 62be e901 58be
000003f0: 83a3 66be 1299 68be 935d 5cbd 5b00 8a3d
-0.026123678 0.30251312 -0.18052745 -0.22852747 -0.022948703 -0.19062398 -0.12808433 -0.07462789
-0.0104191275 -0.10215725 0.013806366 -0.08112853 0.12087752 -0.3037331 0.29926503 -0.07174337
0.034172658 -0.073882096 -0.21284552 -0.042685103 0.19566797 0.07291174 -0.1893295 -0.0670843
0.17125776 0.22107822 0.04968161 -0.16410035 0.0583424 0.2102567 0.084243245 0.27644917
-0.0044990964 0.11758673 -0.26938847 -0.16576692 -0.052854694 0.16199501 -0.09713797 -0.0257251
0.14521477 0.2073861 0.00093204563 -0.22064275 0.060715076 -0.14220302 -0.03867534 -0.13973023
0.09037434 -0.11088501 0.018230455 -0.24042618 0.2330813 -0.16059536 -0.0654094 -0.14810921
0.097489454 -0.25153568 -0.22956231 -0.10631185 -0.18668944 0.0019205563 0.004005615 0.12094535
-0.1347798 -0.007456987 -0.042940963 0.0031582047 -0.055125065 0.18807797 0.03275905 0.15464482
-0.060292646 -0.053914297 -0.21302576 0.09974821 0.0512272 -0.07872841 -0.14441623 0.12235436
0.112972185 -0.16506813 -0.010865712 0.16748728 -0.25189865 0.07105815 0.05743522 0.058527783
-0.068054534 -0.14486167 -0.1721061 0.24863277 0.19706021 -0.018652506 0.2342284 -0.30221167
-0.10048276 0.052586712 -0.14104295 -0.12236333 0.15034327 0.03975701 -0.0052918363 0.20095095
-0.014710083 -0.0065772836 0.028986638 -0.08876507 0.05465459 -0.1255343 -0.25316295 -0.26627275
0.031489175 0.08038596 0.08857531 0.06872032 0.19120209 -0.058356415 -0.11066701 0.31645167
-0.28948542 0.02609756 -0.08613537 -0.05330015 0.18501383 0.08433689 -0.2548588 0.2722933
0.04224013 0.01034561 -0.15603349 -0.046819203 0.1878071 -0.011988479 -0.109382845 -0.1536025
0.05963576 -0.08866866 0.0071180095 0.007042129 0.12102309 -0.18118285 -0.02337973 -0.28904235
-0.26184735 0.17631249 -0.047477387 -0.12045133 0.03825928 -0.25180194 -0.20459837 0.22445478
-0.06578085 0.1381224 -0.10868726 -0.08537419 0.1976177 -0.014420127 -0.21556306 0.16137907
-0.30054152 0.0959156 -0.31311494 -0.14309631 0.08975435 -0.26649612 0.10695508 0.12925093
0.04980016 0.17865151 -0.097129144 0.12373003 -0.2014058 -0.17859583 0.06927346 0.115101084
0.0033266228 -0.05955106 -0.24352677 0.31388605 -0.14007351 -0.17390327 -0.09497641 0.26443642
-0.11719774 0.10040734 0.051576395 0.0661081 -0.20819862 -0.015207203 -0.018720603 -0.24508989
-0.21074124 -0.070580885 0.09686848 -0.019002333 -0.0768577 -0.06703819 -0.10177989 -0.011761494
-0.18048728 -0.099215455 0.030584773 0.12406875 0.07565213 -0.214404 -0.09107602 -0.270568
0.10380032 0.06428152 -0.24022986 0.12235135 0.24775273 -0.17882982 -0.2392563 -0.20752269
0.2833884 -0.032105613 -0.26302293 -0.05523104 0.029940339 0.063648455 0.19631074 -0.29263166
-0.31221905 -0.20873566 -0.21208262 0.04663643 -0.22029826 -0.038805947 0.006986112 -0.07448881
-0.12498391 0.13100903 0.0045683533 0.099620655 -0.11692694 -0.054948073 -0.15835619 -0.1919335
-0.26972187 0.11579234 0.13119233 0.0769661 0.19115935 -0.22685675 0.13870817 0.005575452
0.15689804 -0.10783607 -0.22112781 -0.21094479 -0.22523312 -0.22714642 -0.053800177 0.06738349

fc2.weight f4 [256, 512]
00000000: 9591 da3c e28d 82bc 944f b7bc 2df7 a3bd
00000010: a9f4 2abd ed7f 10bc afec debd 1b15 63bd
00000020: d4a8 20bd e1bc 78bd 7b70 723d a46d 3fbb
00000030: c7cc 1e3c 02f3 443c 6498 74bc 2c1f 933c
00000040: 2545 49bd 3a3f 9f3c bf2f 9a3d 5bb2 ae3d
00000050: bdf7 a7bb 5b09 423b 0afb 47bd f927 d3bd
00000060: de4d 1e3d 5f10 e03b 7ad1 c03c 0a7c d13c
00000070: 8567 5d3c 2ee2 e33c 3642 1cbd f2bb fe3b
00000080: ee4b 3b3d cdd8 9fbd 5b90 b9bb 8cad 0fbd
00000090: 4d04 4bbc d934 003d 520f 25bd 559d 8dba
000000a0: d174 9c3d 623e 0fbe cdae c3bc 978b b2bc
000000b0: ea6d 88bc 0597 ddbb 9e33 213b 8e37 23bc
000000c0: edcf 4e3d d726 9ebd 6f93 6a39 8780 a4bb
000000d0: 03ad 44bd 55e9 90bd 1cb4 6bbd cb90 85bd
000000e0: 6560 42bc cd42 623d 9a62 54bb fedb 83bb
000000f0: fc98 11bd e64e 52bd dcd0 21bc 6ba9 473c
00000100: fd43 aebc bd15 b33c 370e abbc 390b c3bc
00000110: 170a 2cbd c130 d5bd c9e5 a6bd b5c9 9f3d
00000120: eea2 85bd 36ec 713c 86dc 743c ebf9 92bc
00000130: b057 463d 4286 1d3d 459f 133d 08af b5bb
00000140: c26f 8fbd 6778 53bd 8e9b 043c 32a5 3dbd
00000150: e770 afbc d7be 883d bd7f 203d 2b16 94bd
00000160: 7492 8fbd 06a2 90bd 4ce6 7abc 03e2 b43c
00000170: 2096 2cbd 2c6f 71bc e72a 893d 3d70 403b
00000180: bf82 d4bd 56ee 7c3c f5a1 90bd c71f bd3d
00000190: dc0f 71bd 237c af37 55b2 92bc c0ec d2bc
000001a0: e44a 203c 005d a93d 85cc 47bc 934d 13be
000001b0: 1b3c debd 3cc4 5abc 522f 48bc a26b 963c
000001c0: 4c63 72bb 635f 253c 0639 a2bc 627f 693c
000001d0: 0cc4 a1bb f917 c0bb 201a 703c be27 50bd
000001e0: 2da2 93bc 90e9 2bbd 2839 c6bc dbcf 683d
000001f0: 0240 03bd 03dd cf3c 8b38 bebb 7e4c bfbc
00000200: f1a3 763d c9ae 9fbd e087 a73d 7cad c0bb
00000210: 8cfa 893c 72c4 87ba a6cf 90bd 6bfc bf3d
00000220: 0f3d 71bc 9671 a33d e9ce d9bc 3503 153d
00000230: 31e0 c43b e2c2 0fbd 0f58 84bd 0b28 a8bd
00000240: 7ea2 a3bd 52a7 2b3c fc2d 53bb 1c7f 9ebd
00000250: ef1f a7bd a7ef 5a3c 4776 24bd c112 2fbd
00000260: 8de7 473d ebbb 37bd 0b4a c43a 8131 13bc
00000270: 4f59 71bc e92f e63c bc76 e7ba 7dd4 b53d
00000280: 4be0 ecbc 2e76 d7bc 76f7 f3bc 5703 70bd
00000290: 6087 c8bc 1eef fabc 4fff 6dba 1090 48bd
000002a0: 36f6 4a3d 1fed a63c 2d5a b1bd d866 29bd
000002b0: 6ba1 0abd 0baa 2abb 2f86 02bd d773 023d
000002c0: 2032 03bd 27cb edbd 74e4 e6bc d736 903c
000002d0: 8b8b 523c a799 16bd 7e74 663d 502a 49bd
000002e0: 75c4 433d adb2 963b 85e1 55bd f8bc 16bd
000002f0: 88c0 8b3b 9625 9dbc 44e4 f1bc b99b 843b
00000300: be4c bf3c 732f cb3c 78e4 26bd e750 01bc
00000310: cd4d 2fbd 6404 393c 39e8 0ebe c991 5dbd
00000320: 0b4d d2bb de7a 0fbc 1ce5 04bd 8709 04be
00000330: 3c69 023d be64 5dbd 9e0b 9bbc 82fb 0ebc
00000340: 6d30 7dbd afb2 b7bd bed4 2a3d 859b 1e3d
00000350: 5d72 47bd ae61 a53d 2dbd 663d a6f1 5abd
00000360: cb83 17bd b857 5f3a a882 ec3c 9cd3 e1bc
00000370: 3701 f8bb 0032 4f3d 8821 043d c33d 2a3d
00000380: b38a 15bd 5f3e 743d eff1 1e3d 82b5 f83c
00000390: 9ad6 39be 0f32 f63c b84e 5d3b d750 3bbd
000003a0: 95e8 6e3c e3a0 27bc 710b afbc a772 f7bc
000003b0: 6c3e d1bc 54ef a03c dd8b 7cbd 6185 5fbd
000003c0: 6ee3 3ebc 6f58 ca3c c166 573c bcd4 f33b
000003d0: df38 72bb 58ce 0dbc 0a5c bfbb fc42 a63c
000003e0: f835 253d e0f5 8dbc 37de 1d3d 1644 3ebd
000003f0: dc44 47bc 3c54 20ba 892e ecbc 1b55 3bbd
0.026680747 -0.015936796 -0.022376813 -0.080061294 -0.041737232 -0.008819562 -0.108849876 -0.05544005
-0.039223507 -0.060727004 0.0591893 -0.0029209638 0.009692377 0.012020828 -0.014928911 0.0179592
-0.049138207 0.019439328 0.07528638 0.08530112 -0.0051259683 0.0029607627 -0.048823394 -0.103103586
0.03864848 0.006837889 0.023537386 0.025571842 0.0135134505 0.027817812 -0.03814908 0.0077738697
0.04572671 -0.07805023 -0.0056629605 -0.035077617 -0.012391162 0.0313004 -0.040297814 -0.0010804335
0.076394685 -0.13988641 -0.023887062 -0.021795077 -0.016653974 -0.0067623877 0.0024597417 -0.009961976
0.050491262 -0.07722252 0.00022370902 -0.0050202045 -0.04801656 -0.070757546 -0.057544813 -0.06521758
-0.011863803 0.055239487 -0.0032407404 -0.004024028 -0.035546288 -0.051344775 -0.009876456 0.0121863885
-0.021272654 0.021860952 -0.020880802 -0.023809062 -0.04200181 -0.1040969 -0.08149297 0.078021444
-0.06525217 0.01476579 0.014945155 -0.017941436 0.04842347 0.038458116 0.036040563 -0.005544547
-0.07003738 -0.051628496 0.008093728 -0.04630012 -0.02141614 0.06677025 0.03918432 -0.07230791
-0.070103556 -0.070621535 -0.015313696 0.022080427 -0.042135358 -0.014735978 0.06697636 0.0029363774
-0.103765 0.015437683 -0.07062141 0.09234577 -0.058853015 2.0919431e-05 -0.017907301 -0.025747657
0.00978348 0.082696915 -0.012194757 -0.14385061 -0.10851308 -0.01335245 -0.012218313 0.01836187
-0.0036985455 0.010093543 -0.019802582 0.014251562 -0.0049367007 -0.0058622328 0.014654666 -0.05081915
-0.018021667 -0.04197079 -0.024197176 0.05683885 -0.032043464 0.025373941 -0.0058050803 -0.023351904
0.06021494 -0.077970095 0.08180213 -0.005880056 0.016843103 -0.0010358228 -0.07070856 0.09374317
-0.01472403 0.07980649 -0.02658792 0.03638001 0.006008171 -0.035097964 -0.06462108 -0.082107626
-0.07989977 0.010476904 -0.0032223454 -0.07739088 -0.08160388 0.013362802 -0.04015186 -0.042742494
0.04880481 -0.044856947 0.001497568 -0.008983971 -0.0147307655 0.028099017 -0.0017659287 0.088784195
-0.028915545 -0.02630147 -0.029781085 -0.058596935 -0.024478614 -0.030631598 -0.00090788765 -0.048965514
0.04955121 0.02037674 -0.08659778 -0.041357845 -0.033845346 -0.0026041295 -0.03186625 0.031848755
-0.032030225 -0.11611014 -0.028185107 0.017604275 0.012850652 -0.036767628 0.05626344 -0.049112618
0.047794778 0.0045989365 -0.052217025 -0.03680131 0.004264895 -0.019182961 -0.02952779 0.004046884
0.023352023 0.024802899 -0.04074523 -0.007892824 -0.042798806 0.011292551 -0.13955773 -0.05409411
-0.0064178756 -0.008757321 -0.03244506 -0.1289426 0.03183864 -0.054051153 -0.018926438 -0.008726956
-0.06181376 -0.08969628 0.041706793 0.038722534 -0.04869305 0.080752715 0.056332756 -0.05345311
-0.036990922 0.0008519846 0.028870896 -0.027566724 -0.007568504 0.050584793 0.03225854 0.041562807
-0.036509227 0.059629794 0.038804945 0.030359987 -0.1814827 0.030053167 0.0033768844 -0.04573139
0.014581819 -0.0102312295 -0.02136776 -0.030206038 -0.02554246 0.01964537 -0.06165682 -0.05457056
-0.011650903 0.024700372 0.013147057 0.0074411314 -0.0036960167 -0.008655153 -0.0058398293 0.020295613
0.04033467 -0.017329156 0.038542 -0.04645165 -0.012162413 -0.00061160675 -0.028830783 -0.04573546

fc2.bias f4 [256]
00000000: 4531 d83c 5ed4 073c 07b7 fbbc c621 5c3e
00000010: bf27 2d3b 8973 273e b345 08ba 60a5 f63c
00000020: 2ddf 8abc 056b 2b3c da1f c0bc b0f5 393c
00000030: c276 0d3e d406 04bd beff 99bc 4c78 993a
00000040: b60b 633e 5a67 5d3d 552d 90bd cd0a 933d
00000050: 17da 1e3d 5599 503c 105c d5bc 4b17 d4bc
00000060: d198 083c 3512 7abd 0b6f ffbc 22ec 35bd
00000070: 8330 5c3c 5c45 7cbd feb0 dcbc e9a7 7eba
00000080: dd8e 693e 2668 313e fb7c e1bd 57bd 5b3d
00000090: 30a3 263e fc6e 93bc 60b6 2fbc 77c1 7dbd
000000a0: 694e f63b de57 55bd a08a 253d 7258 b73b
000000b0: 36af dbbc 85c9 66bd d438 233e 5464 3ebd
000000c0: 8075 32bd bef6 88bd ccc0 29bd 08a9 17bd
000000d0: a4b1 f7bc 09db 863d 88b2 d7bc 742b 7ebd
000000e0: bf0e 74bd 25f1 c0bc 3f9e 913d ce58 523c
000000f0: 8cf2 f13d 9a33 2d3d 923f 05be 1faa 0b3d
00000100: 7909 b2bd 2603 7ebd d23e 463d 3bf6 81bc
00000110: 98cb 90bb bc92 c33d b710 11bd 9249 02bd
00000120: a52d 9a3c 825a 37bd 9d15 eeba f39b 2b3d
00000130: cf9f d9bc 3ac3 e5bd c0a9 d9bc f6db 7ebd
00000140: 85e8 92bc f385 873c d397 5a3a e3fb 32bc
00000150: 7556 1abe 297b 15bc df3c e53d 5d0c 5cbd
00000160: ea1d 5ebd dded 90bd 96c6 003e 6b33 913c
00000170: fd47 23bd c903 60bb 3967 eabd d16a dcbc
00000180: 573a 4bbd fb44 143c 2aff febc b180 12bd
00000190: f92a 6fbb e80e cabc 8df6 c53c c246 9fbc
000001a0: 3826 debc ddc9 e7bc 2abc 293d a7cb a7bd
000001b0: 8656 0abd cb09 623b de0c 0ebd 5013 353d
000001c0: 9520 cfbc bdb2 8dbc cbae 56bd 85eb df3c
000001d0: 9034 c5bc f95f 203e 30bf 843b b7fc 9c3b
000001e0: ea2b 263d 598f b93b 0163 31bc 65e3 24bd
000001f0: bc97 b6b9 a1c0 bdbd 025e 3bbd 5f28 8dbd
00000200: f1b3 9d3c 506f 84bc 3b13 b83d 0b59 0fbc
00000210: ecc1 743c e036 013e cae2 0d3e f855 853d
00000220: 78ea edbc 8fc1 66bd e2c4 d73d ed63 ed3c
00000230: 3c72 77bd 9b3c 223d c1b8 643d c327 97bc
00000240: f114 58bc 822a 76bd 56c3 2c3d 186b 4c3b
00000250: 0dfd 71bd 2b8a a3bb 9428 4fbd 0af0 1abd
00000260: 9e08 d4bd 1c27 c1bd c839 f0bd 728b 98bd
00000270: 1281 b03b 8368 9d3d c06e febb b2bd d03d
00000280: ddae b63d 803e 013c 31da 5d3d 7e2c 82bd
00000290: e9e1 afbc 8953 7c3c f201 3fbd 969c 843d
000002a0: 9ae1 b93c b706 143e 09a3 44bd cb18 853a
000002b0: 490c 5bbd 5092 dfb9 672f f6bd 5dee 1d3e
000002c0: eb28 cb3d cdef 113e db1d 64bd 7a87 1a3d
000002d0: 5ec1 99bd 49b9 74bd 1063 ac3c ad87 8bbb
000002e0: bcb3 74bc 8989 46bd e6bf 0c3d eeb8 983c
000002f0: 6511 91bb d95c 5fbd 3120 b93d dff4 e8bc
00000300: 1259 2abd fead da3b 474d 883c 2b49 85bd
00000310: 18a6 5ebd 5f3f eebc d991 8a3d 54cd 513d
00000320: f204 5d3d 8918 70bd 6361 77bc 54e1 c8bd
00000330: 36c1 0fbd 3e2a c9bb 3500 06bd 88e5 793d
00000340: 8dca c03d a9d8 93bb 3e22 c33b 3392 773c
00000350: 7adb 8abd d9d6 0a3e d6ca e0bc e7c6 66bd
00000360: 4553 67bc 9da6 a33d 3337 d0bd 7ace 68bc
00000370: bfad 0fbe fcd5 c0bc e402 cf3d 2a74 b13a
00000380: d42e 093e ef66 96bb 51aa aebd bffb ec3c
00000390: bd36 dabb 4f74 113d 8905 853b bdf0 87bd
000003a0: da6d 3bbd 4131 3a3d 7a87 2cbd 5380 c9bc
000003b0: 6526 dc3c 2edb 223d 3fff e239 fc39 9ebd
000003c0: fab4 1f3e 23b7 f13d d250 e2bd 1bb4 26bc
000003d0: da9d fd3d a54e 5cbc 2475 e73d ca81 fe3d
000003e0: ccfb 8abd 196e ec3c 77ad aabb 6c72 773d
000003f0: f019 76bd a7db 353d 0fa8 a7bd d28a 2cbc
0.026390681 0.008290378 -0.030726923 0.21497259 0.0026421396 0.16352667 -0.0005198374 0.030108154
-0.016952122 0.010462527 -0.023452688 0.01135008 0.13814834 -0.032233074 -0.018798705 0.0011708825
0.22172436 0.05405364 -0.070398964 0.071797945 0.038782205 0.01273187 -0.026044875 -0.025890013
0.0083372155 -0.06105252 -0.03118088 -0.044414647 0.0134393005 -0.061589584 -0.026939865 -0.00097143516
0.22808404 0.17324886 -0.11010166 0.053647365 0.16273189 -0.017997257 -0.010724634 -0.06195208
0.0075166714 -0.05208575 0.040415406 0.0055952603 -0.026816946 -0.056344528 0.15939647 -0.0464824
-0.043569088 -0.06687687 -0.04144363 -0.037026435 -0.030236073 0.065847464 -0.026330248 -0.06205316
-0.059584375 -0.023552487 0.07110261 0.0128385555 0.1181384 0.04228554 -0.13012531 0.034097787
-0.08693213 -0.06201472 0.048399754 -0.015864482 -0.0044188015 0.09549472 -0.03541633 -0.031808443
0.018820593 -0.04476405 -0.00181644 0.04189677 -0.02656546 -0.11218877 -0.0265702 -0.06222149
-0.01793314 0.016543364 0.00083386636 -0.010924312 -0.15072043 -0.009123602 0.11193251 -0.053722728
-0.054227747 -0.07076619 0.12575755 0.017724713 -0.039863575 -0.0034181944 -0.114454694 -0.026906403
-0.049616184 0.009049649 -0.031127531 -0.03576726 -0.003649412 -0.024665311 0.024165416 -0.01944292
-0.027117833 -0.028294498 0.041439213 -0.081931405 -0.03377392 0.00344907 -0.03468024 0.04420787
-0.025284091 -0.017297143 -0.05241279 0.027333984 -0.024072915 0.1566161 0.0040511116 0.004790868
0.040569223 0.0056628403 -0.010826827 -0.040255923 -0.00034826796 -0.09265257 -0.04574395 -0.06892466
0.019250842 -0.01616636 0.08988043 -0.008749257 0.014938813 0.1261859 0.13856044 0.06510538
-0.029042467 -0.056336936 0.10535599 0.028978312 -0.060411677 0.03960858 0.055840258 -0.018451577
-0.013188587 -0.060099132 0.042178474 0.0031191763 -0.05907922 -0.004990836 -0.050575808 -0.037826575
-0.10353206 -0.09431288 -0.11729771 -0.07448472 0.00538648 0.0768595 -0.0077646673 0.101924315
0.08920071 0.007888436 0.05416316 -0.063561425 -0.021470027 0.015400776 -0.046632715 0.06475179
0.022690583 0.14455687 -0.048007045 0.0010154484 -0.053478513 -0.00042642886 -0.1202076 0.1542296
0.09919914 0.14251633 -0.055692535 0.037726857 -0.07507585 -0.059747014 0.02104333 -0.004258117
-0.01493543 -0.048471007 0.034362696 0.018642869 -0.0044271224 -0.054531906 0.09039343 -0.028437076
-0.04158885 0.0066735735 0.016638411 -0.06508096 -0.054357618 -0.029082952 0.067660995 0.051221207
0.053959794 -0.05861715 -0.015098902 -0.09808603 -0.03509637 -0.006139069 -0.03271504 0.061009914
0.094136335 -0.004511912 0.0059550097 0.01511054 -0.06780143 0.1355852 -0.02744047 -0.05634203
-0.014118974 0.07990763 -0.101667784 -0.014209384 -0.14031123 -0.023539536 0.10107973 0.0013538648
0.1339677 -0.0045899074 -0.08528579 0.028928636 -0.0066593573 0.03551131 0.0040594977 -0.06637714
-0.04575906 0.04545713 -0.042121388 -0.024597323 0.026873777 0.039759807 0.00043296252 -0.077259034
0.15596381 0.11802509 -0.110505715 -0.010174776 0.123836234 -0.013446485 0.1130164 0.12427099
-0.06786308 0.028861092 -0.005208667 0.060411856 -0.06008333 0.04439893 -0.081863515 -0.010531144

fc3.weight f4 [2, 256]
00000000: 805c e43c 1b19 46bb 7906 ecbc 5e1c 703d
00000010: d485 bd3d 7a00 303c 14a5 673b 97f6 14bd
00000020: b6b6 8f3d d25f 613d ab56 6ebd 0f25 9fbc
00000030: 8e67 8abd 447a 9bbd 9b9f 803d 8bb6 60bd
00000040: e21d 92bc b4d1 373d 3869 03be a9ea 733d
00000050: b111 843d 7460 953d bdb8 eabb fb8e 2f3d
00000060: c650 a33b 5712 02bd 0e12 143c 00ec 40bd
00000070: 2141 143c 9448 17bd d5b9 12bd 1eb1 ee3c
00000080: 1fad 8e3d e93f 1b3d 0008 2ebe c9ee 513d
00000090: 0940 803d 2659 82bd 676b f23d 2d10 833b
000000a0: 4b4a 1f3c bff3 60bd 0b97 f33c 5c75 d53d
000000b0: 04eb d5bc 2c14 6fbc 4a6c 8fbd 43f4 98bd
000000c0: fb2a 17bc 7eb8 82bc e7b4 76bd d0b5 09bd
000000d0: c3dd 993c 1f21 513d 25c7 07bd c7ba 44bd
000000e0: 951e a73c a61b 523c 5949 603d e48d adbc
000000f0: eac9 103d 07de 853d cce8 89bd f6ef cc3b
00000100: 5eda 2fbd 9b65 e4bc 8a15 a33d a9e2 ab3d
00000110: 0a86 1c3b 4666 4e38 bc2b f5bc 14b7 0dbd
00000120: 5d61 b93d 83f0 a5ba 1a4c a73c f8bc 113e
00000130: 5cf6 b2bb 1a1d 063d 05dc 1dbd 22fb 2cbb
00000140: ff5c e7bc 9a63 c1bc 80fc eb3b 4f90 9abd
00000150: eb77 00be 45c8 8dbd cf23 82bb 68c2 e0bb
00000160: 3da1 72bd 3345 c4ba 1158 383d d9d8 973d
00000170: 374e ca3c fdb2 3f3d 8b0d c4bd 750b 29bd
00000180: e424 30bd 95c3 283e fbb8 5ebc 5bbb dd3c
00000190: d5ff 00bd 9850 5bbd 5384 7d3c fb31 6ebc
000001a0: 0e07 083d 43a4 ac3c adb6 fcbc 54b4 bbbd
000001b0: 13b8 b1bb 3c47 8c3d 3222 edbb 7ec2 e93d
000001c0: 38f1 7bbc 6e2c a7bd 757b 57bd 328c 1a3d
000001d0: a1be 8c3d 7cf3 043c 99e7 aa3b 9173 a13d
000001e0: b9cd 86bd 9de7 2ebd a42f 16bc b7c6 82bc
000001f0: 3a1c 88bd b031 32bb 6c26 b1bc e474 b93c
00000200: 6c1f 82bd c418 583d 8a21 da3c 708b a4bc
00000210: 5edb 223e b12a 51bc f784 4a3d 9ff9 043e
00000220: ce0e 553d d9cd babb 780b d4bc faed 81bb
00000230: ea1c 30bd 8d4a 3a3d ff4a ca3d 8cb0 a73c
00000240: 358f 33bd 0391 babc 580b 343e 941e 153c
00000250: 5f91 61bd 3c21 703e b7a0 64bd dda0 21bd
00000260: 6d13 65bd 2f64 803c 7ecd 873b e03e 62bd
00000270: d0bb 2fbd 75aa 09bd edde c63d df84 79bb
00000280: 9497 893c 7371 60bd 47de 033d 1430 17bd
00000290: 67a5 2f3c a9e2 02bd 447c 813d 1a6d adbc
000002a0: 7f78 7ebd b9fa ba3d b318 30bd b6b8 633d
000002b0: af5a 013d 5450 8a3d 1ccc 04bd 7718 a9bd
000002c0: 7b46 06bd dee0 f1bb 3aa1 72bd c8ca 47bd
000002d0: 8d67 ec3c 48ee fbbb c6bc 35bd f192 62bc
000002e0: 18cd 6ebd 2ce2 3dbc 2b1a 123d 1044 993d
000002f0: d083 1bbd 806f a8bd 90f4 4c3d 9aed adbc
00000300: d06a 983d 2c8f 613d 5fb6 03bd 8f64 5ebd
00000310: 3cd4 573d 2c02 2f3d e21e 7bbd ddb4 e2bc
00000320: 3c3e 613d 14fc 45bd 7c2b b3bd 67ec b4bd
00000330: 0b15 e6bb 451c 72b9 f9af fa3c 6058 d93d
00000340: 7272 203d 0959 5ebd b599 f93c 97a9 bb3c
00000350: db2e 88bd 9dde 99bc e3bb 88bc 2bff 14bd
00000360: 9e35 4b3d 9b87 633d 9c4b b43d 667b 0b3e
00000370: 5755 9d3d 3a6a 9cbd 5c22 073d c53c 82bc
00000380: 8e5a 133d 9283 38bd 803a 7cbd cb12 b0bd
00000390: c536 50bd fb9a 673b ee19 b03d 8263 30bd
000003a0: eb37 adbc 8035 9b3d a8d4 77bd ad0c 5abd
000003b0: da74 333d 09b5 6bbd 7fd0 83bb ccff f83c
000003c0: 725f 8a3b 43dd 52bd 8774 e5bd b345 9aba
000003d0: ebb7 8dbd 4ba5 293c 3347 833d 1d54 963d
000003e0: 2826 7bbd 6932 a53c d598 7f3d 63f8 6d3d
000003f0: 01d6 83bc 4649 673d 85a6 7d3d f2c1 c0bd
0.027876139 -0.0030227366 -0.02881168 0.058620803 0.09254041 0.010742301 0.0035346197 -0.03636798
0.07017271 0.055023022 -0.05818812 -0.01942685 -0.06758033 -0.0759168 0.06280442 -0.054861587
-0.017836515 0.044877723 -0.12833107 0.05954996 0.06448687 0.072937876 -0.007163136 0.042860966
0.004983994 -0.03175577 0.009037508 -0.047100067 0.009048731 -0.03693445 -0.035821754 0.02913719
0.06966614 0.037902746 -0.1699524 0.051253114 0.06262214 -0.0636466 0.118368916 0.003999731
0.009722303 -0.054919954 0.029735109 0.10422775 -0.02611304 -0.014592212 -0.070030764 -0.07468464
-0.009226556 -0.015957113 -0.060231116 -0.033620656 0.018782502 0.051056977 -0.033148903 -0.048029687
0.020400325 0.012823975 0.05475745 -0.021185823 0.03534881 0.06536489 -0.067338556 0.0062541915
-0.04293286 -0.02788048 0.079630926 0.08392841 0.0023883604 4.9209477e-05 -0.02992808 -0.034598425
0.09051774 -0.0012660179 0.02042203 0.14232242 -0.005461497 0.032742597 -0.038539905 -0.0026394804
-0.028242586 -0.023607064 0.007201731 -0.07547056 -0.12545745 -0.06922964 -0.003971554 -0.0068591125
-0.0592358 -0.0014974236 0.04500586 0.07414407 0.024695499 0.046801556 -0.095728956 -0.041270692
-0.04300393 0.16480859 -0.0135939075 0.027066877 -0.03149398 -0.053543657 0.015473443 -0.014538283
0.033209853 0.02107442 -0.030848825 -0.09165254 -0.0054235547 0.068495244 -0.0072367424 0.114140496
-0.015377335 -0.08162771 -0.052607972 0.037731357 0.06872297 0.008114692 0.005215597 0.07883371
-0.06582207 -0.042701352 -0.009166632 -0.015963895 -0.06646009 -0.002719026 -0.021624766 0.022638746
-0.063536495 0.052757993 0.02662732 -0.02008602 0.15903994 -0.012766526 0.04944321 0.12985848
0.052016072 -0.0057008085 -0.025884375 -0.0039651366 -0.042996325 0.045481253 0.098775856 0.020469926
-0.043837745 -0.022774225 0.17582452 0.009101529 -0.055070277 0.23450178 -0.055817332 -0.03946005
-0.05592673 0.015672771 0.0041443696 -0.055235744 -0.04290372 -0.033609826 0.097104885 -0.0038073582
0.01679591 -0.054795694 0.032194402 -0.036911085 0.010720587 -0.03195444 0.0632253 -0.021170188
-0.062126633 0.09129853 -0.042992305 0.055596076 0.031580623 0.067536026 -0.032421216 -0.082566194
-0.03278206 -0.0073815426 -0.05923579 -0.04877737 0.02885797 -0.0076883174 -0.04436948 -0.013828979
-0.05830106 -0.011589568 0.035669487 0.07483685 -0.037967503 -0.08224392 0.05003792 -0.021231461
0.07442248 0.05506818 -0.032156345 -0.05429512 0.052692637 0.04272668 -0.06130875 -0.027674133
0.054990992 -0.048336104 -0.08748528 -0.08834153 -0.0070215515 -0.0002308945 0.030601488 0.10612559
0.039171644 -0.05428413 0.030468801 0.022908015 -0.06649562 -0.018782908 -0.016691154 -0.03637616
0.04961168 0.055549245 0.08803484 0.13621292 0.07682293 -0.076374486 0.032991752 -0.015898118
0.03597503 -0.04504735 -0.061579227 -0.085973345 -0.050833482 0.0035340178 0.08598696 -0.043063648
-0.021144828 0.07578564 -0.06050554 -0.053234745 0.04381261 -0.057545695 -0.0040226574 0.030395411
0.0042228037 -0.051480543 -0.112038665 -0.001177004 -0.06919845 0.01035435 0.064100645 0.07340262
-0.061315686 0.020165639 0.06240161 0.05809821 -0.016093256 0.056466363 0.061926384 -0.09411992

fc3.bias f4 [2]
00000000: 534e f1bc eda3 303e
-0.029456293 0.17250033

norm.weight f4 [28]
00000000: 307c 693f 4cdb 753f 1955 7b3f c7e6 763f
00000010: 29da 7d3f c2ac 7a3f f578 5d3f 5460 663f
00000020: 0bd1 773f ba23 5e3f 2eb2 603f 8e34 763f
00000030: 55e0 673f 903a 703f fcc2 743f 74bb 693f
00000040: ef07 673f c93e 633f 3dd1 683f 1eef 653f
00000050: 38b8 6a3f bc9f 7f3f 88c4 673f 8036 653f
00000060: 44b4 8e3f 05c4 8c3f 6c9a 8d3f 6a3a 513f
0.9120512 0.96037745 0.98176724 0.9644589 0.9916101 0.9791986 0.8651269 0.89990735
0.9680335 0.86773264 0.8777188 0.9617394 0.9057668 0.9383936 0.9561002 0.91301656
0.9024648 0.8876768 0.9094427 0.8981799 0.91687346 0.9985311 0.9053426 0.89536285
1.1148763 1.099732 1.1062751 0.8172976

norm.bias f4 [28]
00000000: 0058 083d 6deb c13c 05ec f63c 9710 c63d
00000010: 1e14 143d 0f97 513d ff67 9b3c 09ec afbc
00000020: 2dc7 8b3d 446c 81bc cc77 3bbd 8a24 2abd
00000030: 07ea 81bc c06d 00ba 207e 643d d73a 973d
00000040: fa83 8e3d b319 c13d 2f81 9e3d 5e25 153d
00000050: 54ba 433d 18c3 963d 8955 ac3c ef5a 813d
00000060: 2a81 623a 7db4 2d3d fee1 dd3d 025a cb3c
0.03328705 0.02367183 0.03014184 0.09671133 0.036151998 0.05116945 0.018970488 -0.021474855
0.06825099 -0.015798695 -0.045768544 -0.041538753 -0.015858663 -0.00048991665 0.055784345 0.0738427
0.06958766 0.0942873 0.077394836 0.03641259 0.04778512 0.0736143 0.02103688 0.06316172
0.0008640463 0.042408455 0.1083412 0.024823193

norm.running_mean f4 [28]
00000000: 0abd a43f 53d0 a33f 5c51 ab3f 0b03 bf3f
00000010: 3398 c93f f411 d03f c550 d63f 60b1 dc3f
00000020: 01a0 ec3f dbf1 ec3f 0f6e f03f 5bc4 f53f
00000030: 7d98 f63f a9c6 ef3f 512d f33f a6c9 ed3f
00000040: a2c9 f33f 19bb f03f 622e de3f 53ef d93f
00000050: 0076 d03f 74a5 bd3f 1847 ac3f c5dd a43f
00000060: d3eb 6fbd 6503 d33f 7d8e f93e f981 3641
1.287019 1.279795 1.3384204 1.4922804 1.5749573 1.6255479 1.6743399 1.724163
1.8486329 1.8511308 1.8783587 1.9200548 1.9265286 1.8732501 1.8998204 1.8577163
1.9045908 1.8807098 1.7357905 1.7026161 1.6286011 1.4816117 1.3459196 1.2880179
-0.05857451 1.6485411 0.48741522 11.406732

norm.running_var f4 [28]
00000000: 5f2a 283f 2a05 273f 18d2 313f 982b 473f
00000010: c146 493f 3a2e 3b3f 4e68 343f 213c 383f
00000020: ee17 483f 25b2 473f 6ef1 573f c7c1 663f
00000030: 3dbd 5c3f c07d 523f d009 383f 107e 383f
00000040: 57f7 3c3f 7a27 443f 8c27 3e3f da0a 513f
00000050: 8b16 673f eb19 3c3f 3d56 383f 1812 283f
00000060: f3d3 5d40 8d81 c93e 0b61 0f3d 6783 6f42
0.65689653 0.65242255 0.694612 0.77800894 0.78623587 0.7311741 0.70471656 0.7196675
0.78161514 0.780062 0.8435277 0.9013943 0.86226255 0.8222313 0.7188997 0.72067356
0.7381491 0.76622736 0.74279094 0.81657183 0.9026877 0.7347705 0.7200659 0.6565261
3.4660614 0.39356652 0.035004657 59.878323
