turtlebot3_ddpg/save_model_ddpg/2020_12_02-07_05_34/stage_1_2150_critic.pth (torch_old, 590521 bytes, 13 tensors)

fc1.weight f4 [512, 28]
0	0xbe4f7870	-0.20260787
1	0xbe17480f	-0.14773582
2	0x3e01f47a	0.12690917
3	0xbcec4958	-0.028843567
4	0xbe4bc16a	-0.19898
5	0x3d4b4ec9	0.049635682
6	0x3d8c56ee	0.06852518
7	0x3e21bdf2	0.15795115
8	0xbe889d3f	-0.2668247
9	0x3cc45f2e	0.023971166
10	0xbd877b58	-0.06615323
11	0xbe51b034	-0.20477372
12	0xbe21a9d4	-0.1578744
13	0xbeb21f08	-0.347893
14	0xbdfee4f6	-0.124460146
15	0xbd8adf35	-0.067808546
16	0xbe88cd6c	-0.26719224
17	0x3ded5116	0.115877315
18	0xbcf00c58	-0.029302761
19	0x3c2cb826	0.010541951
20	0x3e15f5ca	0.14644542
21	0xbe64ad68	-0.22331774
22	0xbe479fcb	-0.1949455
23	0xbdf50042	-0.1196294
24	0xbdc30127	-0.09521704
25	0xbe394518	-0.18092763
26	0xbedf576a	-0.4362138
27	0x3bfbb884	0.007681908
28	0x3e36c196	0.17847285
29	0x3e8aa8fa	0.27082044
30	0xbe7568a9	-0.23965706
31	0xbe93de53	-0.28880557
32	0xbe8fd852	-0.28094727
33	0xbe1cbb06	-0.15305719
34	0xbe8ab216	-0.27088994
35	0xbe5102a6	-0.20411167
36	0xbdb7ee2e	-0.08980976
37	0xbd592733	-0.0530159
38	0xbd70a010	-0.058746397
39	0xbcad502f	-0.021156399
40	0xbdc6af5b	-0.09701415
41	0xbd816b89	-0.06319339
42	0x3d3ea3ab	0.046542805
43	0xbd9fcdff	-0.078029625
44	0xbe1dd2ef	-0.15412496
45	0xbe88f580	-0.26749802
46	0xbe278730	-0.16360164
47	0xbd4ab53e	-0.049489252
48	0xbe7c5657	-0.24642311
49	0xbddfd11e	-0.10928558
50	0x3ebb6dbb	0.36607155
51	0x3e2aed02	0.16691974
52	0xbe0359f4	-0.12827283
53	0xbe0f55f4	-0.13997632
54	0xbe9f80b1	-0.3115287
55	0x3d82871c	0.06373426
56	0x3e096e68	0.13421023
57	0xbea84ceb	-0.32871184
58	0xbb3b5b3d	-0.0028588318
59	0xbe446925	-0.19180734
60	0x3dfcee62	0.123501554
61	0x3e2ea884	0.17056471
62	0x3db7f032	0.089813605
63	0xbcb2836c	-0.021791182
64	0xbdc0fead	-0.094235756
65	0x3e1bc16e	0.15210506
66	0xbd859845	-0.06523184
67	0x3e4727aa	0.19448724
68	0x3dd8ffdf	0.105956785
69	0x3e8814b1	0.26578286
70	0x3dfffc8e	0.12499343
71	0x3d4853e0	0.048908114
72	0x3c563880	0.013074994
73	0x3cc566cb	0.024096867
74	0xbdefaae4	-0.11702517
75	0xbdeb86d0	-0.11500323
76	0xbdefe64b	-0.11713847
77	0xbcad390f	-0.021145372
78	0xbd31d32a	-0.043414272
79	0x3d09cd4e	0.03364306
80	0x3e11908f	0.14215301
81	0xbe3d6c65	-0.1849838
82	0xbe9f6ffb	-0.31140122
83	0xbea9310e	-0.33045238
84	0x3d6fd556	0.058553062
85	0xbeca9b48	-0.39571595
86	0xbe872243	-0.26393327
87	0xbe742e15	-0.23845704
88	0xbe299aea	-0.16563001
89	0x3d02850c	0.031865165
90	0xbe0031a7	-0.12518941
91	0xbe60fc2b	-0.21971194
92	0xbe0c5a90	-0.13706422
93	0x3e1f8dec	0.15581483
94	0xbe16d375	-0.14729102
95	0x3df47af9	0.11937518
96	0xbd980935	-0.07423631
97	0xbbfbd527	-0.007685322
98	0x3deecafe	0.116598114
99	0xbd0e41b0	-0.034730613
100	0x3d35adf4	0.044355348
101	0xbd63191e	-0.055443875
102	0x3d11c83b	0.035591345
103	0x371976cd	9.147171e-06
104	0xbe82e46f	-0.25564906
105	0xbe856daa	-0.2606023
106	0xbe5d1e68	-0.2159363
107	0x3e5e7bd1	0.2172692
108	0xbe3df884	-0.18551832
109	0x3c8070b4	0.015678741
110	0xbec12497	-0.37723228
111	0x3dee7cee	0.11644922
112	0x3bc9c5f3	0.0061576306
113	0xbe731a70	-0.23740554
114	0xbe83aabb	-0.25716195
115	0x3e29be33	0.16576461
116	0xbe073cd1	-0.13206793
117	0xbd9917a8	-0.07475215
118	0xbe9cf1d0	-0.30653238
119	0xbe728a31	-0.23685528
120	0xbe4f4a36	-0.20243153
121	0x3d2066d0	0.03916055
122	0x3e56c111	0.20972086
123	0x3dfa7149	0.12228639
124	0x3cc840de	0.024444994
125	0x3e4dfdd2	0.20116356
126	0x3ee3a995	0.44465318
127	0xbe3f046d	-0.18654032
128	0x3e521513	0.20515852
129	0x3ca5e182	0.020249132
130	0x3e46e464	0.19423062
131	0xbe3fad19	-0.18718375
132	0x3e13603c	0.14392179
133	0x3dcef840	0.10105944
134	0xbe3f451c	-0.18678707
135	0xbe6bda5f	-0.2303252
136	0xbe0bf4cb	-0.136676
137	0x3e443210	0.19159722
138	0x3d6dd11d	0.058060754
139	0xbd805e3f	-0.06267976
140	0x3d4aafaf	0.04948395
141	0x3e7b9abc	0.24570745
142	0x3e86cfb9	0.26330355
143	0xbc22f0f6	-0.009945145
144	0x3ea6446f	0.32474086
145	0x3e922d93	0.28550395
146	0x3df24cde	0.118310675
147	0xbe97757f	-0.2958183
148	0xbe2079aa	-0.15671411
149	0xbe35f718	-0.1777004
150	0x3e399ac2	0.18125442
151	0xbe0a319e	-0.1349549
152	0xbdf3afcd	-0.11898766
153	0xbd61e752	-0.055152245
154	0xbe009b60	-0.12559271
155	0xbe9d1b26	-0.30684775
156	0xbe4fbe2e	-0.20287392
157	0xbc5bf164	-0.013424251
158	0xbe4e1c84	-0.20128065
159	0xbe61e051	-0.22058226
160	0xbd042825	-0.032264847
161	0x3c8c2171	0.01710579
162	0xbd28ffe3	-0.041259658
163	0x3e6a6dbe	0.22893426
164	0x3d2273d1	0.039661232
165	0xbde902b6	-0.1137747
166	0x3ee817fd	0.45330802
167	0xbe074c80	-0.13212776
168	0xbe2dd0ff	-0.16974257
169	0xbd8044ab	-0.062630974
170	0xbd4bd224	-0.049760953
171	0x3e76ad74	0.24089605
172	0x3d84d1c3	0.064853214
173	0x3d7271af	0.05919045
174	0xbd0cc789	-0.03436998
175	0xbd846eba	-0.06466432
176	0x3e0231f8	0.12714374
177	0x3d4c9fab	0.04995696
178	0x3e5a02a9	0.21290077
179	0x3d3e39f9	0.046442006
180	0x3e8d27c6	0.27569407
181	0x3e3d7956	0.18503317
182	0x3d65418a	0.055970706
183	0xbdfb8651	-0.12281478
184	0x3dfb0156	0.12256114
185	0x3d9fbfba	0.07800241
186	0x3d30723f	0.043077704
187	0xbd8d783a	-0.06907697
188	0xbcec6575	-0.028856972
189	0xbe7ac28e	-0.24488279
190	0x3cd09868	0.025463298
191	0xbe01aebd	-0.12664314
192	0xbf692626	-0.91073835
193	0x3e47c128	0.19507277
194	0x3ed1f413	0.41006526
195	0x3de8eacc	0.11372909
196	0x3d46fde4	0.048581973
197	0xbe181065	-0.14850004
198	0xbee09d83	-0.43870172
199	0xbd5459cc	-0.05184345
200	0xbd4019f0	-0.046899736
201	0xbe2cde59	-0.16881694
202	0xbdd5916d	-0.104281284
203	0x3de628de	0.112382635
204	0xbd5da6f0	-0.054114282
205	0xbd8c4041	-0.06848193
206	0xbe7f8ba7	-0.24955617
207	0x3e06e384	0.13172728
208	0x3dedf2a9	0.116185494
209	0x3d172d02	0.036908157
210	0xbd2c59a6	-0.042077683
211	0x3d639eca	0.055571355
212	0xbddfee06	-0.10934071
213	0x3e85789d	0.26068583
214	0xbe5638ef	-0.20920156
215	0x3c1c6f2b	0.009547989
216	0x3da4c792	0.080458775
217	0x3e5b91c9	0.21442331
218	0xbd73d6ba	-0.05953095
219	0x3d3112a1	0.043230657
220	0x3e23b58c	0.15987223
221	0x3ec616bc	0.3868922
222	0x3e1114fd	0.14168163
223	0x3eac697d	0.3367423
224	0x3e10fb12	0.14158276
225	0xbe647285	-0.2230931
226	0x3ca2927e	0.019845244
227	0xbd8b8eb4	-0.06814328
228	0xbd639d2a	-0.055569805
229	0xbe6fab9a	-0.23405305
230	0xbe83e54a	-0.2576087
231	0xbe01ab86	-0.12663087
232	0xbdd1e65f	-0.10249018
233	0xbbb86040	-0.0056267083
234	0xbce57c9b	-0.028013518
235	0xbe149e10	-0.14513421
236	0x3e4cb3e1	0.19990493
237	0x3cc9351e	0.024561461
238	0x3dbdfe9a	0.09277077
239	0x3e4bfc43	0.19920449
240	0x3e7eb978	0.24875438
241	0x3d61064e	0.054937653
242	0xbe065354	-0.13117725
243	0xbd415172	-0.047196813
244	0xbde22fba	-0.11044259
245	0x3e540d32	0.20708159
246	0x3e1131a3	0.14179091
247	0x3d8e9176	0.06961338
248	0xbe2439ff	-0.16037749
249	0x3e0d680d	0.13809223
250	0xbe18d951	-0.1492665
251	0xbd888d2c	-0.066675514
252	0x3debfeb5	0.11523191
253	0x3e14d236	0.14533314
254	0x3e13a4b0	0.14418292
255	0x3d93a668	0.07209474

fc1.bias f4 [512]
0	0xbe1024b5	-0.14076503
1	0xbea08918	-0.31354594
2	0xbe988919	-0.29792097
3	0xbe20a0e4	-0.15686375
4	0x3e5558da	0.20834675
5	0x3d9cafff	0.07650756
6	0x3ebe53bc	0.3717326
7	0x3d91d0cf	0.07119905
8	0x3e28b4a4	0.16475159
9	0xbe255044	-0.161439
10	0xbe91d4b1	-0.28482583
11	0xbece32d5	-0.40273157
12	0xbe8f7635	-0.28019872
13	0xbe32a5d2	-0.17446068
14	0xbc7c2bd4	-0.015391309
15	0xbd1e2e95	-0.038618643
16	0x3dcfab3c	0.10140082
17	0x3f23858d	0.6387566
18	0xbe983261	-0.29725936
19	0xbddc96fa	-0.10770984
20	0xbe5ba5d5	-0.21449979
21	0x3ece6664	0.40312493
22	0x3e4b5344	0.19855982
23	0x3d0bc632	0.03412456
24	0x3ceae571	0.02867386
25	0xbeba8c6c	-0.36435258
26	0xbeb7631f	-0.3581781
27	0xbe35c015	-0.17749055
28	0xbe46fae1	-0.1943164
29	0x3e686549	0.22694887
30	0x3eb73c5a	0.35788232
31	0xbe392d53	-0.18083696
32	0xbec96b78	-0.39339805
33	0xbe2e5cc9	-0.17027582
34	0xbee85632	-0.45378262
35	0x3e77214c	0.24133795
36	0xbe41fd90	-0.18944383
37	0xbd294665	-0.0413269
38	0xbeceacab	-0.4036611
39	0xbe0ade01	-0.1356125
40	0x3eab156d	0.33414784
41	0xbd45e4f9	-0.04831407
42	0x3dc4ab7d	0.09603021
43	0xbe69521c	-0.22785228
44	0x3e4f2ded	0.20232363
45	0xbe0ca9aa	-0.13736597
46	0xbd6dc959	-0.05805335
47	0xbdd6d5d9	-0.10490007
48	0xbedcc32a	-0.43117648
49	0x3cecdbc8	0.028913394
50	0xbeb6d2d6	-0.3570773
51	0xbe8b4a3b	-0.2720507
52	0xbe0113bc	-0.12605184
53	0x3e25dd16	0.16197619
54	0xbe84193a	-0.25800496
55	0x3eddd825	0.43328968
56	0x3d173db1	0.036924068
57	0x3e84deff	0.25951383
58	0x3dec1ff6	0.115295336
59	0x3ecd5f27	0.40111658
60	0x3e112d80	0.14177513
61	0x3e57cc0c	0.21073931
62	0x3e9f28f3	0.3108593
63	0x3d946a82	0.07246877
64	0xbde1d23a	-0.11026426
65	0x3e24490d	0.16043492
66	0x3d97d883	0.07414343
67	0x3e96af76	0.2943074
68	0x3eec28d8	0.4612491
69	0xbe0f4196	-0.13989863
70	0xbdfb20fb	-0.1226215
71	0x3ed9915b	0.4249371
72	0x3b8d3378	0.004309114
73	0x3ddaa06c	0.10675129
74	0x3f117608	0.56820726
75	0xbe16dbe8	-0.14732325
76	0xbb2c278d	-0.0026268691
77	0xbeab6933	-0.33478698
78	0x3d13558b	0.035970252
79	0xbeb8783b	-0.3602923
80	0xbdf1526b	-0.11783298
81	0xbe1ba513	-0.1519969
82	0x3d98829d	0.074467875
83	0xbe54363c	-0.20723814
84	0x3d46aa55	0.048502285
85	0xbeae320a	-0.34022552
86	0x3eeffd80	0.46873093
87	0x3d9d3e5f	0.07677912
88	0x3ea667fa	0.32501203
89	0xbec19900	-0.37812042
90	0x3caba83e	0.020954248
91	0x3e91f6e6	0.2850868
92	0x3daf9bd7	0.08574646
93	0xbea0ab54	-0.31380713
94	0xbe0d75d3	-0.13814478
95	0xbe082410	-0.13295007
96	0x3decffbe	0.115722165
97	0xbdaf21fc	-0.08551404
98	0x3edd65a0	0.43241596
99	0x3e53f179	0.20697583
100	0xbefd0888	-0.4942057
101	0x3d997ad9	0.074941345
102	0x3e495764	0.19662243
103	0xbf10b61f	-0.56527895
104	0xbe9a7d20	-0.30173588
105	0xbedb05dc	-0.42777908
106	0x3ef3af14	0.47594512
107	0xbdad76a3	-0.08469894
108	0x3f466acf	0.77506727
109	0x3e2fc624	0.17165428
110	0x3e492f45	0.19646938
111	0xbe57edfa	-0.21086875
112	0xbeeef5d2	-0.4667192
113	0xbed05d85	-0.4069635
114	0x3e2fa583	0.17152981
115	0xbe1749a6	-0.14774188
116	0x3e49cf4f	0.19707988
117	0xbe5ffbbb	-0.21873371
118	0xbe5e3daa	-0.2170321
119	0x3ebe1372	0.3712421
120	0xbe17d316	-0.14826617
121	0x3e4b53dc	0.19856209
122	0xbeb39dd1	-0.35081342
123	0x3e0a0333	0.13477783
124	0xbe9f8559	-0.31156424
125	0x3e2af4cf	0.1669495
126	0x3e29901b	0.16558878
127	0xbecaa16e	-0.39576286
128	0xbe609a1e	-0.21933791
129	0x3e0f0324	0.13966042
130	0x3e6baf21	0.23016025
131	0xbdb85fba	-0.090026334
132	0x3e2c5388	0.1682874
133	0xbd0515d0	-0.032491505
134	0x3ea39ed7	0.31957123
135	0x3e5a90f9	0.21344365
136	0x3ccfe47f	0.02537751
137	0xbe2dc55b	-0.16969816
138	0xbe21f31a	-0.15815392
139	0x3e05b829	0.13058533
140	0xbc10117b	-0.00879323
141	0xbe04a551	-0.12953688
142	0xbec449ec	-0.38337648
143	0x3d4c333b	0.049853545
144	0x3e8fca9c	0.28084266
145	0xbed21c2f	-0.41037127
146	0x3dffd093	0.12490954
147	0x3e1d2205	0.15345009
148	0xbe0f11e7	-0.13971673
149	0x3eafd2b4	0.3434044
150	0xbeb80c45	-0.3594686
151	0x3f14b3b0	0.5808668
152	0x3d7fb813	0.062431406
153	0x3e0cf16a	0.13763967
154	0xbecd3abc	-0.40083873
155	0xbea84a89	-0.32869366
156	0x3d32b60b	0.04363064
157	0x3d7c3f34	0.061583713
158	0xbce46e68	-0.027884677
159	0xbe9afa1f	-0.30268952
160	0x3f20dc91	0.6283656
161	0x3d86b17d	0.06576822
162	0xbd429827	-0.047508385
163	0xbc160c2b	-0.0091581745
164	0xbda9c602	-0.0828972
165	0xbd38d607	-0.045125987
166	0x3deaa7ee	0.11457811
167	0xbe023a4a	-0.12717548
168	0xbd4ee021	-0.050506715
169	0x3daeb193	0.08529963
170	0xbe3ac3ae	-0.18238708
171	0xbe9f02d5	-0.31056848
172	0xbe51c500	-0.20485306
173	0xbf305978	-0.6888652
174	0x3e5c7467	0.21528779
175	0xbd0bab0f	-0.03409868
176	0xbe568659	-0.20949687
177	0xbece9c63	-0.4035369
178	0xbd90a810	-0.070633054
179	0xbed42bdf	-0.4143972
180	0x3e26ce89	0.16289724
181	0xbdc352b8	-0.09537262
182	0x3d55cda0	0.052198052
183	0xbe05bd13	-0.13060407
184	0xbbc0d240	-0.0058844388
185	0xbec1afc3	-0.37829408
186	0xbdde143a	-0.10843702
187	0xbeb8042c	-0.35940683
188	0xbecad7ae	-0.39617676
189	0x3e32911b	0.17438166
190	0xbe5367a8	-0.2064501
191	0xbe8f5c2c	-0.2800001
192	0x3eaad28d	0.33363762
193	0xbe7c8304	-0.24659353
194	0xbe8b9854	-0.27264655
195	0xbeb6358e	-0.35587734
196	0xbd4508b8	-0.048104018
197	0x3e487278	0.19574916
198	0x3e9dac9c	0.30795753
199	0xbe547b07	-0.20750056
200	0xbecb3877	-0.39691517
201	0x3ccdbb0f	0.02511361
202	0x3d5a0a53	0.053232502
203	0x3eca84c2	0.3955441
204	0x3e43b870	0.19113326
205	0x3e054ce7	0.13017617
206	0xbe1bc741	-0.15212728
207	0x3e4199e1	0.18906356
208	0xbe14f3f6	-0.14546189
209	0xbe56263b	-0.20913021
210	0xbecbf425	-0.39834705
211	0x3db3c533	0.08777847
212	0xbcfd7525	-0.030939648
213	0xbea8b170	-0.32947874
214	0x3d91e675	0.07124034
215	0xbe4c8075	-0.19970877
216	0xbe3c0cb4	-0.18364221
217	0xbe831062	-0.25598437
218	0xbe84741c	-0.25869834
219	0xbe3e6dc6	-0.18596563
220	0xbecf45ae	-0.4048285
221	0xbedab2d5	-0.42714563
222	0x3edc8496	0.43069905
223	0xbec7602f	-0.3894057
224	0x3e0c5896	0.13705668
225	0xbe01e9b1	-0.12686802
226	0x3ede2f84	0.43395627
227	0x3e518977	0.20462595
228	0x3e65cfc8	0.22442544
229	0xbec3ee11	-0.38267568
230	0xbe2b41c5	-0.16724308
231	0x3e8e793b	0.27826867
232	0xbe1fe96b	-0.15616386
233	0xbd9b1b95	-0.0757362
234	0x3d6840d3	0.056702446
235	0x3d89ca58	0.06728047
236	0x3dc88808	0.09791571
237	0xbefdc12e	-0.49561447
238	0xbe77fba4	-0.24217087
239	0xbe85b43e	-0.26114076
240	0xbe85b8bb	-0.261175
241	0x3ec21234	0.37904513
242	0xbe40a96e	-0.18814632
243	0xbe29efb1	-0.16595341
244	0x3e2fb1e6	0.17157707
245	0x3e1e551e	0.15462157
246	0xbd7e2048	-0.062042505
247	0x3ea70cd7	0.32626984
248	0x3e35525f	0.17707203
249	0x3eaac549	0.33353642
250	0xbd7f36d5	-0.06230815
251	0xbeb19ed7	-0.34691498
252	0xbf09df50	-0.5385637
253	0xbd65e2a8	-0.05612436
254	0xbd28f077	-0.04124495
255	0x3d7b35fe	0.061330788

fc2.weight f4 [256, 514]
0	0xbe155789	-0.14584173
1	0xbd9d0480	-0.07666874
2	0xbe6bfaf1	-0.23044945
3	0x3de586c6	0.112073466
4	0x3d8dde94	0.06927219
5	0x3ec3eed9	0.38268164
6	0xbe89b617	-0.26896736
7	0x3d146e27	0.036237862
8	0x3dd67d2b	0.10473093
9	0x3e58fe54	0.21190768
10	0x3d8ea66c	0.06965336
11	0xbd4502da	-0.048098423
12	0xbeaf02c5	-0.341818
13	0x3e13508e	0.14386198
14	0xbc400bec	-0.011721592
15	0xbdc3d20f	-0.0956155
16	0xbedfbd09	-0.4369891
17	0xbde7edbf	-0.11324643
18	0x3e26aa52	0.1627591
19	0x3dc9e667	0.09858399
20	0x3d33c3af	0.04388779
21	0x3dc629cc	0.09675941
22	0x3e264d5d	0.16240449
23	0xbed10e6e	-0.4083132
24	0x3d96d7cb	0.07365378
25	0x3de0a3b2	0.109687224
26	0x3d62d401	0.055377964
27	0x3cbc37f7	0.022975905
28	0xbe593337	-0.21210943
29	0x3d154b4f	0.036448773
30	0x3d5760fc	0.052582726
31	0x3e8007d8	0.25005984
32	0x3e1bfc2c	0.15232915
33	0x3e388313	0.18018751
34	0xbe8937b8	-0.26800323
35	0xbdcde93c	-0.100542516
36	0x3c3ecfc6	0.011646217
37	0x3e230fd0	0.15924
38	0xbdfb4c26	-0.122703835
39	0xbe50e186	-0.2039853
40	0xbf110d5a	-0.56661
41	0x3e2054d1	0.15657355
42	0xbed3b1eb	-0.41346678
43	0xbc4456d1	-0.011983589
44	0x3e9b5e77	0.30345508
45	0xbebb5d32	-0.3659454
46	0xbe2c6f1b	-0.16839258
47	0x3e77e6ad	0.2420909
48	0xbe8556c2	-0.26042753
49	0xbe8bd394	-0.2730986
50	0xbd4d2d7b	-0.0500922
51	0x3e8cfc8a	0.27536422
52	0xbde6d4ba	-0.11271043
53	0xbeb7c637	-0.35893413
54	0x3e7301e7	0.23731194
55	0x3d8f51ae	0.06998001
56	0xbe049fc2	-0.12951568
57	0x3bec346a	0.0072083967
58	0x3e66fd53	0.22557573
59	0x3caafa20	0.020871222
60	0x3d514cc0	0.051098585
61	0x3d178bd4	0.036998585
62	0xbc48265e	-0.012216179
63	0x3de4a935	0.11165086
64	0xbe0f5ec4	-0.14000994
65	0xbd8bbab0	-0.06822717
66	0x3e4d27ba	0.20034686
67	0xbd345616	-0.04402741
68	0x3e32e965	0.17471845
69	0xbdc235f7	-0.09482949
70	0x3dea9813	0.11454787
71	0x3e58b2e9	0.21161999
72	0xbda0c027	-0.0784915
73	0x3e19bdba	0.15013781
74	0x3e6a90d2	0.22906807
75	0xbe87133d	-0.26381865
76	0xbe266591	-0.16249682
77	0xbe1cb249	-0.15302385
78	0x3d8c65ff	0.06855392
79	0xbcbf000f	-0.023315458
80	0x3e79e9df	0.24405621
81	0xbe888471	-0.26663545
82	0x3dc34e64	0.09536436
83	0x3d4938ef	0.04912656
84	0x3d34275d	0.043982852
85	0xbc29c492	-0.010361807
86	0x3e13972e	0.14413139
87	0x3e9cdfbd	0.3063945
88	0x3e85da09	0.2614291
89	0x3ab5d06e	0.0013871321
90	0xbe9e4544	-0.3091222
91	0x3e01b235	0.12665637
92	0xbe01ec26	-0.1268774
93	0xbca1dbac	-0.019758068
94	0x3d9fede7	0.07809048
95	0xbe1661f2	-0.146858
96	0x3e3144ff	0.17311476
97	0x3d90664b	0.07050761
98	0x3d3c908c	0.04603629
99	0x3d9a1f1f	0.07525467
100	0xbe577946	-0.21042356
101	0xbedc61b4	-0.43043292
102	0x3e7de097	0.24792705
103	0xbd356b37	-0.0442917
104	0x3e3489d5	0.17630704
105	0xbdf08c5f	-0.11745524
106	0x3e51df2c	0.2049529
107	0x3e4d4c7c	0.20048708
108	0xbf557a6c	-0.83389926
109	0x3ce84d37	0.028357131
110	0x3e7b38bf	0.24533366
111	0xbe2e66a8	-0.17031348
112	0xbf0c4d7e	-0.54805744
113	0xbe70dd93	-0.23522024
114	0x3e443076	0.19159111
115	0xbe85a6a0	-0.26103687
116	0xbc9d983b	-0.019237628
117	0x3e3637e4	0.17794758
118	0xbe067dfa	-0.13133994
119	0x3d6a830f	0.057253893
120	0x3e5c4a6e	0.21512768
121	0xbe6cdc84	-0.23130995
122	0x3db2c3ff	0.087287895
123	0x3d6c08f3	0.057625722
124	0xbe1b9dae	-0.15196869
125	0x3df1a4c1	0.117990024
126	0x3d8c59f6	0.06853096
127	0xbe68273d	-0.22671218
128	0xbd515de7	-0.051114943
129	0xbc7f172b	-0.0155694885
130	0x3e7117f2	0.2354429
131	0xbe1406a7	-0.14455663
132	0xbda551d4	-0.08072248
133	0x3ea570d4	0.32312644
134	0x3e3a215a	0.18176785
135	0xbdc25fa0	-0.09490895
136	0xbe7c2fa4	-0.24627548
137	0x3e43cc9e	0.19121024
138	0xbd5998e6	-0.05312433
139	0xbd9f0633	-0.07764854
140	0x3e58d007	0.21173106
141	0xbd7cdaf3	-0.061732244
142	0x3d2618cd	0.040550996
143	0x3e25cbd9	0.16191043
144	0x3e2ad8e1	0.16684295
145	0xbe1f48a8	-0.1555506
146	0x3d09d5ec	0.033651277
147	0xba9df412	-0.0012050888
148	0xbb4c8f05	-0.0031213176
149	0x3e0fa80b	0.14028947
150	0x3c83471c	0.016025119
151	0x3e1fb012	0.15594509
152	0xbe2dce51	-0.16973235
153	0xbe6d59e1	-0.23178817
154	0xbde0883a	-0.10963483
155	0x3d58e330	0.052951038
156	0x3de7e260	0.113224745
157	0x3dd308c9	0.1030441
158	0xbd90df8c	-0.07073888
159	0xbd5de3c9	-0.05417231
160	0x3d75bdac	0.05999534
161	0xbe054c9a	-0.13017502
162	0x3d304a89	0.043039832
163	0xbc09e17f	-0.008415579
164	0xbd793ffc	-0.060852036
165	0x3e0c978f	0.1372969
166	0x3e03e7db	0.12881415
167	0x3d59601f	0.053070184
168	0xbdd6fc19	-0.104973026
169	0x3e16c272	0.14722613
170	0x3cc34c2e	0.023840036
171	0xbe950824	-0.29107773
172	0xbe7ba6da	-0.24575368
173	0xbf3512c3	-0.70731753
174	0xbd260160	-0.040528655
175	0xbe8be266	-0.27321166
176	0xbd49645a	-0.04916797
177	0x3e0494af	0.12947343
178	0x3ea2eb4a	0.31820136
179	0x3e9d55a0	0.3072939
180	0x3e285980	0.16440392
181	0x3e45ced4	0.1931718
182	0x3d04dada	0.032435276
183	0xbe93b7b8	-0.28851104
184	0xbd8848bb	-0.06654497
185	0xbe1e10a5	-0.15436037
186	0xbe5aa7a4	-0.21353012
187	0xbb92f8e5	-0.004485237
188	0x3d559d35	0.052151877
189	0x3e16579a	0.14681855
190	0x3eb060e2	0.34448916
191	0xbeaf48ff	-0.3423538
192	0x3d3e5ae5	0.046473403
193	0xbdb98495	-0.09058491
194	0xbe32e32d	-0.17469473
195	0xbdf14507	-0.11780744
196	0xbe61810e	-0.22021887
197	0xbe25c8d6	-0.16189894
198	0x3d2b0d23	0.041760575
199	0x3c4be355	0.012444337
200	0x3da17641	0.07883883
201	0xbe1684df	-0.14699124
202	0xbe29ed68	-0.1659447
203	0x3dff4b97	0.124655895
204	0x3e1f2f69	0.1554543
205	0xbe26f8a6	-0.1630579
206	0xbf03208b	-0.5122153
207	0x3deaae18	0.11458987
208	0x3ca450ac	0.020057999
209	0xbdae07d7	-0.08497589
210	0xbe76b738	-0.2409333
211	0x3e0060c9	0.1253692
212	0xbec5e6ad	-0.38652554
213	0x3d5e68a9	0.05429903
214	0x3c44d1a6	0.012012875
215	0x3d429327	0.047503617
216	0x3d8f166a	0.06986697
217	0xbea18684	-0.3154794
218	0xbdd39886	-0.10331826
219	0x3d91bea5	0.07116441
220	0xbed108c5	-0.40827003
221	0xbf0afd51	-0.5429278
222	0x3e39d3e9	0.18147244
223	0xbdf2247f	-0.11823367
224	0x3dfdd8fd	0.12394903
225	0x3ddb4e49	0.10708291
226	0xbddc8db8	-0.10769218
227	0x3d9721ef	0.07379519
228	0xbc0fca2e	-0.008776231
229	0xbef0c15e	-0.47022527
230	0x3e356de5	0.17717703
231	0xbe06bca7	-0.13157903
232	0x3e05d811	0.13070704
233	0xbf01a7c9	-0.50646645
234	0xbea5e0ff	-0.3239822
235	0xbe5a885b	-0.21341078
236	0xbe4b4920	-0.19852114
237	0xbec3cdcf	-0.38242957
238	0xbd9174d4	-0.07102361
239	0xbbe24c13	-0.0069060414
240	0xbc1fcd3f	-0.009753524
241	0x3e1cec1d	0.15324445
242	0xbe510e45	-0.204156
243	0x3ed7c99c	0.42146003
244	0x3e5f5dac	0.21813077
245	0x3bbdc6a5	0.0057915025
246	0xbd2e992c	-0.042626545
247	0x3d327681	0.043570045
248	0x3e5e5d1f	0.2171521
249	0xbe41e835	-0.18936236
250	0x3d10c754	0.035346344
251	0xbeaec866	-0.34137267
252	0xbe30c05e	-0.17260882
253	0xbc58f7cf	-0.013242676
254	0x3eca72fc	0.3954085
255	0x3d97273c	0.0738053

fc2.bias f4 [256]
0	0xbda9ad94	-0.082850605
1	0xbdd635c1	-0.104594715
2	0xbe69a7af	-0.22817872
3	0xbe9b1ab3	-0.30293807
4	0xbe0f5544	-0.1399737
5	0xbebf9624	-0.37419236
6	0xbea40c7f	-0.32040784
7	0x3c545d93	0.012961763
8	0xbe46e4ae	-0.19423172
9	0xbe91d865	-0.28485408
10	0x3e07688c	0.13223475
11	0xbe1eb730	-0.15499568
12	0x3e648724	0.22317177
13	0xbea98e0a	-0.3311618
14	0xbeadf2e6	-0.3397438
15	0xbdba0413	-0.09082808
16	0x3a93ea5f	0.0011285058
17	0xbec54fc9	-0.38537434
18	0xbe082931	-0.13296963
19	0x3f307dae	0.6894177
20	0xbebde8e7	-0.37091753
21	0x3ddde2b4	0.10834256
22	0xbd8de7ef	-0.069290034
23	0xbd766fdf	-0.060165282
24	0x3e427624	0.1899038
25	0x3e8b18d2	0.27167374
26	0xbdd296ad	-0.102826454
27	0xbe7f00e1	-0.24902679
28	0xbd6a6546	-0.057225488
29	0xbea70dac	-0.32627618
30	0xbec5ced4	-0.3863436
31	0xbe9eb5b6	-0.3099801
32	0xbeb61251	-0.3556085
33	0x3ed96823	0.42462263
34	0x3d81a672	0.06330575
35	0xbe9c8b27	-0.30574915
36	0x3d28af8b	0.041183036
37	0x3d6c8cc0	0.057751417
38	0xbe0603a6	-0.1308733
39	0xbcc58aad	-0.024113977
40	0x3ebe9fa2	0.37231165
41	0x3d324b72	0.04352898
42	0xbea628a9	-0.32452896
43	0xbeb92292	-0.36159188
44	0xbe62d7b9	-0.22152604
45	0xbdf0c421	-0.117561586
46	0xbeb9ee7a	-0.36314756
47	0x3ebc254d	0.36747208
48	0xbe829cd2	-0.2551027
49	0x3e91e86c	0.28497636
50	0x3f067a5f	0.52530473
51	0xbebb758c	-0.3661312
52	0x3da77f96	0.08178632
53	0xbe6aad72	-0.22917727
54	0x3f25788a	0.64637053
55	0xbea332cb	-0.3187469
56	0xbe8aa59e	-0.2707948
57	0x3e21de8a	0.15807548
58	0xbe88b0e8	-0.2669747
59	0x3f0fa425	0.5610984
60	0xbeb4f155	-0.35340372
61	0xbd8fb6c2	-0.0701728
62	0xbebf3daf	-0.37351748
63	0xbe63ca41	-0.22245122
64	0x3f323c15	0.6962293
65	0xbe9e32a9	-0.30898026
66	0x3e75df79	0.2401103
67	0x3d854304	0.06506923
68	0xbe91b11d	-0.2845544
69	0xbd9a09be	-0.075213894
70	0xbe5c1d17	-0.21495472
71	0xbe5b7ba7	-0.21433888
72	0xbdf3d769	-0.119063206
73	0x3f12028f	0.57035154
74	0xbe9be3f1	-0.30447343
75	0xbe8a5c98	-0.27023768
76	0xbe4fcb7b	-0.20292465
77	0xbe733489	-0.2375051
78	0xbeae93de	-0.3409719
79	0xbeb0149c	-0.34390724
80	0x3f01ad45	0.50655013
81	0xbe4c0090	-0.1992209
82	0xbeb424c5	-0.35184303
83	0xbeb4671f	-0.35234925
84	0xbea0f8c7	-0.31439802
85	0xbec502b9	-0.3847864
86	0xbeb3f49a	-0.35147554
87	0x3e16445a	0.14674512
88	0xbe6a0924	-0.2285505
89	0x3c9179ea	0.017758328
90	0xbe11da96	-0.1424354
91	0xbe77bfb6	-0.24194226
92	0x3ec45754	0.38347876
93	0x3ed72ac3	0.42024812
94	0xbea0b414	-0.3138739
95	0xbe96bb41	-0.29439738
96	0x3f3ed93e	0.74550235
97	0x3f2ccc89	0.67499596
98	0xbe3b2f15	-0.18279679
99	0xbeb362c7	-0.350363
100	0xbe719c3e	-0.23594758
101	0x3ec1971c	0.378106
102	0xbd17d94d	-0.03707247
103	0xbe9db7f3	-0.30804405
104	0xbd7b769f	-0.061392423
105	0x3db03166	0.08603172
106	0xbdcaccb3	-0.099023245
107	0xbe84a520	-0.2590723
108	0xbeae2241	-0.3401051
109	0xbea10bd5	-0.3145434
110	0xbdd177cb	-0.10227927
111	0x3f1a3991	0.6024409
112	0xbe650948	-0.22366822
113	0xbd95fe99	-0.07323951
114	0x3ee97dde	0.45603842
115	0xbec3a2d7	-0.38210174
116	0xbe485962	-0.19565347
117	0xbe1b57be	-0.1517019
118	0xbebb9913	-0.36640224
119	0xbe8f06f8	-0.27935004
120	0xbe5d50da	-0.21612874
121	0x3d492f2b	0.04911725
122	0x3ea483b0	0.3213172
123	0x3df658c1	0.12028647
124	0xbdce01c4	-0.100589305
125	0xbe2dd86a	-0.16977087
126	0xbe396e6b	-0.18108527
127	0xbddef050	-0.1088568
128	0x3e7741d8	0.24146211
129	0xbe9a70f2	-0.30164295
130	0xbea2aa55	-0.31770578
131	0xbea3e2c0	-0.32008934
132	0x3d61ca06	0.055124305
133	0x3f0c5a32	0.5482513
134	0xbeae818e	-0.34083217
135	0xbeba0ac2	-0.36336333
136	0x3d3206a9	0.043463383
137	0xbe177f3b	-0.14794628
138	0x3e551a76	0.20810875
139	0x3e6c9e83	0.23107342
140	0x3eb29e45	0.34886375
141	0xbd4bd1f5	-0.049760778
142	0x3f3ef2ea	0.7458941
143	0x3e9960b7	0.299566
144	0x3c7bd354	0.015370209
145	0x3ab86e26	0.0014070913
146	0x3e3f17db	0.18661444
147	0xbb9f77d6	-0.0048665805
148	0x3e994f7d	0.29943457
149	0xbeae5d87	-0.3405573
150	0xbebdb9de	-0.37055868
151	0x3f11f610	0.57016087
152	0xbd1edbd4	-0.038783863
153	0xbe9fba3e	-0.3119678
154	0x3f2b1130	0.668231
155	0xbdffd8df	-0.12492537
156	0xbdf492f2	-0.1194209
157	0x3ed1c61b	0.40971455
158	0xbea1efdf	-0.3162832
159	0xbd7ef4d3	-0.0622452
160	0x3ea80999	0.32819822
161	0xbec0b84a	-0.376406
162	0xbeae9e51	-0.3410516
163	0x3df2ccbe	0.11855458
164	0xbcd35b1d	-0.025800282
165	0xbe9a79b4	-0.30170977
166	0xbeae00e7	-0.33985063
167	0x3e385d3e	0.18004319
168	0x3e8c9238	0.27455306
169	0xbde78e24	-0.11306408
170	0x3f010edd	0.50413305
171	0x3ecbe22c	0.39820993
172	0x3e72ce05	0.23711403
173	0x3e2944fe	0.16530225
174	0xbe8cec65	-0.27524105
175	0xbea8d485	-0.3297464
176	0x3d4d6a17	0.050150003
177	0x3d81d324	0.063391
178	0xbebc6bc8	-0.3680098
179	0xbe996035	-0.29956213
180	0x3ecb3bbd	0.39694014
181	0xbea6a7de	-0.32549948
182	0x3d509151	0.050919835
183	0xbdcc506b	-0.09976276
184	0x3f33619e	0.70070827
185	0x3f2e320f	0.68045133
186	0xbead32c8	-0.33827806
187	0xbe8686b0	-0.26274633
188	0xbe5eaff4	-0.21746808
189	0xbec77752	-0.38958222
190	0xbdad4eb2	-0.084622756
191	0x3f2fb089	0.68628746
192	0xbe6bfd55	-0.23045857
193	0xbdcc9f77	-0.09991353
194	0xbe87f2a2	-0.26552302
195	0xbe7b1307	-0.24518977
196	0xbeaf121a	-0.34193498
197	0xbeb47617	-0.35246345
198	0xbea833c0	-0.32851982
199	0x3eff7db3	0.49900588
200	0xbe7bc883	-0.24588208
201	0xbe9ee0dd	-0.31030932
202	0xbe81709e	-0.25281233
203	0xbe751d65	-0.23936994
204	0xbc6228df	-0.01380369
205	0xbe9bf1e9	-0.30458
206	0xbe65434f	-0.22388957
207	0xbea50fca	-0.3223861
208	0x3e2da724	0.1695829
209	0x3e0b83df	0.13624524
210	0x3eebbdb0	0.46043158
211	0xbe4ad185	-0.19806488
212	0x3da5068f	0.080578916
213	0xbea10e0b	-0.31456026
214	0x3e16353b	0.14668743
215	0xbec27018	-0.37976146
216	0x3d9a6946	0.075396106
217	0xbe7c5f77	-0.24645792
218	0xbe9e3ecb	-0.30907282
219	0xbe822401	-0.25418094
220	0xbec1f381	-0.3788109
221	0x3f1d61eb	0.61477536
222	0xbec5f9d0	-0.38667154
223	0x399a538e	0.00029435422
224	0xbdea5920	-0.114427805
225	0xbc68dde9	-0.014213064
226	0xbe75b617	-0.23995243
227	0xbc9c1876	-0.019054633
228	0xbec0a3a8	-0.3762486
229	0x3dd56fda	0.104217246
230	0xbeb6cd1d	-0.35703364
231	0xbe44e126	-0.19226512
232	0xbe706dd9	-0.23479404
233	0x3efc2583	0.4924737
234	0xbe8688a4	-0.26276124
235	0xbeade1e3	-0.339614
236	0xbd9c71ed	-0.07638917
237	0xbdd4e65c	-0.103955
238	0xbea441b1	-0.3208137
239	0x3e2d0577	0.16896616
240	0xbe6137ac	-0.21993893
241	0xbe7bab12	-0.24576977
242	0xbe22dcd9	-0.15904559
243	0xbd61fcf4	-0.055172876
244	0x3e533829	0.20626892
245	0xbe9aa691	-0.30205205
246	0xbc009a15	-0.007849236
247	0x3ecb071a	0.39653856
248	0x3e53e0c4	0.2069121
249	0xbe9ac117	-0.3022544
250	0x3e8a821a	0.27052385
251	0x3c85a076	0.016311865
252	0x3eb2c8b0	0.34918737
253	0x3e34baf4	0.17649442
254	0x3f051793	0.51989096
255	0xbeb1e85e	-0.34747595

fc3.weight f4 [1, 256]
0	0x3fa80028	1.3125048
1	0xbf0cc74e	-0.54991615
2	0xbf56203d	-0.8364294
3	0xbde84c1f	-0.11342644
4	0xbf313168	-0.6921601
5	0xbe2f0952	-0.17093399
6	0xbe24c149	-0.16089357
7	0x3f9057c5	1.1276785
8	0xbf64407d	-0.891609
9	0xbf6edeb4	-0.9330857
10	0x3f92530c	1.1431594
11	0xbf7a2684	-0.9771502
12	0x3f8c368d	1.0954148
13	0xbe32ac75	-0.174486
14	0xbe240d3c	-0.16020674
15	0x3fc7e1bd	1.5615765
16	0x3a39484a	0.0007067962
17	0xbe2bcada	-0.167766
18	0xbf174b30	-0.590991
19	0x3f91505e	1.1352651
20	0xbe1f1225	-0.15534265
21	0x3fae5f2d	1.3622795
22	0x3f901aac	1.125814
23	0x3fe1b8e2	1.7634547
24	0x3f7d7371	0.99004275
25	0x3f56ee15	0.83957034
26	0x3f9faa7a	1.24739
27	0xbf369ee4	-0.713362
28	0x3f8ad65a	1.0846665
29	0xbe06d57c	-0.13167375
30	0xbe252ec5	-0.16131122
31	0xbded1aff	-0.11577415
32	0xbde3a4d9	-0.111154266
33	0x3f9abfb7	1.2089757
34	0x3fbcdb63	1.4754452
35	0xbe189738	-0.14901435
36	0x3f9c0d48	1.2191553
37	0x3fb715c3	1.4303516
38	0x3f991d6e	1.1962106
39	0x3fa20c9c	1.2660098
40	0x3f9ac639	1.2091743
41	0x3f5fb0c2	0.87379086
42	0xbe08dea8	-0.13366187
43	0xbe057b2e	-0.1303527
44	0xbf2b1676	-0.6683115
45	0xbedf251e	-0.43583006
46	0xbe131e23	-0.14366965
47	0x3fc47506	1.5348213
48	0xbf4a3b60	-0.7899685
49	0x3fb93023	1.4467815
50	0x3f82556a	1.0182316
51	0xbe262fa5	-0.16229112
52	0x3f4c9cb1	0.7992659
53	0xbf2b231c	-0.6685045
54	0x3f9e0d46	1.2347801
55	0xbe9dfb19	-0.30855635
56	0xbf7f50a1	-0.99732405
57	0x3f8ea851	1.1145116
58	0xbf56cfa3	-0.8391058
59	0x3fb7fe78	1.4374533
60	0xbe086871	-0.13321091
61	0xbf1ae08c	-0.6049888
62	0xbe12e2d6	-0.14344344
63	0xbf22026a	-0.63284934
64	0x3f8d66c6	1.1046989
65	0xbe176f0f	-0.14788459
66	0x3f8a2702	1.0793154
67	0x3f8513b1	1.0396634
68	0xbed7bbfd	-0.4213561
69	0x3f811b7a	1.008651
70	0xbf909975	-1.1296831
71	0xbf26463e	-0.6495093
72	0x3f8ee9a3	1.116505
73	0x3fa6f3e5	1.3043181
74	0xbdf71561	-0.120646246
75	0xbf80e0ab	-1.0068563
76	0xbf65a752	-0.89708436
77	0xbe92589e	-0.28583235
78	0xbe05d020	-0.13067675
79	0xbe191c1c	-0.14952129
80	0x3fc963ea	1.5733616
81	0xbecc7cbb	-0.39938912
82	0xbe15f988	-0.1464597
83	0xbdfc10fd	-0.12307928
84	0xc001198b	-2.017184
85	0xbe15d094	-0.14630347
86	0x3fbaa3d7	1.458125
87	0x3f3f6cce	0.747754
88	0xbf97b237	-1.1851262
89	0x3ccc9454	0.024973072
90	0xbf0e9e69	-0.55710465
91	0xbf8c3da6	-1.0956314
92	0x3fb0efa2	1.382313
93	0x3fbb48dc	1.463161
94	0xbe1aa796	-0.15102991
95	0xbf9b17fe	-1.2116697
96	0x3f980038	1.1875067
97	0x3f93544b	1.1510099
98	0xbf43a6c8	-0.76426363
99	0xbe20c8e4	-0.15701634
100	0xbf7d018a	-0.98830473
101	0x3feabda0	1.8339119
102	0x3f89ec51	1.0775243
103	0xbe030696	-0.12795481
104	0x3f9b3505	1.2125555
105	0x3f8ebeec	1.1152015
106	0x3f80129d	1.000568
107	0xbf7a803a	-0.9785191
108	0xbdf3640a	-0.11884315
109	0xbe263f30	-0.16235042
110	0x3f8ccc71	1.099989
111	0x3f995e78	1.1981955
112	0xbf43b930	-0.7645445
113	0x3f615fc8	0.88036776
114	0x3fc6c994	1.5530267
115	0xbdfc4cd6	-0.12319343
116	0xbed04c50	-0.40683222
117	0x3fa0cdec	1.2562842
118	0xbdd9ea3f	-0.10640382
119	0xbe909af3	-0.28243217
120	0xbf65cd9b	-0.89766854
121	0x3fda2a67	1.704419
122	0x3f8d163b	1.1022409
123	0x3fa51bab	1.2899069
124	0x3faa597e	1.3308561
125	0xbfd4882b	-1.6604055
126	0xbf1c957a	-0.61165583
127	0x3fcbaa31	1.5911313
128	0x3f6ec02c	0.9326198
129	0xbe2e4be0	-0.17021132
130	0xbe88a05e	-0.2668485
131	0xbeb5e650	-0.35527277
132	0x3fa68ae8	1.3011141
133	0x3fcbb982	1.5915987
134	0xbe77a5e8	-0.24184382
135	0xbe10e97f	-0.14151572
136	0x3f997bb0	1.1990871
137	0xbf18462d	-0.5948208
138	0x3f461ef4	0.7739098
139	0x3fe028a3	1.7512401
140	0x3fc7f000	1.5620117
141	0x3fb6c3a3	1.4278454
142	0x3f9ad334	1.2095704
143	0x3fc6af0c	1.552217
144	0x3d3cc70e	0.04608827
145	0x3cef4d4a	0.029211659
146	0x3f849bd0	1.036005
147	0x3fbb342b	1.4625295
148	0x3f737ffb	0.9511716
149	0xbe21c327	-0.15797101
150	0xbe165233	-0.14679794
151	0x3fb2c18f	1.3965319
152	0x3fbaf858	1.4607038
153	0xbe2e8e89	-0.1704656
154	0x3f9ff6ff	1.2497252
155	0xbf10eb73	-0.56609267
156	0xbec71f3b	-0.38891014
157	0x3fee3646	1.8610313
158	0xbe0b06fb	-0.13576882
159	0xbedad30d	-0.42739144
160	0x3fc4a383	1.53624
161	0xbe35d13a	-0.17755595
162	0xbe1d9cc8	-0.15391839
163	0x3f67bc55	0.90521747
164	0x3fa942ec	1.3223548
165	0xbdffe491	-0.124947675
166	0xbe069b96	-0.13145289
167	0x3f9666b7	1.1750096
168	0x3f8c3a8a	1.0955365
169	0x3fa12b1d	1.2591282
170	0x3fb8d861	1.4441034
171	0x3f8892f8	1.0669851
172	0x3f650cae	0.8947247
173	0x3f67d0a4	0.90552735
174	0xbe59f0d6	-0.21283278
175	0xbe0afc41	-0.1357279
176	0x3f896aa2	1.0735667
177	0x3f790e63	0.9728758
178	0xbe101003	-0.14068608
179	0xbe28a1c2	-0.16467956
180	0x3fae5e46	1.362252
181	0xbe0a7862	-0.13522485
182	0x3fb67dad	1.4257103
183	0x3fdbb426	1.7164352
184	0x3f851cea	1.0399449
185	0x3fca43a7	1.5801896
186	0xbe8200d3	-0.25391254
187	0xbf532c85	-0.82489806
188	0xbf42d959	-0.76112896
189	0xbdebc229	-0.115116425
190	0x3f7342d9	0.95023876
191	0x3fa3bf99	1.2792846
192	0x3fb2816c	1.3945746
193	0x3fa4edc5	1.2885062
194	0xbfd21d5a	-1.6415207
195	0xbf2d968d	-0.6780785
196	0xbe2d625b	-0.16932051
197	0xbde74e3d	-0.1129422
198	0xbe88b6e0	-0.26702023
199	0x3f98f860	1.1950798
200	0xbfb7311d	-1.4311863
201	0xbe313982	-0.17307094
202	0xbf4b733d	-0.79472715
203	0xbf52cdb8	-0.8234515
204	0x3fac7e11	1.3475972
205	0xc00b9451	-2.1809275
206	0xbf9710d5	-1.1802012
207	0xbe090537	-0.13380896
208	0x3f2f2e08	0.68429613
209	0x3f72c80e	0.9483651
210	0x3f8e45cf	1.1115054
211	0xbf5a3f4b	-0.8525283
212	0x3f63da55	0.89005023
213	0xbe2f9053	-0.17144899
214	0x3fc16d32	1.5111449
215	0xbe306a08	-0.17227948
216	0x3f836ac6	1.026696
217	0xbf56a811	-0.838502
218	0xbe159f6f	-0.146116
219	0xbf91e65d	-1.1398426
220	0xbe26c761	-0.16286995
221	0x3fa16638	1.260932
222	0xbe303666	-0.17208251
223	0x3f9d4b40	1.228859
224	0x3f836fcc	1.0268493
225	0x3d3c0faa	0.045913376
226	0xbf85723e	-1.0425489
227	0x3c8fe9bd	0.01756751
228	0xbe21b19d	-0.1579041
229	0x3f870391	1.0547963
230	0xbe171840	-0.14755344
231	0xbead2fa0	-0.33825397
232	0xbf5db141	-0.86598593
233	0x3ffb1ef8	1.9618826
234	0xbf4c178e	-0.7972344
235	0xbe2c84a7	-0.16847478
236	0xbf8616d0	-1.0475712
237	0xbefb9b22	-0.49141794
238	0xbe1f3d3b	-0.15550701
239	0x3f8556b0	1.041708
240	0x3f77499a	0.9659668
241	0xbf9ce268	-1.2256594
242	0x3f983542	1.1891253
243	0x3d23bb9e	0.039973848
244	0x3f83d6ed	1.0299965
245	0xbe31e721	-0.17373325
246	0x3f9ccf4d	1.2250763
247	0x3fcf9c4d	1.6219574
248	0x3f533f49	0.8251844
249	0xbe25d97e	-0.16196248
250	0x3fec42c3	1.8457874
251	0x3f79e3db	0.97613305
252	0x3fcbb23e	1.591377
253	0x3f6b89b6	0.92007005
254	0x3f925ea1	1.1435128
255	0xbe1ae24f	-0.15125392

norm.weight f4 [28]
0	0x3f971d07	1.1805733
1	0x3fbd00e0	1.4765892
2	0x3faf5d84	1.3700414
3	0x3fb42cb8	1.4076147
4	0x3fba2611	1.4542867
5	0x3fa4de99	1.2880431
6	0x3facf5ea	1.3512547
7	0x3fabf30d	1.3433548
8	0x3fc1c73a	1.5138924
9	0x3fd052c0	1.6275253
10	0x3fca487b	1.5803369
11	0x3fcf4208	1.6192026
12	0x3fdc2851	1.7199804
13	0x3fcce47e	1.600723
14	0x3fcab2a2	1.5835764
15	0x3fb86502	1.4405825
16	0x3fb6167f	1.4225615
17	0x3fbac115	1.4590174
18	0x3fc0226e	1.5010507
19	0x3fb1fce6	1.3905303
20	0x3fadcd6f	1.3578318
21	0x3fb7d5c1	1.4362108
22	0x3fbb2940	1.4621964
23	0x3fa4c360	1.2872124
24	0x402af444	2.6711588
25	0x3fc2cec8	1.5219355
26	0x3fad33fc	1.3531489
27	0x3fc547b5	1.5412508

norm.bias f4 [28]
0	0x3ec83281	0.3910103
1	0x3ea764ba	0.32694036
2	0x3ea6c9bd	0.3257579
3	0x3e92f2bf	0.28700826
4	0x3e06014a	0.13086429
5	0x3dab0a06	0.08351521
6	0xbd699640	-0.057028055
7	0xbebb7d60	-0.3661909
8	0x3e2703bf	0.16310023
9	0xbea60eeb	-0.32433257
10	0xbe16ec72	-0.14738634
11	0xbdb5db9d	-0.088797785
12	0x3e1d8f90	0.15386796
13	0x3dba08c6	0.09083705
14	0x3c3170fe	0.010830162
15	0x3e0a558d	0.13509198
16	0xbbd093f5	-0.006365294
17	0x3e104b82	0.14091304
18	0x3e33ad3b	0.17546551
19	0x3e8e379c	0.27776802
20	0x3ecbd9df	0.3981466
21	0x3ea497e7	0.32147142
22	0x3ec322cf	0.38112494
23	0x3e89892f	0.26862475
24	0xbdb580cd	-0.088624574
25	0x3e3c3f32	0.18383482
26	0x3ecc2e2a	0.3987897
27	0x3c1091fa	0.008823866

norm.running_mean f4 [28]
0	0x3fbee7d7	1.4914502
1	0x3fb6fbc6	1.4295585
2	0x3fb02333	1.3760742
3	0x3fbdb382	1.4820406
4	0x3fc13239	1.5093452
5	0x3fc5a7e9	1.5441867
6	0x3fc9abed	1.5755593
7	0x3fcfc778	1.6232748
8	0x3fe25025	1.7680708
9	0x3fe92c37	1.8216618
10	0x3fe3ef4e	1.7807405
11	0x3fe9f6a3	1.8278393
12	0x3fe8b9ac	1.8181663
13	0x3fec68d6	1.8469493
14	0x3ff5246d	1.9151741
15	0x3fee4af6	1.8616626
16	0x3fec0aa2	1.8440745
17	0x3fe91ea2	1.8212473
18	0x3fe24d0d	1.7679764
19	0x3fec4512	1.8458579
20	0x3fe657c0	1.7995529
21	0x3fd372df	1.6519431
22	0x3fc473e2	1.5347865
23	0x3fbefe8c	1.4921432
24	0xbe8cfd3d	-0.27536955
25	0x3fb0fe40	1.3827591
26	0x3ef2638d	0.47341576
27	0x412a20d2	10.633013

norm.running_var f4 [28]
0	0x3f3b68ee	0.73206985
1	0x3f3dada8	0.74093103
2	0x3f37e8b5	0.7183946
3	0x3f5955ab	0.84896344
4	0x3f5537b3	0.83288115
5	0x3f52a4b2	0.82282555
6	0x3f54cbe3	0.83123606
7	0x3f3c62dc	0.7358835
8	0x3f3f1ceb	0.746535
9	0x3f3f367c	0.7469251
10	0x3f423768	0.75865793
11	0x3f430b02	0.7618867
12	0x3f3cbafd	0.7372282
13	0x3f42ef6b	0.7614657
14	0x3f3e3ab1	0.74308306
15	0x3f45adc5	0.77218276
16	0x3f571a99	0.8402496
17	0x3f4f02ab	0.80863446
18	0x3f4e7183	0.80641955
19	0x3f663660	0.8992672
20	0x3f58ad25	0.846392
21	0x3f417240	0.75564957
22	0x3f49aec1	0.7878228
23	0x3f3b80ad	0.7324322
24	0x401ada13	2.4195602
25	0x3efa489d	0.48883525
26	0x3d11616f	0.03549331
27	0x42550c83	53.26222

norm_a.weight f4 [2]
0	0x402084ef	2.5081136
1	0x3fc279f7	1.5193471

norm_a.bias f4 [2]
0	0xbe8475c7	-0.25871107
1	0xbe22c954	-0.15897113

norm_a.running_mean f4 [2]
0	0x3d15a6c0	0.03653598
1	0xbdb0b225	-0.086277284

norm_a.running_var f4 [2]
0	0x3e407338	0.18793952
1	0x3e113e46	0.14183912
