turtlebot3_ddpg/save_model_ddpg/2020_11_28-19_07_30/stage_1_1200_critic.pth (torch_old, 586393 bytes, 13 tensors)

fc1.weight f4 [512, 26]
00000000: b456 babd b0d7 693c 301c 82be 30d7 6abe
00000010: fd00 b43c 56f7 9f3a 6eb1 ccbd 5124 36be
00000020: a01a e1bc fae8 1dbe 76c5 693e 9dbb 523e
00000030: 6a4b 43bc 0569 d9bc db78 2f3e 714e 93bd
00000040: f2d8 03be 8fbb 8c3e 5311 323c bda1 39be
00000050: a0eb 22be 80f7 6dbd 7cb5 55be 21de 283e
00000060: cca4 463d 7f44 5f3e 234c 033e 10a9 113e
00000070: 0baf 2abe 3280 1cbd fb63 503e 2c35 77bd
00000080: 46bd 90bd 30b2 84be e5ce 5bbe 788c 38be
00000090: 59de 15be 0ac3 26be 5efa dd3d c1ef 873d
000000a0: 262a 61be fdd0 353e c5fc c23c b145 943c
000000b0: 70f9 9dbb 133a 76be f16a 2bbd 9389 80bc
000000c0: ece4 013e e5fa 883e c9c5 acbd fb1c 42bc
000000d0: b32c 1dbe 8d85 033e baa3 9fbd a955 06be
000000e0: 0bb5 bb3d d8dd 273e e730 1e3e cb97 8c3e
000000f0: 5b67 fbbd 01fd e8be 9042 bdbe 6ce2 9abd
00000100: ed79 a2bd 694c 6abe de87 35bc 850b 4cbd
00000110: bb9a 48be a5f2 d4bd 02e2 113d 9783 133e
00000120: a683 c73c 0028 04be ae9b 243d 777c 41bc
00000130: 7f95 3639 b31c 803e 52b6 0c3d 0103 75bd
00000140: 7464 433e bae0 823d 4d21 0c3e b6c7 bbbc
00000150: 7476 603c 021b 8e3e 1d52 94be 662d f23c
00000160: dcab 19be b306 5b3c cee3 92be b2d5 713e
00000170: 288b 3ebe 1eba d43c 95fc 0abe f9a7 acbd
00000180: 33dd 0d3e 9942 36bd 47a2 92be b771 513e
00000190: 8344 a43e f2d6 84bb d718 03bc e6cc 573e
000001a0: 751e 08bd 7784 2abd 245b 28bd 41ce 2fbc
000001b0: 919e 9c3d 4976 da3d b4b3 423c 2a49 693d
000001c0: b2bf 6d3d 3ec1 de3c e418 823d 64b7 86bd
000001d0: 8737 87bd 4c9a ecbb 7119 04be 6dff 8c3c
000001e0: 6d12 06bd 04ed 71bd 6c63 da3d 526c 44bb
000001f0: 0972 5abd 905d 08bd c297 73bd 141d 47bd
00000200: 9e8d 39bf 23ab 81bd 32e3 a1be 6540 033d
00000210: 0528 4ebe 2f0d a73e 40e1 f23c b72c 3c3e
00000220: eff4 c73d b646 04be 4e2b 1bbd 3387 8b3c
00000230: 45fe 6f3e 61d8 d43d 26e2 dcbd 097b e2bc
00000240: 0cde 713d 1940 d73d b0c5 82bd c0fe b8bd
00000250: f7f5 c6bd 6b6d acbe db51 b7bd 502c bf3d
00000260: 6e3d afbe a449 08be 5412 b1be a391 1cbe
00000270: 5662 98bd 83f6 03be dc0f c5bc 5ce9 4e3e
00000280: b21b 6f3e e85b d93d 2ca7 ee3d 33a7 f2bd
00000290: db4f 6e3e e3ad d63d 56e6 e73d 2395 2b3b
000002a0: 1440 b83e 91fc 71be 22b4 4bbe 9e3f b83d
000002b0: e2ef b43d 182e b63d 158b 453e bfe2 c6bc
000002c0: 757f 543e 5277 34be 108e c0bd 8eca c8bd
000002d0: 4d5e 293e 3e26 a8be 813d babe f601 263e
000002e0: 4444 68bd b6ab 293c d92a 9b3e c291 13be
000002f0: 673a 3c3e 1982 fc3d 21fa d23d 9432 14be
00000300: 757d fc3d c5d5 533d ed88 6f3c 0abc 80bd
00000310: 79a5 08bd e485 63be 0557 e6bd d660 9e3d
00000320: 8ffe bdbd a87d 91bd bb6a a53d 2e21 ad3d
00000330: 283b 1b3c 2853 79be b734 8b3e 0527 7b3d
00000340: 7715 8f3e f592 743c 0e28 b03d 88ee e8bc
00000350: 4679 bf3d eac7 513d 8060 283d daf6 9c3d
00000360: 88bf aabd bd01 e43b 5e95 d6bd 1388 7fbc
00000370: 304c 07bd 4426 313d cb37 8a3c e5a8 543d
00000380: 0609 e93d ecbf 103e 69b8 5d3d 499e 953d
00000390: 519e 093e 2d45 a4be 344b bd3b 5878 c4bc
000003a0: 3101 e63e fa98 dd3d 91e5 443d e9b3 50bc
000003b0: aa53 dd3d 565d b33d b7e6 d03d dfee 2b3e
000003c0: afb2 943c cc63 533e 6a76 56be ef39 4ebe
000003d0: 55fb 09be 8ae7 743a 4534 10be 6de8 2a3d
000003e0: 44f1 473e 8b71 353e 3ee4 29be c7be 963b
000003f0: 39a3 103c b7b9 0bbd 52aa 793e 3c1d 54be
-0.090985686 0.014272615 -0.2541213 -0.2293365 0.021973127 0.0012204449 -0.099947795 -0.17787291
-0.027478516 -0.15420905 0.22829232 0.20579381 -0.011919836 -0.026539335 0.17135946 -0.07192696
-0.12875727 0.27486846 0.010868388 -0.18128105 -0.15910196 -0.058097363 -0.20870012 0.16490985
0.048497006 0.21803473 0.12822013 0.14224648 -0.16668336 -0.038208194 0.2035064 -0.060353443
-0.07067351 -0.25917196 -0.21465643 -0.18022335 -0.146356 -0.16285339 0.108387694 0.06637526
-0.21988735 0.17755504 0.02380217 0.018099638 -0.004820995 -0.24045591 -0.041850034 -0.0156906
0.12684983 0.26753917 -0.08436162 -0.01184773 -0.15349083 0.12843914 -0.077949 -0.13118614
0.091653906 0.1639322 0.15448342 0.2745956 -0.12275573 -0.45505527 -0.36964846 -0.07562718
-0.07933412 -0.2288071 -0.011079757 -0.049815673 -0.19590275 -0.10397843 0.03561593 0.14405666
0.024354767 -0.12905884 0.04018753 -0.01180946 0.00017412564 0.25021896 0.03435356 -0.059817318
0.19081289 0.063905194 0.13684578 -0.022922378 0.013700116 0.2775498 -0.28968897 0.029562663
-0.15006965 0.013368296 -0.28689426 0.23616675 -0.18607771 0.025967654 -0.13572915 -0.08430476
0.13853912 -0.044497106 -0.28639433 0.20453535 0.3208352 -0.004053944 -0.008001528 0.21074256
-0.03323217 -0.041630235 -0.041102543 -0.010730327 0.07647432 0.10667092 0.011883665 0.05695454
0.058044143 0.027191754 0.06352404 -0.06577948 -0.06602388 -0.007220542 -0.1290033 0.01721164
-0.032732416 -0.059063926 0.106634945 -0.002997179 -0.05333141 -0.033292353 -0.0594709 -0.048611715
-0.72481716 -0.0633147 -0.3161865 0.032043833 -0.20132454 0.32627246 0.029648423 0.18376432
0.09763514 -0.12917599 -0.037883095 0.017032241 0.2343684 0.103928335 -0.10785322 -0.027646558
0.05904965 0.105102725 -0.06385362 -0.09032965 -0.09714883 -0.3367723 -0.089511596 0.09334624
-0.34226555 -0.13309342 -0.34584296 -0.15289931 -0.07440631 -0.12887006 -0.024055414 0.20206207
0.23350409 0.10613233 0.11652979 -0.11848297 0.2327265 0.10482385 0.1132323 0.0026181422
0.35986388 -0.23631503 -0.19892934 0.08996509 0.088348165 0.088955104 0.19291337 -0.024278043
0.20751746 -0.17623642 -0.09402096 -0.09804259 0.16539879 -0.32841676 -0.3637505 0.16211686
-0.05670573 0.0103558805 0.30306128 -0.14411071 0.18381654 0.12329502 0.103016146 -0.14472419
0.123286165 0.05171754 0.014620048 -0.062858656 -0.033360932 -0.22219044 -0.112470664 0.07733314
-0.09277069 -0.07104045 0.08076998 0.08453594 0.009474553 -0.24348128 0.27188656 0.06131651
0.27946064 0.014927615 0.0860139 -0.028434053 0.09349303 0.051216044 0.041107655 0.07664271
-0.08337313 0.006958215 -0.10477708 -0.015596407 -0.033031642 0.043249384 0.016872307 0.051918883
0.11378674 0.14135712 0.054130945 0.07305581 0.13439299 -0.32084027 0.005776787 -0.023983166
0.44922784 0.108201936 0.048070494 -0.012738206 0.10806973 0.08758037 0.10200255 0.16790341
0.01815161 0.20643538 -0.20943609 -0.20139287 -0.13474782 0.00093423633 -0.14082439 0.041725565
0.1952563 0.17719094 -0.16590974 0.004600379 0.008827978 -0.03411266 0.24381378 -0.20714277

fc1.bias f4 [512]
00000000: d1bc 6b3e 5925 b93d 6cf3 863e 1a00 223c
00000010: a7d3 703b 43ed 2abe 5287 24be 9db3 13be
00000020: 7dbb ad3d ad9a 7b3e 35ce fe3d d91d 843e
00000030: 5442 cebc 00ba 96bd 87ea 843e 09cd 723e
00000040: 9439 8fbd aadb 8e3e 79c4 b4bd e6d8 fb3c
00000050: 71e3 4cbe 0210 15be 5254 8bbd c915 1e3e
00000060: e006 cd3d e581 8ebd d87d 0bbd 9405 4b3d
00000070: b01e 5a3e 913e 943e 35d3 243e 20b1 a73e
00000080: 959b 533e 5b5e 0c3e b3a7 90bd 70ac 81bd
00000090: 6481 09be af57 3f3e 41d3 ac3e 2bef 95bd
000000a0: 6436 59be fadb 2c3e 925a 533e ce2e 0bbe
000000b0: e149 42be db81 10be 448a 8b3e 419f 9a3b
000000c0: 3085 65bc 0b3e b43e 203f 8b3d 6b4c d93d
000000d0: ca78 60bb dd0b b33d d89d 083e 4fb2 2fbe
000000e0: cccb 4f3d 2177 e33e d630 24be 7032 0cbd
000000f0: f50d 213e 530e 083d 58c1 c93b 5eb3 a33e
00000100: 37c4 913e cb17 74bd 9295 c13d 3563 333e
00000110: 85ec 683d 3236 fb3d e49a e63e db2b b83d
00000120: 3605 563d 2649 243e c4fe 333e 6f92 4d3d
00000130: 470d 21bd b509 54bd 1356 afbe 2191 ccbe
00000140: fccd 673e e31f c53d 6cc3 46be ee91 b73e
00000150: af15 6e3e 75e8 18be a6d2 d5bd a680 023e
00000160: cc6e 37be f588 f9be cc8a 2cbe 787c c83e
00000170: acdc 6d3e 965d 46be ce48 7abe c375 983d
00000180: 518a 833e bab1 7abe 21ae 293e 6e9c d73e
00000190: a352 4e3e cdd8 5ebe 787b 95be 1c9b a13d
000001a0: 35ff 433e a7de 073e 53ab cb3e f4a8 4d3d
000001b0: 3fc5 663e 7166 46be e906 2a3e a9d1 ba3d
000001c0: f38c f13e 4e87 f73d 4f14 c3bd 6451 953d
000001d0: b114 8e3e 8dbf 033e 810e 263e b0bd 993e
000001e0: 716a c1bd cc18 8abe ed5e 95be 09f6 f23e
000001f0: ad7f 01be d147 f8bd 0b7d 973e 4228 1ebe
00000200: 240d 57bc 4e8d 2bbd fc3f c53d 32b5 2bbe
00000210: b92d 823e 82bb 593d aa65 88be 3733 883d
00000220: 3fa5 1f3d 87aa e63d f0a8 10bc ca11 de3d
00000230: 7845 b83e bc61 8ebd ef0e 213e 3919 b43e
00000240: a031 83be 2834 82bb f81a e63d 2ff7 0dbe
00000250: d38c 6f3e 7aa0 8abe 6099 033e faa3 8c3e
00000260: 5eca 8d3e 0ae1 943e 9ddb 3b3e a38b 813e
00000270: 1d7e 4abe e7a4 0abe 2d86 94be d880 053e
00000280: 3b48 ca3e 7606 323e df25 4d3d 0e00 e73e
00000290: acbf 143e 4cb6 9d3d 2608 b53d 0b80 8e3e
000002a0: d330 ac3e e4e5 97be ec8e 373e 426f c6bc
000002b0: 5224 b9bd f8a3 393e 98a4 0b3e 5bc1 623e
000002c0: 9376 f93d 07c8 b53d f165 acbc bb10 13be
000002d0: 8ba4 eebd 74eb c33d 9e41 b2bd 646b edbd
000002e0: 3985 dc3d 37d7 2a3d dd1d 18bd 5465 b73d
000002f0: 7b19 943e e7d7 a23d 3ae8 57be b659 af3e
00000300: ec5f 173e d4c9 8bbd 3463 e13d d076 603e
00000310: 8b44 73bb 1682 4cbe 8c9d e4bd f49a 333d
00000320: 23f6 363d d82b 37be f232 bb3d 3f2f c33d
00000330: ee65 703e 50c4 a13d 28d8 d03d db19 c63e
00000340: 644b 233e 8f07 24be 397a fe3d 389e 023d
00000350: 2d80 2c3d 3320 66be d867 d2bc 630f 6c3b
00000360: 7d6c eebc f79b 663d 4b93 a6be 1b3f 52be
00000370: 68bb 2bbe d7a6 3cbd f91a 2dbe e2f9 8b3d
00000380: 3a34 8ebd 7db0 a0be 8a3e 04be 24c6 af3e
00000390: 82eb 893e bfe6 42bd ea72 843c 50fd 95bd
000003a0: 0dd6 c43e 8908 fabd 2163 753e 1ad0 643d
000003b0: 10b3 bc3d 545f b0bd 4d8c f8be 4057 863e
000003c0: 148e 03bc 5c22 b83c b6f7 6ebe fc65 5fbe
000003d0: 7c3d 96bc 5438 7b3e a0b8 9f3e db4d 9fbd
000003e0: 294f 64be a3ef 1fbd a241 91bc 8a03 5fbe
000003f0: e52a 003d b65e c93d 0e23 943c 2e2a ec3d
0.23021246 0.090403266 0.2635759 0.0098877195 0.0036747248 -0.1669207 -0.16067246 -0.14423986
0.08483026 0.24570723 0.124416746 0.25804022 -0.025178112 -0.073596954 0.2596018 0.23711027
-0.06993404 0.27901965 -0.08826537 0.030743074 -0.20008637 -0.14556888 -0.06803192 0.15437998
0.10011077 -0.06958369 -0.03405556 0.049565867 0.21300769 0.28953984 0.16096194 0.32752323
0.20664819 0.13707869 -0.07063236 -0.06331718 -0.13428265 0.18685792 0.33754924 -0.07321008
-0.21212155 0.1688079 0.20640019 -0.13592073 -0.18973495 -0.14112036 0.27253926 0.0047186916
-0.014008805 0.35203585 0.067991495 0.10610279 -0.0034251683 0.08742497 0.13341463 -0.17157863
0.050731465 0.44426826 -0.16034254 -0.03422779 0.1572798 0.033216786 0.0061570816 0.31972784
0.28470013 -0.059593003 0.094523564 0.17518313 0.056866188 0.12266196 0.45040047 0.0899274
0.052251063 0.16043529 0.17577654 0.050188478 -0.039319303 -0.05176707 -0.34245357 -0.39954475
0.2263717 0.096252225 -0.19410485 0.35853523 0.23250459 -0.14932425 -0.104405686 0.12744388
-0.1791336 -0.48737302 -0.16849822 0.39157462 0.23228711 -0.19371638 -0.24441835 0.07444336
0.25691465 -0.2448186 0.16570331 0.42111534 0.20148711 -0.2176239 -0.29195762 0.07890913
0.19140323 0.13268529 0.39779148 0.050209954 0.22536181 -0.19375016 0.16604199 0.09122021
0.47177848 0.12086354 -0.09525358 0.07290915 0.2775016 0.1286604 0.1621647 0.30027533
-0.0944413 -0.26972044 -0.29173985 0.47453335 -0.1264636 -0.12123073 0.29587588 -0.15445045
-0.013125692 -0.041882806 0.09631345 -0.1676834 0.2542551 0.053157337 -0.26640064 0.066503935
0.03897595 0.11262994 -0.00882934 0.10843237 0.359905 -0.06952235 0.15728353 0.35175493
-0.25623798 -0.0039735027 0.11235613 -0.13863824 0.23393564 -0.2707556 0.12851477 0.27468854
0.27693456 0.2907794 0.18345495 0.25301847 -0.19774671 -0.13539468 -0.29008618 0.13037431
0.39508232 0.17385277 0.050084945 0.4511723 0.14526242 0.07700786 0.08839445 0.27832064
0.33631 -0.2966758 0.17925614 -0.024222974 -0.09040131 0.18128955 0.13637006 0.22144072
0.12180819 0.08876043 -0.021044703 -0.14361851 -0.11652478 0.095663935 -0.08703922 -0.11592749
0.10767598 0.04170915 -0.037137855 0.08954874 0.2892569 0.07951336 -0.21084681 0.34248132
0.14782685 -0.06825605 0.110052496 0.21920323 -0.0037119712 -0.19971499 -0.11162862 0.043848947
0.044668328 -0.17887819 0.091405764 0.09530496 0.23476383 0.07898772 0.101974785 0.386916
0.15946728 -0.16018508 0.12425656 0.03188917 0.042114425 -0.2247322 -0.025684282 0.0036019913
-0.029104466 0.056301083 -0.3253425 -0.20531885 -0.16770709 -0.04605755 -0.1690482 0.06834771
-0.06943555 -0.3138465 -0.12914482 0.34330857 0.2693749 -0.047583338 0.016168077 -0.07323706
0.38444558 -0.12208659 0.23963596 0.055862524 0.09213841 -0.086119324 -0.4854454 0.2623844
-0.0080294795 0.022477321 -0.23336682 -0.21816248 -0.018339865 0.24533206 0.31195545 -0.077785216
-0.22295822 -0.039046895 -0.017731491 -0.21778694 0.031290907 0.09832518 0.018083122 0.11531483

fc2.weight f4 [256, 514]
00000000: b56c f23d 0e04 a6bc 15e2 e83d 56bb f23d
00000010: b00f 103e a36a cbbc 50a7 5e3d ada9 b23d
00000020: f97b f73d 2319 403d ef33 593d 4410 913d
00000030: 4a48 83bd fc1f aabd 5860 c63d 4c8d c1bc
00000040: 8ff5 953d a83e b43d 14bd d7bd 34b8 ff3d
00000050: b9ce e93d d3ab 2dbe 15eb b03d a43e afbd
00000060: 3a80 393d 376e bb3d 466e bf3d 5083 3e3e
00000070: 5fc5 26bd 8517 12bd 484a a23d a58d a63d
00000080: 6a73 d33d 0e6e a0bc bca7 9d3d 4b91 8fbc
00000090: a7fd f4bc 60f6 e83d 3a83 4a3e a3df b53c
000000a0: 417c da3d db8b 7e3d 6b6f aa3d 4329 813c
000000b0: bf77 80bd 1119 be3d e991 833d 29be 2d3d
000000c0: 1b67 ca3d 0455 ff3d e204 b13d 1366 853d
000000d0: a710 76bd bd3d a43a e3aa 903d 0d10 483d
000000e0: c5ac 033e ff93 0e3e 8ef2 0b3e 1287 a6bc
000000f0: b7b9 41bd f1b3 083e 439b edbc 9b7a b43d
00000100: 1ce2 cc3d 6514 0ebd 4f48 943d 6028 113e
00000110: e190 77bb 7b6e a5bd a013 073e bbdd eb3d
00000120: 1531 39bc f45c 193e 81a3 c73c 8ef1 a13b
00000130: f4c8 033e ab29 e2bd 69b7 a23d bc82 e43d
00000140: fc26 de3d 1d61 f63c d78a dc3c 2b17 fa3d
00000150: 7d4f ab3d 8825 b3bd 0f0e 2b3e 48c8 b13d
00000160: 9976 30bd 3d9a bbbc 1117 be3c 20db b33d
00000170: d4c0 d93d 0960 efbd c5ec 07bc 4fd9 033e
00000180: b347 2cbb 5125 943c e616 4c3e 5ff9 f43d
00000190: 4cbb 1f3e 4b2d 503e 969c a0bc 331f a7bd
000001a0: 307d 613d 74c9 ed3d 2d1a 163e 096d fe3d
000001b0: 7a2b 0f3e d6a8 fd3c c3f4 883d 8adc 58bb
000001c0: 920f 083e 1a7e 883d b130 b3bd 81bb b03d
000001d0: 81d3 d73d 2edd cb3d 2554 85bc 1e7b 613e
000001e0: 6317 b93d d526 9d3d f0c5 c03d 6946 1f3e
000001f0: b1ea adbd f741 1c3d cb04 2ebd 621f 1e3d
00000200: 16bb 1b3e 159b c03d d315 863d 0667 dfbd
00000210: 7104 fc3d 6bb9 723d fd2c 83bd 5726 713a
00000220: b647 2dbd b5f0 bbbc da8e afbd aefc 833d
00000230: 22c6 193e fd40 47bd c09c f93d fb7b 123e
00000240: ef76 f8bd 2fd8 a7bd 60f0 813d b822 043e
00000250: 1de7 dd3d 5a95 3e3e e2a2 073c fc67 ad3d
00000260: 29d8 b73d eb03 0e3e 7582 b23d 7e03 8d3d
00000270: 3293 0dbd dd38 0ebd 3ee0 0e3e ef91 723d
00000280: 87ba 913d 45f2 ea3d 10f8 dd3d 4bef 1f3e
00000290: 440b bd3d 2c4f 293e f2ff 17bc 30a1 cfbd
000002a0: d6c8 353d 5bc1 1a3e e785 c03d adfa 803d
000002b0: f074 803d 7098 a0bc 8c50 f13d 0caf 9d3d
000002c0: c1d4 953d dd18 0d3d 4694 983d 9a25 513d
000002d0: e954 1fbd 8af0 db3d bfd6 053e 3088 793c
000002e0: 01e3 1a3e 3e95 f0bd 69ab 163d f53a 9b3d
000002f0: 076f f53d 5230 913d f10c 09be 795e ea3d
00000300: 6287 14bd c2bc 1f3e 6ff7 283e e230 e83d
00000310: dea7 8c3d 5bb0 9e3d 5ff1 f7bd b022 7c3c
00000320: a569 013e 26c6 b4bd ab51 4c3d b3b9 ec3d
00000330: 9de4 743d 1d3d ab3d eee7 d53d 00da 043e
00000340: ebd5 c23d 59f3 89bd b757 093e 4a14 413c
00000350: 4d59 c13d d400 943d 6549 09be 049d 2a3e
00000360: 1661 193d 05f6 b93d 4281 353d 43e4 203e
00000370: 2db8 553d 1c63 9bbd 7117 0cbd f5e1 cc3d
00000380: ace8 d33d 4d78 22bd 8d9b fcbd 4676 fb39
00000390: a679 1a3c 500d 023e af24 763d dfa5 41bc
000003a0: d37a d43d ca1e 123e 4d50 e73d 409c a73d
000003b0: c525 98bc 2617 50bd 4e6e 433c 739b 13bd
000003c0: ce86 103e 1174 48bd bdd2 043e dfad 043e
000003d0: e117 23bd 7f2e 4d3e 0041 143e c0ca 92bd
000003e0: 8864 bf3d 7143 ab3d 2056 89bd 25be c73d
000003f0: 8621 0cbd 0184 e8ba 82cb 8dbd d16b a53d
0.118371405 -0.020265605 0.11371247 0.11852138 0.14068484 -0.024831122 0.05435878 0.08723769
0.12084193 0.046898972 0.053028043 0.070831805 -0.064102724 -0.08306882 0.09686345 -0.023626946
0.07322227 0.08801013 -0.10534111 0.12486306 0.11416382 -0.16960077 0.08638588 -0.085568696
0.045288302 0.09151881 0.09347205 0.18604779 -0.04071557 -0.03566696 0.07924324 0.08132485
0.10324748 -0.019583728 0.076980084 -0.017525336 -0.029906107 0.11375117 0.19776621 0.022201365
0.10668231 0.062145095 0.083220325 0.015766745 -0.0627284 0.09282125 0.064243145 0.04241768
0.09882947 0.12467387 0.086435094 0.0651361 -0.060074475 0.0012530606 0.07063844 0.048843432
0.12858875 0.13923644 0.13666746 -0.020328078 -0.047296252 0.13349892 -0.029004699 0.08812448
0.100040644 -0.03468742 0.07240354 0.14175558 -0.0037775564 -0.08077713 0.1319108 0.11516901
-0.011303206 0.14976865 0.024369957 0.0049421256 0.12869626 -0.11043104 0.07945139 0.11157748
0.108472794 0.030075604 0.026921673 0.1221145 0.083647706 -0.08747393 0.16704582 0.08680779
-0.043081854 -0.022900695 0.023204358 0.08782029 0.10632482 -0.11688239 -0.008296196 0.12875865
-0.0026287853 0.0180842 0.1993061 0.11961626 0.15598792 0.20329778 -0.019605916 -0.08160248
0.05505103 0.1161069 0.14658423 0.124231406 0.13981429 0.030964296 0.066873096 -0.0033090436
0.1328719 0.06664677 -0.087495215 0.086295135 0.10538388 0.09954296 -0.016275475 0.22019622
0.09037664 0.07673422 0.094127536 0.15554203 -0.084920295 0.038148846 -0.04248504 0.038604148
0.15208086 0.094045796 0.065471314 -0.10908322 0.12305535 0.05925886 -0.06405065 0.00091991335
-0.042304717 -0.022941926 -0.08572169 0.06444679 0.15016988 -0.048645962 0.12188101 0.14305107
-0.1213206 -0.081955306 0.06344676 0.12903869 0.10835097 0.1861166 0.00827858 0.08467099
0.08976776 0.13868682 0.08716289 0.06885432 -0.034564205 -0.034722198 0.13952729 0.059221204
0.071156554 0.114719905 0.1083833 0.15618627 0.09230664 0.16534108 -0.009277331 -0.10138166
0.044380985 0.15112822 0.0940054 0.062978126 0.06272304 -0.019603938 0.11782941 0.07699403
0.0731597 0.03444754 0.07450156 0.05106125 -0.038899336 0.107392386 0.130702 0.015230224
0.15125658 -0.11747216 0.036784563 0.075796045 0.119840674 0.070892945 -0.13383843 0.114438005
-0.036261924 0.15599349 0.16500638 0.11337449 0.068679556 0.07748481 -0.12106585 0.0153891295
0.12637956 -0.08826856 0.049882572 0.11558857 0.059788335 0.08361266 0.10444628 0.12973785
0.09513458 -0.06735868 0.13412367 0.011784622 0.09440861 0.072267205 -0.13406904 0.16661459
0.037446104 0.090801276 0.044312723 0.15712075 0.052177597 -0.07587263 -0.034202043 0.100040354
0.10347113 -0.03966551 -0.123343565 0.0004796257 0.009428417 0.12700391 0.060093578 -0.011819332
0.10374989 0.14269558 0.11294613 0.08184099 -0.018572697 -0.050803326 0.011928154 -0.03603692
0.14113924 -0.048938815 0.12971015 0.12956952 -0.039817695 0.20037268 0.1447792 -0.07167578
0.09345347 0.08362473 -0.0670588 0.09753064 -0.034211658 -0.0017739536 -0.06923582 0.08077205

fc2.bias f4 [256]
00000000: a01a 4d3e bbcb 1d3e 5b45 0abe c866 ed3d
00000010: 8960 133e c019 2a3e a761 423c 2f4e 83bc
00000020: 4bce 26bc 1e33 273e 609d 353e 5bd9 773d
00000030: 9f8e 5f3e 06ae 3d3e 0ce5 283e 1a49 413e
00000040: c60c 143e 3dcd 463e b6ef 23bd c2dd 413e
00000050: 4a7c 6f3e 270f 493e 92d8 0a3e 8f70 32bd
00000060: fd3a 553e 4bb7 acbc 6469 0a3e 02fa 4c3e
00000070: affd 343e 5d33 5c3e 3d27 4fbe 6431 563e
00000080: 1214 103d b9ee 273e 87c5 0dbe 1921 6a3e
00000090: c562 283e ef3b dd3c 6ce8 3d3e 8891 4f3e
000000a0: 9216 353e c2a5 e73d 0deb 473e 92ed 3b3e
000000b0: c5da 4abe c510 78bd e1fd a33c 77bf 213e
000000c0: fe31 4d3e d103 133e 8f45 5a3e e262 bcbc
000000d0: 11f9 373e 0dd2 503e 2f27 133e 1438 273e
000000e0: 1ed7 183e 07b1 833d 789d dd3c be06 5c3e
000000f0: dad7 5abd af9a 6bbd 1702 493e c5ba dc3d
00000100: 5921 353e c66c 863c 6df8 1d3e 1eb6 3d3e
00000110: e895 3d3e 5770 473e 361b 523e cfe8 433e
00000120: ab9f 233e 4639 233e 49ae 563e f841 b0bc
00000130: fb83 603e 707b 0ebe 849a 173e 73ab 25bc
00000140: 7363 163e 2a27 493e bd01 7abd 80e7 4f3e
00000150: d101 443e 2c7e 9c3c 387b 073e 7d5a e9bc
00000160: 5965 3e3e 0c68 3e3e 08c9 be3d 2b6d 45bd
00000170: e1fb 3cbc df29 1f3e 9627 6ebd 34a6 333e
00000180: b415 9b3d a5c5 203e 3dd6 0f3e 3a92 9c3d
00000190: e863 4f3e 3e51 4f3e 790d 163e 43b7 403e
000001a0: d2b2 5b3e 0524 083e 769d 02be 1179 b33d
000001b0: 4ff2 3c3e 8efe b3bd 6a2e babd c468 1b3e
000001c0: d7a5 563e 1ac2 5c3e d10b 363e 00b0 3c3d
000001d0: 665d 443e d39e 853d ebc4 593e 4875 173e
000001e0: 39d6 053e b699 3b3e 0b47 083e 5d30 1a3e
000001f0: d7f2 e63d b1a6 113e 123b 333d 022d f43d
00000200: 964a 4bbd 758b 273e 4cab 173e d3bc b5bd
00000210: 4bed 1f3e 3054 6d3e 66c9 8c3e 0156 06be
00000220: a550 5e3e d1a4 7bbc 2c14 353e ee97 0fbc
00000230: a59c c03d d1fe 333e 79db 353d 2eb2 ee3d
00000240: f0a4 143e b986 413d 3ad4 103e 3b4d 223a
00000250: f376 4a3e 5259 153e 2428 2a3e a684 0e3e
00000260: 9859 2e3e cb58 663e b82c 293e 6790 373e
00000270: 5ba8 153e ddc7 0f3e c902 1f3e 8056 63bd
00000280: 3848 40bd 6d6c 23bd 0c40 633e 95bb 14be
00000290: cf80 2dbd 1e4c 4c3e b624 5fbe ac87 0c3d
000002a0: 774a 1e3e 2871 5e3e 52b2 5b3e 9b65 263e
000002b0: f236 52bd 9a9c cdb9 dd32 98bc 1080 3e3e
000002c0: a8d1 543e 0d0a 073e 906c 0f3e ad3a 433e
000002d0: 5449 333e fb11 32ba 6008 b53c 6e36 a5bc
000002e0: f4ec 423e f507 eb3d 3642 b0bd b5ec 513c
000002f0: a645 283e bc15 c8bb b1dd 083e 5ce2 b03d
00000300: d8ac 5d3e 5ae4 20bd 5dbf 213e 9091 193e
00000310: 3371 4fbd e3cf 7bbc ca37 c3bc febd 6bbe
00000320: 0f90 2f3e f61f a1bc 4b70 113e f264 3a3e
00000330: fbf2 353e 1a54 1a3e 3f33 4d3e a260 5d3e
00000340: 9ed1 28be 097c 1eba 7ece 0bbd 3aec 213e
00000350: 0dc3 343e ee0a 283e 5fa0 803e a370 563e
00000360: d637 2ebc 03bb 823c 3a5e 463e df85 5a3e
00000370: ff9b 323e 17ed 2d3e 518a c4bd 85c2 c7bb
00000380: d280 c23d 1b59 70bd 4b7d 223e fd0a 0c3e
00000390: 14d8 d9bd 66fb 433e 6c5d 593e b682 433e
000003a0: fce5 2b3e f4e4 2b3e 18ba c3bd b8c1 30bd
000003b0: fb99 1f3e c511 483e 2545 e5bd d143 653e
000003c0: 0c60 133e ea2e 413e a6e5 413e 8e28 b63d
000003d0: abe2 5e3e 59a8 593e 5ecc 63bd 0bad 983d
000003e0: 31fa 443e 63ba 0b3e b381 273e 0bfb 423e
000003f0: b9a2 393e b8d9 133b e434 00be 27d4 68be
0.20029688 0.15409748 -0.1350302 0.115918696 0.14392294 0.16611385 0.011864102 -0.016028492
-0.01018102 0.16328093 0.17735815 0.06051002 0.2183175 0.18523416 0.16493624 0.18875542
0.14457998 0.1941423 -0.040023528 0.1893225 0.23387256 0.19634686 0.13559178 -0.043564375
0.20823283 -0.021083495 0.13516766 0.20017245 0.17674898 0.21503969 -0.20229812 0.20917279
0.03517539 0.16399659 -0.13844882 0.22864188 0.16443928 0.027006118 0.18545693 0.2027036
0.17684391 0.11310913 0.19523259 0.18352345 -0.19810016 -0.060562868 0.02001852 0.15795694
0.20038602 0.14356925 0.21315597 -0.02299637 0.17966105 0.20392628 0.14370416 0.16329986
0.1492581 0.0643025 0.027052626 0.21486947 -0.05342851 -0.057520565 0.19629703 0.10777811
0.17688502 0.01640929 0.15426798 0.18526503 0.18514216 0.19476448 0.20518193 0.19131778
0.15978877 0.15939817 0.20964922 -0.021515831 0.21925347 -0.13914275 0.14805037 -0.010111677
0.14686374 0.19643846 -0.061036814 0.20303154 0.19141318 0.019103132 0.13230598 -0.028485531
0.18593349 0.18594378 0.093156874 -0.048199814 -0.011534662 0.15543316 -0.05814322 0.1754387
0.07572499 0.15700395 0.14046569 0.07645078 0.20252955 0.20245835 0.14653577 0.18819909
0.21454933 0.1329499 -0.12755379 0.08763326 0.18451808 -0.08788787 -0.09090884 0.15176684
0.209617 0.21558419 0.17777945 0.046066284 0.19176254 0.06524434 0.21266524 0.14790833
0.1307 0.18320355 0.1330835 0.15057512 0.11276787 0.14223744 0.043757506 0.11922647
-0.049631678 0.16361792 0.14811438 -0.08873906 0.15617864 0.23176646 0.27497405 -0.13118745
0.21710451 -0.0153591195 0.17683476 -0.00876425 0.094048776 0.17577673 0.04439876 0.11655079
0.14516044 0.047247622 0.14143458 0.0006191318 0.19771938 0.14584854 0.16616875 0.13917789
0.17026365 0.2249481 0.16520965 0.17926179 0.14615004 0.14041086 0.15528406 -0.055502415
-0.046943873 -0.039898325 0.221924 -0.14524682 -0.04235917 0.19950911 -0.21791348 0.034309074
0.15458094 0.21722853 0.21454743 0.16249697 -0.05132193 -0.00039217324 -0.018578941 0.1860354
0.20783103 0.13187428 0.14006257 0.19065352 0.17508441 -0.00067928404 0.02209872 -0.020167556
0.19035703 0.11476127 -0.08606379 0.012812783 0.16432819 -0.0061061066 0.13365819 0.086369246
0.21647966 -0.039280273 0.15795656 0.14996934 -0.050645065 -0.015369388 -0.023830313 -0.23021695
0.17144798 -0.01966856 0.14202993 0.1820257 0.17768471 0.15071145 0.2003908 0.21618894
-0.16486213 -0.00060457044 -0.034132473 0.1581277 0.17652531 0.1641042 0.25122353 0.20941405
-0.0106334295 0.015958315 0.19371882 0.2134013 0.1744232 0.16984974 -0.09596694 -0.0060961866
0.09497227 -0.058678728 0.15868108 0.13676067 -0.10636917 0.1913887 0.21227044 0.19092831
0.16786951 0.16786557 -0.09556979 -0.043153495 0.15586083 0.19538029 -0.11194829 0.22389151
0.14392108 0.18865553 0.1893526 0.08894454 0.21766154 0.21255626 -0.05561482 0.0745488
0.19236065 0.1364532 0.1635807 0.19041078 0.1812848 0.002256019 -0.12520176 -0.2273718

fc3.weight f4 [1, 256]
00000000: 633e 33be d716 4fbe 9a99 183f 86c2 393f
00000010: ce54 40be cbff 3dbe cae8 9e3c 92e0 2c3f
00000020: e5be 293f 30f6 25be a037 12be 7751 863f
00000030: ab21 2ebe 258e 3dbe d2bb 2e3f b27c 46be
00000040: 9c48 35be 6bb5 37be 93b5 3a3f ddba 18be
00000050: 95b1 563f 7a4d 28be d5cf 4abe f1dc bb3c
00000060: 5106 39be e47b 503f aaa5 1abe c4e1 1ebe
00000070: 575f 2abe 2f70 0ebe 20b3 313f 4a36 1dbe
00000080: 2870 cdbe c420 13be 4241 2a3f 99ef 413f
00000090: f7fd 44be 511b a93c 4d2d 31be f452 0ebe
000000a0: 8ae7 16be 6cd6 1b3f 8524 3abe f565 3bbe
000000b0: 48d8 0e3f c57c f83e d2c7 5c3f 384d 1bbe
000000c0: f0c7 27be 8711 173f 846c 21be ee81 1d3f
000000d0: 6f5b 593f 71ef 28be 278f 24be e426 22be
000000e0: 4ddd 18be 694a 8e3f 5a18 3b3c f8ab 47be
000000f0: cd3c 55bf e41c 2d3f a721 3dbe c045 323f
00000100: b016 44be bc2b 573d 7a4d 1bbe 56cf 36be
00000110: 2ba3 42be dcc4 133f ef6a 433f 5d31 0ebe
00000120: 8fbd 29be 5b08 31be 1b6f 2abe 4c8c 113f
00000130: 8f5b 1dbe a57d 533f fbab 32be 714a f73a
00000140: bf53 373f afe0 22be bb1e 1c3f a0df 16be
00000150: befb 8a3f 82f1 cfba ac5e 133f acaf f23e
00000160: 771b 3ebe 5845 153f 2106 233f 5464 623d
00000170: db2d 2e3f 8e9a 383f e94d 333f 3642 163f
00000180: 4cd8 07bf 3038 48be a6b8 0dbe 8d42 503f
00000190: d367 3fbe 078c 233f aa98 3ebe aaf7 38be
000001a0: 111b 43be 369c 42be 1ed2 193f 8582 503f
000001b0: 0858 12be 4124 0f3f 6c71 263f 04ec 43be
000001c0: e7fd 1bbe 001e 0ebe 7075 403f 9fc7 893f
000001d0: 272a 2abe 4390 393f e24a 2abe 9744 22be
000001e0: 6886 1ebe 43c0 1ebe b7f5 0dbe 33bd 41be
000001f0: c1cd 383f 0539 2b3f 8318 373f 7bf1 fe3e
00000200: c95a 223f eb75 25be 756e 29be 012f 253f
00000210: 3b71 14be c4df 413f f7d4 513f 1a70 1c3f
00000220: e2a7 2bbe ff1d 1f3f 4597 11be 846b 533f
00000230: 9e3e 353f 40f1 40be 8df6 643f 88c9 123f
00000240: 5c86 1dbe d21c 623f a47c 34be 078b 3e3d
00000250: cdf4 18be f941 2ebe df1e 4cbe 3480 2fbe
00000260: 8149 2f3f 0e05 7ebf a864 31be 881e 2cbe
00000270: 2d95 15be 3770 3abe 1869 0abe bfa2 183f
00000280: 1546 433f 78dd 053d 77a8 303f fb05 163f
00000290: a93b f83c b8f5 39be 88e0 083f c9c8 5e3f
000002a0: a3c8 41be 7543 26be 6e25 4abe 66ff 2bbe
000002b0: 797f 3b3f f974 3f3f 834a 653d 0332 33be
000002c0: c85b 39be 6e56 1dbe 5954 15be a782 433f
000002d0: 51bb 08be 610b 223f bacb 453f 5126 0e3f
000002e0: 12fc 5a3f a123 513f 29d1 1e3f 462e 843f
000002f0: 4bf7 39be 6bff 463d 1836 48be d616 413f
00000300: 6128 26be da42 473f af48 25be 7873 22be
00000310: 872e 383f d120 0c3f 6a9a 0c3d 7033 3c3f
00000320: ee81 44be 09e2 083f 976d 48be f191 3cbe
00000330: 445b 1d3f 8c38 28be 82cd 4bbe b6a2 0fbe
00000340: 2399 343f 90a1 f43c 5c46 293f 7147 3abe
00000350: 8daa 36be 984e 1cbe d53b 363f 0cc6 3dbe
00000360: 856b d13c 8601 1f3f 2236 4e3f 01fc 42be
00000370: 4ba4 3dbe a24d 23be 6246 3e3f e436 1b3f
00000380: 96a7 0d3f 2525 293f 2ea1 2a3f 15a8 31be
00000390: a6a8 293f d5d3 2bbe 8992 19be 554a 2cbe
000003a0: 1509 38be ad07 43be 4900 2c3f 1689 193d
000003b0: 285f 26be 6eb6 15be 81dc 393f 398f 3c3f
000003c0: 9186 593f 3ec7 14be 6a8c 40be 25ce 523f
000003d0: de30 2fbe 2827 0fbe 08e9 e33e 3ed1 833f
000003e0: e134 10be 8fc4 48be 9aa6 273f fbc6 2fbe
000003f0: b414 39be 18bc 333f 1271 f63e a878 0e3f
-0.17504267 -0.20223556 0.5960938 0.72562444 -0.1878235 -0.18554609 0.019398112 0.6753017
0.66306907 -0.16207194 -0.14279032 1.0493611 -0.17005031 -0.18511255 0.6825534 -0.19383505
-0.1770348 -0.17940299 0.7293331 -0.14915033 0.8386472 -0.16435805 -0.19805844 0.022932502
-0.18068816 0.8143904 -0.15102258 -0.1551581 -0.16637932 -0.13909982 0.6941395 -0.15352741
-0.4012463 -0.14367968 0.66505826 0.7575622 -0.19237505 0.020642908 -0.17302437 -0.13898832
-0.14736763 0.60874057 -0.18177994 -0.18300612 0.5579877 0.48532692 0.862424 -0.15166175
-0.16384864 0.5901112 -0.15764052 0.6152638 0.8490514 -0.1649759 -0.16070233 -0.15835148
-0.1492817 1.1116458 0.01141938 -0.19499195 -0.832959 0.6762221 -0.18469869 0.6963768
-0.1914928 0.052531943 -0.15166274 -0.1785253 -0.19007556 0.5772226 0.7633504 -0.13886018
-0.16576217 -0.17288344 -0.16643946 0.568547 -0.15366958 0.82613593 -0.17448418 0.001886679
0.7161216 -0.15906022 0.6098439 -0.14733744 1.0858076 -0.0015864822 0.5756633 0.47399652
-0.18565165 0.58308935 0.63681227 0.05527146 0.6803872 0.7211083 0.70040756 0.5869478
-0.5306442 -0.19552684 -0.13839969 0.8135155 -0.1869195 0.6388554 -0.18612924 -0.18063226
-0.19053294 -0.19004902 0.6008624 0.81449157 -0.14291394 0.55914694 0.6501682 -0.19133002
-0.15233575 -0.13878632 0.75179195 1.0764045 -0.16617642 0.7248575 -0.16630128 -0.15846477
-0.1548096 -0.1550303 -0.13863264 -0.1891983 0.72188956 0.6688388 0.71521777 0.4979361
0.6341978 -0.16158263 -0.16546042 0.6452485 -0.14496319 0.75732064 0.81965584 0.61108553
-0.16763261 0.62155145 -0.14217861 0.8258593 0.7079867 -0.1884203 0.89438707 0.5733876
-0.15383285 0.88325226 -0.17625672 0.046519306 -0.14937134 -0.17017354 -0.19933651 -0.1713875
0.68471533 -0.9922646 -0.17323554 -0.16808522 -0.14607687 -0.18206869 -0.13516653 0.5962333
0.7627881 0.032681912 0.69007057 0.58602875 0.030301886 -0.1816014 0.5346761 0.87025124
-0.18924193 -0.1623667 -0.19740841 -0.16796646 0.7324138 0.7478786 0.055979263 -0.17499547
-0.18101418 -0.15365002 -0.14582957 0.76371235 -0.13352706 0.6329861 0.7726399 0.55527216
0.8554088 0.8169499 0.62037903 1.0326622 -0.18160741 0.04858343 -0.19551885 0.7542547
-0.16226341 0.7783638 -0.16141008 -0.1586436 0.71945995 0.54737574 0.03432695 0.7351599
-0.19190189 0.534699 -0.19573055 -0.18415047 0.61467385 -0.16427821 -0.19902614 -0.14026913
0.7054617 0.029862195 0.66122985 -0.18191315 -0.17838497 -0.15264356 0.71185046 -0.1853258
0.025563965 0.621117 0.8055135 -0.19041444 -0.18519704 -0.15947583 0.74326146 0.6063063
0.5533384 0.66072303 0.6665219 -0.17349274 0.6627296 -0.16780026 -0.14997305 -0.1682523
-0.17972215 -0.19045897 0.67187935 0.03748425 -0.16247237 -0.14620373 0.7260209 0.7365604
0.8497096 -0.1452913 -0.18803564 0.823458 -0.17108485 -0.1397978 0.44513726 1.0298231
-0.14082672 -0.19606231 0.6548859 -0.17165749 -0.18074304 0.70208883 0.4813314 0.55652857

norm.weight f4 [26]
00000000: ea80 8b3f fa58 933f 6558 993f 3d90 9e3f
00000010: f228 8f3f e625 a23f aa0c a33f ac5f 9c3f
00000020: ff67 ab3f afd2 a63f 4e8b a83f 0a21 9c3f
00000030: aee8 a73f b182 ad3f d5f9 a53f e308 b93f
00000040: 17ab aa3f e47f 9e3f 2742 9e3f 44a2 8f3f
00000050: e02b 9c3f ef77 8f3f c898 8d3f 8ebc 8d3f
00000060: ebba da3f 7380 9f3f
1.0898716 1.1511528 1.1980101 1.2387768 1.118437 1.2667816 1.273824 1.2216697
1.3391112 1.3033046 1.3167512 1.2197583 1.3117883 1.3555509 1.2966868 1.4455837
1.3333462 1.2382779 1.2363938 1.1221395 1.220089 1.1208476 1.106225 1.1073167
1.7088293 1.2461075

norm.bias f4 [26]
00000000: 404b be3d a298 863d 7d33 3d3e 9133 dc3d
00000010: 8369 073e 5e5f 7d3e ccb3 253d b59e 323e
00000020: 0162 583d 4fa8 303d 4347 6fbc cbce 8abb
00000030: e884 2cbe 4147 ff3c 6eab 2bbe 21a7 92bd
00000040: 6127 64bd 16c3 2bbd b519 b0bd 6688 d03d
00000050: 1f1c be3d 82e9 f13d 3b79 af3d 9eaa 9a3d
00000060: b17b 053e 4764 0e3e
0.092916965 0.06572081 0.18476672 0.10752023 0.13223843 0.24743411 0.04045467 0.17443354
0.05282784 0.04312926 -0.014604392 -0.0042360774 -0.16847575 0.031161906 -0.16764614 -0.071607836
-0.055701617 -0.041934095 -0.08598653 0.10182266 0.092827074 0.11812116 0.08568045 0.07552074
0.13035466 0.1390544

norm.running_mean f4 [26]
00000000: 1961 bb3f 4e2e c03f 8b6c c33f 95ec ba3f
00000010: d1bb c03f f89c cf3f fb09 cf3f 2737 d93f
00000020: b811 de3f 27df d93f e800 ef3f 7757 ee3f
00000030: bed9 ec3f d705 e93f a3fd e53f 7411 de3f
00000040: 57b0 d63f d5c3 ce3f a847 cb3f cc4f c73f
00000050: 1839 b63f 98ab b43f 8bcf ba3f a48f bb3f
00000060: af54 8a3e 31a6 b43f
1.4639007 1.5014131 1.52675 1.4603449 1.5057317 1.6219778 1.6174921 1.6969956
1.7349157 1.7021226 1.8672152 1.8620442 1.850395 1.8204907 1.7968029 1.7349076
1.6772565 1.6153513 1.5881243 1.5571227 1.4236174 1.4114866 1.4594587 1.4653211
0.27017733 1.4113218

norm.running_var f4 [26]
00000000: 08c9 d33e af99 dc3e 63d9 e83e cffb fe3e
00000010: bda7 053f 54eb 0c3f f62b 173f fbf3 153f
00000020: c46f 253f 3d06 213f 3eff 0a3f 135f 063f
00000030: da66 093f 04ee 033f a74c 0e3f 9357 1a3f
00000040: 5e8b 0d3f 72a1 143f b7d6 143f f1f0 113f
00000050: d46c 0e3f 623c 083f 3ae0 f33e 9a92 d43e
00000060: 29eb 4b40 78a5 aa3e
0.41364312 0.43086 0.45478353 0.4980149 0.52209073 0.5504658 0.59051454 0.5857541
0.64623666 0.62900144 0.5429572 0.5248882 0.53672564 0.5153506 0.5558571 0.6028988
0.5529078 0.58058846 0.5814013 0.5700827 0.5563481 0.53217137 0.4763201 0.41518098
3.186228 0.33329368

norm_a.weight f4 [2]
00000000: ed56 f43f 15f2 a73f
1.9089028 1.3120753

norm_a.bias f4 [2]
00000000: 949c cebc 8428 a43c
-0.025221147 0.02003885

norm_a.running_mean f4 [2]
00000000: 124c 9abd fe8f 713d
-0.075340405 0.058975212

norm_a.running_var f4 [2]
00000000: db52 8e3e 3272 363e
0.2779759 0.17817
