turtlebot3_ddpg/save_model_ddpg/2020_11_28-19_07_30/stage_1_2550_critic(1).pth (torch_old, 586393 bytes, 13 tensors)

fc1.weight f4 [512, 26]
000000 ab 1c 88 bd 42 3b 45 3c 93 93 9c be bf ef 53 be
       -0.06646093 0.012038054 -0.3058134 -0.20696925
000010 fa 6f 24 3c 8f 36 5a 3c 19 65 fb bd ad 68 38 be
       0.010036463 0.013318672 -0.12275142 -0.1800868
000020 0b c0 ed bc 04 c4 6c be c7 c0 b2 3e 88 d0 11 3e
       -0.029022237 -0.23121649 0.34912702 0.14239705
000030 25 1e d7 3c 9f b6 80 bb 37 30 4e 3e 50 ed 2c bd
       0.026259491 -0.00392802 0.2013558 -0.042218506
000040 63 16 d8 bd 73 f5 b3 3e 14 13 25 bd 4b e9 04 be
       -0.10551145 0.351482 -0.040301397 -0.12979619
000050 0c 65 86 be 84 b8 31 bd bd 36 99 be 57 75 38 3e
       -0.26248968 -0.04338886 -0.29924574 0.18013512
000060 f3 3c 4c 3d c6 48 2e 3e 1b fb 0f 3e 29 41 8e 3d
       0.049862813 0.17019948 0.14060633 0.06946022
000070 33 ca 39 be 74 07 22 bd b1 8b a0 3e 3a 8f e9 bd
       -0.18143539 -0.03955789 0.31356576 -0.114042714
000080 b3 5a 56 bd 42 d5 ab be da fc 4f be 57 c8 1f be
       -0.05233259 -0.3356114 -0.20311299 -0.15603767
000090 92 94 c8 bd a3 12 2b be a4 c1 a3 3d f4 df ec 3d
       -0.097939625 -0.16706328 0.079959184 0.11566153
0000a0 48 86 1e be 78 97 56 3e de cf 0d 3e 34 0a ca bc
       -0.15480912 0.20956218 0.13848826 -0.024663068
0000b0 27 b6 8d 3c 89 6b 96 be 31 97 a5 ba bc 2a 85 3d
       0.017298771 -0.29378918 -0.001263356 0.065022916
0000c0 e4 33 d3 3d 33 81 86 3e d4 57 ae bd 71 e9 03 bd
       0.10312632 0.26270446 -0.08512846 -0.03220505
0000d0 ea 50 e4 bd 4d 73 b1 3d 37 88 de bd b1 10 62 bd
       -0.11148246 0.0866457 -0.10865825 -0.0551917
0000e0 51 fb 16 3e 96 21 67 3e 43 61 91 3e 02 48 88 3e
       0.14744307 0.22571406 0.28394517 0.26617438
0000f0 c0 9f 9f bd 24 bb 09 bf b0 1a c7 be 8d a9 d8 bd
       -0.07794142 -0.5380118 -0.38887548 -0.10579214
000100 2d 1a 2a be ae ca a7 be b5 3e 86 3d b5 e8 03 be
       -0.16611548 -0.3277182 0.06554929 -0.1288174
000110 b3 4c 47 be ce 93 1d be 0a e3 ed 3d 19 e9 1d 3e
       -0.19462852 -0.15388414 0.1161557 0.15420951
000120 e5 9d 6a bc b0 86 1b be 9e 52 10 3d b6 7d 0c 3d
       -0.014319872 -0.15188098 0.03523504 0.034299575
000130 c5 10 c7 bd fb c8 67 3e ad 8f 06 3e 4e 98 44 bd
       -0.097199954 0.22635262 0.13140745 -0.04799681
000140 66 c5 5b 3e 35 01 da 3d 58 f9 41 3d dc b3 9b bd
       0.2146202 0.106447615 0.047356933 -0.07602665
000150 a8 93 17 3d 94 4b a4 3e ef 24 87 be c9 e4 46 3e
       0.03700605 0.32088912 -0.26395366 0.19423212
000160 0f 76 0d be b1 47 08 bd cc 65 0e be 67 72 18 3e
       -0.13814567 -0.033271495 -0.1390602 0.14887391
000170 fa 99 a1 be 69 3c ba 3b ee 64 26 be f8 3c 32 be
       -0.31562787 0.005683471 -0.16249439 -0.1740607
000180 57 3f 32 3e 2a 0b 99 bd 90 1f 98 be fd 60 30 3e
       0.17406975 -0.074728325 -0.2971158 0.17224498
000190 23 37 ad 3e bb 0a c9 3d bb 25 a0 bb 6c 46 33 3e
       0.33831128 0.098165 -0.0048873103 0.17507333
0001a0 fb da 0c bd cb b3 05 be 52 c5 bd bd 4f 3f dd 3d
       -0.034388524 -0.13056867 -0.092661515 0.10803091
0001b0 60 9d ef 3d ac f5 cc 3d c9 b2 91 3d 28 b2 78 bc
       0.11699939 0.10007796 0.07114179 -0.0151791945
0001c0 a3 5d 8b 3d 44 bd a4 3d da f9 15 3d 1c 80 6d bd
       0.06804969 0.08043912 0.03661523 -0.057983503
0001d0 92 a7 8b bc ad ed 98 3c 6b 7a 5c bd e3 ea 03 3d
       -0.017047677 0.01866802 -0.053827684 0.032206427
0001e0 d9 d4 9b 3d 88 2e 71 3d b9 82 ac 3d fb 77 9a 3d
       0.07608957 0.058882266 0.08423371 0.07542416
0001f0 81 28 a1 3d b6 59 71 3d f0 b9 84 3c 50 ee 2a bd
       0.07869054 0.058923446 0.016201943 -0.04173118
000200 fb fc 61 bf 6d 0f 84 bc 97 bc b3 be 75 ac 65 bc
       -0.8827664 -0.016120637 -0.3510482 -0.014018168
000210 da 6d 7a be ba 7b 98 3e b0 36 57 3d 49 ca 54 3e
       -0.24455968 0.29781896 0.05254239 0.2078029
000220 f4 3b c8 3d db 7a 83 bd c1 51 87 bd 17 81 84 3d
       0.0977706 -0.06419917 -0.0660739 0.064699344
000230 06 79 87 3e 7c 43 2d 3e 9d 08 11 be 36 38 b1 3c
       0.2645952 0.16920274 -0.14163442 0.021633249
000240 f1 89 11 bd 1c 51 80 3d 57 ef 85 bb 4b 42 9e bd
       -0.03553194 0.062654704 -0.0040873694 -0.07727488
000250 3b 63 2c be 69 e4 9a be 4b b3 0c be 40 e7 cf 3c
       -0.16834728 -0.30252388 -0.1374027 0.025378823
000260 ec 24 b2 be 6d e5 31 be 08 b4 95 be d6 73 e5 bd
       -0.34793794 -0.17372675 -0.29238915 -0.112037346
000270 c7 df 98 3c c1 5d 20 be 8a fa 13 bd 6d 63 59 3e
       0.018661393 -0.15660764 -0.036127605 0.21229334
000280 83 64 70 3e 50 6e 9a 3b 38 75 33 3d c6 52 11 be
       0.23475842 0.0047128573 0.04381296 -0.14191732
000290 e5 3e 41 3e 5e 36 05 3c b8 dc 04 3e 4c 3c ae bd
       0.18871649 0.008130638 0.12974823 -0.085075945
0002a0 62 9c bc 3e 2d 4d 10 be f2 bb 5e bd 23 10 14 3e
       0.3683806 -0.1409194 -0.054378457 0.1445928
0002b0 c8 2e 31 3d 2a 4c e3 3d 5c 27 1b 3e 65 ff 62 3d
       0.043257505 0.110985115 0.15151733 0.055419344
0002c0 cf 34 65 3e 51 fb 01 be 68 1c 24 bd 4f 80 b9 bb
       0.22383426 -0.12693526 -0.040066153 -0.0056610475
0002d0 02 36 c2 3e 14 d9 ad be 4e 37 c3 be 09 72 13 3e
       0.3793183 -0.3395468 -0.38128132 0.1439897
0002e0 26 60 06 be e2 e4 45 3d 34 e9 b5 3e 5d b3 16 be
       -0.13122615 0.048313983 0.35529482 -0.14716859
0002f0 bb b8 6c 3e 38 ed 32 3e b1 e4 49 3e b1 e4 2a be
       0.23117344 0.17473304 0.19716145 -0.16688801
000300 62 03 5a 3e 6b 0d 7f bc 5f 59 a0 3d fd 5e a1 bd
       0.21290353 -0.015567164 0.07829546 -0.07879446
000310 b8 5a 2b bd a7 d6 87 be ad 7a 97 bc d2 7d de bc
       -0.041834563 -0.26530954 -0.018491114 -0.027159605
000320 61 19 f8 bd 1a 57 d1 bd 30 ad 23 3d 85 77 ec 3d
       -0.12114216 -0.102216914 0.039960086 0.11546234
000330 9f 42 1f 3c f3 7e 84 be ba c2 54 3e b6 f7 ce 3d
       0.009720474 -0.25878105 0.20777407 0.10105841
000340 72 1c ba 3e 57 88 03 3e d3 c4 d5 3d 1e d7 66 3d
       0.36349827 0.12844978 0.10437932 0.056357495
000350 8e ee 04 3e dc fc 07 3e 88 a2 50 3d f9 35 00 3e
       0.12981626 0.13280052 0.050936252 0.12520589
000360 e0 95 54 bd f4 3c f0 bc 75 41 b1 bd 8b 44 57 bd
       -0.051900744 -0.02932594 -0.08655063 -0.052555602
000370 42 c1 4d bb f2 1e bd 3c 66 14 2e 3d 6d 04 1d bd
       -0.0031395708 0.023086045 0.042499922 -0.0383343
000380 77 7b 81 3d b5 28 38 3e c9 f7 9f 3c 13 75 b5 3d
       0.06322377 0.17984279 0.019527333 0.08860221
000390 33 2f 1f 3e 22 9d d3 be 75 f2 64 3d cf bb 86 3d
       0.15545349 -0.4133082 0.055895288 0.065787904
0003a0 85 23 08 3f 50 62 28 3e 4d 09 d6 3c 5b 8c 04 3d
       0.531792 0.16443753 0.026127482 0.032360416
0003b0 b2 1d 47 3d e0 86 34 3e f6 46 32 3e 48 73 f7 3d
       0.048612304 0.17629576 0.17409882 0.12082535
0003c0 b0 9d 8c 3d 61 b7 3c 3e d0 c8 14 be 7b 8d 48 be
       0.06866014 0.18429329 -0.14529729 -0.1958522
0003d0 b7 13 5b be bb 91 dc 3d 2c d3 1c be e0 b2 05 3e
       -0.2139424 0.107699834 -0.1531493 0.13056517
0003e0 cc 3e 81 3e ba a6 04 3e f9 97 3a be fb 0c 7b bd
       0.25243223 0.12954226 -0.18222035 -0.061291676
0003f0 5d c9 25 bc 03 e5 0f be 43 8c 0a 3e 11 4d bc be
       -0.0101188095 -0.14052205 0.13530068 -0.36777547

fc1.bias f4 [512]
000000 56 41 79 3e 4e 5e e9 3d 0b e2 3b 3e ea 0f 97 bd
       0.2434133 0.1139494 0.18347947 -0.07376082
000010 67 df 26 3e a1 f3 32 be 2d 0f 8b be f1 80 7a be
       0.16296159 -0.1747575 -0.27160016 -0.2446325
000020 8d f4 b0 3d 67 8c a5 3e 5a 80 dd 3d 17 d2 98 3e
       0.08640394 0.3233368 0.10815497 0.29847786
000030 33 53 20 bd f7 f8 2b bd 53 71 86 3e dc f6 cb 3e
       -0.039141845 -0.04198548 0.26258335 0.39836776
000040 86 82 4a be e0 1f cd 3e f7 1e 80 bd af e9 a8 3d
       -0.19776353 0.4006338 -0.06255906 0.082476966
000050 39 46 8c be a0 e0 0f bf 8f 26 86 be d2 cc 8b 3e
       -0.27397326 -0.56202126 -0.26201293 0.27304703
000060 52 14 40 3e 61 d8 42 be 03 17 e6 bd e4 89 26 be
       0.18757752 -0.19027855 -0.11234858 -0.16263539
000070 23 6d 75 3e c8 76 91 3e fb fc 5d 3e 32 94 9f 3e
       0.23967414 0.28410935 0.21678536 0.31167752
000080 2f 5c 33 3e 46 48 41 3e a2 85 12 be 36 9f 8f 3d
       0.17515634 0.18875226 -0.1430879 0.07012789
000090 de 03 25 bc e8 cd 43 3e 4f 99 91 3e 8c 72 46 be
       -0.010071723 0.19121516 0.28437278 -0.19379634
0000a0 0a e5 96 be d7 da f9 3d 43 78 80 3e 3b 8e b8 bd
       -0.29471618 0.121999435 0.25091752 -0.09011503
0000b0 c4 5b 49 be 79 0f 00 be 3c 0f 75 3e 88 bc df bb
       -0.19663912 -0.12505902 0.23931593 -0.0068278946
0000c0 f7 b7 79 bd 82 12 21 3e 70 da fa bd 91 9b 0a 3e
       -0.06096646 0.15729716 -0.12248695 0.13535906
0000d0 83 eb f7 bd 40 a2 c3 3d cf 89 32 3e 57 e9 a3 be
       -0.12105467 0.09552431 0.17435382 -0.32013962
0000e0 8a 29 fe 3d d5 51 28 3f f2 ce 9f be f3 96 15 bd
       0.12410267 0.65749866 -0.31212574 -0.03652091
0000f0 7d 90 3a 3e 7e ef 8e bd b6 73 21 3e c0 29 a7 3e
       0.1821918 -0.06979273 0.15766796 0.3264904
000100 29 10 5e 3e 0d d1 9c bd 1f 7f 9d 3c 73 78 55 3e
       0.21685852 -0.07657061 0.019225655 0.20846729
000110 37 55 83 3d dd ad 2e 3e 0d ad ec 3e 38 aa b6 3d
       0.06412738 0.17058511 0.46225777 0.089191854
000120 62 8d ff bc 70 0e dd 3d 49 67 e3 3d 33 1f a3 3d
       -0.031195346 0.10793769 0.111036845 0.07964935
000130 0e eb ff bd 70 cc cb bd 0a c0 c8 be a1 02 d1 be
       -0.12496005 -0.09951103 -0.39209014 -0.40822318
000140 38 50 15 3e ef 2b f1 3c b6 2a 4d be 15 b4 95 3e
       0.14581382 0.029439894 -0.20035824 0.29238954
000150 14 2a 7c 3e 37 3e 88 be 55 a8 20 be ef b7 c4 3d
       0.24625427 -0.26609966 -0.15689214 0.09605395
000160 2e 97 85 be 5e 1c 26 bf dc fc 6d be 15 3a 89 3e
       -0.26091903 -0.64887035 -0.2324099 0.26802126
000170 72 05 ad 3e d0 27 5a be 97 8c ef be 53 5d 1e 3e
       0.33793217 -0.2130425 -0.4678695 0.15465288
000180 0d f1 a9 3e 66 d1 98 be b2 14 fe 3d 50 04 d8 3e
       0.3319172 -0.29847258 0.12406291 0.4219079
000190 87 af 04 3e 9f 06 97 be 07 3e ea be 14 9d 0a 3e
       0.12957583 -0.2949724 -0.45750448 0.13536483
0001a0 d3 01 9b 3e fd 84 e4 bb 05 04 ad 3e a3 1c a1 3d
       0.3027483 -0.0069738613 0.3379213 0.0786679
0001b0 87 cb 49 3e c4 91 c7 be f8 07 7c 3e 3e c8 d4 3d
       0.19706546 -0.38978398 0.24612415 0.10389756
0001c0 cc a8 ee 3e f6 23 58 3d c4 9f b7 bd d9 2d 3c 3e
       0.46613157 0.05276867 -0.0896602 0.18376864
0001d0 a5 73 8d 3e 60 62 17 3d 1c 14 41 3e c1 7a 96 3e
       0.27627292 0.036959052 0.18855327 0.2939053
0001e0 0e ed e9 be 10 94 bd be 93 6d 76 be 7b 14 06 3f
       -0.4568867 -0.37027025 -0.24065237 0.52375
0001f0 9b 04 d5 3d eb f5 3b be 61 ef b2 3e da 23 af be
       0.10401269 -0.18355529 0.34948257 -0.3420704
000200 dd 25 6b 3d 07 84 2f be 21 fc 5b 3d 5a b0 1d be
       0.057409156 -0.17140208 0.053707246 -0.15399304
000210 ba 42 60 3e 2b 7c ec bc e9 e4 51 be cf cd c8 bd
       0.21900454 -0.028867802 -0.20497479 -0.0980488
000220 60 7a d1 3d 2e c4 68 3e b7 4f 34 be d6 cb d6 3d
       0.10228419 0.22731087 -0.17608534 0.10488097
000230 92 1c ab 3e 97 a6 73 bd 89 3b 45 3e 0a 88 cc 3e
       0.33420235 -0.059485044 0.19260992 0.3994754
000240 d0 c8 23 be 7f 06 80 bd a8 e7 b1 3d c1 7e ac be
       -0.15994573 -0.06251239 0.08686763 -0.33690456
000250 30 0b da 3d a6 9f bd be 7e 6a 9b 3e c7 1c e3 3d
       0.10646665 -0.37035865 0.30354685 0.11089473
000260 54 ad 93 3e b2 2f cd 3e ab af 21 3e 97 4c 59 3e
       0.28843176 0.4007545 0.15789668 0.21220623
000270 6f 41 8b be 63 b2 15 be 26 75 c3 be cb eb 1d 3e
       -0.2719836 -0.1461883 -0.38175315 0.15421979
000280 29 96 c0 3e 15 1f 2b 3e 26 8e 1f 3e e0 97 f2 3e
       0.37614563 0.16711076 0.15581569 0.47381496
000290 9e 5b 30 3e 0e 8e 03 3e ae ab 13 3e 53 73 ce 3e
       0.17222449 0.12847158 0.1442096 0.4032236
0002a0 d7 a8 13 3f 53 5c ab be 94 02 74 3e d6 41 1b be
       0.57679504 -0.33468875 0.23829108 -0.15161833
0002b0 5c 81 62 be 71 8a 85 3e 0e cc 59 3e c0 3e 8b 3e
       -0.22119659 0.26082185 0.21269247 0.27196312
0002c0 05 df 33 3d 19 8c 76 bd d3 e1 cf bd 69 85 8c be
       0.04391386 -0.0601922 -0.101504944 -0.27445534
0002d0 c6 e5 5b be b4 c0 9b 3d 67 0c 9f bd 80 65 7c be
       -0.2147437 0.076051146 -0.077660374 -0.24648094
0002e0 dc 4d fc 3b 8e b2 f5 3d 52 d6 2a 3e 0a b7 24 3d
       0.0076997112 0.11996947 0.16683319 0.040213622
0002f0 f7 e2 f8 3e e8 88 e0 3d ec eb 58 be fb 46 86 3e
       0.4861066 0.10963613 -0.21183747 0.2622603
000300 02 69 84 3e 84 6f f6 bd a3 4a a8 3d 03 73 0b 3e
       0.25861365 -0.12032989 0.08217361 0.13618092
000310 7d 27 8c bd 10 be 80 be 0d 0d 22 be 4b 39 54 bd
       -0.06843469 -0.25145006 -0.15825291 -0.05181245
000320 ff 4b 50 3d fd 32 40 be 81 5f 6f bc bc a2 8d 3d
       0.050853726 -0.1876945 -0.014610172 0.06915805
000330 2e 6c 99 3e 42 46 2d 3d 9d 35 a0 3d 46 b9 cc 3e
       0.29965347 0.04230333 0.07822726 0.39985102
000340 e8 92 07 3e 95 5c bd bd e9 a1 13 3e ec 0b 94 3d
       0.13239634 -0.09246174 0.14417233 0.072288364
000350 b3 02 8e 3c cd 97 d2 be 08 81 d5 3d af 2a 38 3b
       0.017335271 -0.4113144 0.104250014 0.0028101613
000360 dd 0a c8 bc db 8d 34 3d aa be 07 bf 71 43 87 be
       -0.024419243 0.044080596 -0.53025305 -0.2641864
000370 6f ae 8c be 80 69 fe bd bd 44 60 be 30 f5 88 bc
       -0.27476832 -0.12422466 -0.21901222 -0.016718477
000380 6f 8d 04 be f5 ef 93 be d6 ed 39 be b5 15 01 3f
       -0.12944578 -0.2889401 -0.18157133 0.5042375
000390 6e 15 8c 3e 41 1d 29 be fb 4c 97 3c b8 f7 70 3d
       0.273601 -0.16515066 0.018469324 0.058829993
0003a0 73 e0 8c 3e ea ae 76 be 73 ae 35 3e 67 90 b9 bd
       0.2751499 -0.24090162 0.17742328 -0.09060746
0003b0 91 95 29 3e 46 1a 87 bd fb 92 20 bf 28 72 98 3e
       0.16560961 -0.06596808 -0.62724274 0.29774594
0003c0 89 80 8f bc eb 22 85 3d 27 e0 dc be 1a e7 b7 be
       -0.017517345 0.06500801 -0.43139765 -0.35918504
0003d0 be 92 d8 3d cd df 85 3e 98 47 b0 3e 7f b8 a8 3c
       0.10574864 0.2614731 0.34429622 0.020595787
0003e0 b8 e7 ae be a4 64 de bc 33 85 20 bc cc b1 86 be
       -0.34161162 -0.027147599 -0.009797382 -0.26307523
0003f0 3b bf ec 3c 82 cd 0e 3e c1 58 da 3d 6c 2b 57 3b
       0.02889978 0.13945583 0.1066146 0.0032832278

fc2.weight f4 [256, 514]
000000 8f 80 09 3e 4e 6c 68 3c 6f 1c eb 3d df 3c cc 3d
       0.13427947 0.014185978 0.11480033 0.09972548
000010 39 0b fd 3d d6 33 bc 3c d0 33 b8 3d 31 c6 fe 3d
       0.12355656 0.022973936 0.089942575 0.12440146
000020 da 2f 1d 3e 27 2c c4 3c 10 81 97 3d 39 62 86 3d
       0.15350285 0.023946835 0.073976636 0.06561703
000030 ce cd 5f bd 0a 7e c4 bd af a3 85 3d 85 99 de bb
       -0.05463963 -0.095943525 0.06525361 -0.0067932033
000040 36 18 c7 3d eb 03 b6 3d 03 45 b3 bd d8 68 ff 3d
       0.09721415 0.08887466 -0.08753397 0.12471169
000050 74 42 11 3e 93 9e 95 be b0 62 a8 3d 87 b3 7a bd
       0.14185506 -0.29222545 0.08221948 -0.061206367
000060 06 90 9b 3d 68 5b 09 3e 4e d2 c5 3d e3 2a 08 3e
       0.0759583 0.13413775 0.09659253 0.1329761
000070 a9 16 3b bd cb a3 85 3c 2f 92 d3 3d e9 5f a6 3d
       -0.045675907 0.016313454 0.10330617 0.08123762
000080 2d e8 b3 3d ef 89 df 3c a8 3f ba 3d 4c 5d 10 3d
       0.087845184 0.027287452 0.09094173 0.035245225
000090 b3 df 13 bd 54 4c ef 3d 45 1c 38 3e b0 19 1d 3d
       -0.036102008 0.1168448 0.17979534 0.038354576
0000a0 b2 27 bd 3d 04 a1 c3 3d 09 bf b1 3d af 16 7d 3d
       0.09236087 0.09552196 0.08679015 0.06178921
0000b0 0f 02 e7 bc 4c 7b ad 3d d6 f6 04 3d af ea 27 3d
       -0.028199224 0.08470783 0.032461964 0.040995296
0000c0 ae 9d a1 3d 78 51 01 3e 8b ae 0d 3e b8 74 c9 3d
       0.07891403 0.12628734 0.13836114 0.098367155
0000d0 af 11 65 bd e4 f6 d2 3c 22 99 d0 3d fb de 9a 3d
       -0.055925068 0.025752492 0.10185458 0.075620614
0000e0 57 dd 31 3e 8d e9 3c 3e 85 f7 a4 3d d9 45 9f 3c
       0.1736959 0.18448468 0.08055023 0.019442486
0000f0 8d 0a 21 bd 51 06 24 3e 6d 8e 02 bc 74 f5 bc 3d
       -0.039316703 0.16018035 -0.007968527 0.09226504
000100 47 bf db 3d 27 bc 2b bd 46 8d a1 3d 45 36 2f 3e
       0.10729843 -0.041927483 0.07888274 0.17110546
000110 04 22 47 3c 8a 8c c9 bd 9b 07 26 3e 0b a2 d4 3d
       0.012154106 -0.09841259 0.16213839 0.1038247
000120 71 1e 3c bd f1 44 1a 3e 2a 2b 51 3d 69 58 29 3d
       -0.04592747 0.15065362 0.051066555 0.04134408
000130 3d d3 dc 3d 64 59 e1 bc df da ab 3d 00 24 0f 3e
       0.10782478 -0.027508445 0.08391356 0.13978577
000140 a5 b3 e7 3d 63 c9 d2 3c 50 d9 4e 3d 48 07 1a 3e
       0.11313561 0.025730794 0.050500214 0.1504184
000150 03 81 f4 3d ac 21 f8 bd 52 f3 26 3e f7 2a 93 3d
       0.119386695 -0.121157974 0.16303757 0.07185929
000160 70 7a 22 bd 3b a3 2d bd 77 01 48 3c 67 b3 9d 3d
       -0.039667547 -0.042391997 0.0122073805 0.07700234
000170 55 ea 14 3e e1 7f d0 bd c4 58 c2 bc 8a 19 24 3e
       0.14542516 -0.10180641 -0.023723967 0.16025367
000180 4b 7a 1a bc 13 94 17 3d 25 4c 55 3e 89 f4 1f 3e
       -0.009428571 0.03700645 0.20829828 0.15620627
000190 05 62 1e 3e 47 6e 78 3e b1 4d b0 bc b7 a6 6d bd
       0.15467079 0.24260817 -0.021521421 -0.05802032
0001a0 71 4b b6 3b fb 95 00 3e 9a bc 4a 3e 83 0c 4d 3e
       0.0055631925 0.12557213 0.19798508 0.20024304
0001b0 7b 1b 23 3e 66 56 06 3d 3c 9c 7e 3d 46 5f 12 3d
       0.15928452 0.03279724 0.062160715 0.03573539
0001c0 0d 08 15 3e a8 8c ed 3d da 86 82 bd 73 d4 10 3e
       0.14553852 0.11599094 -0.06373377 0.14143543
0001d0 e8 ca 15 3e 47 3a bb 3d 14 00 1e 3c f9 f6 63 3e
       0.14628184 0.09141975 0.009643573 0.22262181
0001e0 a7 4d da 3d b1 cd e1 3d 9a 3f 12 3e da 13 2a 3e
       0.10659342 0.11025561 0.14282075 0.16609135
0001f0 d2 6b 5b bd 2a 1c 1c 3d 0d 41 e6 bc f4 84 8b 3d
       -0.053569622 0.038112797 -0.02810719 0.06812468
000200 86 5e 32 3e be 8e 25 3e 0f 7c a2 3d 3a 0f ac bd
       0.1741887 0.16167733 0.079338185 -0.08401342
000210 b6 c7 e0 3d d3 a8 27 3d a5 db 01 be bd fc 87 3d
       0.10975592 0.040932488 -0.12681444 0.06640003
000220 e6 50 1e bc 2a 7a c2 3b 54 83 f0 bd 1f 67 3b 3d
       -0.009662842 0.0059349732 -0.11743799 0.04575264
000230 8a ac f0 3d c6 4e c4 bb 33 b3 dc 3d 45 15 3d 3e
       0.11751659 -0.005990836 0.10776367 0.18465145
000240 1d 79 b2 bd b8 20 45 bd b1 be 9c 3d 1d e7 4b 3e
       -0.08714507 -0.048126906 0.07653559 0.19912381
000250 1d 80 20 3e 04 59 4b 3e 38 f4 6c bc 5a 8c 28 3d
       0.15673871 0.19858176 -0.014462523 0.041149475
000260 e4 72 b0 3d fd a7 3a 3e e3 1a 40 3d cc 4e ee 3d
       0.08615664 0.18228145 0.04690064 0.11636123
000270 cf df 8f bd a6 0d c5 3b a4 5d 21 3e 3c 77 bf 3d
       -0.0702511 0.00601359 0.15758377 0.09348914
000280 cc 12 23 3d 2d 97 f7 3d 70 ba bb 3d 3e 3e 0b 3e
       0.039812848 0.12089381 0.091664195 0.13597962
000290 d2 cd e1 3d bb f2 5b 3e 1b 6a cb 3b fc 14 be bd
       0.11025585 0.21479313 0.006207717 -0.09281346
0002a0 91 dc 90 3d 2d d9 24 3e 7c 28 c2 3d 10 a3 5f 3d
       0.0707332 0.16098471 0.09480378 0.054598868
0002b0 d6 70 af 3d 53 81 36 3d 41 76 be 3d c1 65 a9 3d
       0.085664436 0.044556927 0.09299899 0.08271361
0002c0 de 43 01 3e e4 6b 01 3d a4 31 c6 3d ee 82 c9 3d
       0.12623546 0.031597033 0.09677437 0.09839426
0002d0 44 dd 47 bd 2f 20 05 3e 2f a2 16 3e c2 96 30 3d
       -0.048795 0.13000558 0.14710306 0.043112524
0002e0 7b 22 29 3e 16 d9 e9 bd a5 de 2e 3d ae 62 f1 3d
       0.1651706 -0.11418359 0.0426928 0.117864
0002f0 b6 5b f5 3d 59 fa 2e 3d 77 34 e1 bd 65 43 c9 3d
       0.11980383 0.04271922 -0.10996335 0.098273076
000300 c9 8a 59 bc 40 46 4d 3e f0 ea 50 3e 66 52 9d 3d
       -0.013277718 0.2004633 0.20402122 0.07681732
000310 9a fa 3e 3d 18 02 b8 3d 0a 46 a4 bd 88 a7 54 3d
       0.04662571 0.08984774 -0.080211714 0.051917583
000320 b5 39 1f 3e 2f ee e8 bd 8d 62 8e 3d c1 18 ca 3d
       0.15549357 -0.11373555 0.06952391 0.09868003
000330 b3 a4 c7 3d fb 89 d8 3d 7d 2b ec 3d ad f0 00 3e
       0.09748211 0.10573193 0.11531732 0.1259181
000340 94 a0 f2 3d 88 34 52 ba 37 25 0f 3e 94 d7 3b 3d
       0.11847034 -0.0008018692 0.1397904 0.04585989
000350 68 04 f9 3d 9f 70 78 3d 92 42 c8 bd 10 ff 33 3e
       0.121590436 0.06065428 -0.09778322 0.17577767
000360 de 4f a5 3d af e8 9d 3d 16 6f a2 3d 6b e3 36 3e
       0.08071874 0.077103965 0.07931344 0.1786019
000370 b1 48 9e 3d f3 f5 11 bd b4 9a 98 bd 01 f2 37 3d
       0.077287085 -0.035634946 -0.07451382 0.044908527
000380 d7 4c 3f 3d e6 45 a2 3c 37 19 04 be 8b f9 3f 3c
       0.04670414 0.01980872 -0.12900244 0.0117172105
000390 0a 63 0f 3d 6f 8b 0d 3e be 45 c8 3d 78 ab 37 3d
       0.03500656 0.13822721 0.09778927 0.04484126
0003a0 e4 e0 8a 3d 32 81 3d 3e 7e a8 66 3d 0d 76 9d 3d
       0.06781176 0.18506315 0.05631303 0.07688532
0003b0 0e e6 0f 3d 7a e0 f4 3b 7f fd 88 3d 95 16 01 3d
       0.035131507 0.0074730488 0.066889755 0.031515677
0003c0 7a 66 d5 3d 24 f4 13 bd 66 96 3f 3e 3c b6 19 3e
       0.104199365 -0.036121503 0.18709716 0.15010923
0003d0 2b 6e 40 bd 80 11 3e 3e c3 d2 0f 3e 88 77 7d bd
       -0.046980064 0.18561363 0.14045243 -0.061881572
0003e0 b1 19 cd 3d ee ae f5 3d 94 dc 45 bd ad 02 95 3d
       0.10014666 0.11996256 -0.048306063 0.07275901
0003f0 4b 9a 7a 3c 77 cd 88 3c f1 9c 12 bd ef bb 5c 3d
       0.015295575 0.016699536 -0.035794202 0.053890165

fc2.bias f4 [256]
000000 3d 7e 2e 3e a5 e4 00 3e ec e7 38 be 62 13 40 3e
       0.17040344 0.12587221 -0.18057221 0.18757394
000010 ed 4d eb 3d 82 1f 0c 3e a7 61 42 3c 7e 60 21 3d
       0.114894725 0.13683894 0.011864102 0.039398663
000020 4a cb 37 3d fb 86 07 3e a4 29 14 3e 29 e9 ad 3d
       0.044871606 0.13235085 0.1446901 0.084917374
000030 d4 8d 40 3e 83 bf 1f 3e c4 d2 a3 3e 5a d8 23 3e
       0.18804103 0.156004 0.3199674 0.160005
000040 7c ec ea 3d 93 8a 28 3e 6e 7e 71 bd 89 07 21 3e
       0.11470887 0.16459112 -0.058958463 0.1572553
000050 ad 67 ad 3e 7e ab 29 3e 8c 7d db 3d 8f 70 32 bd
       0.3386816 0.16569325 0.107173055 -0.043564375
000060 38 0f 37 3e e3 69 92 bd 5f 89 d3 3d a0 b2 2c 3e
       0.17876899 -0.071491025 0.10328936 0.16865015
000070 45 ad 15 3e 5f 40 3a 3e 2f b0 31 be c3 c5 35 3e
       0.14616878 0.18188618 -0.17352365 0.17751221
000080 ff a0 4d 3d 24 ba 06 3e 3d 40 0c be 7e c4 bf 3e
       0.050202366 0.13156945 -0.1369638 0.374546
000090 40 01 0b 3e ef 3b dd 3c 2d 22 1f 3e f9 af 2d 3e
       0.13574696 0.027006118 0.15540381 0.1696166
0000a0 f2 1f 14 3e 5b f2 90 3e d2 c6 29 3e 9f c8 1d 3e
       0.14465311 0.28309903 0.1657975 0.15408562
0000b0 18 fe 69 be b2 99 c8 3c 3e c2 02 3e 40 1e 01 3e
       -0.22850835 0.02448735 0.1276941 0.12609196
0000c0 82 b0 2d 3e b0 a4 a2 3e 1b 4d 3a 3e 0d b3 2e 3b
       0.16961864 0.31766272 0.18193476 0.0026657016
0000d0 ee 88 be 3e 68 5b 31 3e 34 e2 e6 3d 5e 56 07 3e
       0.37213844 0.17320025 0.112736136 0.1321654
0000e0 61 fc ef 3d df e9 0f 3e 78 9d dd 3c 5e b0 3e 3e
       0.11718059 0.14054058 0.027052626 0.18621966
0000f0 8e 82 3e bd dd 4a 72 bd fa 0c 2b 3e 38 94 5b 3e
       -0.046511225 -0.059153426 0.16704169 0.2144326
000100 f8 9c 17 3e c6 6c 86 3c a7 d1 fa 3d 07 51 1f 3e
       0.14805973 0.01640929 0.12247019 0.15558253
000110 6a e7 1f 3e 00 76 ba 3e 39 88 d2 3e 67 02 22 3e
       0.15615621 0.36418152 0.41119555 0.15821229
000120 63 3d 04 3e 93 61 04 3e d6 4f 37 3e 43 c7 12 3e
       0.12914042 0.12927847 0.17901549 0.14333825
000130 64 21 40 3e 44 9d 0a be 14 bf f1 3d 73 ab 25 bc
       0.18762738 -0.13536555 0.118040234 -0.010111677
000140 6c a7 a5 3e 22 2e 29 3e d5 d3 88 bb 27 f0 2e 3e
       0.32354295 0.16521505 -0.004175643 0.17083798
000150 4d 7b ae 3e 2c 7e 9c 3c 8e 5d a3 3e 52 55 ad 3b
       0.34078446 0.019103132 0.31907314 0.005289712
000160 7d 7a 20 3e 88 cf ab 3e fa d7 3b 3e 2f f4 65 bd
       0.15671726 0.3355677 0.18344107 -0.056141075
000170 ee 5d 8e 3d 2e 0e 7a 3e ac f2 85 bc 59 aa b8 3e
       0.069515094 0.24419472 -0.016351067 0.36067465
000180 cf ec f9 3d 97 5a 03 3e 19 02 dc 3d dd b2 3d 3e
       0.12203371 0.12827526 0.107425876 0.18525262
000190 4a 85 31 3e b3 07 c1 3e 12 39 f0 3d 11 75 22 3e
       0.17336002 0.37701187 0.11729635 0.1586497
0001a0 c6 1a 3e 3e f6 00 d5 3d 2e a2 38 be 5f 49 0d 3e
       0.18564901 0.10400574 -0.18030617 0.1379752
0001b0 90 57 1b 3e 15 53 22 bd c4 73 1b ba 1e b5 fb 3d
       0.15170121 -0.039630014 -0.0005930031 0.12290405
0001c0 bc 3f 36 3e 86 ec 3a 3e 4d de a0 3e 59 70 3e 3e
       0.1779775 0.18254289 0.31419602 0.18597545
0001d0 27 26 25 3e 83 2f 4c 3e eb 8b 3a 3e 59 f7 ee 3d
       0.16127835 0.1994 0.18217437 0.116682716
0001e0 8d 1b cb 3d 67 6b 1b 3e 77 a0 cc 3d 63 06 f9 3d
       0.09917364 0.1517769 0.09991544 0.12159421
0001f0 1c a0 3c 3e df d3 b1 3e b3 49 c0 3d 67 79 92 3e
       0.18420452 0.34731957 0.09389057 0.28608248
000200 07 e6 c6 bd dd d3 07 3e 09 9e f0 3d 64 4f f7 bd
       -0.09711843 0.13264413 0.11748893 -0.120756894
000210 1b 3f fd 3d b7 22 df 3e 71 fe f1 3e 4e 8a 2f be
       0.12365552 0.43581173 0.47264436 -0.17142603
000220 3a 2a 3f 3e 77 77 58 bd 43 80 13 3e 67 44 27 3d
       0.18668452 -0.052848306 0.14404397 0.040836718
000230 56 b7 09 3e 34 2d 16 3e d0 79 da 3d d4 d1 4e 3e
       0.13448843 0.14665681 0.10667765 0.2019723
000240 8e 95 e8 3d 83 28 08 3e 7e 7b e4 3d d3 bb 41 3d
       0.1135665 0.13296704 0.11156367 0.047298264
000250 87 9a 29 3e fc 9c ec 3d 84 0c 0d 3e 42 3e df 3d
       0.16562854 0.1155338 0.13774306 0.109005466
000260 0a ae ba 3e c9 2c 49 3e f0 6f 0a 3e 49 63 18 3e
       0.36460906 0.1964599 0.13519263 0.14881624
000270 30 1a e9 3d bd 75 e3 3d 0a 3a f9 3d 18 25 bb 3c
       0.11381948 0.11106441 0.12169273 0.022844836
000280 a7 25 97 bd 6d 6c 23 bd bd 9d d3 3e 60 6e 37 be
       -0.073802285 -0.039898325 0.41331282 -0.17913198
000290 cf 80 2d bd 6a 1a 2e 3e 6e 87 6f be 0b 6c d6 3d
       -0.04235917 0.17002264 -0.23391506 0.10469826
0002a0 f1 a9 00 3e 44 d9 3e 3e e4 73 3e 3e a4 0e 07 3e
       0.12564828 0.18637568 0.18598896 0.13189179
0002b0 02 de 9b 3d cb ca 4f bc e9 c3 b5 bc 71 d2 1f 3e
       0.07610704 -0.012682627 -0.022188144 0.15607621
0002c0 91 7b 36 3e 10 41 cd 3d 8f b6 dc 3d 2e aa b9 3e
       0.17820574 0.10022175 0.10777008 0.3626265
0002d0 44 b0 10 3e 64 14 86 3c be 51 83 3d b2 3a 58 3c
       0.1412974 0.016367145 0.064120755 0.013197588
0002e0 2b cd a2 3e be 9e 62 3e 65 e6 dc bd 4b e9 b6 3d
       0.31797156 0.22130868 -0.10786132 0.08931216
0002f0 d6 2a 0a 3e bc 15 c8 bb ac fe d6 3d 3c c4 28 3e
       0.13492903 -0.0061061066 0.104977936 0.16481107
000300 fd 1d 3e 3e ed c7 bc bd fe 0b 02 3e 7c 51 f3 3d
       0.18566127 -0.0921782 0.12699887 0.11880776
000310 9e b1 cb bc da c3 74 3d df d9 dc bc 12 e2 bb be
       -0.024864968 0.05975709 -0.026959358 -0.36695915
000320 3c fb 11 3e 11 67 23 3d db 38 e8 3d f9 58 1c 3e
       0.14255995 0.039893214 0.11338969 0.15268315
000330 22 d9 c6 3e 34 a7 f5 3d 31 11 30 3e 9d 97 3b 3e
       0.38837534 0.11994782 0.17194058 0.18319555
000340 45 7b 06 be 09 7c 1e ba b3 a8 26 3d a0 c0 03 3e
       -0.13132961 -0.00060457044 0.040688228 0.1286645
000350 1e 4e 16 3e 5f 96 07 3e 4b ae db 3e 19 80 38 3e
       0.14678237 0.13240956 0.42906412 0.18017615
000360 d6 37 2e bc 14 58 d8 3b ba ab c1 3e 4d ff 3c 3e
       -0.0106334295 0.0066022966 0.3782633 0.18456765
000370 dc a3 14 3e 8b 08 0e 3e 77 43 a7 bd be 9f e9 3c
       0.14515632 0.13870446 -0.08167165 0.028518554
000380 c4 7b 62 3e 5a 43 d6 3c 92 8c 8e 3e 3f d4 da 3d
       0.22117525 0.026155163 0.27841622 0.10685014
000390 10 c4 d5 bd 77 cc 24 3e 79 9b 38 3e 92 5d 24 3e
       -0.104377866 0.16093622 0.18028058 0.16051319
0003a0 90 bf 0d 3e 2e 46 0e 3e 5d 35 21 bd b8 c1 30 bd
       0.13842607 0.13893959 -0.03935753 -0.043153495
0003b0 dd 01 00 3e 9b fb 26 3e c1 7b 3f be df b4 d8 3e
       0.12500711 0.16306917 -0.18699552 0.42325494
0003c0 63 36 80 3e 0f ee 1f 3e 07 1c 24 3e 46 40 2f 3e
       0.25041494 0.15618156 0.16026317 0.17114362
0003d0 0a 01 40 3e ff cc 37 3e 37 e5 2d 3d f8 de 49 3e
       0.18750396 0.17949294 0.042454924 0.19713962
0003e0 03 53 23 3e f4 d7 dc 3d 50 2c aa 3e ec 20 24 3e
       0.15949635 0.10783377 0.33236933 0.16028184
0003f0 e4 6c 1b 3e 5c 60 1a 3e 44 7a aa bd e2 40 8c be
       0.15178257 0.1507582 -0.083241016 -0.27393252

fc3.weight f4 [1, 256]
000000 a8 e9 18 be 7d e6 36 be 06 75 42 3f 63 90 60 3f
       -0.14932883 -0.17861362 0.75959814 0.87720317
000010 e8 8e 25 be ef 73 21 be ca e8 9e 3c 8b 9f 70 3f
       -0.16167796 -0.15766881 0.019398112 0.93993443
000020 8c 52 54 3f a5 d2 09 be 7f 1e ef bd 90 d4 9a 3f
       0.82938457 -0.13459261 -0.116757385 1.2096119
000030 b8 4a 12 be e6 10 23 be d7 d2 41 3f 5c 50 2a be
       -0.14286315 -0.15924415 0.7571234 -0.16632217
000040 1e a3 17 be f3 20 1d be f4 cd 94 3f ea 22 fa bd
       -0.14808318 -0.153446 1.1625352 -0.122136906
000050 a0 87 86 3f 25 7e 0d be 1e f0 32 be f1 dc bb 3c
       1.051014 -0.13817652 -0.1747441 0.022932502
000060 97 f9 1e be a0 33 90 3f eb 63 fd bd a4 14 03 be
       -0.15524898 1.1265755 -0.123725735 -0.12800843
000070 75 d1 0d be 6a d3 e6 bd 61 05 7c 3f bc 3d 00 be
       -0.13849433 -0.11270793 0.9844571 -0.1252355
000080 a4 5c 05 bf 53 bb f5 bd 5a 4b 3f 3f 72 c0 5c 3f
       -0.52094483 -0.1199862 0.7472435 0.8623115
000090 ce 75 2d be 51 1b a9 3c ec c6 15 be 2b e9 e6 bd
       -0.1693947 0.020642908 -0.14626664 -0.11274942
0000a0 bf 52 f8 bd 60 7e 2b 3f d9 5f 1f be c3 5e 1e be
       -0.121251576 0.6698971 -0.15563907 -0.15465836
0000b0 01 cf 35 3f 86 6a 11 3f 37 38 83 3f a5 47 fd bd
       0.7101899 0.56803167 1.025153 -0.12367181
0000c0 38 ee 0b be bc 2d 14 3f 29 85 05 be 8f 58 42 3f
       -0.13665092 0.57882285 -0.13039078 0.7591638
0000d0 75 17 6c 3f 06 99 0b be e2 73 09 be f1 28 08 be
       0.9222329 -0.13632593 -0.13423112 -0.13296868
0000e0 b0 74 fa bd 67 c5 a6 3f 5a 18 3b 3c 77 43 2c be
       -0.122292876 1.3028992 0.01141938 -0.16822611
0000f0 99 00 ad bf 6b 68 6c 3f bb 7d 22 be 72 39 47 3f
       -1.3515807 0.9234683 -0.15868275 0.7782203
000100 40 e5 29 be bc 2b 57 3d 3a db 00 be 03 94 1b be
       -0.16591358 0.052531943 -0.12583628 -0.1519318
000110 34 25 25 be e2 db 1d 3f 4b a1 4a 3f 96 1e e6 bd
       -0.16127473 0.6166364 0.79152364 -0.112363026
000120 c9 a9 0c be da 98 14 be 93 ad 0d be dd 90 36 3f
       -0.13736643 -0.14511433 -0.13835745 0.71314794
000130 03 f4 01 be 94 54 97 3f f9 7e 16 be 71 4a f7 3a
       -0.1269074 1.1822686 -0.14696874 0.001886679
000140 d2 ea 42 3f b3 c1 05 be 46 68 2e 3f 82 42 f9 bd
       0.7613956 -0.13062172 0.6812786 -0.121708885
000150 17 55 ab 3f 82 f1 cf ba f5 ed 1e 3f be f8 f3 3e
       1.3385342 -0.0015864822 0.62081844 0.47650713
000160 fd 63 22 be e5 a3 13 3f 0e 11 3a 3f 66 dd 41 3d
       -0.15858455 0.5767196 0.72682273 0.047330283
000170 4e 44 7b 3f ee c7 74 3f fe 7f 3f 3f 2f 1f 25 3f
       0.981511 0.9561757 0.74804676 0.6450071
000180 43 d9 77 bf 15 b5 2a be 44 dc e9 bd fa 89 92 3f
       -0.9681589 -0.1667064 -0.114189655 1.1448357
000190 c1 d3 24 be 01 e8 34 3f 04 d2 21 be 0c 3d 1d be
       -0.16096403 0.7066651 -0.15802771 -0.15355319
0001a0 66 37 28 be a7 1c 28 be ff 97 45 3f a7 e3 8a 3f
       -0.16427383 -0.1641718 0.7718505 1.0850724
0001b0 46 b5 e9 bd a2 cd 16 3f 24 0e 42 3f 95 2e 29 be
       -0.11411528 0.5890752 0.75802827 -0.16521676
0001c0 ba 7b 02 be da f1 e8 bd 9f 2c 5e 3f 5e a9 bb 3f
       -0.1274251 -0.113742545 0.86786836 1.4661062
0001d0 53 71 10 be fd c1 65 3f db 2b 10 be c8 13 07 be
       -0.1410573 0.8974913 -0.1407923 -0.1319114
0001e0 71 ba 02 be b9 6b 04 be 97 a6 e6 bd 81 74 26 be
       -0.12766434 -0.12931718 -0.11262243 -0.1625538
0001f0 b7 b7 82 3f ae 86 38 3f b7 f3 7b 3f 9a 6d 07 3f
       1.0212315 0.72080505 0.98418754 0.52901614
000200 81 1d 43 3f 2e 1f 09 be 9a 56 0e be b6 33 49 3f
       0.76216894 -0.133908 -0.13900223 0.7859453
000210 ff 28 f1 bd e0 03 52 3f a6 88 68 3f b6 d2 3b 3f
       -0.117753975 0.8203716 0.9083351 0.73368394
000220 7a 49 10 be 35 16 35 3f a9 f9 eb bd b3 1e 82 3f
       -0.14090529 0.7073701 -0.11522228 1.0165619
000230 fb 8d 95 3f 43 68 23 be c9 f2 94 3f 20 b3 2a 3f
       1.1683954 -0.15957741 1.1636592 0.66679573
000240 4d 03 02 be 0f d6 87 3f a0 97 17 be ab dd 39 3f
       -0.12696572 1.06122 -0.14803934 0.72603863
000250 d0 fa fa bd be dc 11 be 96 a4 30 be 12 78 13 be
       -0.1225487 -0.14244363 -0.17250285 -0.14401272
000260 5a 2f 4e 3f c9 79 a1 bf 1f 3f 17 be 37 f5 0f be
       0.80541 -1.2615291 -0.14770173 -0.14058386
000270 a8 c5 f5 bd 0c 0b 22 be ca 30 dd bd 94 8c 34 3f
       -0.120005906 -0.15824527 -0.108003214 0.70527005
000280 0d 57 6a 3f 78 dd 05 3d 32 eb 40 3f e7 a3 34 3f
       0.9153908 0.032681912 0.7535888 0.70562595
000290 a9 3b f8 3c 2c ea 1e be 9c 90 22 3f 60 9a 6f 3f
       0.030301886 -0.15519017 0.63501906 0.9359493
0002a0 20 4c 27 be 40 79 0a be 11 e9 2e be ea ed 0d be
       -0.16337633 -0.13522816 -0.17081095 -0.13860288
0002b0 39 2a 76 3f da 2c 6c 3f 31 4d 5a 3d 26 a9 17 be
       0.96158177 0.9225594 0.05329627 -0.14810619
0002c0 39 2e 1b be 5b 3e 02 be 10 94 f8 bd 3c ad 4c 3f
       -0.15154351 -0.12719099 -0.12137616 0.79951835
0002d0 e5 41 db bd 5c bb 5b 3f 23 96 83 3f 0c c1 28 3f
       -0.10705928 0.8583276 1.0280193 0.65919566
0002e0 4e 15 7f 3f 7b ca 85 3f 64 56 65 3f 87 9d 8c 3f
       0.99641883 1.0452417 0.89584947 1.0985574
0002f0 b7 cf 20 be 6b ff 46 3d b8 73 2c be 6c 9d 81 3f
       -0.15704237 0.04858343 -0.16841018 1.0126166
000300 d4 b3 0b be 48 c0 72 3f a7 78 09 be 48 4b 07 be
       -0.13642818 0.9482465 -0.13424931 -0.13212311
000310 2b d4 56 3f 2e 44 2c 3f b9 ee c8 3c 79 cd 83 3f
       0.8391749 0.67291534 0.024527894 1.029708
000320 75 4e 28 be c6 47 30 3f f2 9d 2d be 67 8d 1f be
       -0.16436179 0.6885952 -0.16954783 -0.15581284
000330 6b 3f 2e 3f b0 b4 0b be 11 1d 30 be 58 ba e7 bd
       0.6806552 -0.13643146 -0.17198588 -0.11314839
000340 95 97 7b 3f 90 a1 f4 3c c4 ce 57 3f 3e 2f 1f be
       0.9827817 0.029862195 0.84299874 -0.15545365
000350 ef 57 1a be 8b a1 01 be 09 7f 42 3f 60 3c 22 be
       -0.15072607 -0.1265928 0.7597509 -0.15843344
000360 85 6b d1 3c 1e 0c 4d 3f dd 25 72 3f 0c a3 2a be
       0.025563965 0.80096614 0.94589025 -0.1666376
000370 b1 62 21 be 11 db 06 be 90 3d 58 3f 92 53 a6 3f
       -0.15760304 -0.13169505 0.84468937 1.2994254
000380 e7 00 38 3f 74 a1 34 3f e8 d0 4c 3f ee f6 17 be
       0.71876377 0.7055886 0.80006266 -0.1484029
000390 53 94 46 3f 39 24 11 be 6a c1 fa bd 82 c3 10 be
       0.77570075 -0.14173974 -0.12243922 -0.1413708
0003a0 17 0e 20 be 2a e5 27 be 89 59 47 3f 16 89 19 3d
       -0.15630375 -0.16396013 0.77870995 0.03748425
0003b0 cc 47 0b be 1c ac f5 bd 5e f6 65 3f 26 26 4d 3f
       -0.13601607 -0.11995718 0.8982905 0.80136335
0003c0 96 32 82 3f 38 fc f2 bd 55 31 25 be bb 6b 74 3f
       1.0171688 -0.11864513 -0.161321 0.95476884
0003d0 c0 13 14 be 02 21 e6 bd 2f d6 05 3f f3 58 a8 3f
       -0.14460659 -0.112367645 0.52279943 1.3152145
0003e0 e4 da ea bd 4b a6 2d be 93 9c 37 3f b0 7d 14 be
       -0.11467531 -0.16957967 0.7172329 -0.14501071
0003f0 2e 3a 1e be b7 98 70 3f cb ea 05 3f 23 ab 28 3f
       -0.15451881 0.93983024 0.5231139 0.65886134

norm.weight f4 [26]
000000 33 2c 8e 3f d5 c8 9e 3f 03 04 9f 3f 07 4f ab 3f
       1.1107239 1.2405039 1.2423099 1.3383492
000010 67 8e 94 3f 3a 29 a0 3f 87 3d a2 3f 91 30 97 3f
       1.1605958 1.2512581 1.2675027 1.1811696
000020 81 ac ac 3f 00 6b a6 3f a0 07 a1 3f 4f 06 9f 3f
       1.3490144 1.3001404 1.2580452 1.24238
000030 1e c3 a0 3f 57 10 a6 3f 81 45 a1 3f fc 54 ad 3f
       1.2559545 1.2973737 1.2599336 1.354156
000040 08 a5 a7 3f 40 2f 94 3f b8 58 a1 3f 70 7c 92 3f
       1.3097239 1.157692 1.26052 1.1444225
000050 b4 57 9f 3f fe b1 98 3f 0f 82 9a 3f 65 59 92 3f
       1.244864 1.1929319 1.2070941 1.1433531
000060 b4 19 e6 3f fa 94 bb 3f
       1.7976594 1.4654839

norm.bias f4 [26]
000000 05 3c f9 3d 1f 4e 56 3e 90 f8 c3 3e 0c 9c 96 3e
       0.12169651 0.20928238 0.38275576 0.2941593
000010 4f ee 8d 3e 41 db 9a 3e 00 cc 65 3d 88 dd 91 3e
       0.27720878 0.30245402 0.056102753 0.28489327
000020 15 43 43 3e 76 6d 94 3d ac 34 12 3d e8 c9 fe 3c
       0.19068559 0.072474405 0.035694763 0.031102136
000030 f0 ee 42 be 5b aa a5 3c 45 06 9c be 2a d9 64 be
       -0.1903646 0.020222833 -0.30473533 -0.22348467
000040 8d 01 13 be 3a ae 4d bd dc 81 56 be 19 75 04 3e
       -0.1435606 -0.050214984 -0.20947975 0.12935294
000050 a9 3f 1e 3e 5c 00 6a 3e b8 7e 1c 3e 85 f3 00 3e
       0.15453972 0.228517 0.15282714 0.12592895
000060 59 54 df 3d 76 3c b7 3d
       0.1090476 0.08947079

norm.running_mean f4 [26]
000000 36 12 c1 3f d6 f0 c7 3f b5 5a ca 3f c8 c5 c4 3f
       1.5083683 1.5620372 1.5808932 1.5372858
000010 9f 67 cc 3f 62 22 cb 3f 52 7f c9 3f 31 74 db 3f
       1.5969123 1.5869868 1.574198 1.7144834
000020 62 80 e3 3f 5a 31 dd 3f a4 a7 e7 3f be ac e9 3f
       1.7773554 1.7280686 1.8098035 1.8255842
000030 f8 1b e8 3f ba 31 db 3f eb ce c9 3f fd dc ca 3f
       1.8133535 1.712455 1.5766271 1.584869
000040 db e6 d0 3f 5e 05 cb 3f a4 ab ba 3f 19 b0 b8 3f
       1.6320451 1.5861013 1.458363 1.4428741
000050 f8 ac b7 3f 99 21 c0 3f 5b 0e c3 3f 7f 27 c1 3f
       1.4349661 1.5010253 1.5238756 1.5090178
000060 5a ff ad 3e 64 6f a8 3f
       0.3398388 1.3158994

norm.running_var f4 [26]
000000 ef bd e0 3e 31 20 f3 3e 0a 82 01 3f 75 de 20 3f
       0.43894908 0.47485498 0.5058905 0.6283944
000010 fc 70 27 3f ff 99 30 3f 87 05 30 3f f6 97 34 3f
       0.65406775 0.6898498 0.68758434 0.70544374
000020 21 a5 2f 3f f6 33 25 3f 76 8d 06 3f f1 11 fd 3e
       0.6861134 0.6453241 0.525596 0.4942775
000030 cd 41 00 3f d3 e3 0a 3f 87 3a 1c 3f 04 db 1b 3f
       0.50100404 0.5425388 0.61026806 0.60881066
000040 3c 07 13 3f 19 7e 1c 3f e0 1e 0d 3f 76 45 0c 3f
       0.57432914 0.6112991 0.55125237 0.5479349
000050 49 ef 0e 3f 53 b9 fe 3e 77 3a f4 3e a2 8f e1 3e
       0.5583387 0.49750766 0.47700855 0.44054896
000060 f0 e6 0d 40 9e e1 c6 3e
       2.2172203 0.38844007

norm_a.weight f4 [2]
000000 df f2 f7 3f 47 05 cc 3f
       1.9370993 1.593911

norm_a.bias f4 [2]
000000 6b 5a 92 3d 6f 8a af bd
       0.07146152 -0.08571326

norm_a.running_mean f4 [2]
000000 8c 33 f0 bc ed c4 cd 3c
       -0.029321454 0.025118316

norm_a.running_var f4 [2]
000000 4e bb 45 3e e1 0b 0d 3e
       0.19309732 0.13774063
