turtlebot3_ddpg/save_model_ddpg/2020_11_28-19_07_30/stage_1_2650_critic(1).pth (torch_old, 586393 bytes, 13 tensors)

fc1.weight f4 [512, 26]
-0.07485592 0.012814509 -0.3273953 -0.21279064 0.009457975 0.027548615 -0.12383549 -0.19224048
-0.03879648 -0.23289108 0.37022352 0.16398627 0.0039569447 0.005298498 0.21942966 -0.06145125
-0.116853274 0.3433591 -0.047118936 -0.11131365 -0.26778188 -0.022365049 -0.31849766 0.16933922
0.048977617 0.16650912 0.12730746 0.047735307 -0.18395418 -0.030249728 0.33282202 -0.109899886
-0.049733877 -0.34295 -0.21887602 -0.1469741 -0.10541618 -0.16292204 0.08775789 0.11339445
-0.12809849 0.21035929 0.14978617 -0.045899272 0.0153397145 -0.30220503 -0.0035983485 0.07197835
0.11380269 0.248151 -0.08175369 -0.03607875 -0.114441454 0.075540416 -0.13034956 -0.07081785
0.14850865 0.22730996 0.3010832 0.2504659 -0.062016703 -0.5556419 -0.3850398 -0.09025798
-0.1448261 -0.32674122 0.07129547 -0.16535337 -0.19355775 -0.15986142 0.115046225 0.15514593
-0.016337443 -0.14268392 0.037945695 0.031208698 -0.090736605 0.21123593 0.15464866 -0.019581724
0.20319173 0.1143627 0.017742978 -0.07579205 0.031188732 0.3205007 -0.26907757 0.17574243
-0.13544905 -0.046788875 -0.13074319 0.1508229 -0.33640292 0.0053742724 -0.1528926 -0.15413678
0.17471436 -0.0561832 -0.29715255 0.16406968 0.32994837 0.123111084 0.008003893 0.18529595
-0.033800345 -0.13832806 -0.099020176 0.119060606 0.12112112 0.109441146 0.06979069 -0.023869155
0.06912688 0.08562616 0.03397018 -0.0555863 0.003546628 0.011961383 -0.06047174 0.026993364
0.058725595 0.04733216 0.075476594 0.07527133 0.089693606 0.057171192 0.014174756 -0.039046325
-0.90452737 -0.015737021 -0.34365842 -0.01612806 -0.27537638 0.28512952 0.058508873 0.21759889
0.10337717 -0.043420948 -0.05311375 0.083235726 0.25671408 0.16104782 -0.121854536 0.020414546
-0.024572918 0.0706057 -0.010518581 -0.09753668 -0.17883788 -0.29444864 -0.13507812 0.009602271
-0.34528798 -0.16705774 -0.2991238 -0.11452372 0.016407289 -0.13792856 -0.022047408 0.20963143
0.21294533 -0.003875805 0.046148527 -0.14993809 0.18063928 -0.0012407522 0.13962828 -0.07994333
0.3899527 -0.123357415 -0.05057874 0.1282433 0.03093942 0.12350087 0.1313517 0.06619332
0.2258781 -0.104660384 -0.044389483 -0.008777514 0.39654687 -0.34968197 -0.38641304 0.13392042
-0.14530924 0.046830297 0.36725384 -0.13692251 0.23475471 0.17055798 0.18818836 -0.18549527
0.21542028 -0.024279276 0.07827943 -0.08592546 -0.0425929 -0.26632664 -0.026617745 -0.03532062
-0.12951374 -0.102894925 0.038004644 0.12833627 0.020085154 -0.26352164 0.20745757 0.10643259
0.36654088 0.1260245 0.090147674 0.046344597 0.15049446 0.16352852 0.050674975 0.11042025
-0.05883302 -0.03874249 -0.088752046 -0.06147056 0.01680903 0.027750243 0.038770035 -0.042102333
0.055121046 0.17111261 0.023131255 0.097834244 0.1697961 -0.40030992 0.059499696 0.069456466
0.541366 0.17649877 0.019936956 0.0032561442 0.01764035 0.17809643 0.18712959 0.12852849
0.07077301 0.17841475 -0.15564105 -0.19317727 -0.2290035 0.13814573 -0.13952647 0.113643415
0.2568457 0.1149643 -0.19378369 -0.05384485 -0.025506113 -0.14961715 0.13277066 -0.38318723
00000000: 104e 99bd f2f3 513c 5ba0 a7be cae5 59be
00000010: 9ff5 1a3c a2ad e13c 769d fdbd b0da 44be
00000020: 0fe9 1ebd 007b 6ebe f08d bd3e 04ec 273e
00000030: 42a9 813b 069f ad3b 2bb2 603e 4eb4 7bbd
00000040: c550 efbd c4cc af3e c9ff 40bd 69f8 e3bd
00000050: b51a 89be e836 b7bc 2012 a3be 4367 2d3e
00000060: c19c 483d 5e81 2a3e e35c 023e 1986 433d
00000070: 7c5e 3cbe 47ce f7bc a667 aa3e 3113 e1bd
00000080: c0b5 4bbd 2497 afbe 0921 60be 6180 16be
00000090: 70e4 d7bd 09d5 26be 69ba b33d 593b e83d
000000a0: 402c 03be 6d68 573e 8c61 193e e000 3cbd
000000b0: 6d53 7b3c 9eba 9abe 45d2 6bbb 6369 933d
000000c0: 6211 e93d 4c1b 7e3e 7b6e a7bd 50c7 13bd
000000d0: 4860 eabd efb4 9a3d 5b7a 05be f308 91bd
000000e0: a712 183e f1c3 683e 9427 9a3e 113d 803e
000000f0: 3a05 7ebd 8c3e 0ebf f023 c5be 2dd9 b8bd
00000100: 4b4d 14be a04a a7be 5c03 923d 6552 29be
00000110: 0134 46be b6b2 23be 5b9d eb3d 93de 1e3e
00000120: 1ad6 85bc bc1b 12be f26c 1b3d 62a9 ff3c
00000130: 1dd4 b9bd 3b4e 583e 385c 1e3e da69 a0bc
00000140: 7e11 503e fe36 ea3d b959 913c dd38 9bbd
00000150: 837f ff3c ab18 a43e 89c4 89be d3f5 333e
00000160: 28b3 0abe b1a5 3fbd 8be1 05be 5171 1a3e
00000170: 013d acbe aa1a b03b e18f 1cbe 08d6 1dbe
00000180: 52e8 323e 5b20 66bd 6124 98be e201 283e
00000190: feee a83e aa21 fc3d c322 033c 39be 3d3e
000001a0: 3b72 0abd dfa5 0dbe 17cb cabd 0cd6 f33d
000001b0: 5a0e f83d ae22 e03d 6cee 8e3d 3f89 c3bc
000001c0: 6592 8d3d c55c af3d 5124 0b3d 76ae 63bd
000001d0: 8b6e 683b adf9 433c 37b1 77bd 3021 dd3c
000001e0: 408a 703d 5edf 413d 7993 9a3d db27 9a3d
000001f0: 48b1 b73d 572c 6a3d 3c3d 683c 0aef 1fbd
00000200: 1b8f 67bf edea 80bc fff3 afbe fe1e 84bc
00000210: 22fe 8cbe 7ffc 913e 00a7 6f3d 3ed2 5e3e
00000220: 69b7 d33d 2ada 31bd ce8d 59bd 7e77 aa3d
00000230: 0770 833e b8e9 243e df8e f9bd 683c a73c
00000240: 254d c9bc b999 903d 2056 2cbc 50c1 c7bd
00000250: 4721 37be f9c1 96be eb51 0abe d852 1d3c
00000260: 96c9 b0be 2f11 2bbe c126 99be 6a8b eabd
00000270: 9468 863c 253d 0dbe c49c b4bc 9fa9 563e
00000280: 570e 5a3e 3801 7ebb 3d06 3d3d 5f89 19be
00000290: 81f9 383e bca0 a2ba b7fa 0e3e 54b9 a3bd
000002a0: e1a7 c73e d0a2 fcbd a72b 4fbd 3652 033e
000002b0: ab74 fd3c 06ee fc3d 0f81 063e 5d90 873d
000002c0: 974c 673e 2f58 d6bd bfd1 35bd 90cf 0fbc
000002d0: 3108 cb3e 8409 b3be eed7 c5be 6f22 093e
000002e0: f2cb 14be 20d1 3f3d b208 bc3e 6a35 0cbe
000002f0: 8a63 703e c0a6 2e3e 73b4 403e 79f2 3dbe
00000300: 2297 5c3e 55e5 c6bc f750 a03d b0f9 afbd
00000310: e575 2ebd f75b 88be 750d dabc 5bac 10bd
00000320: 409f 04be 93ba d2bd c2aa 1b3d 956a 033e
00000330: 9f89 a43c 4fec 86be c26f 543e 54f9 d93d
00000340: 3fab bb3e 910c 013e 589f b83d d5d3 3d3d
00000350: 381b 1a3e 0574 273e 9090 4f3d 0324 e23d
00000360: e5fa 70bd 72b0 1ebd a2c3 b5bd 8ec8 7bbd
00000370: 17b3 893c 7a54 e33c 54cd 1e3d 7f73 2cbd
00000380: 9bc6 613d 2538 2f3e c27d bd3c 525d c83d
00000390: 07df 2d3e 6cf5 ccbe f4b5 733d 313f 8e3d
000003a0: f696 0a3f 18bc 343e d452 a33c 0965 553b
000003b0: 7f82 903c e95e 363e e69e 3f3e f99c 033e
000003c0: 71f1 903d 5bb2 363e 5e60 1fbe 43d0 45be
000003d0: e57f 6abe 1376 0d3e 07e0 0ebe e1bd e83d
000003e0: 4881 833e 6772 eb3d 3b6f 46be 6b8c 5cbd
000003f0: 32f2 d0bc 3d35 19be 08f5 073e 1e31 c4be

fc1.bias f4 [512]
0.2545344 0.1277541 0.1813277 -0.07181417 0.1723966 -0.17348185 -0.27396148 -0.24394518
0.076622084 0.3450817 0.12038268 0.28753135 -0.054214597 -0.038882893 0.24311285 0.4041122
-0.21388006 0.42039835 -0.061373226 0.06958875 -0.27428603 -0.5771192 -0.2835734 0.2896651
0.19737168 -0.19927537 -0.12172725 -0.18513916 0.2590392 0.28453517 0.22564949 0.3016156
0.16363084 0.21044986 -0.122321695 0.0733508 -0.0067757666 0.16844147 0.28683943 -0.20519288
-0.3161819 0.11282222 0.25121307 -0.07024283 -0.19154193 -0.11324364 0.23476237 -0.020259837
-0.09093683 0.14327475 -0.15365806 0.1321609 -0.12631011 0.09965695 0.18135759 -0.31730276
0.12241537 0.6872241 -0.30587187 -0.02439021 0.19277875 -0.082720034 0.16628176 0.31207865
0.21489997 -0.09971412 0.021645036 0.21178855 0.06496517 0.17681278 0.45100054 0.08138199
-0.013973263 0.10615217 0.097555935 0.09011941 -0.14462242 -0.10211913 -0.41269302 -0.3967455
0.14102551 0.030407015 -0.21694335 0.27798554 0.23330648 -0.24268857 -0.15414712 0.11825239
-0.27304745 -0.6527596 -0.25428364 0.26735836 0.3325937 -0.21946086 -0.4941527 0.14369655
0.335636 -0.2975788 0.103373736 0.4285456 0.13533954 -0.3028692 -0.46631503 0.12992896
0.30468938 -0.028449103 0.32559562 0.076260224 0.19955012 -0.3830761 0.25002694 0.104541205
0.469468 0.040666893 -0.08847423 0.19755968 0.26806033 0.015755424 0.1856355 0.2922962
-0.4784048 -0.36799967 -0.2562454 0.50872695 0.11751412 -0.19255644 0.36962047 -0.35985374
0.048761174 -0.17675437 0.051238827 -0.1590282 0.20416445 -0.056860134 -0.21669042 -0.10418424
0.114791885 0.24131496 -0.19057427 0.08914268 0.32753217 -0.06984831 0.1662746 0.42378548
-0.14730279 -0.070459865 0.091724224 -0.34899405 0.093130454 -0.3770482 0.3155839 0.11559581
0.2918085 0.4104964 0.15930058 0.20090386 -0.27032873 -0.147161 -0.39683956 0.16048288
0.37196258 0.1781688 0.15382396 0.47624466 0.16452764 0.11669737 0.13327028 0.40998843
0.5813194 -0.33812386 0.23378351 -0.19305262 -0.23196875 0.25106025 0.19663067 0.2751221
0.04400756 -0.06471027 -0.12012258 -0.2943708 -0.2270911 0.082159184 -0.09008375 -0.25259987
-0.0038561306 0.13535523 0.15484004 0.03453451 0.49508536 0.13489392 -0.20525992 0.22765237
0.26833856 -0.11902936 0.07649008 0.13002121 -0.07813831 -0.26687834 -0.1514753 -0.049711116
0.04298846 -0.18359771 -0.00876069 0.07407226 0.31977314 0.052002892 0.060199898 0.40868026
0.14046717 -0.08227949 0.14537516 0.07284671 0.02203055 -0.4261663 0.120826714 -0.02185832
-0.035950683 0.039075956 -0.5396235 -0.27211398 -0.28206787 -0.12515248 -0.22269817 -0.0036517107
-0.12820166 -0.30566233 -0.16162582 0.5153979 0.28727618 -0.1900989 0.037603963 0.08072842
0.26415628 -0.23000917 0.17877747 -0.09960416 0.17219456 -0.07030597 -0.6430832 0.30553603
-0.023089644 0.07021624 -0.43771726 -0.37205496 0.10361182 0.2563274 0.32051998 0.042867485
-0.37234044 -0.03571358 0.0020707627 -0.267795 0.044709507 0.1389156 0.111462586 -0.0011081573
00000000: 5552 823e f9d1 023e f8ad 393e 4f13 93bd
00000010: bc88 303e 3aa5 31be ae44 8cbe c4cc 79be
00000020: 0aec 9c3d 8cae b03e 328b f63d 4f37 933e
00000030: 2010 5ebd ab43 1fbd 93f2 783e cbe7 ce3e
00000040: 6003 5bbe 743e d73e 7e62 7bbd 8c84 8e3d
00000050: 386f 8cbe 15be 13bf 8830 91be fc4e 943e
00000060: cd1b 4a3e d80e 4cbe 234c f9bd 1f95 3dbe
00000070: c9a0 843e 98ae 913e a910 673e 5c6d 9a3e
00000080: d88e 273e 2b80 573e cc83 fabd f238 963d
00000090: 4007 debb ec7b 2c3e 9edc 923e 151e 52be
000000a0: 98e2 a1be 560f e73d 009f 803e 79db 8fbd
000000b0: 9123 44be 48ec e7bd 8c65 703e f5f7 a5bc
000000c0: 173d babd 9eb6 123e 8a58 1dbe 3055 073e
000000d0: 7057 01be f118 cc3d ceb5 393e 8275 a2be
000000e0: e9b4 fa3d ebed 2f3f 3d9b 9cbe facd c7bc
000000f0: cb67 453e 1f69 a9bd c445 2a3e c6c8 9f3e
00000100: bd0e 5c3e eb36 ccbd ee50 b13c 19df 583e
00000110: 760c 853d 690e 353e 8be9 e63e 9aab a63d
00000120: 1df0 64bc 4f66 d93d 68cb c73d 8690 b83d
00000130: e617 14be d623 d1bd 804c d3be 3a22 cbbe
00000140: fe68 103e 2218 f93c 6626 5ebe 1f54 8e3e
00000150: e5e7 6e3e 5a83 78be bed8 1dbe 4f2e f23d
00000160: e0cc 8bbe 411b 27bf 7731 82be 32e3 883e
00000170: b949 aa3e 59ba 60be 9501 fdbe 3025 133e
00000180: 7bd8 ab3e 405c 98be 9cb5 d33d 546a db3e
00000190: 7396 0a3e ac11 9bbe d8c0 eebe 190c 053e
000001a0: 3f00 9c3e 180e e9bc 78b4 a63e 522e 9c3d
000001b0: de56 4c3e 8d22 c4be 8803 803e b319 d63d
000001c0: 1c5e f03e 5492 263d fa31 b5bd 164d 4a3e
000001d0: 343f 893e 8511 813c 3c17 3e3e d9a7 953e
000001e0: 79f1 f4be 746a bcbe 9932 83be ee3b 023f
000001f0: 3eab f03d 842d 45be e53e bd3e c03e b8be
00000200: ccb9 473d 19ff 34be cedf 513d 4ad8 22be
00000210: 7c10 513e 2ce6 68bd 18e4 5dbe 8c5e d5bd
00000220: 0218 eb3d 451b 773e e725 43be 7090 b63d
00000230: 4cb2 a73e a10c 8fbd e443 2a3e 69fa d83e
00000240: 8bd6 16be 434d 90bd e9d9 bb3d 59af b2be
00000250: 2ebb be3d 760c c1be 3794 a13e 7fbd ec3d
00000260: ec67 953e 962c d23e b11f 233e beb9 4d3e
00000270: 8768 8abe 60b1 16be 8e2e cbbe a055 243e
00000280: e171 be3e e271 363e 0784 1d3e 57d6 f33e
00000290: ef79 283e 08ff ee3d 0178 083e 01ea d13e
000002a0: 59d1 143f 921e adbe f264 6f3e 96af 45be
000002b0: 3789 6dbe f88a 803e 8d59 493e cedc 8c3e
000002c0: 4541 343d d186 84bd d402 f6bd c5b7 96be
000002d0: 928a 68be 1343 a83d d47d b8bd c554 81be
000002e0: 23b7 7cbb 909a 0a3e 638e 1e3e 0f74 0d3d
000002f0: d47b fd3e a221 0a3e a82f 52be b41d 693e
00000300: ac63 893e aac5 f3bd d5a6 9c3d 4824 053e
00000310: fa06 a0bd 47a4 88be 571c 1bbe e29d 4bbd
00000320: ab14 303d 0a01 3cbe ff88 0fbc 32b3 973d
00000330: 4eb9 a33e fc00 553d 2b94 763d 8a3e d13e
00000340: a0d6 0f3e 2682 a8bd 3add 143e a830 953d
00000350: 6979 b43c 7832 dabe ff73 f73d 3810 b3bc
00000360: 0641 13bd 1c0e 203d c424 0abf 8652 8bbe
00000370: 336b 90be f927 00be fd0a 64be 8a51 6fbb
00000380: 4c47 03be c67f 9cbe 3d81 25be 1ef1 033f
00000390: dd15 933e 49a9 42be 9d06 1a3d f154 a53d
000003a0: 7e3f 873e 8687 6bbe 7111 373e 44fd cbbd
000003b0: c553 303e 94fc 8fbd 1aa1 24bf 386f 9c3e
000003c0: 7e26 bdbc 88cd 8f3d 7a1c e0be fd7d bebe
000003d0: 6f32 d43d 583d 833e 321b a43e d195 2f3d
000003e0: 68a3 bebe 6748 12bd a2b5 073b 6d1c 89be
000003f0: 5121 373d e43f 0e3e 7f46 e43d 973f 91ba

fc2.weight f4 [256, 514]
0.13464895 0.01297511 0.10899757 0.102738544 0.12243999 0.025488935 0.09216614 0.12457973
0.15252355 0.03162135 0.07570606 0.06775417 -0.054724727 -0.08626278 0.064905204 -0.00866733
0.09575836 0.08692386 -0.08682921 0.1244335 0.1366541 -0.28976765 0.083582714 -0.058905873
0.07367153 0.14134306 0.09583096 0.12903842 -0.044898555 0.012447902 0.10808938 0.08149653
0.087340645 0.027582658 0.09476571 0.03553241 -0.033829242 0.12748474 0.17740718 0.04117231
0.09623767 0.10178708 0.0895875 0.0617919 -0.021356178 0.0744835 0.035724692 0.04159552
0.081796296 0.12980403 0.13813324 0.10441242 -0.05809028 0.024735661 0.09817664 0.073439784
0.18208855 0.18558061 0.07476144 0.012034821 -0.03914072 0.16718827 -0.003356105 0.08324301
0.10823007 -0.040272452 0.07824164 0.18062864 0.011806222 -0.102964945 0.16471048 0.09668195
-0.0460749 0.14486082 0.057072084 0.037560053 0.11394931 -0.026283687 0.083164856 0.14173006
0.11672777 0.022682466 0.059719916 0.15344626 0.12040392 -0.1258725 0.15611987 0.072164044
-0.04100612 -0.026491817 0.0021236378 0.07833345 0.13965532 -0.10486657 -0.020324506 0.16225949
-0.009527454 0.034969658 0.21179073 0.15531726 0.1543805 0.24698447 -0.020255655 -0.05940002
-0.0036511775 0.12486483 0.20118473 0.20074014 0.16355544 0.019477021 0.05778424 0.040852826
0.14210339 0.11445889 -0.0697501 0.14637172 0.1425764 0.087284155 0.011369723 0.22447626
0.106259875 0.10647827 0.14671254 0.16827106 -0.046804924 0.04042339 -0.034950573 0.074627735
0.17455222 0.17109518 0.081529364 -0.08624489 0.11089936 0.04355264 -0.12297609 0.06139195
-0.01197301 0.013424779 -0.11968213 0.04566192 0.116621874 -0.010331279 0.10950572 0.18968773
-0.088584766 -0.03772845 0.07759147 0.20610216 0.16079494 0.20009954 -0.016773688 0.034361556
0.09214512 0.18096061 0.040221144 0.11936283 -0.06748015 0.005557171 0.16922188 0.10149182
0.04270936 0.12213709 0.10013247 0.13444875 0.11292573 0.20727731 0.005467691 -0.08785294
0.077029906 0.1664331 0.09602232 0.05425905 0.08628038 0.051957365 0.09222417 0.083383374
0.13042323 0.025465645 0.0998438 0.10519131 -0.05441616 0.13472012 0.15530159 0.04734626
0.16893987 -0.10577546 0.0457403 0.11442826 0.12254227 0.040197175 -0.11903606 0.09791677
-0.012772687 0.20295109 0.20878315 0.073209345 0.041997604 0.09061161 -0.07010962 0.060185734
0.1586194 -0.11693456 0.0706407 0.09449515 0.10248965 0.10590993 0.11896454 0.12940064
0.117645204 -0.0016432222 0.13345747 0.05279146 0.123386845 0.051767275 -0.100054525 0.17400813
0.08437479 0.07164699 0.07624595 0.18940414 0.07863175 -0.028326653 -0.07207623 0.041497167
0.044762325 0.02195926 -0.12814659 0.012768004 0.034234755 0.13761985 0.096680105 0.044780206
0.059371132 0.17374222 0.06609601 0.0808638 0.043044187 0.013633309 0.07731056 0.036239695
0.10321381 -0.037421126 0.19688016 0.15380105 -0.04429839 0.18299356 0.13830462 -0.06582417
0.107843906 0.115179665 -0.050015688 0.07941177 0.02006601 0.022210957 -0.032839242 0.05048525
00000000: 6ae1 093e 8e95 543c 1e3a df3d 9668 d23d
00000010: d1c1 fa3d 2cce d03c 9ac1 bc3d a823 ff3d
00000020: 222f 1c3e 6485 013d c70b 9b3d b3c2 8a3d
00000030: 0927 60bd 8aaa b0bd 05ed 843d 6b01 0ebc
00000040: f61c c43d 2305 b23d 83d3 b1bd fed6 fe3d
00000050: 0def 0b3e 6d5c 94be 6a2d ab3d 4947 71bd
00000060: 19e1 963d 3cbc 103e 0643 c43d a622 043e
00000070: 8ce7 37bd 49f2 4b3c f75d dd3d a7e7 a63d
00000080: a7df b23d 07f5 e13c 8614 c23d 6f8a 113d
00000090: 8890 0abd 5c8b 023e 3aaa 353e 4ca4 283d
000000a0: 4118 c53d bf75 d03d a779 b73d 8119 7d3d
000000b0: 27f3 aebc ce8a 983d 0e54 123d 1060 2a3d
000000c0: d184 a73d 59eb 043e cd72 0d3e 2ed6 d53d
000000d0: 13f0 6dbd 71a2 ca3c d610 c93d 9967 963d
000000e0: 6c75 3a3e d808 3e3e 871c 993d b32d 453c
000000f0: 0552 20bd 6733 2b3e 19f2 5bbb 507b aa3d
00000100: baa7 dd3d baf4 24bd 273d a03d b7f6 383e
00000110: e26e 413c 49df d2bd dda9 283e 3001 c63d
00000120: 09b9 3cbd 6556 143e 6bc4 693d 92d8 193d
00000130: 415e e93d e350 d7bc 5652 aa3d af21 113e
00000140: f80e ef3d 94d0 b93c df9c 743d 0421 1d3e
00000150: 5596 f63d b8e4 00be e3dd 1f3e beca 933d
00000160: 09f6 27bd 5e05 d9bc bb2c 0b3b 4a6d a03d
00000170: ce01 0f3e 49c4 d6bd 947f a6bc 5a27 263e
00000180: 0a19 1cbc 583c 0f3d abdf 583e 7d0b 1f3e
00000190: ec15 1e3e 7fe9 7c3e 30ef a5bc 6f4d 73bd
000001a0: 9848 6fbb 22b9 ff3d 5f03 4e3e d38e 4d3e
000001b0: 147b 273e 468e 9f3c 2baf 6c3d 4b55 273d
000001c0: 8d83 113e 6c69 ea3d 24d9 8ebd 78e2 153e
000001d0: 8cff 113e 09c2 b23d 1348 3a3c 1bdd 653e
000001e0: c79e d93d 4711 da3d d03b 163e 404f 2c3e
000001f0: 85b6 3fbd ff92 253d 5528 0fbd 6dd6 983d
00000200: d1bd 323e 9333 2f3e def8 a63d 29a1 b0bd
00000210: 341f e33d 4164 323d e3da fbbd 2076 7b3d
00000220: 722a 44bc 9bf3 5b3c e81b f5bd fe07 3b3d
00000230: 73d7 ee3d 8644 29bc 8944 e03d 803d 423e
00000240: ee6b b5bd 2689 1abd 47e8 9e3d 720c 533e
00000250: 6ea7 243e e5e6 4c3e f968 89bc b4be 0c3d
00000260: 95b6 bc3d bd4d 393e edbe 243d 8074 f43d
00000270: 0833 8abd ee18 b63b 8048 2d3e f1da cf3d
00000280: 03f0 2e3d 0323 fa3d 4112 cd3d efac 093e
00000290: 9b45 e73d 8140 543e 512a b33b 3eec b3bd
000002a0: dbc1 9d3d 706d 2a3e 5aa7 c43d bd3e 5e3d
000002b0: c5b3 b03d 3fd1 543d 07e0 bc3d e7c4 aa3d
000002c0: ab8d 053e 549d d03c e87a cc3d 8b6e d73d
000002d0: 7be3 5ebd 12f4 093e 6107 1f3e 27ee 413d
000002e0: 93fe 2c3e cea0 d8bd 2e5a 3b3d 5d59 ea3d
000002f0: 71f7 fa3d cba5 243d 2ec9 f3bd 9688 c83d
00000300: 8844 51bc 69d2 4f3e 40cb 553e c8ee 953d
00000310: ae05 2c3d 9492 b93d a295 8fbd 5185 763d
00000320: 206d 223e 637b efbd 12ac 903d ac86 c13d
00000330: 18e6 d13d 4ee7 d83d aea3 f33d 9a81 043e
00000340: f8ef f03d 6361 d7ba 13a9 083e dc3b 583d
00000350: 3eb2 fc3d ec09 543d 63e9 ccbd 302f 323e
00000360: b1cc ac3d a8bb 923d d626 9c3d 29f3 413e
00000370: af09 a13d 4c0d e8bc b49c 93bd eff8 293d
00000380: b358 373d e8e3 b33c dc38 03be e430 513c
00000390: be39 0c3d 38ec 0c3e 3800 c63d 736b 373d
000003a0: 252f 733d 7be9 313e 585d 873d ec9b a53d
000003b0: 1a4f 303d 3e5e 5f3c 0055 9e3d 1370 143d
000003c0: c361 d33d e546 19bd f49a 493e 067e 1d3e
000003d0: 3b72 35bd aa62 3b3e ba9f 0d3e d3ce 86bd
000003e0: 44dd dc3d 51e3 eb3d 40dd 4cbd a3a2 a23d
000003f0: 7961 a43c c1f3 b53c 7182 06bd 9fc9 4e3d

fc2.bias f4 [256]
0.15988891 0.11558042 -0.18285638 0.19265091 0.104489625 0.12639257 0.011864102 0.05020146
0.05878133 0.1216856 0.13379493 0.09501753 0.17746706 0.14557384 0.34025407 0.14963157
0.10418414 0.15411268 -0.05944818 0.1464345 0.34673393 0.15507011 0.09685471 -0.043564375
0.16830365 -0.074315615 0.092492364 0.15790585 0.13554989 0.17092536 -0.16910309 0.16673638
0.040153693 0.12071817 -0.13023692 0.39075506 0.12539543 0.027006118 0.1448609 0.15865552
0.13382678 0.30202025 0.15533692 0.14361961 -0.22985114 0.031494763 0.1321188 0.115296625
0.1589762 0.33805892 0.17122489 0.0169887 0.3939174 0.16255178 0.10206778 0.121480204
0.10636038 0.15474245 0.027052626 0.17586228 -0.04778861 -0.044390652 0.15660441 0.22309619
0.13767837 0.01640929 0.11169377 0.14509137 0.14574663 0.38183686 0.43391246 0.14724533
0.11850831 0.11872289 0.16839123 0.1576426 0.17687094 -0.13643438 0.10750251 -0.010111677
0.34493157 0.15450439 8.0568716e-05 0.16001025 0.360298 0.019103132 0.33975184 0.008498845
0.14627919 0.35327128 0.1972822 -0.056141075 0.088275805 0.26200694 -0.008392253 0.38063172
0.12075831 0.117902905 0.096488595 0.19503269 0.16293843 0.39939386 0.106858574 0.14817233
0.17526032 0.093616046 -0.18259045 0.14398603 0.14076781 -0.031097045 0.011307876 0.11251733
0.16722415 0.17160062 0.32764098 0.19952916 0.1506838 0.2085972 0.17157806 0.10598581
0.08842955 0.14104615 0.08895375 0.111193284 0.19514881 0.37182364 0.11699319 0.3076233
-0.10361021 0.121972166 0.10686889 -0.12670961 0.11277256 0.45803806 0.49967185 -0.17213008
0.17608787 -0.05332191 0.13312069 0.060337257 0.14594705 0.1362271 0.11728558 0.21881454
0.102813736 0.13487571 0.10104056 0.057418764 0.1548134 0.10495328 0.1274142 0.09844292
0.38849413 0.18838596 0.12466021 0.1382157 0.10297074 0.10062302 0.11065264 0.029532043
-0.07750133 -0.039898325 0.43544006 -0.18202285 -0.04235917 0.15955624 -0.23249608 0.11576664
0.11525223 0.17572041 0.17564513 0.121271245 0.087811664 0.003200148 -0.022188144 0.14554639
0.16771017 0.089467645 0.09693605 0.3841406 0.1302409 0.023833444 0.06463639 0.020721048
0.333119 0.2343301 -0.112651154 0.10682903 0.1244777 -0.0061061066 0.09461421 0.17847018
0.17501655 -0.08658725 0.11633035 0.10811544 -0.017318571 0.06866371 -0.026959358 -0.37813625
0.13216728 0.053033467 0.103038095 0.14222915 0.414289 0.1093028 0.16160567 0.17224553
-0.12835556 -0.00060457044 0.055931985 0.11820127 0.13627838 0.12164646 0.4519982 0.16973674
-0.0106334295 0.012066908 0.4002356 0.17419238 0.13471575 0.12800902 -0.07457806 0.032317616
0.24470071 0.039119173 0.29619437 0.096328795 -0.101368375 0.15034778 0.16946904 0.14992003
0.12797228 0.12854728 -0.029453658 -0.043153495 0.11435743 0.15222311 -0.18714231 0.4453103
0.26372904 0.14531095 0.14984833 0.17734388 0.17694545 0.16852881 0.062406197 0.20925549
0.1485687 0.097481094 0.35211033 0.1497293 0.14131089 0.16072725 -0.08397339 -0.27661565
00000000: ebb9 233e 6db5 ec3d b43e 3bbe 4846 453e
00000010: a8fe d53d 0e6d 013e a761 423c 0ca0 4d3d
00000020: b1c4 703d 4d36 f93d 8a01 093e 8d98 c23d
00000030: edb9 353e 4f11 153e c835 ae3e 0539 193e
00000040: 7f5e d53d b7cf 1d3e ef7f 73bd edf2 153e
00000050: 1c87 b13e b3ca 1e3e c35b c63d 8f70 32bd
00000060: cb57 2c3e c932 98bd a36c bd3d 12b2 213e
00000070: 97cd 0a3e 0f07 2f3e 5c29 2dbe f1bc 2a3e
00000080: 3378 243d 173b f73d d45c 05be 0c11 c83e
00000090: a967 003e ef3b dd3c 6a56 143e 9876 223e
000000a0: e309 093e 66a2 9a3e a410 1f3e 0511 133e
000000b0: 195e 6bbe a700 013d 274a 073e a320 ec3d
000000c0: a8ca 223e 0f16 ad3e 9455 2f3e e32b 8b3c
000000d0: 8baf c93e f973 263e ea08 d13d 9dca f83d
000000e0: 79d3 d93d ce74 1e3e 789d dd3c 3e15 343e
000000f0: fdbd 43bd f9d2 35bd e85c 203e 5473 643e
00000100: 8ffb 0c3e c66c 863c b4bf e43d d592 143e
00000110: 9b3e 153e 1f80 c33e c629 de3e 7bc7 163e
00000120: 7cb4 f23d fd24 f33d c06e 2c3e 106d 213e
00000130: a81d 353e 74b5 0bbe 472a dc3d 73ab 25bc
00000140: df9a b03e 6636 1e3e 00f7 a838 bad9 233e
00000150: fb78 b83e 2c7e 9c3c f4f3 ad3e bd3e 0b3c
00000160: 36ca 153e f9df b43e 5804 4a3e 2ff4 65bd
00000170: f2c9 b43d c625 863e a97f 09bc 29e2 c23e
00000180: 2250 f73d 1477 f13d d09b c53d a6b6 473e
00000190: 55d9 263e 5a7d cc3e abd8 da3d 7dba 173e
000001a0: 7177 333e c5b9 bf3d fef8 3abe 1371 133e
000001b0: 7025 103e 3bbf febc ab44 393c 7c6f e63d
000001c0: cf3c 2b3e 13b8 2f3e 8fc0 a73e 5f51 4c3e
000001d0: db4c 1a3e 819a 553e 29b2 2f3e 170f d93d
000001e0: 8d1a b53d 676e 103e 622d b63d 4eb9 e33d
000001f0: 17d5 473e ab5f be3e 209a ef3d cd80 9d3e
00000200: 9731 d4bd 8bcc f93d 14de da3d 2ac0 01be
00000210: 4df5 e63d f783 ea3e fdd4 ff3e de42 30be
00000220: 6150 343e 1368 5abd ca50 083e 3324 773d
00000230: 2573 153e 1e7f 0b3e 6c33 f03d eb10 603e
00000240: 0290 d23d dc1c 0a3e 5aee ce3d f02f 6b3d
00000250: 6787 1e3e bff1 d63d de78 023e 719c c93d
00000260: b4e8 c63e 40e8 403e da4d ff3d 6b88 0d3e
00000270: 53e2 d23d 7113 ce3d da9d e23d 2fed f13c
00000280: 04b9 9ebd 6d6c 23bd 00f2 de3e 3364 3abe
00000290: cf80 2dbd b662 233e 7413 6ebe 0f17 ed3d
000002a0: 5c09 ec3d 0df0 333e 51dc 333e 0f5d f83d
000002b0: 9ad6 b33d 93b9 513b e9c3 b5bc 1d0a 153e
000002c0: 37bc 2b3e d03a b73d 6886 c63d 14ae c43e
000002d0: df5d 053e 5b3e c33c 1560 843d 30bf a93c
000002e0: 938e aa3e 3bf4 6f3e a6b5 e6bd 2ec9 da3d
000002f0: 2aee fe3d bc15 c8bb 18c5 c13d e3c0 363e
00000300: 8a37 333e a854 b1bd 9b3e ee3d a16b dd3d
00000310: addf 8dbc 8f9f 8c3d dfd9 dcbc 139b c1be
00000320: dc56 073e 9f39 593d a305 d33d 85a4 113e
00000330: b01d d43e 25da df3d f57b 253e 2261 303e
00000340: a46f 03be 097c 1eba f018 653d 8213 f23d
00000350: 8f8c 0b3e c721 f93d 4f6c e73e 78cf 2d3e
00000360: d637 2ebc 48b4 453c aeeb cc3e 7d5f 323e
00000370: edf2 093e cc14 033e 62bc 98bd 7a5f 043d
00000380: d392 7a3e 6d3b 203d caa6 973e 0848 c53d
00000390: 399a cfbd c5f4 193e 4b89 2d3e a384 193e
000003a0: 2a0b 033e e6a1 033e cc48 f1bc b8c1 30bd
000003b0: 3a34 ea3d 60e0 1b3e 3ca2 3fbe b6ff e33e
000003c0: 7e07 873e 65cc 143e d771 193e a299 353e
000003d0: 3031 353e d192 2c3e a49d 7f3d 1247 563e
000003e0: 6522 183e 2ba4 c73d ce47 b43e a352 193e
000003f0: cdb3 103e af95 243e 3efa abbd 91a0 8dbe

fc3.weight f4 [1, 256]
-0.14680082 -0.17606226 0.7730128 0.8848204 -0.15911114 -0.15488544 0.019398112 0.96566606
0.84427464 -0.1318758 -0.11401912 1.2148868 -0.14004588 -0.1564573 0.76321733 -0.16368474
-0.1455142 -0.15081455 1.2056422 -0.11925599 1.0688217 -0.13545956 -0.17234899 0.022932502
-0.1524212 1.1576452 -0.12093837 -0.12536567 -0.13586749 -0.109967865 1.0073869 -0.12247939
-0.54367083 -0.11755369 0.75960666 0.87239426 -0.16690993 0.020642908 -0.14362708 -0.11016481
-0.11872098 0.67062515 -0.1530006 -0.15187326 0.7241058 0.5721652 1.0363297 -0.12076757
-0.13412318 0.57859933 -0.12751475 0.77201396 0.9349273 -0.13335347 -0.13134006 -0.13029611
-0.11967611 1.3118689 0.01141938 -0.16539171 -1.3986357 0.9461702 -0.15596029 0.7953327
-0.16307864 0.052531943 -0.12316615 -0.14931227 -0.15853554 0.61758506 0.7986025 -0.109688185
-0.13433829 -0.14229082 -0.13551527 0.7221709 -0.12446098 1.2157608 -0.14419527 0.001886679
0.76120645 -0.12793691 0.68292123 -0.11905555 1.3650922 -0.0015864822 0.62348986 0.46942648
-0.15606254 0.5752018 0.74928933 0.047330283 1.0089065 0.9891501 0.7503002 0.6482884
-1.013338 -0.16383117 -0.11162734 1.1739559 -0.15842995 0.7140749 -0.15536153 -0.15072942
-0.1614786 -0.16148457 0.7797159 1.1129538 -0.111202836 0.5910783 0.764962 -0.162424
-0.12475934 -0.11103379 0.8802331 1.4856505 -0.1381622 0.90819424 -0.13814463 -0.12921885
-0.12479866 -0.12664643 -0.110116705 -0.15986641 1.0572065 0.72818 1.0136269 0.5325
0.77263874 -0.13088968 -0.13642439 0.7921615 -0.11480565 0.8262089 0.9162437 0.745355
-0.13812909 0.70350116 -0.11267193 1.0192966 1.2211577 -0.15694948 1.1697919 0.6855917
-0.12406811 1.075544 -0.14523734 0.80652183 -0.11991698 -0.13963856 -0.16984981 -0.14136288
0.816103 -1.2983803 -0.14515084 -0.13803278 -0.11733893 -0.1556487 -0.105184056 0.7084074
0.9177029 0.032681912 0.75865096 0.71819955 0.030301886 -0.15277466 0.6496168 0.9456819
-0.16071448 -0.13237488 -0.16826342 -0.13580483 0.9789797 0.9371584 0.05329627 -0.14541456
-0.14862767 -0.124284565 -0.11876921 0.80110204 -0.10433943 0.88022804 1.0411661 0.6675841
1.0110259 1.0696001 0.9121846 1.0962644 -0.15425913 0.04858343 -0.16563557 1.0380393
-0.13383456 0.9603151 -0.13161378 -0.12953931 0.8535254 0.69288117 0.024527894 1.0590649
-0.16166751 0.70554966 -0.16692963 -0.1530631 0.6871374 -0.13368759 -0.16915394 -0.11034592
1.0026392 0.029862195 0.85526973 -0.15265284 -0.14770116 -0.12405279 0.7625968 -0.15535268
0.025563965 0.8205017 0.95808786 -0.16393758 -0.15468036 -0.12877218 0.8499026 1.3374537
0.73434544 0.70335317 0.8144601 -0.14574724 0.7801337 -0.13919383 -0.119635925 -0.13882259
-0.15360671 -0.16128306 0.7983695 0.03748425 -0.1333186 -0.1172567 0.9176527 0.8069141
1.0286218 -0.11601947 -0.1585502 0.96511614 -0.142084 -0.1096909 0.53227425 1.319006
-0.11193554 -0.16691628 0.72246283 -0.14214711 -0.15176898 0.9516665 0.5238633 0.669804
00000000: f452 16be aa49 34be 2be4 453f 9783 623f
00000010: 08ee 22be 4a9a 1ebe cae8 9e3c e435 773f
00000020: 6222 583f 730a 07be db82 e9bd 6981 9b3f
00000030: 3068 0fbe 5836 20be 3662 433f f99c 27be
00000040: ad01 15be 216f 1abe 7c52 9a3f 7c3c f4bd
00000050: 26cf 883f e9b5 0abe 417c 30be f1dc bb3c
00000060: 4e14 1cbe b82d 943f 89ae f7bd dc5f 00be
00000070: d920 0bbe d536 e1bd 0ef2 803f 79d6 fabd
00000080: 032e 0bbf fdbf f0bd 9575 423f 3b55 5f3f
00000090: 70ea 2abe 511b a93c fa12 13be 179e e1bd
000000a0: fc23 f3bd 17ae 2b3f 30ac 1cbe aa84 1bbe
000000b0: ff5e 393f 6b79 123f 74a6 843f fd54 f7bd
000000c0: 9657 09be 161f 143f 3a93 02be b5a2 453f
000000d0: 6557 6f3f d08d 08be 027e 06be 586c 05be
000000e0: c018 f5bd 52eb a73f 5a18 3b3c 725c 29be
000000f0: 7f06 b3bf 3638 723f 0eb4 1fbe ec9a 4b3f
00000100: 16fe 26be bc2b 573d 893e fcbd 51e5 18be
00000110: 2457 22be 0e1a 1e3f 3771 4c3f 33a4 e0bd
00000120: fa8f 09be afb4 11be 84c4 0abe 31e0 383f
00000130: 66e5 febd 0d9e 9b3f eda7 13be 714a f73a
00000140: 6dde 423f e501 03be edd3 2e3f 65d3 f3bd
00000150: 57bb ae3f 82f1 cfba 089d 1f3f ab58 f03e
00000160: dcce 1fbe 6d40 133f 6dd1 3f3f 66dd 413d
00000170: d923 813f f138 7d3f ad13 403f 3bf6 253f
00000180: 0fb5 81bf 5cc3 27be e09c e4bd 3044 963f
00000190: 763b 22be 9dcd 363f 1817 1fbe d058 1abe
000001a0: a55a 25be 365c 25be 769b 473f 4575 8e3f
000001b0: 50be e3bd e850 173f 8dd4 433f 7a52 26be
000001c0: d381 ffbd af65 e3bd f556 613f cc29 be3f
000001d0: 647a 0dbe 6b7f 683f c975 0dbe f251 04be
000001e0: 7196 ffbd 9aaf 01be de84 e1bd 05b4 23be
000001f0: 8b52 873f 016a 3a3f 87be 813f ec51 083f
00000200: a7cb 453f f207 06be d6b2 0bbe 19cb 4a3f
00000210: 3a1f ebbd 6d82 533f f28e 6a3f 96cf 3e3f
00000220: b671 0dbe a718 343f 8ac0 e6bd 5078 823f
00000230: e54e 9c3f 5db7 20be bebb 953f f082 2f3f
00000240: 6c17 febd 6dab 893f 19b9 14be 3778 4e3f
00000250: 0997 f5bd 69fd 0ebe 1ced 2dbe 6ec1 10be
00000260: 20ec 503f 5331 a6bf 6ca2 14be 7758 0dbe
00000270: 654f f0bd 5f62 1fbe bd6a d7bd 305a 353f
00000280: 94ee 6a3f 78dd 053d f336 423f eddb 373f
00000290: a93b f83c f670 1cbe 494d 263f 3618 723f
000002a0: 5692 24be 488d 07be 3f4d 2cbe 6c10 0bbe
000002b0: 6a9e 7a3f 9de9 6f3f 314d 5a3d 8ee7 14be
000002c0: da31 18be e888 febd 463d f3bd 0615 4d3f
000002d0: e9af d5bd a056 613f ee44 853f cbe6 2a3f
000002e0: 4c69 813f a8e8 883f ee84 693f 6452 8c3f
000002f0: 1bf6 1dbe 6bff 463d 5f9c 29be 79de 843f
00000300: ed0b 09be 36d7 753f c3c5 06be f4a5 04be
00000310: a480 5a3f a960 313f b9ee c83c 708f 873f
00000320: 2b8c 25be e79e 343f 9aef 2abe 93bc 1cbe
00000330: 3de8 2f3f 66e5 08be b136 2dbe 0bfd e1bd
00000340: 7b56 803f 90a1 f43c f5f2 5a3f 0751 1cbe
00000350: f93e 17be 640f febd 8b39 433f c614 1fbe
00000360: 856b d13c 660c 523f 3f45 753f 41df 27be
00000370: 8764 1ebe dbdc 03be 3793 593f af31 ab3f
00000380: 10fe 3b3f f40e 343f 7580 503f c43e 15be
00000390: d8b6 473f d488 0ebe ae03 f5bd 8227 0ebe
000003a0: 144b 1dbe 6327 25be f261 4c3f 1689 193d
000003b0: ac84 08be 4824 f0bd 4aeb 6a3f ec91 4e3f
000003c0: e1a9 833f 9e9b edbd fc5a 22be da11 773f
000003d0: 787e 11be 9fa5 e0bd 2043 083f 30d5 a83f
000003e0: 763e e5bd 1aec 2abe 53f3 383f 038f 11be
000003f0: 5469 1bbe 6aa0 733f e81b 063f 4678 2b3f

norm.weight f4 [26]
1.1009218 1.241293 1.2422277 1.3455561 1.1754435 1.2553452 1.260012 1.1682141
1.3510656 1.2853346 1.2560344 1.2252281 1.2428097 1.2860718 1.2300423 1.3422593
1.3067278 1.1545109 1.2671881 1.1582315 1.2522984 1.1925474 1.2181507 1.1397688
1.8115034 1.4792068
00000000: 01eb 8c3f b0e2 9e3f 5101 9f3f 2f3b ac3f
00000010: ef74 963f 27af a03f 1348 a13f 0a88 953f
00000020: b8ef ac3f d885 a43f bcc5 a03f 46d4 9c3f
00000030: 6314 9f3f 009e a43f 0772 9d3f 27cf ab3f
00000040: db42 a73f 03c7 933f 3833 a23f ee40 943f
00000050: 504b a03f 65a5 983f 5dec 9b3f f2e3 913f
00000060: 58df e73f a656 bd3f

norm.bias f4 [26]
0.13301027 0.2261153 0.40019542 0.31738254 0.3056082 0.31318563 0.06773517 0.3095784
0.22258896 0.061633144 0.03308052 0.016457034 -0.20556638 0.013862422 -0.31096047 -0.2219466
-0.16527852 -0.0626218 -0.1890161 0.13532922 0.1597955 0.23582527 0.15292509 0.14044614
0.10841652 0.09191428
00000000: d833 083e c58a 673e 6ae6 cc3e f77f a23e
00000010: ae78 9c3e de59 a03e bdb8 8a3d 0f81 9e3e
00000020: 5cee 633e 0973 7c3d 707f 073d e7d0 863c
00000030: fe7f 52be 361f 633c 3636 9fbe f845 63be
00000040: c63e 29be dc3f 80bd 708d 41be be93 0a3e
00000050: 6ea1 233e 2e7c 713e 6598 1c3e 1dd1 0f3e
00000060: 7b09 de3d 8e3d bc3d

norm.running_mean f4 [26]
1.4675117 1.513146 1.5256665 1.4922559 1.5926952 1.5816225 1.5908016 1.7406609
1.7488592 1.7761874 1.8626032 1.8408452 1.8786172 1.7817779 1.6584939 1.6542493
1.6210375 1.5545397 1.4665818 1.4808542 1.4089267 1.436197 1.4471327 1.4681808
0.42724508 1.2854058
00000000: 6cd7 bb3f c5ae c13f 0a49 c33f 3e02 bf3f
00000010: 70dd cb3f 9b72 ca3f 639f cb3f facd de3f
00000020: 9eda df3f 1c5a e33f c869 ee3f d1a0 eb3f
00000030: 8776 f03f 4c11 e43f 8749 d43f 71be d33f
00000040: 287e cf3f 28fb c63f f4b8 bb3f a18c bd3f
00000050: b657 b43f 4ed5 b73f a53b b93f 59ed bb3f
00000060: debf da3e 2d88 a43f

norm.running_var f4 [26]
0.4601775 0.45984483 0.4944922 0.5300529 0.62006146 0.6083655 0.6138205 0.6680634
0.67443967 0.60593176 0.602378 0.5235177 0.49945047 0.53932226 0.61920303 0.61476356
0.61211497 0.6091267 0.5883967 0.5968156 0.55822676 0.48647648 0.4539505 0.46121472
2.048492 0.37431705
00000000: 639c eb3e c870 eb3e 152e fd3e 8cb1 073f
00000010: 59bc 1e3f d7bd 1b3f 5723 1d3f 3406 2b3f
00000020: 14a8 2c3f 581e 1b3f 7235 1a3f 4205 063f
00000030: f9b7 ff3e 0611 0a3f 1784 1e3f 2561 1d3f
00000040: 91b3 1c3f baef 1b3f 2ba1 163f e8c8 183f
00000050: f3e7 0e3f 7213 f93e 336c e83e 5624 ec3e
00000060: 7e1a 0340 7ca6 bf3e

norm_a.weight f4 [2]
1.9462597 1.6351707
00000000: 0a1f f93f 464d d13f

norm_a.bias f4 [2]
0.07671354 -0.10026372
00000000: fd1b 9d3d 1157 cdbd

norm_a.running_mean f4 [2]
-0.046355717 0.037101407
00000000: 7edf 3dbd a5f7 173d

norm_a.running_var f4 [2]
0.19484434 0.13377985
00000000: 4685 473e 96fd 083e
