turtlebot3_move_base/save_model_ddpg/2020_11_28-01:35:49/stage_1_1400_critic.pth (torch_old, 586393 bytes, 13 tensors)

fc1.weight f4 [512, 26]
-0.21034455 -0.032774895 -0.040623948 0.07052871 -0.06745883 -0.06354549 -0.12477199 -0.16619672
-0.031388897 -0.11950526 0.12329599 0.08664134 -0.07349875 -0.16580915 0.037781842 -0.06531494
-0.09906776 0.19996326 0.07868042 -0.15097721 -0.0053169774 0.061412748 -0.21354084 0.07060497
0.18701206 0.4946988 -0.13070315 -0.28670326 -0.24465702 -0.0732401 -0.008083483 -0.13830721
-0.14636062 -0.041905582 -0.17328237 -0.16216445 -0.36595875 -0.18668547 0.16511622 0.0380989
-0.34665403 0.038692124 -0.26633474 -0.12048004 -0.07691716 -0.24384493 -0.0314943 0.0802081
0.13701339 0.06321029 0.14461786 0.2184118 -0.09165851 0.01284129 -0.05815424 -0.14198077
0.18134989 0.22044182 0.2441889 0.2699904 -0.021909107 -0.17691018 -0.27124485 -0.28557435
-0.19524904 -0.40445223 -0.06551638 0.13540919 -0.16294289 0.032121483 0.03879416 0.15242268
0.015440498 -0.18773162 -0.09440045 0.049324997 -0.117607765 0.110695325 -0.0024137027 -0.1657376
0.056743633 -0.03472516 0.0005093041 -0.16321315 -0.2759297 0.09705599 -0.16348967 0.04083791
-0.12497734 0.16738334 -0.02737066 0.28100422 0.029431116 0.052990817 0.22561556 0.0738027
0.2578821 0.011371197 -0.18963265 0.19125502 0.19932377 -0.057074264 -0.20240757 0.027548978
-0.19632353 -0.14997296 -0.17803773 0.07041351 0.13864633 -0.05479401 -0.18023804 0.05454019
-0.0067784693 0.06337704 -0.059878986 -0.073910736 -0.05094206 0.15500706 -0.17800553 -0.06952999
-0.19591524 -0.16888332 0.105230734 -0.0034013917 -0.12508078 -0.10589458 -0.21180491 -0.15418853
-0.35622796 -0.08164797 -0.32274985 0.09144796 -0.12916909 0.167727 -0.1113308 0.11825906
0.21792455 -0.06364613 -0.033457644 0.04447577 0.18988246 0.17078653 0.0823413 -0.04809526
0.026395535 0.04941592 0.06073229 0.018250817 -0.12592506 -0.2898766 -0.31707868 -0.12205908
-0.40173933 -0.118616045 -0.19080092 -0.092901684 0.11657349 0.035667915 -0.037063945 0.15279298
0.110903226 0.033709005 0.045680746 0.10025787 0.23370068 0.23032169 0.08811177 0.01880923
0.057518825 -0.19184227 -0.18548189 -0.104624495 0.030691003 0.037475165 0.41234905 0.2118161
0.5105732 0.08078139 0.027148869 0.06918484 0.019072566 -0.046193514 -0.38818854 0.09311986
-0.08208112 0.06903002 0.15264899 -0.03155363 0.15105553 0.112725444 0.28638616 0.15728194
0.19045268 0.14369558 0.19819361 0.051057123 -0.16465306 -0.25160998 -0.30945843 -0.12229326
-0.18922152 -0.13585773 0.023063717 -0.007946429 -0.18445995 -0.28593814 0.07164069 0.12210573
0.11107551 -0.07344081 0.04227652 -0.0598661 0.019017447 0.042681 0.025349291 -0.041788917
-0.09968799 0.15809487 -0.15433604 -0.037262555 0.021778021 0.09530437 0.00550221 0.06749181
0.062455613 0.021870041 -0.029832661 -0.08032463 0.15438226 -0.06627497 0.08402567 -0.18798585
0.38987935 0.26100156 -0.044221263 -0.28165117 -0.15189724 0.20099796 0.22764447 0.264282
0.35113972 0.28351825 -0.094089724 -0.036922067 -0.1344325 -0.22512692 -0.33387148 -0.1527292
-0.04673691 0.0007927564 -0.1937964 0.0025868032 -0.031466812 -0.044962004 0.1566885 -0.09883879
00000000: 9064 57be f83e 06bd 4c65 26bd 5b71 903d
00000010: db27 8abd 2324 82bd 7588 ffbd 792f 2abe
00000020: a591 00bd 2cbf f4bd 9c82 fc3d 0471 b13d
00000030: 8386 96bd e0c9 29be 22c1 1a3d d7c3 85bd
00000040: 0ae4 cabd 2bc3 4c3e 3323 a13d c599 1abe
00000050: 0a3a aebb ef8b 7b3d 73aa 5abe 5799 903d
00000060: 1780 3f3e 2949 fd3e 0cd7 05be c5ca 92be
00000070: 5f87 7abe e8fe 95bd 9670 04bc 68a0 0dbe
00000080: 8fdf 15be 30a5 2bbd ef70 31be 700e 26be
00000090: f25e bbbe 7a2a 3fbe 3a14 293e 980d 1c3d
000000a0: a37c b1be a27b 1e3d 075d 88be 3dbe f6bd
000000b0: be86 9dbd 7cb2 79be 2b00 01bd 2544 a43d
000000c0: 3d4d 0c3e 6674 813d b416 143e 58a7 5f3e
000000d0: 75b7 bbbd 4664 523c 2433 6ebd 6863 11be
000000e0: c9b3 393e 80bb 613e a80c 7a3e 2f3c 8a3e
000000f0: ba7a b3bc f127 35be 9be0 8abe cd36 92be
00000100: 5def 47be 5d14 cfbe 742d 86bd b5a8 0a3e
00000110: 80da 26be d191 033d a0e6 1e3d b114 1c3e
00000120: 24fa 7c3c b83c 40be 0655 c1bd 0209 4a3d
00000130: 57dc f0bd 3bb4 e23d 362f 1ebb 1eb7 29be
00000140: 036c 683d f83b 0ebd d282 053a 5921 27be
00000150: a846 8dbe 4ac5 c63d d669 27be a745 273d
00000160: 1ff4 ffbd 8a66 2b3e 6f38 e0bc c9df 8f3e
00000170: 8619 f13c e60c 593d c407 673e df25 973d
00000180: 1f09 843e 424e 3a3c 102f 42be 5bd8 433e
00000190: 881b 4c3e b4c6 69bd ee43 4fbe 65ae e13c
000001a0: 0909 49be 8392 19be 864f 36be f534 903d
000001b0: 4ef9 0d3e af6f 60bd 5290 38be 8965 5f3d
000001c0: ec1d debb d2cb 813d ab43 75bd 835e 97bd
000001d0: 9fa8 50bd 2cba 1e3e 1547 36be bd65 8ebd
000001e0: 019e 48be c0ef 2cbe 3683 d73d e2e9 5ebb
000001f0: 2d15 00be 42df d8bd 63e3 58be 99e3 1dbe
00000200: 8363 b6be 0d37 a7bd 783f a5be 1149 bb3d
00000210: e744 04be a0c0 2b3e 6701 e4bd ce31 f23d
00000220: 9d27 5f3e e758 82bd e20a 09bd 3a2c 363d
00000230: 8c70 423e aae2 2e3e 8ea2 a83d 89ff 44bd
00000240: 733b d83c 5968 4a3d 6cc2 783d bd82 953c
00000250: 80f2 00be b56a 94be 2358 a2be 1cfa f9bd
00000260: c7b0 cdbe f8ec f2bd 5161 43be 3d43 bebd
00000270: 15be ee3d 8518 123d 5dd0 17bd c375 1c3e
00000280: 3b21 e33d 7412 0a3d bc1b 3b3d 0054 cd3d
00000290: 3b4f 6f3e 73d9 6b3e f273 b43d d015 9a3c
000002a0: dc98 6b3d 4d72 44be f7ee 3dbe 5e45 d6bd
000002b0: b36b fb3c 8f7f 193d 6a1f d33e 52e6 583e
000002c0: edb4 023f b770 a53d 4e67 de3c c8b0 8d3d
000002d0: 123e 9c3c 6935 3dbd a6c0 c6be a0b5 be3d
000002e0: 251a a8bd 9c5f 8d3d 0450 1c3e 613e 01bd
000002f0: 4dae 1a3e 99dc e63d 35a1 923e 840e 213e
00000300: 0706 433e ef24 133e 44f3 4a3e 4621 513d
00000310: d09a 28be 06d3 80be 5671 9ebe e474 fabd
00000320: 49c3 41be 4a1e 0bbe 1ff0 bc3c bd31 02bc
00000330: 12e3 3cbe 7c66 92be 5bb8 923d 9212 fa3d
00000340: 8f7b e33d 2368 96bd 252a 2d3d 2836 75bd
00000350: 7aca 9b3c 46d2 2e3d 51a9 cf3c db2a 2bbd
00000360: 3829 ccbd 9fe3 213e 440a 1ebe 9fa0 18bd
00000370: d267 b23c f02e c33d e24b b43b 2539 8a3d
00000380: 75d1 7f3d cd28 b33c a063 f4bc 3d81 a4bd
00000390: 6216 1e3e 2cbb 87bd a715 ac3d 5d7f 40be
000003a0: 449e c73e ffa1 853e 5b21 35bd 9534 90be
000003b0: f38a 1bbe 69d2 4d3e a21b 693e f84f 873e
000003c0: 96c8 b33e 4e29 913e 1db2 c0bd 983b 17bd
000003d0: aca8 09be ac87 66be 34f1 aabe 0b65 1cbe
000003e0: 346f 3fbd fbd0 4f3a 9072 46be 5b87 293b
000003f0: 58e3 00bd 142a 38bd f372 203e fe6b cabd

fc1.bias f4 [512]
0.41006333 -0.16392139 0.30627358 -0.056199115 -0.17086299 -0.431652 0.06531184 -0.08306221
0.44983634 0.27965525 0.50928575 0.5654613 0.71637374 -0.42401314 0.49635828 -0.0054642824
-0.09352546 0.46104825 0.2741752 -0.28325278 -0.19069253 0.008298675 -0.021617696 0.34742972
0.17197786 -0.07497815 -0.32760143 0.4512306 0.5590961 0.7101149 0.103475496 0.4694042
-0.20440383 0.383572 -0.2558941 0.23019049 -0.15241471 0.050699793 0.47439405 -0.100776725
0.0897559 0.28795305 0.16214816 -0.31289485 -0.419291 -0.5004398 0.66160434 0.093417585
0.116473205 0.6822447 0.42577156 -0.27119902 0.10671177 0.39666334 0.2986905 0.19586638
-0.07587081 0.45313847 0.01561336 -0.22283211 0.119976774 -0.50693583 -0.13837218 0.45916948
-0.051638134 -0.2175076 -0.04250031 0.53852844 -0.18685171 0.10270542 0.046351917 0.20698585
0.5258911 0.19877669 0.4965689 0.49291885 -0.19790635 0.24788675 -0.4777178 -0.23958439
0.5438982 0.43961892 0.08301647 0.23908453 -0.08988469 0.25916526 -0.44659722 0.40799335
0.21052338 -0.59172124 -0.040710393 0.7398651 0.30846182 -0.22457036 -0.054065086 0.02337943
0.55925316 -0.056245558 0.5203141 0.4461207 -0.10807712 -0.5816967 -0.3385503 -0.103093036
0.35336933 0.030114321 0.32650927 0.27878672 0.34383264 -0.22139212 0.5396013 0.3006846
0.5390076 0.5949354 -0.11074718 0.16884118 0.4260908 0.2172176 0.23793252 0.7251919
0.18263845 -0.044387076 -0.4909177 0.27568823 -0.42947885 -0.49090412 0.598466 -0.30638382
0.14693922 -0.36448202 0.4409651 -0.13616334 0.56667393 0.4652142 -0.368492 0.44267365
0.14647469 0.09450758 0.6175555 0.37035295 0.44975394 -0.09778429 0.05140778 0.36787966
-0.30130962 0.08564557 -0.24014989 -0.28940433 0.4060653 -0.3159892 -0.22357123 0.6298376
-0.02377095 0.48702475 -0.21013519 0.5385756 0.38393134 0.16756928 -0.33213592 0.052770082
0.5500147 0.14512889 0.102302656 0.33785558 0.31294444 -0.18358712 0.20198888 0.4492941
0.36738813 -0.43409717 0.49638897 0.24642788 0.40027878 0.4286147 0.55659676 0.08079329
0.38140753 0.5956704 -0.29224813 0.09258907 -0.33358675 0.01657102 -0.1724546 -0.17784
0.4064881 0.3951876 -0.0936933 -0.14009836 0.52601457 0.29848886 -0.33580205 -0.09796575
0.5125033 -0.6026454 -0.05393853 0.46104258 -0.3358927 -0.2959617 -0.17056009 -0.20089306
-0.15218388 -0.53460443 0.15616247 0.33046192 0.30704382 0.16988872 -0.07748405 0.24682128
0.028108902 -0.32394466 -0.020357829 0.011384394 0.1200211 -0.31975654 -0.4749751 0.08384917
0.44612005 0.36540794 -0.80488604 -0.23218009 -0.04965102 0.082020044 0.24963942 0.13593401
0.034177106 -0.17616673 -0.21099861 0.44439176 0.079012215 -0.17764856 -0.05170533 -0.015399086
0.69103533 -0.018110441 0.24220908 -0.038560197 0.3029929 -0.002494586 -0.034717254 0.29995656
-0.2204505 -0.221866 -0.3337055 0.33073425 0.24748693 -0.09691505 -0.21935353 -0.21533549
-0.13922426 -0.25805327 0.39656082 -0.49440143 -0.4934979 0.1515221 -0.025853882 0.5316762
00000000: d2f3 d13e 02db 27be e4cf 9c3e 0b31 66bd
00000010: b5f6 2ebe 7e01 ddbe 37c2 853d 851c aabd
00000020: f350 e63e f92e 8f3e 8d60 023f 12c2 103f
00000030: 4564 373f 4018 d9be ac22 fe3e b90d b3bb
00000040: 478a bfbd 840e ec3e b160 8c3e 8206 91be
00000050: e744 43be 2af7 073c 9817 b1bc 4fe2 b13e
00000060: f71a 303e 258e 99bd 60bb a7be b207 e73e
00000070: ec20 0f3f 17ca 353f f6ea d33d bf55 f03e
00000080: 3d4f 51be 8d63 c43e 8d04 83be 0eb7 6b3e
00000090: 9a12 1cbe 96aa 4f3d c7e3 f23e 0764 cebd
000000a0: f1d1 b73d 956e 933e 2b0a 263e c133 a0be
000000b0: 4fad d6be d31c 00bf e75e 293f b851 bf3d
000000c0: 8189 ee3d 97a7 2e3f bbfe d93e 99da 8abe
000000d0: b38b da3d 7517 cb3e f6ed 983e 3291 483e
000000e0: 2862 9bbd c401 e83e 2ecf 7f3c 1a2e 64be
000000f0: 62b6 f53d 8cc6 01bf 70b1 0dbe 4318 eb3e
00000100: 8282 53bd 50ba 5ebe ce14 2ebd 00dd 093f
00000110: 0e56 3fbe 3857 d23d 82db 3d3d 19f4 533e
00000120: cda0 063f 1e8c 4b3e 473e fe3e dc5f fc3e
00000130: f6a7 4abe 06d6 7d3e 6d97 f4be 9c55 75be
00000140: ea3c 0b3f bb15 e13e 8a04 aa3d 93d2 743e
00000150: 7715 b8bd 4fb1 843e 64a8 e4be 81e4 d03e
00000160: 7193 573e 0b7b 17bf f1bf 26bd cd67 3d3f
00000170: b5ee 9d3e c6f5 65be 5a73 5dbd 3886 bf3c
00000180: 372b 0f3f be61 66bd 4e33 053f ef69 e43e
00000190: 8957 ddbd 13ea 14bf 7756 adbe 7122 d3bd
000001a0: d3ec b43e 4fb2 f63c 392c a73e 22bd 8e3e
000001b0: d50a b03e 9eb4 62be 5023 0a3f 55f3 993e
000001c0: 67fc 093f b04d 183f 6bcf e2bd b4e4 2c3e
000001d0: 9328 da3e 4a6e 5e3e 95a4 733e 2da6 393f
000001e0: 9305 3b3e 39cf 35bd 9159 fbbe 0227 8d3e
000001f0: a7e4 dbbe c957 fbbe 1135 193f 57de 9cbe
00000200: 3c77 163e 639d babe 2dc6 e13e 676e 0bbe
00000210: 8b11 113f 8e30 ee3e fcaa bcbe 1fa6 e23e
00000220: 76fd 153e 318d c13d 1e18 1e3f e79e bd3e
00000230: 2646 e63e 2143 c8bd f790 523d b95a bc3e
00000240: 4145 9abe f266 af3d dae9 75be ce2c 94be
00000250: cae7 cf3e 56c9 a1be dbef 64be 093d 213f
00000260: 4cbb c2bc 4f5b f93e ae2d 57be 17e0 093f
00000270: a692 c43e 4897 2b3e b80d aabe 7125 583d
00000280: c3cd 0c3f ab9c 143e 0e84 d13d 68fb ac3e
00000290: 413a a03e 43fe 3bbe 2cd6 4e3e e009 e63e
000002a0: 4c1a bc3e fc41 debe b226 fe3e 9757 7c3e
000002b0: 57f1 cc3e 6373 db3e 207d 0e3f f476 a53d
000002c0: d947 c33e db7d 183f 8ca1 95be 579f bd3d
000002d0: e2cb aabe f3bf 873c f097 30be b01b 36be
000002e0: 351f d03e 0756 ca3e 46e2 bfbd f275 0fbe
000002f0: e4a8 063f 88d3 983e 3fee abbe 44a2 c8bd
00000300: 6b33 033f f846 1abf a6ee 5cbd c60d ec3e
00000310: 21fa abbe 4b88 97be 4ea7 2ebe e9b6 4dbe
00000320: 17d6 1bbe d6db 08bf 0ee9 1f3e 4e32 a93e
00000330: d934 9d3e 4ff7 2d3e f5af 9ebd b8be 7c3e
00000340: a444 e63c 13dc a5be 76c5 a6bc 9c85 3a3c
00000350: 9fcd f53d 21b7 a3be f02f f3be 1db9 ab3d
00000360: d969 e43e c016 bb3e 030d 4ebf 9ec0 6dbe
00000370: de5e 4bbd 20fa a73d 7aa1 7f3e 4932 0b3e
00000380: 4bfd 0b3d 0d65 34be 0510 58be 5187 e33e
00000390: 28d1 a13d 81e9 35be f8c8 53bd 734c 7cbc
000003a0: b1e7 303f 595c 94bc a805 783e 4cf1 1dbd
000003b0: e321 9b3e 357c 23bb ae33 0ebd e893 993e
000003c0: c7bd 61be d730 63be 73db aabe 0056 a93e
000003d0: 376d 7d3e 667b c6bd 369e 60be e880 5cbe
000003e0: ce90 0ebe 8f1f 84be 050a cb3e 2f22 fdbe
000003f0: c2ab fcbe 9c28 1b3e 85cb d3bc ee1b 083f

fc2.weight f4 [256, 514]
0.18724248 -0.24055202 0.08013849 -0.07373385 0.08612743 -0.024833119 0.09547994 0.0032037215
0.15278229 0.13281527 0.13194038 0.06033757 0.20208694 -0.14917624 0.116563775 0.074382044
0.20737882 0.116298705 0.051849008 -0.1269272 0.014747441 0.094446406 0.023052437 0.08519418
0.0774064 0.20867626 -0.021708218 0.10957045 0.10470068 0.2073528 -0.026384875 0.06814729
-0.045465473 0.19678299 -0.14521606 0.07396551 0.05568956 0.09189154 0.09608478 -0.119198285
-0.1582751 0.084564455 0.142236 -0.12685645 0.020254139 -0.054646734 0.21750534 0.03575962
0.051144626 0.14029595 0.19669795 -0.11865217 0.21954738 0.15414557 0.07452179 0.0057044737
0.019106284 0.17659353 0.101790786 -0.1276587 -0.01681845 -0.24456404 -0.10701095 0.13815077
-0.03164692 -0.062592424 0.058069523 0.098257735 0.1471599 -0.039777063 -0.048182603 0.03181066
0.24847756 0.12761915 0.06602692 0.13106619 0.03733655 0.10616435 -0.077050254 -0.1551846
0.10184127 0.10386037 0.010831446 0.08001507 0.15513863 0.03671683 -0.055986643 0.21747038
0.07694087 -0.2630209 0.040218536 0.123007506 0.07136225 -0.17278178 -0.046787072 0.006724285
0.06144399 0.053322766 0.2237793 0.18418047 0.02962514 -0.17292786 0.36294875 -0.010160928
0.013031175 0.045175478 0.18889557 0.054540213 0.11427038 -0.06691519 0.14743665 0.098919325
0.10599978 0.091691665 -0.053265873 0.07736832 0.20380366 0.15210202 0.06050944 0.27305216
0.11174024 0.12279166 -0.18139608 0.2609034 -0.1707991 -0.07884871 0.0735616 -0.097336486
0.14386564 -0.033940054 0.06823945 0.03298775 0.16488202 0.13282548 -0.098371305 0.13427675
0.06828954 0.10310232 0.14537352 0.06400354 0.15645438 0.07789257 0.092268355 0.14636397
-0.19972113 0.065616764 -0.043978132 0.20961379 0.20325378 -0.3952938 -0.07469295 0.21725795
0.10881421 0.09822609 0.022961598 0.11386472 0.044779845 0.07410052 0.3675902 0.13359118
0.035550755 0.07149745 0.1722377 0.19663163 0.05502457 0.28729066 0.11636401 0.046120696
0.09425345 -0.12870859 0.15819335 0.12468629 0.07639307 0.09401605 0.14149864 0.021498257
0.060009383 0.109897844 -0.1102211 0.121715255 -0.0112689985 0.027385304 0.2050021 -0.02944985
0.1181593 0.19193363 -0.02264339 0.11016616 0.07884216 0.109708585 -0.15292916 0.01703812
0.10502913 -0.012803626 0.1582439 0.113381796 -0.107653745 0.019526526 -0.006677115 0.03563506
-0.04030148 -0.12426318 0.091609195 0.01822534 0.095637694 0.13333699 -0.0001787705 0.12718096
0.06787606 -0.06753904 -0.050251357 0.03643534 0.13102503 -0.01767806 -0.17859676 0.10409642
0.097037956 0.26721227 -0.0032962055 0.083890826 0.17446691 0.10096296 0.038929895 0.1070319
0.115092985 0.10857621 0.12577695 0.08709923 0.018655222 0.17276679 0.039006613 -0.08678171
0.099258825 0.07477176 0.09146679 0.08004182 0.21348794 0.16701408 0.043221783 0.12738678
0.059401043 -0.06914349 0.025081886 0.17263414 0.109613925 0.05360909 -0.023470607 -0.08940795
0.15517601 0.092674166 0.06969717 -0.14134066 -0.2592113 0.06405838 0.057652727 0.13033207
00000000: 7ebc 3f3e 4553 76be a61f a43d c601 97bd
00000010: 9463 b03d d36e cbbc fd8a c33d 87f5 513b
00000020: f672 1c3e ba00 083e 611b 073e 8724 773d
00000030: e1ef 4e3e a8c1 18be fdb8 ee3d 9d55 983d
00000040: 1d5b 543e 042e ee3d a05f 543d 34f9 01be
00000050: 409f 713c 1e6d c13d 77d8 bc3c 497a ae3d
00000060: 3f87 9e3d 3baf 553e 6fd5 b1bc 7966 e03d
00000070: 4f6d d63d 4b54 543e 1825 d8bc ce90 8b3d
00000080: 013a 3abd 7b81 493e 85b3 14be 3b7b 973d
00000090: bc1a 643d a231 bc3d 19c8 c43d 3b1e f4bd
000000a0: de12 22be 2130 ad3d 50a6 113e a8e6 01be
000000b0: 02ec a53c 41d5 5fbd b8b9 5e3e ae78 123d
000000c0: 077d 513d bea9 0f3e 306b 493e e9ff f2bd
000000d0: 07d1 603e 56d8 1d3e e19e 983d 98ec ba3b
000000e0: c884 9c3c efd4 343e b077 d03d f6b8 02be
000000f0: d9c6 89bc ff6e 7abe 8f28 dbbd 6577 0d3e
00000100: 33a0 01bd 7530 80bd 4fda 6d3d 5a3b c93d
00000110: 16b1 163e 46ed 22bd 1f5b 45bd e54b 023d
00000120: e770 7e3e 98ae 023e 1f39 873d 3736 063e
00000130: 36ee 183d b26c d93d 86cc 9dbd b6e8 1ebe
00000140: 2892 d03d bfb4 d43d 6176 313c f1de a33d
00000150: a9dc 1e3e 6364 163d 4052 65bd 8eb0 5e3e
00000160: 2d93 9d3d adaa 86be 31bc 243d 5ceb fb3d
00000170: 5f26 923d b5ed 30be cda3 3fbd 6457 dc3b
00000180: b1ac 7b3d f968 5a3d 6726 653e ce99 3c3e
00000190: 6cb0 f23c 0014 31be 6bd4 b93e 057a 26bc
000001a0: b680 553c ec09 393d d76d 413e 8f65 5f3d
000001b0: 9706 ea3d d50a 89bd a2f9 163e 3796 ca3d
000001c0: 6a16 d93d d7c8 bb3d 512d 5abd 4873 9e3d
000001d0: e8b1 503e a2c0 1b3e bfd8 773d 7ecd 8b3e
000001e0: 11d8 e43d 327a fb3d e5bf 39be 2195 853e
000001f0: f6e5 2ebe 6f7b a1bd 77a7 963d 5a58 c7bd
00000200: 8451 133e ba04 0bbd 20c1 8b3d 2a1e 073d
00000210: d5d6 283e 6703 083e e576 c9bd d87f 093e
00000220: 63db 8b3d 4f27 d33d ccdc 143e 4a14 833d
00000230: 9435 203e 2486 9f3d 31f7 bc3d 70e0 153e
00000240: b283 4cbe 1562 863d 6a22 34bd ffa4 563e
00000250: c221 503e f363 cabe 9ef8 98bd de78 5e3e
00000260: fcd9 de3d c32a c93d f619 bc3c e831 e93d
00000270: 126b 373d 03c2 973d c834 bc3e 20cc 083e
00000280: ab9d 113d 416d 923d 145f 303e cd59 493e
00000290: 7261 613d c317 933e 4150 ee3d 0ee9 3c3d
000002a0: f407 c13d 2fcc 03be 70fd 213e 875b ff3d
000002b0: f873 9c3d 7d8b c03d 05e5 103e 1d1d b03c
000002c0: 66cc 753d 1f12 e13d 9abb e1bd d945 f93d
000002d0: 9ba1 38bc 2557 e03c 12ec 513e d040 f1bc
000002e0: 81fd f13d 408a 443e a17e b9bc cc9e e13d
000002f0: 0078 a13d e5ae e03d 7699 1cbe 8793 8b3c
00000300: 8319 d73d 4dc6 51bc b00a 223e b734 e83d
00000310: 9179 dcbd 18f6 9f3c b3cb dabb 12f6 113d
00000320: 2a13 25bd b27d febd 9a9d bb3d 4f4d 953c
00000330: b2dd c33d 7e89 083e 5774 3bb9 ba3b 023e
00000340: 9b02 8b3d e951 8abd 5ed4 4dbd 393d 153d
00000350: 6d2b 063e 94d1 90bc 12e2 36be 8130 d53d
00000360: d6bb c63d 0cd0 883e 2705 58bb f4ce ab3d
00000370: 74a7 323e abc5 ce3d f474 1f3d 8a33 db3d
00000380: dfb5 eb3d 345d de3d accb 003e 1561 b23d
00000390: d6d2 983c c7e9 303e 66c5 1f3d 9cba b1bd
000003a0: 3648 cb3d f021 993d f152 bb3d f7ec a33d
000003b0: 959c 5a3e bd05 2b3e 5309 313d ae71 023e
000003c0: 824e 733d 1a9b 8dbd 8778 cd3c 01c7 303e
000003d0: 447d e03d 3595 5b3d 6e45 c0bc 841b b7bd
000003e0: 76e6 1e3e f4cb bd3d 64bd 8e3d 9bbb 10be
000003f0: 58b7 84be 0a31 833d 4425 6c3d c575 053e

fc2.bias f4 [256]
0.37849554 0.3321016 0.08208538 0.0812487 0.32231158 0.34366313 0.010644195 -0.029102627
-0.017384395 0.3380774 0.35639197 0.024353897 0.39933825 0.36756825 -0.25702843 0.37290514
0.3247852 0.37532875 -0.01914169 0.37288633 0.022405988 0.3733427 0.31385845 -0.03669269
0.38569126 -0.032168742 0.315288 0.3776231 0.35550073 0.39223593 -0.041227106 0.38741502
0.36575013 0.34191677 0.100630924 0.09653197 0.34415406 0.026124936 0.36380622 0.38110155
0.353401 0.030189907 0.37533855 0.36448872 -0.052181892 -0.0005135726 -0.0132150715 0.33704957
0.37814942 -0.016139533 0.39265403 0.05438342 -0.11965234 0.38387856 0.3248767 0.33999947
0.32764 0.04286406 0.03525013 0.39427325 -0.023676127 0.06111114 0.37386906 0.13031344
0.35505033 0.018078439 0.32868844 0.36226088 0.36381936 0.0128686335 -0.029828705 0.36889037
0.33698565 0.3367319 0.39062014 0.071109034 0.3960834 -0.03263313 0.3261928 -0.0065801195
-0.04567901 0.3726149 0.041985665 0.3787732 -0.031305328 -0.30918324 0.011079384 0.023930995
0.36491647 0.033095654 0.03211945 -0.047693804 -0.042917397 -0.035857514 -0.013439787 0.067697935
0.4872088 0.33664244 0.31858766 0.063948244 0.38180965 0.03309125 0.328396 0.3661654
0.39631018 0.3113143 0.005303742 -0.014640191 0.3629555 -0.110568464 -0.05122573 0.33289847
0.38745373 0.39342716 0.054879572 -0.015004518 0.36820954 -0.06861964 0.38894728 0.32303914
0.31145373 0.36206546 0.31129175 0.33244106 -0.03263475 0.051304013 0.0036954782 -0.041664295
0.09411412 0.34371394 0.3246086 -0.035248715 0.33450693 -0.0882834 -0.29284513 0.0038855572
0.39514175 0.03819949 0.354528 0.024345718 0.017690692 0.35711908 -0.04052006 -0.16513932
0.32226866 0.020540765 0.32006276 0.0013052406 0.37525925 0.32702607 0.34597865 0.3185547
0.03182009 0.4757711 0.3424905 0.35827813 0.32462344 0.31791064 0.33402783 0.102442056
0.018847683 -0.038098693 0.109743215 -0.034920167 -0.03246507 0.3786377 -0.040952243 -0.026071034
0.3340492 0.39502716 0.39558825 0.34170675 -0.11714837 -0.04545738 -0.014619552 0.3638895
0.3895252 0.31248352 0.3174416 -0.016331306 0.35537383 -0.043799073 0.019388692 0.001153769
0.034652006 -0.034874577 0.031451773 -0.30794457 0.3433698 -0.006370742 0.31159997 -0.0008301407
0.39142823 0.020333814 0.3391487 0.32714614 -0.009240003 0.050819315 -0.03152538 -0.046300545
0.34977964 -0.038153537 0.3215754 0.3613347 0.0408187 0.3275994 0.38030297 0.39504907
-0.24396619 0.005466296 -0.014159886 0.3367268 0.35441512 0.3432226 -0.041536223 0.38933715
-0.005903616 0.020415468 -0.016297057 0.39158222 0.35463881 0.35007435 -0.04373514 0.0062601366
-0.018627303 -0.03183036 -0.25390533 0.31571582 -0.17750867 0.36749572 0.39313653 0.36571676
0.34453517 0.3473151 -0.041492052 -0.04264361 0.33276772 0.3777233 0.0077008903 0.0035667154
0.0011325232 0.3662966 0.36915156 -0.11427317 0.3979964 0.39273825 -0.0048649297 0.034670476
0.36756146 0.31692892 -0.00023017668 0.36915445 0.36060128 0.02727598 -0.04584386 -0.021420276
00000000: 2bca c13e 3909 aa3e 611c a83d b865 a63d
00000010: 0606 a53e 9df4 af3e fd64 2e3c a268 eebc
00000020: b869 8ebc 7b18 ad3e 0279 b63e d381 c73c
00000030: 1076 cc3e e831 bc3e 3b99 83be 6ced be3e
00000040: 3f4a a63e 172b c03e 09cf 9cbc f5ea be3e
00000050: c38c b73c c626 bf3e 0eb2 a03e 134b 16bd
00000060: 5379 c53e 5fc3 03bd 6e6d a13e d157 c13e
00000070: 3104 b63e 26d3 c83e c1dd 28bd 435b c63e
00000080: 9a43 bb3e b70f af3e 9617 ce3d 8eb2 c53d
00000090: f634 b03e f603 d63c cf44 ba3e be1f c33e
000000a0: faf0 b43e d350 f73c 602c c03e 449e ba3e
000000b0: aebc 55bd 46a1 06ba 0784 58bc c391 ac3e
000000c0: cd9c c13e 0e37 84bc f309 c93e 26c1 5e3d
000000d0: 490c f5bd bb8b c43e 3d56 a63e 6914 ae3e
000000e0: 6ec0 a73e 3992 2f3d 7162 103d 2fde c93e
000000f0: 70f4 c1bc ad4f 7a3d c46b bf3e e370 053e
00000100: 28c9 b53e 3c19 943c da49 a83e 427a b93e
00000110: 8846 ba3e f6d6 523c 545b f4bc 33df bc3e
00000120: 6289 ac3e 2068 ac3e 5dff c73e 9da1 913d
00000130: 72cb ca3e 51aa 05bd be02 a73e 0b9e d7bb
00000140: ea19 3bbd 61c7 be3e 29f9 2b3d 90ee c13e
00000150: 043a 00bd 444d 9ebe 4e86 353c ef0a c43c
00000160: 55d6 ba3e 4f8f 073d af8f 033d 945a 43bd
00000170: 27ca 2fbd 54df 12bd 8d32 5cbc 37a5 8a3d
00000180: 6f73 f93e 665c ac3e ec1d a33e 4cf7 823d
00000190: 8e7c c33e b18a 073d 8523 a83e 087a bb3e
000001a0: 2be9 ca3e 9764 9f3e 03cb ad3b 69dd 6fbc
000001b0: 4ed5 b93e b871 e2bd 12d2 51bd ab71 aa3e
000001c0: 5660 c63e 496f c93e 67c9 603d 83d5 75bc
000001d0: f685 bc3e 7488 8cbd 1924 c73e 6365 a53e
000001e0: dd76 9f3e a560 b93e a261 9f3e b735 aa3e
000001f0: 04ac 05bd 2824 523d d62f 723b 2ea8 2abd
00000200: e7be c03d 46fb af3e 1933 a63e f560 10bd
00000210: 7e44 ab3e edcd b4bd ccef 95be d5a4 7e3b
00000220: 0550 ca3e 1277 1c3d b284 b53e ac70 c73c
00000230: 12ec 903c 50d8 b63e 5df8 25bd 481a 29be
00000240: 6600 a53e 1b45 a83c 44df a33e 9b14 ab3a
00000250: fb21 c03e f66f a73e 1d24 b13e 9a19 a33e
00000260: c855 023d 4598 f33e ea5a af3e 3b70 b73e
00000270: 0b35 a63e 2fc5 a23e b205 ab3e 24cd d13d
00000280: 7566 9a3c 600d 1cbd 0dc1 e03d 7308 0fbd
00000290: 18fa 04bd cddc c13e 8abd 27bd ec92 d5bc
000002a0: 7f08 ab3e 0041 ca3e 8b8a ca3e 30f4 ae3e
000002b0: 7ceb efbd 8531 3abd d886 6fbc b94f ba3e
000002c0: d96f c73e d7fd 9f3e b587 a23e 3bc9 85bc
000002d0: 8ff3 b53e a866 33bd 09d5 9e3c 103a 973a
000002e0: 43ef 0d3d a5d8 0ebd 93d3 003d e9aa 9dbe
000002f0: 2bce af3e a8c1 d0bb 088a 9f3e cd9d 59ba
00000300: 4869 c83e 1993 a63c e6a4 ad3e b37f a73e
00000310: 6263 17bc ea27 503d c220 01bd a4a5 3dbd
00000320: 5116 b33e e246 1cbd 88a5 a43e dd00 b93e
00000330: 8231 273d 1cbb a73e 12b7 c23e df43 ca3e
00000340: 46d2 79be 9d1e b33b defe 67bc 7567 ac3e
00000350: e675 b53e dfba af3e e321 2abd 3357 c73e
00000360: 1f73 c1bb 573e a73c 6881 85bc 777d c83e
00000370: 3893 b53e f23c b33e 9e23 33bd d521 cd3b
00000380: 4998 98bc 8d60 02bd e1ff 81be 81a5 a13e
00000390: d5c4 35be 6628 bc3e 3149 c93e 3a3f bb3e
000003a0: ea66 b03e 49d3 b13e 92f3 29bd 11ab 2ebd
000003b0: 8860 aa3e f364 c13e c057 fc3b 8ebf 693b
000003c0: 2c71 943a 3a8b bb3e 6f01 bd3e 0d08 eabd
000003d0: 2fc6 cb3e fd14 c93e fd69 9fbb a102 0e3d
000003e0: 0431 bc3e 8244 a23e 955b 71b9 d001 bd3e
000003f0: bba0 b83e e071 df3c c5c6 3bbd 9379 afbc

fc3.weight f4 [1, 256]
-0.17621118 -0.20236282 0.7499754 0.90674675 -0.18396603 -0.18195872 0.014989464 0.036704406
0.042036917 -0.15784916 -0.1419958 0.056899782 -0.17403573 -0.19363488 0.8284175 -0.20545259
-0.17813116 -0.18474007 0.023694498 -0.15073451 0.012725028 -0.16103666 -0.20278889 0.020250661
-0.18181184 0.0030929889 -0.16393842 -0.16464637 -0.16968837 -0.13865635 0.056028068 -0.15584269
-0.16454902 -0.13998786 0.6294565 0.69862336 -0.19097361 0.013500023 -0.1777635 -0.15000525
-0.15164454 0.98821753 -0.18878709 -0.1810805 1.0030754 0.0015414008 1.1914896 -0.16291632
-0.16341148 0.040729094 -0.16635868 0.7761583 0.73724306 -0.17087477 -0.16108243 -0.1562428
-0.15611644 0.82398874 0.019087091 -0.19566083 -0.0002544071 0.81437725 -0.18740794 0.8197518
-0.1934495 0.053016726 -0.15010192 -0.17535752 -0.19764964 0.05103759 0.010990727 -0.1458487
-0.16038403 -0.17392427 -0.17729622 0.8990484 -0.1650825 0.051772054 -0.17032266 0.00525834
0.045292832 -0.15560251 0.8749399 -0.14576784 0.66397434 0.87068754 0.8621048 0.009448071
-0.18081129 0.037498917 0.02336387 0.047949083 0.03890402 -0.0026999575 0.02181952 0.5747553
-0.7763539 -0.20703053 -0.13988851 1.1585392 -0.1890607 0.034048975 -0.19510153 -0.18566476
-0.18726197 -0.18836448 0.6387721 0.037147287 -0.1435372 0.6487009 0.042285893 -0.19651403
-0.15291068 -0.13398702 1.0926749 0.05593424 -0.16214247 1.5816036 -0.16224307 -0.16280918
-0.16411464 -0.1693156 -0.13992906 -0.19479102 1.153651 0.8605697 0.018452924 -0.005024283
0.988375 -0.16521825 -0.1729841 1.4186931 -0.14768527 0.89389896 0.95731366 0.036475174
-0.17967448 0.010943541 -0.14414614 0.011246099 0.97722685 -0.19125241 0.021617677 0.62269664
-0.15624233 0.02440419 -0.19543171 0.047054727 -0.15406705 -0.16997312 -0.20433265 -0.17380781
0.96828073 -0.7562353 -0.17701629 -0.17750837 -0.1444537 -0.18420516 -0.13781993 1.1568931
0.05171127 0.033209614 0.75201803 0.0027504836 0.041360468 -0.18430951 0.008491385 0.0058074505
-0.19358557 -0.16604523 -0.2009135 -0.17288579 0.58301276 0.0080433 0.057458438 -0.1764181
-0.18423167 -0.15912218 -0.14773491 0.015947042 -0.14135902 0.016899027 0.03314553 6.816669e-05
0.03184142 0.0045874966 0.05515584 1.0095901 -0.18941815 0.048381545 -0.198074 0.054425187
-0.1586326 0.038252097 -0.17111428 -0.15898469 0.04081563 1.0140582 0.028074857 0.016188936
-0.19124041 0.0014575411 -0.19799243 -0.18479906 0.8316981 -0.16616471 -0.21292134 -0.14355683
0.8931524 0.035000533 0.00046473704 -0.18058498 -0.18179771 -0.16271749 0.7139171 -0.19929321
0.030175284 0.011566692 0.028198546 -0.19417593 -0.19125277 -0.1561672 1.502051 0.047302954
0.011608017 0.04272627 0.8432868 -0.18015748 0.70728767 -0.16323073 -0.1523424 -0.16259322
-0.1827144 -0.19592735 0.019015718 1.3492393 -0.15793736 -0.15802248 0.013322875 0.02419257
0.027561814 -0.15164305 -0.19441345 0.95994043 -0.18503259 -0.14110775 0.0077976715 0.03959566
-0.1408276 -0.1994926 -0.0024545256 -0.17056237 -0.19117276 0.031647217 -0.0068383566 1.3822404
00000000: b470 34be 3338 4fbe 63fe 3f3f 8e20 683f
00000010: 9761 3cbe 6353 3abe 5e96 753c 5c57 163d
00000020: e72e 2c3d 36a3 21be 5967 11be bf0f 693d
00000030: 6c36 32be 3948 46be 2b13 543f 2a62 52be
00000040: 0468 36be 802c 3dbe f71a c23c 265a 1abe
00000050: a37c 503c cbe6 24be e4a7 4fbe b7e4 a53c
00000060: e22c 3abe beb3 4a3b 79df 27be 0f99 28be
00000070: cac2 2dbe eefb 0dbe b07d 653d 3a95 1fbe
00000080: 8a7f 28be fa58 0fbe 1024 213f fbd8 323f
00000090: 968e 43be 332f 5d3c a307 36be fa9a 19be
000000a0: b548 1bbe d3fb 7c3f 6751 41be 2b6d 39be
000000b0: c664 803f d408 ca3a bb82 983f 89d3 26be
000000c0: 5755 27be 8dd3 263d ee59 2abe 4fb2 463f
000000d0: f6bb 3c3f ccf9 2ebe cbf2 24be 1dfe 1fbe
000000e0: fddc 1fbe edf0 523f 885c 9c3c 505b 48be
000000f0: f161 85b9 077b 503f dee7 3fbe 41db 513f
00000100: a017 46be 1128 593d 51b4 19be ec90 33be
00000110: ab64 4abe cb0c 513d 7312 343c 5d59 15be
00000120: b63b 24be 3419 32be 248d 35be 0928 663f
00000130: 630b 29be ef0e 543d 1069 2ebe 274e ac3b
00000140: fa84 393d 4456 1fbe 10fc 5f3f 2a44 15be
00000150: 39fa 293f 61e5 5e3f e6b2 5c3f 15cc 1a3c
00000160: 9826 39be 7798 193d 9665 bf3c 4266 443d
00000170: d259 1f3d c5f1 30bb dabe b23c 2a23 133f
00000180: 21bf 46bf d0ff 53be ef3e 0fbe 034b 943f
00000190: 2199 41be f076 0b3d b2c8 47be e71e 3ebe
000001a0: 9ac1 3fbe 9ee2 40be 9186 233f c127 183d
000001b0: 6afb 12be 4311 263f f933 2d3d f93a 49be
000001c0: 9e94 1cbe e533 09be c5dc 8b3f 4d1b 653d
000001d0: ad08 26be fd71 ca3f 0c23 26be 73b7 26be
000001e0: ab0d 28be 1261 2dbe 9049 0fbe 4c77 47be
000001f0: d6aa 933f 4c4e 5c3f 962a 973c bea2 a4bb
00000200: 2506 7d3f f92e 29be be22 31be bc97 b53f
00000210: cf3a 17be 90d6 643f 8212 753f fe66 153d
00000220: 96fc 37be 8a4c 333c 0c9b 13be 8f41 383c
00000230: 8a2b 7a3f acd7 43be 8e17 b13c 0c69 1f3f
00000240: fdfd 1fbe 4ceb c73c 401f 48be 75bc 403d
00000250: c1c3 1dbe 6f0d 2ebe 943c 51be adfa 31be
00000260: 3fe1 773f a398 41bf c243 35be c1c4 35be
00000270: aceb 13be 47a0 3cbe ab20 0dbe 1315 943f
00000280: 32cf 533d ce06 083d 4184 403f 7541 343b
00000290: 9869 293d a2bb 3cbe 731f 0b3c 6d4c be3b
000002a0: 4c3b 46be c307 2abe 45bc 4dbe f908 31be
000002b0: 5340 153f 0cc8 033c 8a59 6b3d f2a6 34be
000002c0: 3aa7 3cbe edf0 22be d247 17be 5fa3 823c
000002d0: 6bc0 10be d46f 8a3c 9bc3 073d b7f4 8e38
000002e0: 266c 023d b652 963b 17eb 613d 403a 813f
000002f0: d5f6 41be ba2b 463d e9d3 4abe f2ec 5e3d
00000300: 9670 22be 3bae 1c3d 9538 2fbe e2cc 22be
00000310: 4a2e 273d a9cc 813f 3efd e53c a99e 843c
00000320: 87d4 43be f70a bf3a 87be 4abe f73b 3dbe
00000330: 2bea 543f 1527 2abe 0d08 5abe 9000 13be
00000340: a3a5 643f b85c 0f3d f3a7 f339 45eb 38be
00000350: 2e29 3abe 6a9f 26be 45c3 363f 8513 4cbe
00000360: 2832 f73c 3982 3d3c a300 e73c 0ed6 46be
00000370: c4d7 43be 4bea 1fbe 3543 c03f bec0 413d
00000380: 8d2f 3e3c be01 2f3d a5e1 573f 347b 38be
00000390: ce10 353f f525 27be a5ff 1bbe d67e 26be
000003a0: 7c19 3bbe 2ea1 48be dac6 9b3c e0b3 ac3f
000003b0: 55ba 21be a5d0 21be 3048 5a3c 7f2f c63c
000003c0: 50c9 e13c 5148 1bbe 5214 47be a8be 753f
000003d0: 2f79 3dbe 8d7e 10be 9c83 ff3b 0f2f 223d
000003e0: 1c35 10be ca47 4cbe 1bdc 20bb e7a7 2ebe
000003f0: cbc2 43be 83a0 013d 4b14 e0bb 41ed b03f

norm.weight f4 [26]
1.1289129 1.0786191 1.0113641 0.98808336 0.8045908 0.7948934 0.84053004 0.9179103
0.9265249 0.9446515 0.8052015 0.83285725 0.85640895 0.933056 0.8586071 0.8904617
0.9143613 0.9296986 0.783062 0.8079091 0.9165776 1.0278407 1.1627798 1.0727074
1.8880585 1.3650826
00000000: 3880 903f 3110 8a3f 6174 813f 08f3 7c3f
00000010: aaf9 4d3f 227e 4b3f fa2c 573f 2bfc 6a3f
00000020: bc30 6d3f aed4 713f af21 4e3f 2236 553f
00000030: 9e3d 5b3f c2dc 6e3f adcd 5b3f 4cf5 633f
00000040: 9513 6a3f ba00 6e3f c076 483f 21d3 4e3f
00000050: d4a4 6a3f 4990 833f f8d5 943f 7a4e 893f
00000060: e7ab f13f 07bb ae3f

norm.bias f4 [26]
0.52309823 0.50154537 0.4562119 0.45287558 0.4344348 0.6693429 0.4672846 0.100420386
0.4415905 0.3036065 0.36689788 0.2703596 0.32054016 0.3254872 0.32429495 0.20122728
0.30069867 0.32233554 0.42466587 0.6485854 0.52652013 0.42856112 0.4982304 0.19772188
0.06865523 0.17417356
00000000: c4e9 053f 4765 003f 9b94 e93e 4fdf e73e
00000010: 3d6e de3e 0e5a 2b3f ed3f ef3e 34a9 cd3d
00000020: 2618 e23e 5072 9b3e 0ada bb3e 936c 8a3e
00000030: d71d a43e 42a6 a63e fd09 a63e 860e 4e3e
00000040: 2df5 993e 2a09 a53e ce6d d93e b109 263f
00000050: 06ca 063f 5d6c db3e 0e18 ff3e 9b77 4a3e
00000060: 1d9b 8c3d 8e5a 323e

norm.running_mean f4 [26]
1.5160211 1.5511769 1.6127809 1.7143636 1.8015945 1.9078286 2.0074768 2.1071508
2.2099845 2.268426 2.2803695 2.286027 2.248519 2.2265036 2.1844113 2.0732336
1.9560661 1.8746898 1.7805536 1.6955911 1.6349686 1.5578904 1.5342368 1.516864
0.22200301 1.2224845
00000000: fb0c c23f f78c c63f 9b6f ce3f 4470 db3f
00000010: a69a e63f ba33 f43f 807a 0040 8fdb 0640
00000020: 6370 0d40 e42d 1140 93f1 1140 444e 1240
00000030: bce7 0f40 097f 0e40 65cd 0b40 dcaf 0440
00000040: 6060 fa3f d6f5 ef3f 2ee9 e33f 2109 d93f
00000050: a746 d13f f468 c73f df61 c43f 9928 c23f
00000060: c254 633e 5f7a 9c3f

norm.running_var f4 [26]
0.36467215 0.41248858 0.46713507 0.5929195 0.67740935 0.73974276 0.75904626 0.7152219
0.6399634 0.5592133 0.4816085 0.4377108 0.46399054 0.50714797 0.5852957 0.64681464
0.68563163 0.7153135 0.69447315 0.6173381 0.55365896 0.45141578 0.41250536 0.36600643
2.4173985 0.44352445
00000000: 4fb6 ba3e b431 d33e 542c ef3e 93c9 173f
00000010: b36a 2d3f c85f 3d3f db50 423f c818 373f
00000020: a4d4 233f 9a28 0f3f 6495 f63e a11b e03e
00000030: 2b90 ed3e 73d4 013f f0d5 153f a595 253f
00000040: 8e85 2f3f c91e 373f fec8 313f df09 1e3f
00000050: 98bc 0d3f f81f e73e e733 d33e 3265 bb3e
00000060: a8b6 1a40 a315 e33e

norm_a.weight f4 [2]
2.1793218 1.188762
00000000: 027a 0b40 5a29 983f

norm_a.bias f4 [2]
-0.10191825 -0.10330759
00000000: 84ba d0bd ee92 d3bd

norm_a.running_mean f4 [2]
0.03547513 -0.112562425
00000000: 5f4e 113d 2187 e6bd

norm_a.running_var f4 [2]
0.16161609 0.15280062
00000000: b07e 253e c477 1c3e
