turtlebot3_move_base/save_model_ddpg/2020_11_28-01:35:49/stage_1_1350_critic.pth (torch_old, 586393 bytes, 13 tensors)

fc1.weight f4 [512, 26]
0	0xbe569f43	-0.20959191
1	0xbd177d55	-0.03698476
2	0xbd49f125	-0.04930224
3	0x3d831f34	0.06402436
4	0xbd91c4c4	-0.07117608
5	0xbd8319f8	-0.064014375
6	0xbe00a4b4	-0.1256283
7	0xbe2ea547	-0.17055236
8	0xbd1583ee	-0.03650277
9	0xbdf10c6e	-0.11769949
10	0x3dffe3a7	0.12494593
11	0x3da94764	0.0826557
12	0xbd9b153c	-0.075724095
13	0xbe251d74	-0.16124517
14	0x3d26ed8e	0.040753894
15	0xbd7a806b	-0.061157625
16	0xbdc80010	-0.09765637
17	0x3e4f485c	0.20242447
18	0x3da385da	0.079845145
19	0xbe149e78	-0.14513576
20	0x3b84e15d	0.0040551857
21	0x3d94add3	0.07259717
22	0xbe55545f	-0.20832966
23	0x3d927e1d	0.071529604
24	0x3e405387	0.18781863
25	0x3ef95a42	0.48701674
26	0xbe167ac3	-0.14695267
27	0xbe94b0e8	-0.2904122
28	0xbe758856	-0.2397779
29	0xbd84a356	-0.06476466
30	0x3a19ccee	0.0005867024
31	0xbe036893	-0.1283286
32	0xbe0ed939	-0.13950051
33	0xbd19fa36	-0.037592135
34	0xbe2c5442	-0.16829017
35	0xbe1f1198	-0.15534055
36	0xbeb7cd5b	-0.3589886
37	0xbe38654a	-0.18007389
38	0x3e2e42b0	0.17017627
39	0x3d17d092	0.037064143
40	0xbeb32e6a	-0.3499635
41	0x3ce01f23	0.027358597
42	0xbe8b8d55	-0.27256265
43	0xbdfc0381	-0.12305356
44	0xbda4c6d6	-0.080457374
45	0xbe8253ab	-0.2545446
46	0xbd2695ad	-0.040670086
47	0x3d94b7aa	0.07261594
48	0x3df9024d	0.12158642
49	0x3d4b43af	0.049625095
50	0x3e1625c7	0.14662848
51	0x3e4cb33d	0.19990249
52	0xbdad1763	-0.08451726
53	0x3ca86e24	0.020560332
54	0xbd512da8	-0.05106893
55	0xbe10265b	-0.14077131
56	0x3e3cfd5c	0.18456024
57	0x3e63616b	0.22205131
58	0x3e7e3ac9	0.24827112
59	0x3e8bed44	0.27329457
60	0xbcbda4fc	-0.02314996
61	0xbe32022a	-0.17383638
62	0xbe8c0995	-0.2735106
63	0xbe920044	-0.28515828
64	0xbe522415	-0.20521577
65	0xbed476bb	-0.41496834
66	0xbd91f4b7	-0.07126754
67	0x3e06f437	0.13179098
68	0xbe280162	-0.16406778
69	0x3d0b0ea8	0.033949524
70	0x3d1f13cc	0.03883724
71	0x3e19ed1c	0.15031856
72	0x3c5d6fbf	0.013515412
73	0xbe3ce0b7	-0.18445097
74	0xbdae6606	-0.08515553
75	0x3d6eef4e	0.058333687
76	0xbdbb1824	-0.09135464
77	0x3de46c21	0.111534365
78	0xbba2f9af	-0.0049736123
79	0xbe2b05db	-0.16701452
80	0x3d5dca92	0.054148264
81	0xbd261b32	-0.04055328
82	0x3ab55e04	0.0013837223
83	0xbe2b8a6f	-0.16752027
84	0xbe8d4126	-0.27588767
85	0x3dbbf10b	0.09176835
86	0xbe3128c8	-0.17300713
87	0x3d0ff01b	0.03514109
88	0xbe075a03	-0.1321793
89	0x3e26204e	0.16223261
90	0xbcf7d1c3	-0.03025139
91	0x3e8e90cd	0.2784485
92	0x3ccd001e	0.02502447
93	0x3d484015	0.04888924
94	0x3e67aee3	0.22625308
95	0x3d92f9bc	0.07176539
96	0x3e846661	0.2585936
97	0x3c50a2cc	0.012734126
98	0xbe42ac89	-0.1901113
99	0x3e43ad26	0.1910902
100	0x3e4b3089	0.19842733
101	0xbd732bce	-0.059367947
102	0xbe51f746	-0.20504484
103	0x3ce68cae	0.028143253
104	0xbe4a59d9	-0.19760837
105	0xbe1a28ad	-0.15054579
106	0xbe410ad6	-0.1885179
107	0x3d525fb8	0.051360816
108	0x3dfc2650	0.12311995
109	0xbd804ccb	-0.06264647
110	0xbe4110e6	-0.18854102
111	0x3d39e53c	0.04538463
112	0xbc4a9a21	-0.012365849
113	0x3d78b3ea	0.060718454
114	0xbd544d3a	-0.05183146
115	0xbd8095af	-0.0627855
116	0xbd1ca59e	-0.038243882
117	0x3e26a18d	0.16272564
118	0xbe2d99d9	-0.1695322
119	0xbd55d510	-0.052205145
120	0xbe38a53a	-0.18031779
121	0xbe2035ad	-0.15645476
122	0x3dea0903	0.114275
123	0x3ae1523b	0.0017190644
124	0xbdfc0115	-0.12304894
125	0xbde7e234	-0.11322442
126	0xbe5e25bc	-0.21694082
127	0xbe206c4b	-0.1566631
128	0xbebbd835	-0.3668839
129	0xbd9f8baf	-0.077903144
130	0xbea33e5a	-0.31883508
131	0x3db9cc79	0.09072203
132	0xbe096d7f	-0.13420676
133	0x3e2e9acd	0.1705124
134	0xbde31fc2	-0.11090042
135	0x3df56060	0.11981273
136	0x3e6354bc	0.22200292
137	0xbd76018d	-0.060060073
138	0xbd03ae07	-0.032148387
139	0x3d3bc432	0.045841403
140	0x3e3e48a6	0.185824
141	0x3e294f03	0.16534047
142	0x3da3f959	0.08006544
143	0xbd409631	-0.047018234
144	0x3cdb3dac	0.026762806
145	0x3d26c99a	0.040719606
146	0x3d65ffc9	0.05615214
147	0x3c3f883d	0.011690197
148	0xbe0bc073	-0.13647632
149	0xbe976325	-0.2956783
150	0xbea2975f	-0.31756112
151	0xbdf4d908	-0.11955458
152	0xbecc8cde	-0.39951223
153	0xbded74a5	-0.11594514
154	0xbe3fddb8	-0.18736923
155	0xbdcb08ec	-0.09913811
156	0x3dfdb0b6	0.123872206
157	0x3d5af4a7	0.053455975
158	0xbc0de075	-0.008659472
159	0x3e333096	0.17499003
160	0x3e014a7d	0.12626071
161	0x3d05c683	0.03266002
162	0x3d1b504d	0.037918378
163	0x3dcc0d98	0.0996353
164	0x3e6e39ee	0.23264286
165	0x3e6c136e	0.23054287
166	0x3d9e9768	0.07743722
167	0x3c89ffe7	0.016845657
168	0x3d78a399	0.060702894
169	0xbe49e92d	-0.19717856
170	0xbe36e84a	-0.17862049
171	0xbdb40079	-0.08789153
172	0x3d1fa255	0.03897317
173	0x3d360bc0	0.0444448
174	0x3ed36ef5	0.4129559
175	0x3e4f763c	0.20259947
176	0x3f00c80b	0.5030524
177	0x3d9414fd	0.07230566
178	0x3c965fe6	0.018356275
179	0x3da11af9	0.07866473
180	0x3d25c21e	0.040468328
181	0xbd5ea0ac	-0.054352447
182	0xbec6cbe3	-0.38827428
183	0x3db89a27	0.09013777
184	0xbdb25792	-0.08708109
185	0x3d8bf5f4	0.06834021
186	0x3e1a6f8b	0.15081613
187	0xbd0d6a72	-0.034525342
188	0x3e19586c	0.14975137
189	0x3dea65d1	0.11445201
190	0x3e92967b	0.28630432
191	0x3e170363	0.14747386
192	0x3e3d5fc0	0.18493557
193	0x3e1529b9	0.14566697
194	0x3e4c484c	0.19949454
195	0x3d5f6061	0.054535273
196	0xbe257039	-0.16156091
197	0xbe7ea327	-0.24866925
198	0xbe9e5dfc	-0.3093108
199	0xbde9be91	-0.11413301
200	0xbe380ef2	-0.17974451
201	0xbe04217e	-0.12903401
202	0x3ce9ce80	0.02854085
203	0xbbd39b1b	-0.006457699
204	0xbe3cfc99	-0.18455733
205	0xbe92d95b	-0.28681454
206	0x3db1c0ea	0.086793736
207	0x3de16363	0.11005285
208	0x3defde33	0.11712303
209	0xbd9c6168	-0.07635766
210	0x3d0e4da0	0.034741998
211	0xbd8a37c8	-0.06748921
212	0x3c776b88	0.015101321
213	0x3d1cc037	0.038269248
214	0x3cae664f	0.021289019
215	0xbd386e61	-0.04502714
216	0xbddd7201	-0.1081276
217	0x3e1bcb96	0.1521438
218	0xbe2da1b9	-0.16956224
219	0xbd6f5268	-0.058428198
220	0xbb7c0742	-0.0038456474
221	0x3d9876cc	0.07444534
222	0xbc366b1a	-0.011133933
223	0x3d6913fc	0.056903824
224	0x3d5d5244	0.054033533
225	0x3c41b8ae	0.011823816
226	0xbd33677e	-0.04379987
227	0xbdb21a35	-0.08696405
228	0x3e202208	0.15637982
229	0xbd56dbce	-0.052455716
230	0x3dcc91ef	0.09988772
231	0xbe346acc	-0.17618865
232	0x3ec983ae	0.39358276
233	0x3e87f211	0.2655187
234	0xbd33d0c2	-0.04390026
235	0xbe90507b	-0.28186402
236	0xbe1b2580	-0.15151024
237	0x3e4c2037	0.19934164
238	0x3e67c2ad	0.22632857
239	0x3e849e86	0.25902194
240	0x3eb0f0ff	0.34558865
241	0x3e8d93f0	0.2765193
242	0xbdc7d299	-0.09756965
243	0xbd1ac476	-0.037785016
244	0xbe0db579	-0.13838758
245	0xbe66467b	-0.22487824
246	0xbeac5f0b	-0.33666262
247	0xbe22098c	-0.15823954
248	0xbd34bbc3	-0.044124376
249	0x3c2a268d	0.010385168
250	0xbe3a09b1	-0.1816776
251	0x3c4e2ade	0.0125834625
252	0xbca796da	-0.020457674
253	0xbd03a3a3	-0.032138478
254	0x3e253ec2	0.16137221
255	0xbdcb0ff6	-0.09915154

fc1.bias f4 [512]
0	0x3ecfe7a3	0.40606412
1	0xbe2b43d3	-0.16725092
2	0x3e9a136b	0.3009294
3	0xbd684227	-0.056703713
4	0xbe2980a5	-0.1655298
5	0xbedc01d1	-0.42970136
6	0x3d6d6354	0.057956055
7	0xbda4efc7	-0.080535464
8	0x3edc1772	0.42986637
9	0x3e8c3b1e	0.27388853
10	0x3f01d480	0.50714874
11	0x3f0d6b75	0.5524209
12	0x3f37b99a	0.7176758
13	0xbed83c89	-0.42233685
14	0x3ef525f3	0.47880515
15	0x3a9937ee	0.0011689642
16	0xbdcb1f89	-0.09918124
17	0x3ee871f9	0.45399454
18	0x3e8d25e4	0.2756797
19	0xbe8de34d	-0.2771248
20	0xbe60c7f3	-0.21951275
21	0x3c1c1a90	0.009527817
22	0xbc7d185e	-0.015447704
23	0x3eb0709f	0.34460923
24	0x3e327aa2	0.17429593
25	0xbd9195e4	-0.071086675
26	0xbea4b485	-0.32168975
27	0x3ee968d8	0.45587802
28	0x3f0f3d3a	0.559528
29	0x3f35646b	0.7085635
30	0x3ddaff76	0.106932566
31	0x3eee6ea6	0.46568793
32	0xbe5d032b	-0.2158324
33	0x3ebc3768	0.36761022
34	0xbe81de09	-0.25364712
35	0x3e6b368d	0.22970028
36	0xbe23e4c0	-0.1600523
37	0x3d5b46e9	0.053534422
38	0x3ef567ba	0.479307
39	0xbdc134d1	-0.09433902
40	0x3dc08fcd	0.09402428
41	0x3e9222de	0.28542227
42	0x3e2995d4	0.16561061
43	0xbea0193e	-0.31269258
44	0xbed9de5f	-0.42552468
45	0xbefc506a	-0.492801
46	0x3f28ede9	0.6598802
47	0x3dbdca71	0.09267128
48	0x3df4c4a2	0.11951567
49	0x3f2f078a	0.6837088
50	0x3ed853e7	0.42251512
51	0xbe875dec	-0.26438844
52	0x3ddc36fe	0.107526764
53	0x3ec2597a	0.3795889
54	0x3e945bd0	0.28976297
55	0x3e4260d9	0.18982257
56	0xbd92a0e7	-0.07159596
57	0x3ee553f3	0.4479061
58	0x3b9345c3	0.0044944
59	0xbe5c6e27	-0.21526395
60	0x3df6231c	0.12018415
61	0xbf01fa13	-0.5077221
62	0xbe02def5	-0.12780364
63	0x3ee69ed4	0.4504305
64	0xbd3b7c23	-0.045772683
65	0xbe580928	-0.21097243
66	0xbd2f0fc9	-0.042739663
67	0x3f0796c4	0.52964425
68	0xbe45519e	-0.19269416
69	0x3de0f55e	0.109843
70	0x3d7930f3	0.060837697
71	0x3e5216d3	0.20516519
72	0x3f05024d	0.51956636
73	0x3e487bf9	0.19578542
74	0x3f00005b	0.5000054
75	0x3ef9cc4e	0.48788685
76	0xbe3b74b1	-0.18306233
77	0x3e7a2c79	0.24431027
78	0xbef100f6	-0.47071046
79	0xbe70a04c	-0.23498648
80	0x3f0b0339	0.5430179
81	0x3edf7d87	0.43650457
82	0x3dab865c	0.083752364
83	0x3e708d47	0.23491393
84	0xbdb78e33	-0.08962669
85	0x3e7b762b	0.24556796
86	0xbee50564	-0.44730675
87	0x3eced780	0.40398788
88	0x3e4f54c6	0.20247182
89	0xbf151c10	-0.58245945
90	0xbd16eee7	-0.03684893
91	0x3f3bca46	0.7335552
92	0x3e9d41ea	0.3071435
93	0xbe612d0f	-0.21989845
94	0xbd57530f	-0.052569445
95	0x3cf013ae	0.029306259
96	0x3f0d630d	0.55229264
97	0xbd81652d	-0.06318126
98	0x3f007500	0.5017853
99	0x3ee43453	0.4457117
100	0xbddfd56f	-0.10929381
101	0xbf14f57f	-0.581871
102	0xbea9321c	-0.33046043
103	0xbdcf1ce0	-0.10112929
104	0x3eac84f4	0.33695185
105	0x3d232d79	0.039838288
106	0x3ea60330	0.32424307
107	0x3e922b4a	0.28548652
108	0x3eae56c6	0.34050578
109	0xbe63f3f7	-0.22261034
110	0x3f094291	0.536172
111	0x3e96cfa5	0.29455295
112	0x3f0a17fc	0.5394285
113	0x3f1ab992	0.6043941
114	0xbdd54223	-0.10413005
115	0x3e26c3a6	0.16285571
116	0x3ed3ab71	0.41341737
117	0x3e6260d3	0.22107248
118	0x3e72b0cd	0.23700257
119	0x3f37f6df	0.7186107
120	0x3e341934	0.17587739
121	0xbd4c1d0f	-0.0498324
122	0xbef472bb	-0.47743782
123	0x3e8ad302	0.2711411
124	0xbed5b92a	-0.4174283
125	0xbef79f19	-0.4836357
126	0x3f161989	0.58632714
127	0xbe9edeff	-0.31029508
128	0x3e1691fb	0.14704125
129	0xbeb69f82	-0.3566857
130	0x3ee22318	0.441674
131	0xbe037889	-0.1283895
132	0x3f108dd2	0.564664
133	0x3eeab9bc	0.4584483
134	0xbeb7af3a	-0.35875875
135	0x3ee02c14	0.4378363
136	0x3e18951f	0.14900635
137	0x3dc38c46	0.095482394
138	0x3f1cb044	0.6120646
139	0x3ebbffc1	0.36718562
140	0x3ee1c6d4	0.44097006
141	0xbdd0b9be	-0.101916775
142	0x3d4dce40	0.050245523
143	0x3eb8a59d	0.36063853
144	0xbe9a7142	-0.30164534
145	0x3dc57991	0.096423276
146	0xbe6e7ae3	-0.23289065
147	0xbe94f5d1	-0.29093793
148	0x3ec9ae7b	0.3939093
149	0xbea07044	-0.31335652
150	0xbe5bcb0e	-0.21464178
151	0x3f1d127d	0.61356336
152	0xbcd21848	-0.025646344
153	0x3ef9ea6b	0.4881166
154	0xbe59f90a	-0.21286407
155	0x3f074c2d	0.5285061
156	0x3ec47991	0.38373998
157	0x3e295a18	0.16538274
158	0xbea80857	-0.32818863
159	0x3d408a74	0.04700704
160	0x3f094059	0.5361381
161	0x3e0f06a4	0.13967377
162	0x3dc3c4a8	0.095589936
163	0x3eac4952	0.3364969
164	0x3e9c0307	0.3047106
165	0xbe425bd6	-0.18980345
166	0x3e468445	0.19386394
167	0x3ee426a5	0.44560733
168	0x3ebab6fc	0.3646773
169	0xbeda6a30	-0.4265914
170	0x3efdc562	0.49564654
171	0x3e752037	0.2393807
172	0x3ecdbc0a	0.40182525
173	0x3edb3b2b	0.4281858
174	0x3f0dc6ea	0.55381644
175	0x3da2896b	0.07936367
176	0x3ec15bef	0.37765452
177	0x3f16f42b	0.5896632
178	0xbe94786b	-0.28998122
179	0x3daa5e37	0.08318751
180	0xbeaa86a2	-0.33305842
181	0x3cd7b189	0.026329773
182	0xbe2d1324	-0.16901833
183	0xbe2d7f85	-0.16943176
184	0x3ecd841b	0.4013985
185	0x3eccd807	0.40008566
186	0xbdb7306d	-0.08944783
187	0xbe118c97	-0.14213787
188	0x3f06e57e	0.5269393
189	0x3e997480	0.29971695
190	0xbeaa74d6	-0.33292264
191	0xbdad9543	-0.08475735
192	0x3f01b5e9	0.506682
193	0xbf19c6f8	-0.6006923
194	0xbd597487	-0.053089645
195	0x3eeac884	0.45856106
196	0xbeab5df2	-0.33470112
197	0xbe99c821	-0.300355
198	0xbe300d3f	-0.17192553
199	0xbe51b8bc	-0.20480627
200	0xbe1a0cc5	-0.15043934
201	0xbf07a7a0	-0.5299015
202	0x3e1aafe0	0.15106153
203	0x3ea5db7d	0.3239402
204	0x3ea1ef63	0.3162795
205	0x3e1bb8c3	0.152072
206	0xbdb48f6c	-0.08816418
207	0x3e7be999	0.24600829
208	0x3d14426e	0.036196165
209	0xbea486ba	-0.32134038
210	0xbc61c5e6	-0.013780093
211	0x3c8afdff	0.016966818
212	0x3dfdc99f	0.12391972
213	0xbea4b4ac	-0.32169092
214	0xbef02348	-0.46901917
215	0x3db235e3	0.08701684
216	0x3ee0cdff	0.43907163
217	0x3ebab2d4	0.3646456
218	0xbf496225	-0.7866538
219	0xbe759b36	-0.2398499
220	0xbd653135	-0.05595513
221	0x3dbf4b17	0.09340494
222	0x3e80e774	0.25176585
223	0x3e02c934	0.12772065
224	0x3d3e863d	0.04651474
225	0xbe3bcf32	-0.18340757
226	0xbe58d7ba	-0.21176043
227	0x3ee5ab69	0.44857338
228	0x3db803bb	0.089850865
229	0xbe3e0a62	-0.18558648
230	0xbd307614	-0.043081358
231	0xbbca51b6	-0.0061742915
232	0x3f2f860d	0.6856392
233	0xbc2bc909	-0.010484942
234	0x3e75a883	0.23990063
235	0xbd4061ed	-0.04696839
236	0x3e9ffc1e	0.31247038
237	0xbb789195	-0.003792857
238	0xbcdf8aa2	-0.027287785
239	0x3e9baaba	0.30403692
240	0xbe6ccd74	-0.23125249
241	0xbe609fe1	-0.21935989
242	0xbea85107	-0.3287432
243	0x3eaad01e	0.33361906
244	0x3e81862f	0.25297686
245	0xbdbd3f64	-0.092406064
246	0xbe5da3c5	-0.21644504
247	0xbe5691e3	-0.20954089
248	0xbe0bddb5	-0.13658793
249	0xbe881a1b	-0.26582417
250	0x3ecc5dae	0.39915222
251	0xbefe9c40	-0.49728584
252	0xbefe3faf	-0.49657962
253	0x3e208dae	0.15679047
254	0xbc98038d	-0.01855638
255	0x3f06108a	0.52368987

fc2.weight f4 [256, 514]
0	0x3e3be454	0.18348819
1	0xbe6c3fd1	-0.23071219
2	0x3da29663	0.0793884
3	0xbd9ab419	-0.07553882
4	0x3db34bd3	0.08754697
5	0xbcbbeeb1	-0.022940965
6	0x3dc44e1b	0.0958521
7	0x3b39f2c3	0.0028373457
8	0x3e1e048a	0.15431419
9	0x3e0693c7	0.1314231
10	0x3e083ab0	0.13303638
11	0x3d7d1422	0.06178678
12	0x3e4d5fd2	0.20056084
13	0xbe18fb98	-0.14939725
14	0x3debe9c1	0.115191944
15	0x3d968a6d	0.07350621
16	0x3e56d50e	0.20979711
17	0x3ded11b5	0.11575643
18	0x3d5cdb2b	0.053919952
19	0xbe036cd6	-0.12834486
20	0x3c0d9387	0.00864113
21	0x3dbbd382	0.09171201
22	0x3cab6be9	0.020925479
23	0x3da7cc74	0.08193293
24	0x3d9e2891	0.07722581
25	0x3e5483c1	0.20753385
26	0xbcb9f349	-0.022699015
27	0x3dd869c6	0.1056705
28	0x3dd3962e	0.10331379
29	0x3e54957a	0.20760146
30	0xbcdfefad	-0.027335966
31	0x3d863a40	0.06554079
32	0xbd4753ac	-0.04866378
33	0x3e49d813	0.19711332
34	0xbe144ee2	-0.14483216
35	0x3d9ab00f	0.07553112
36	0x3d66471b	0.056220155
37	0x3dbdea9a	0.09273262
38	0x3dc76556	0.09736125
39	0xbdf5cc2e	-0.12001835
40	0xbe22d7e4	-0.15902668
41	0x3daebf83	0.08532622
42	0x3e0fff5a	0.14062253
43	0xbe05d96e	-0.13071224
44	0x3c718564	0.014741275
45	0xbd6593a9	-0.056049023
46	0x3e5f0a0d	0.21781178
47	0x3d138390	0.03601414
48	0x3d46c09f	0.04852354
49	0x3e0dcc03	0.13847356
50	0x3e494e2f	0.19658731
51	0xbdf98b0b	-0.121847235
52	0x3e6141ee	0.21997806
53	0x3e1d076c	0.15334862
54	0x3d9dbfe9	0.077026196
55	0x3bbb4b6a	0.005715777
56	0x3c647a31	0.013945148
57	0x3e3372cb	0.17524259
58	0x3ddfa144	0.10919431
59	0xbdf8ec20	-0.12154412
60	0xbc5d6b7a	-0.013514394
61	0xbe7cf0a0	-0.24701166
62	0xbdd86687	-0.105664305
63	0x3e08e983	0.13370328
64	0xbd0f5a8b	-0.034998458
65	0xbd840361	-0.06445957
66	0x3d72c234	0.059267238
67	0x3dc77361	0.09738804
68	0x3e13c852	0.14431885
69	0xbd22979b	-0.039695363
70	0xbd4fe152	-0.05075199
71	0x3ce0fe99	0.027465152
72	0x3e7da19e	0.24768683
73	0x3e024952	0.12723282
74	0x3d814b81	0.06313229
75	0x3e02f9b1	0.12790562
76	0x3d1404f0	0.03613752
77	0x3dd759fe	0.105152115
78	0xbd9e0bff	-0.07717132
79	0xbe23333f	-0.15937518
80	0x3dceacc4	0.10091546
81	0x3dd3befe	0.10339163
82	0x3c44d935	0.012014677
83	0x3da57465	0.08078841
84	0x3e1c5573	0.15266971
85	0x3d1c1310	0.038104117
86	0xbd53d4d5	-0.051716644
87	0x3e5d32c1	0.21601392
88	0x3d9e4f99	0.07730026
89	0xbe85422d	-0.2602705
90	0x3d229b89	0.03969911
91	0x3dfdefec	0.12399277
92	0x3d904836	0.07045023
93	0xbe3274f8	-0.17427433
94	0xbd454f0a	-0.04817108
95	0x3ba0318b	0.0048887185
96	0x3d7736ac	0.060354874
97	0x3d62e6ae	0.055395775
98	0x3e667c84	0.22508436
99	0x3e3c75ba	0.18404284
100	0x3d01b8ea	0.03167049
101	0xbe2ba28c	-0.16761225
102	0x3eacb107	0.3372881
103	0xbc32e0db	-0.0109178675
104	0x3c3f8feb	0.011692028
105	0x3d54e5f1	0.0519771
106	0x3e3f0e70	0.18657851
107	0x3d5fa9d8	0.054605335
108	0x3def76cb	0.1169258
109	0xbd90096b	-0.07033046
110	0x3e155655	0.14583714
111	0x3dca4285	0.09875969
112	0x3dd5317f	0.10409831
113	0x3db953b1	0.09049166
114	0xbd61b3b8	-0.055103034
115	0x3dab912d	0.083772995
116	0x3e48a6b2	0.19594839
117	0x3e20e62d	0.15712805
118	0x3d7b38c5	0.061333437
119	0x3e8b503e	0.27209657
120	0x3dd7809d	0.10522578
121	0x3e063e31	0.13109662
122	0xbe2fc195	-0.1716369
123	0x3e86431d	0.26223078
124	0xbe2f6896	-0.1712974
125	0xbda165bf	-0.07880735
126	0x3d994c17	0.07485216
127	0xbdc3f7b6	-0.095687315
128	0x3e0d3470	0.13789535
129	0xbd05e3a5	-0.032687802
130	0x3d8db8d1	0.069200166
131	0x3cfd7669	0.030940251
132	0x3e26ecc7	0.16301261
133	0x3e072476	0.13197502
134	0xbdc9becf	-0.09850847
135	0x3e042d42	0.1290789
136	0x3d8a7b60	0.06761813
137	0x3dd12462	0.102120176
138	0x3e12c193	0.14331655
139	0x3d8415a3	0.064494394
140	0x3e1ec97e	0.1550655
141	0x3da14d28	0.078760445
142	0x3dc45415	0.0958635
143	0x3e1692f3	0.14704494
144	0xbe49b59d	-0.19698186
145	0x3d7e19d9	0.06203637
146	0xbd3d4d54	-0.046216324
147	0x3e498364	0.19679028
148	0x3e4ec9e7	0.20194207
149	0xbece6e30	-0.4031844
150	0xbd983835	-0.07432596
151	0x3e5e245c	0.21693558
152	0x3dd86200	0.10565567
153	0x3dc90e8c	0.09817228
154	0x3ccd0437	0.025026424
155	0x3de6aaba	0.11263032
156	0x3d3f144d	0.04665022
157	0x3d99bc42	0.075066105
158	0x3eba9764	0.36443627
159	0x3e041a5a	0.12900677
160	0x3d0cd220	0.03438008
161	0x3d9546d2	0.072888985
162	0x3e3129d7	0.17301117
163	0x3e4834f7	0.19551454
164	0x3d664bf2	0.05622477
165	0x3e92a9ac	0.28645074
166	0x3dea8d4c	0.114527315
167	0x3d48f5e8	0.04906264
168	0x3dc1462e	0.09437214
169	0xbe0624d3	-0.13099985
170	0x3e2307b6	0.1592091
171	0x3dff6053	0.12469544
172	0x3d9af944	0.07567075
173	0x3dc24730	0.09486234
174	0x3e1119c7	0.1416999
175	0x3ca99f97	0.020705981
176	0x3d7cf1ad	0.061753917
177	0x3de2d968	0.11076623
178	0xbde08439	-0.109627195
179	0x3dfa008b	0.12207135
180	0xbc648e36	-0.013949921
181	0x3cd26607	0.025683416
182	0x3e516088	0.2044698
183	0xbd040db3	-0.032239627
184	0x3df3861c	0.11890814
185	0x3e43b246	0.19110975
186	0xbccaa2c3	-0.024735814
187	0x3dddea4c	0.10835704
188	0x3da815e2	0.08207299
189	0x3ddf1e45	0.10894445
190	0xbe17c6cd	-0.1482193
191	0x3c19e150	0.009392098
192	0x3dda97d7	0.106734924
193	0xbc86824e	-0.016419556
194	0x3e1f0341	0.15528585
195	0x3deaea81	0.11470509
196	0xbddfdd22	-0.109308496
197	0x3c95f92d	0.018307293
198	0xbb76f546	-0.0037682815
199	0x3d106482	0.0352521
200	0xbd291761	-0.04128206
201	0xbdffaa90	-0.12483704
202	0x3dbadf17	0.09124582
203	0x3c91c88d	0.017795825
204	0x3dc7fed3	0.09765401
205	0x3e08d354	0.13361865
206	0x37dfd5fd	2.6683318e-05
207	0x3e01945e	0.12654254
208	0x3d89aeaf	0.067227714
209	0xbd90df84	-0.07073882
210	0xbd4c1d3e	-0.049832575
211	0x3d1f4d5c	0.038892135
212	0x3e06a356	0.13148245
213	0xbc8efde5	-0.01745505
214	0xbe37677a	-0.17910567
215	0x3dcef199	0.10104675
216	0x3dcae4e7	0.09906941
217	0x3e8839e4	0.26606667
218	0xbb63d8e8	-0.0034766737
219	0x3da1f7ac	0.07908568
220	0x3e338dff	0.17534636
221	0x3dd2de65	0.10296325
222	0x3d2db8c0	0.04241252
223	0x3dda627f	0.10663318
224	0x3def6ef1	0.11691082
225	0x3de04f6f	0.10952651
226	0x3e013fd9	0.12622012
227	0x3db59d78	0.088679254
228	0x3c836f82	0.016044382
229	0x3e32619b	0.17420046
230	0x3d1c7e17	0.038206186
231	0xbdb69257	-0.08914631
232	0x3dc6aa8d	0.09700499
233	0x3d9a83bd	0.07544658
234	0x3dc1d8b9	0.09465165
235	0x3da34fd3	0.0797421
236	0x3e5dcfba	0.21661273
237	0x3e2d4804	0.16922003
238	0x3d298d10	0.041394293
239	0x3e041872	0.1289995
240	0x3d8429cc	0.064532846
241	0xbd96a0d7	-0.073548965
242	0x3caa96a9	0.020823793
243	0x3e311c35	0.17295916
244	0x3de1190b	0.10991105
245	0x3d7c7c97	0.061642256
246	0xbd033c55	-0.03203996
247	0xbdb29922	-0.08720614
248	0x3e1be16f	0.15222715
249	0x3dbce488	0.092232764
250	0x3d9032c5	0.070409335
251	0xbe0e9bba	-0.13926592
252	0xbe84da5f	-0.25947854
253	0x3d86740d	0.06565104
254	0x3d6f440e	0.05841451
255	0x3e067e0b	0.13134019

fc2.bias f4 [256]
0	0x3ebe6780	0.3718834
1	0x3ea6a001	0.32543948
2	0x3da5603e	0.08074997
3	0x3da9f918	0.08299464
4	0x3ea1a12d	0.3156828
5	0x3eac8fa1	0.3370333
6	0x3c2e64fd	0.010644195
7	0xbcee68a2	-0.029102627
8	0xbc8e69b8	-0.017384395
9	0x3ea9bbfb	0.3315123
10	0x3eb322e2	0.3498755
11	0x3cc781d3	0.024353897
12	0x3ec913f1	0.39273027
13	0x3eb8ca53	0.3609186
14	0xbe79bd1a	-0.24388543
15	0x3ebb8350	0.3662362
16	0x3ea2e70d	0.31816903
17	0x3ebcc58d	0.3686947
18	0xbc9ccf09	-0.01914169
19	0x3ebb9109	0.3663409
20	0x3cb78cc3	0.022405988
21	0x3ebbc91b	0.3667687
22	0x3e9d48c6	0.30719584
23	0xbd164b13	-0.03669269
24	0x3ec214d1	0.37906507
25	0xbd03c35f	-0.032168742
26	0x3e9e0e53	0.30870304
27	0x3ebdf8cd	0.37103882
28	0x3eb2a369	0.34890297
29	0x3ec57f13	0.38573512
30	0xbd28ddc1	-0.041227106
31	0x3ec2ff53	0.38085422
32	0x3eb7e443	0.35916337
33	0x3eabbabd	0.33540908
34	0x3dc96bbf	0.09835004
35	0x3dd1bc95	0.10241047
36	0x3eaccedd	0.33751574
37	0x3cd603f6	0.026124936
38	0x3eb6e1c3	0.35719118
39	0x3ebfc608	0.37455773
40	0x3eb19713	0.34685573
41	0x3d28b02e	0.041183643
42	0x3ebcc639	0.36869982
43	0x3eb73a31	0.35786584
44	0xbd54cca7	-0.051952984
45	0xba06a146	-0.0005135726
46	0xbbbfecc4	-0.005857082
47	0x3ea9333a	0.33046895
48	0x3ebe3e08	0.371567
49	0xbc84370e	-0.016139533
50	0x3ec5aa2a	0.38606387
51	0x3d85806f	0.065186374
52	0xbdee0660	-0.1162231
53	0x3ec12a4e	0.37727588
54	0x3ea2f847	0.31830046
55	0x3eaab848	0.3334372
56	0x3ea4644b	0.32107767
57	0x3d4c1177	0.049821343
58	0x3d106271	0.03525013
59	0x3ec67683	0.38762292
60	0xbcc1f470	-0.023676127
61	0x3d842a63	0.06453397
62	0x3ebc05f8	0.36723304
63	0x3e0cdc04	0.13755804
64	0x3eb261a9	0.34840134
65	0x3c94193c	0.018078439
66	0x3ea4f016	0.3221442
67	0x3eb617ba	0.35564977
68	0x3eb6de85	0.35716644
69	0x3c52d6f6	0.0128686335
70	0xbcf45b54	-0.029828705
71	0x3eb98759	0.36236075
72	0x3ea92bb4	0.33041155
73	0x3ea9060b	0.33012423
74	0x3ec49c0e	0.3840031
75	0x3d9c087d	0.076188065
76	0x3ec76c5f	0.38949868
77	0xbd05aa51	-0.03263313
78	0x3ea3a1f1	0.3195949
79	0xbbd79e0b	-0.0065801195
80	0xbd3b19ea	-0.04567901
81	0x3ebb6bb7	0.36605617
82	0x3d3217de	0.043479793
83	0x3ebe96bf	0.37224385
84	0xbcdc828c	-0.026917718
85	0xbe9ae0b8	-0.30249572
86	0x3c56f69a	0.013120318
87	0x3cc40aef	0.023930995
88	0x3eb77203	0.35829172
89	0x3d078f4f	0.033095654
90	0x3d038faf	0.03211945
91	0xbd435a94	-0.047693804
92	0xbd2fca27	-0.042917397
93	0xbd12df54	-0.035857514
94	0xbc5c328d	-0.013439787
95	0x3d937993	0.07200923
96	0x3ef48fba	0.47765905
97	0x3ea8f1f5	0.329971
98	0x3e9fc841	0.3120747
99	0x3d93f189	0.072238036
100	0x3ec01629	0.37516907
101	0x3d078ab1	0.03309125
102	0x3ea4bba9	0.32174423
103	0x3eb814d3	0.35953388
104	0x3ec7832a	0.38967258
105	0x3e9bfe72	0.30467564
106	0x3bf5947d	0.007494508
107	0xbc6fdd69	-0.014640191
108	0x3eb67ec7	0.35643598
109	0xbdcd701b	-0.10031148
110	0xbd51d212	-0.05122573
111	0x3ea70985	0.3262445
112	0x3ec30584	0.38090146
113	0x3ec61d4d	0.3869423
114	0x3d6efad1	0.058344666
115	0xbc75d583	-0.015004518
116	0x3eb92800	0.3616333
117	0xbd73f0cf	-0.059555825
118	0x3ec3c635	0.38237157
119	0x3ea2071b	0.31646046
120	0x3e9c17dd	0.30486956
121	0x3eb5fff5	0.35546842
122	0x3e9c0c34	0.3047806
123	0x3ea6ce11	0.3257909
124	0xbce8fd5e	-0.028441127
125	0x3d618251	0.05505592
126	0x3b722fd6	0.0036954782
127	0xbd2aa82e	-0.041664295
128	0x3dc503aa	0.096198395
129	0x3eac9b37	0.3371217
130	0x3ea2d114	0.3180014
131	0xbc72f02c	-0.014827769
132	0x3ea7ebd9	0.32797125
133	0xbda2d4cd	-0.07950745
134	0xbe958d7f	-0.29209515
135	0x3b7ea4d5	0.0038855572
136	0x3ec6ec23	0.38852033
137	0x3d1c7712	0.03819949
138	0x3eb22df2	0.34800678
139	0x3cc770ac	0.024345718
140	0x3cf1e517	0.029528184
141	0x3eb3715f	0.35047433
142	0xbd25f85d	-0.04052006
143	0xbe2a2ecb	-0.16619413
144	0x3ea1a4b2	0.31570965
145	0x3ca8451b	0.020540765
146	0x3ea07766	0.31341094
147	0x3aab149b	0.0013052406
148	0x3ebcc6f9	0.36870554
149	0x3ea40f73	0.32043037
150	0x3eadba84	0.33931363
151	0x3e9fb7a2	0.31194788
152	0x3d226206	0.039644264
153	0x3eef470c	0.46733892
154	0x3eabf819	0.3358772
155	0x3eb40d0e	0.3516621
156	0x3ea2de0d	0.31810036
157	0x3e9f6048	0.31128144
158	0x3ea7b156	0.32752484
159	0x3dd96dae	0.10616623
160	0x3c9a6675	0.018847683
161	0xbd1c0d60	-0.038098693
162	0x3df11cad	0.117730476
163	0xbd0f0873	-0.034920167
164	0xbd04fa18	-0.03246507
165	0x3ebe77df	0.3720083
166	0xbd27bd8a	-0.040952243
167	0xbcd592ec	-0.026071034
168	0x3ea7a0e7	0.32739946
169	0x3ec6e1d7	0.38844177
170	0x3ec72188	0.3889277
171	0x3eab92e5	0.3351051
172	0xbdd670d2	-0.104707375
173	0xbd3a3185	-0.04545738
174	0xbc6f86d8	-0.014619552
175	0x3eb6eccc	0.35727537
176	0x3ec40b6d	0.38289967
177	0x3e9ca0b5	0.3059136
178	0x3e9f2ef7	0.3109052
179	0xbc85c93b	-0.016331306
180	0x3eb29d40	0.34885597
181	0xbd3366a8	-0.043799073
182	0x3c9ed509	0.019388692
183	0x3a973a10	0.001153769
184	0x3d0def43	0.034652006
185	0xbd0ed8a5	-0.034874577
186	0x3d00d393	0.031451773
187	0xbe9c6879	-0.30548456
188	0x3eac67d9	0.3367298
189	0xbbd0c1a8	-0.006370742
190	0x3e9c217a	0.3049429
191	0xba599dcd	-0.0008301407
192	0x3ec50c58	0.3848598
193	0x3ca69319	0.020333814
194	0x3eaa43af	0.33254763
195	0x3ea4229f	0.32057664
196	0xbc176362	-0.009240003
197	0x3d4e364a	0.050344743
198	0xbd0120c2	-0.03152538
199	0xbd3da5a4	-0.046300545
200	0x3eafafc6	0.34313792
201	0xbd1c46e2	-0.038153537
202	0x3ea13d19	0.31491926
203	0x3eb59bd6	0.35470456
204	0x3cc55540	0.024088502
205	0x3ea45b82	0.32101065
206	0x3ebf4b27	0.37362024
207	0x3ec6eced	0.38852635
208	0xbe77a27f	-0.24183081
209	0x3bb31e9d	0.005466296
210	0xbc67fede	-0.014159886
211	0x3ea9038f	0.33010527
212	0x3eb2115c	0.3477887
213	0x3eac5c4d	0.3366417
214	0xbd25aa7e	-0.040445797
215	0x3ec3ee85	0.38267913
216	0xbbc1731f	-0.005903616
217	0x3ca73e57	0.020415468
218	0xbc858168	-0.016297057
219	0x3ec515ce	0.38493198
220	0x3eb22c0a	0.34799224
221	0x3eafe0f5	0.34351316
222	0xbcffe69d	-0.031237895
223	0x3bcd21d5	0.0062601366
224	0xbc989849	-0.018627303
225	0xbd02608d	-0.03183036
226	0xbe7cdc84	-0.24693495
227	0x3e9e41e3	0.30909643
228	0xbe3aaaae	-0.18229172
229	0x3eb8ca78	0.3609197
230	0x3ec5ef0c	0.3865894
231	0x3eb7e0c5	0.35913673
232	0x3ead0266	0.33790892
233	0x3eae6b45	0.34066215
234	0xbd29f392	-0.041492052
235	0xbd07991d	-0.033105005
236	0x3ea70415	0.32620302
237	0x3ebe07d3	0.37115344
238	0x3bfc57c0	0.0077008903
239	0x3b69bf8e	0.0035667154
240	0x3a94712c	0.0011325232
241	0x3eb83081	0.35974506
242	0x3eb999f6	0.36250275
243	0xbde8bbcf	-0.11363947
244	0x3ec860a3	0.39136228
245	0x3ec5bf6c	0.38622606
246	0xbb9f69fd	-0.0048649297
247	0x3d0e02a1	0.034670476
248	0x3eb8dbb5	0.36105123
249	0x3e9edbc7	0.31027052
250	0xb9715b95	-0.00023017668
251	0x3eb9a0a5	0.36255375
252	0x3eb539f5	0.3539578
253	0x3cdf71e0	0.02727598
254	0xbd3bc6c5	-0.04584386
255	0xbcc19392	-0.023629937

fc3.weight f4 [1, 256]
0	0xbe356eff	-0.17718123
1	0xbe50271c	-0.20327419
2	0x3f3d34b2	0.7390853
3	0x3f677a39	0.9042087
4	0xbe3d5806	-0.1849061
5	0xbe3b404d	-0.18286248
6	0x3c75965e	0.014989464
7	0x3d16575c	0.036704406
8	0x3d2c2ee7	0.042036917
9	0xbe229cb7	-0.15880094
10	0xbe12562e	-0.14290687
11	0x3d690fbf	0.056899782
12	0xbe331964	-0.17490155
13	0xbe473617	-0.19454227
14	0x3f53b55b	0.826986
15	0xbe534fdf	-0.20635937
16	0xbe3769bd	-0.1791143
17	0xbe3e1e65	-0.18566282
18	0x3cc21af7	0.023694498
19	0xbe1b3f39	-0.15160836
20	0x3c507ca3	0.012725028
21	0xbe25bceb	-0.16185348
22	0xbe50ae4f	-0.20378993
23	0x3ca5e4b7	0.020250661
24	0xbe3b24a1	-0.18275692
25	0x3b4ab3be	0.0030929889
26	0xbe28da80	-0.16489601
27	0xbe2993b8	-0.16560256
28	0xbe2ebc79	-0.17064084
29	0xbe0efbfc	-0.13963312
30	0x3d657db0	0.056028068
31	0xbe20b098	-0.15692365
32	0xbe296751	-0.16543318
33	0xbe103140	-0.14081287
34	0x3f1fa84f	0.62366194
35	0x3f328480	0.6973343
36	0xbe4498ca	-0.1919891
37	0x3c5d2f33	0.013500023
38	0xbe370f7c	-0.17877
39	0xbe1a87e3	-0.15090899
40	0xbe1c359b	-0.15254824
41	0x3f7c0dc4	0.98458505
42	0xbe425bd2	-0.18980339
43	0xbe3a7d57	-0.18211876
44	0x3f7bd384	0.9836962
45	0x3aca08d4	0.0015414008
46	0x3f97b263	1.1851314
47	0xbe27dd86	-0.16393098
48	0xbe283351	-0.16425826
49	0x3d26d38d	0.040729094
50	0xbe2b238e	-0.16712782
51	0x3f47427a	0.7783581
52	0x3f3d8bee	0.7404164
53	0xbe2fef73	-0.17181186
54	0xbe260129	-0.1621138
55	0xbe20ea0b	-0.1571428
56	0xbe20d963	-0.15707926
57	0x3f503663	0.8133299
58	0x3c9c5c88	0.019087091
59	0xbe496476	-0.19667229
60	0xb98561f1	-0.0002544071
61	0x3f517678	0.81821394
62	0xbe40d51a	-0.18831292
63	0x3f51a000	0.81884766
64	0xbe470edf	-0.19439267
65	0x3d592811	0.053016726
66	0xbe1a8f2a	-0.15093675
67	0xbe349401	-0.17634584
68	0xbe4b6b88	-0.19865239
69	0x3d510ccb	0.05103759
70	0x3c341273	0.010990727
71	0xbe1641c4	-0.14673525
72	0xbe251216	-0.1612018
73	0xbe32ed7d	-0.17473407
74	0xbe36812b	-0.17822711
75	0x3f6594e0	0.8968029
76	0xbe2a0e5d	-0.16607042
77	0x3d540eef	0.051772054
78	0xbe2f7ae2	-0.1713672
79	0x3bac4e27	0.00525834
80	0x3d3984fa	0.045292832
81	0xbe2052c8	-0.15656579
82	0x3f5e2580	0.8677597
83	0xbe1634a2	-0.14668515
84	0x3f299da5	0.6625617
85	0x3f5e4c84	0.86835504
86	0x3f598c45	0.8497966
87	0x3c1acc15	0.009448071
88	0xbe3a1e44	-0.18175608
89	0x3d199877	0.037498917
90	0x3cbf6596	0.02336387
91	0x3d446642	0.047949083
92	0x3d1f59d2	0.03890402
93	0xbb30f1c5	-0.0026999575
94	0x3cb2beda	0.02181952
95	0x3f12a81d	0.5728777
96	0xbf4558fc	-0.77088904
97	0xbe55003f	-0.20800875
98	0xbe101c20	-0.14073229
99	0x3f94813a	1.1601937
100	0xbe427335	-0.1898926
101	0x3d0b76f0	0.034048975
102	0xbe48aaad	-0.19596358
103	0xbe3f0916	-0.1865581
104	0xbe40b040	-0.18817234
105	0xbe41d19a	-0.18927613
106	0x3f243133	0.6413757
107	0x3d1827c1	0.037147287
108	0xbe13ff76	-0.1445292
109	0x3f2642fd	0.64945966
110	0x3d2d33f9	0.042285893
111	0xbe4a09c3	-0.19730286
112	0xbe1d7868	-0.15377963
113	0xbe0a153a	-0.1348466
114	0x3f8c3cfd	1.0956112
115	0x3d651b4d	0.05593424
116	0xbe270e74	-0.16314107
117	0x3fc96e87	1.5736855
118	0xbe272c33	-0.16325454
119	0xbe27aa7f	-0.16373633
120	0xbe291356	-0.16511282
121	0xbe2e7259	-0.17035808
122	0xbe103aba	-0.14084902
123	0xbe48992c	-0.1958968
124	0x3f9369be	1.1516645
125	0x3f5bbcb3	0.8583481
126	0x3c972a96	0.018452924
127	0xbba4a2be	-0.005024283
128	0x3f7d49b6	0.989406
129	0xbe2a1389	-0.16609015
130	0xbe321937	-0.17392431
131	0x3fb45687	1.4088906
132	0xbe180dd2	-0.14849022
133	0x3f607db3	0.876918
134	0x3f733375	0.9500039
135	0x3d1566fe	0.036475174
136	0xbe38eafb	-0.18058388
137	0x3c334c8a	0.010943541
138	0xbe148b8c	-0.14506358
139	0x3c38418f	0.011246099
140	0x3f7b3e19	0.9814163
141	0xbe44e733	-0.1922882
142	0x3cb1178e	0.021617677
143	0x3f1dff5f	0.6171779
144	0xbe210ab2	-0.15726736
145	0x3cc7eb4c	0.02440419
146	0xbe491155	-0.19635518
147	0x3d40bc75	0.047054727
148	0xbe1eac93	-0.1549552
149	0xbe2ef3fc	-0.1708526
150	0xbe5229a5	-0.20523699
151	0xbe32fcfa	-0.17479315
152	0x3f73de47	0.95261043
153	0xbf401ca5	-0.7504371
154	0xbe3636fd	-0.17794414
155	0xbe36b523	-0.17842536
156	0xbe150d47	-0.14555846
157	0xbe3d9b0b	-0.18516175
158	0xbe0e1b6a	-0.13877645
159	0x3f93e3a0	1.1553841
160	0x3d53cf32	0.05171127
161	0x3d0806ce	0.033209614
162	0x3f40687f	0.7515945
163	0x3b344175	0.0027504836
164	0x3d296998	0.041360468
165	0xbe3dbacc	-0.18528289
166	0x3c0b1f73	0.008491385
167	0x3bbe4c6d	0.0058074505
168	0xbe4724c5	-0.1944762
169	0xbe2b0744	-0.1670199
170	0xbe4ebb7d	-0.20188709
171	0xbe3207c9	-0.17385782
172	0x3f16e1f0	0.58938503
173	0x3c03c80c	0.0080433
174	0x3d6b598a	0.057458438
175	0xbe35a9d7	-0.1774057
176	0xbe3ddd23	-0.18541388
177	0xbe23dd9e	-0.16002509
178	0xbe1839f8	-0.14865863
179	0x3c82a35f	0.015947042
180	0xbe11b12d	-0.14227743
181	0x3c8a6fd4	0.016899027
182	0x3d07c39b	0.03314553
183	0x388ef4b7	6.816669e-05
184	0x3d026c26	0.03184142
185	0x3b9652b6	0.0045874966
186	0x3d61eb17	0.05515584
187	0x3f809e49	1.0048305
188	0xbe42f51a	-0.19038811
189	0x3d462bba	0.048381545
190	0xbe4bbe0c	-0.19896716
191	0x3d5eecf2	0.054425187
192	0xbe237f92	-0.15966633
193	0x3d1cae3b	0.038252097
194	0xbe3035d5	-0.17208035
195	0xbe23abe3	-0.15983538
196	0x3d272e4a	0.04081563
197	0x3f816af4	1.0110765
198	0x3ce5fd3e	0.028074857
199	0x3c849ea9	0.016188936
200	0xbe44d7ad	-0.19222899
201	0x3abf0af7	0.0014575411
202	0xbe4bb823	-0.19894461
203	0xbe3e3a9b	-0.18577044
204	0x3f4eb812	0.8074962
205	0xbe2b2f38	-0.16717231
206	0xbe5aedee	-0.21379825
207	0xbe13ee0a	-0.14446273
208	0x3f64a8dc	0.8932016
209	0x3d0f5cb8	0.035000533
210	0x39f3a7f3	0.00046473704
211	0xbe3a0432	-0.18165663
212	0xbe3b0df6	-0.18267044
213	0xbe278003	-0.16357426
214	0x3f3531e4	0.7077925
215	0xbe4d0735	-0.2002228
216	0x3cf73228	0.030175284
217	0x3c3d8239	0.011566692
218	0x3ce700a3	0.028198546
219	0xbe47e7d9	-0.19522037
220	0xbe44b274	-0.192087
221	0xbe20cd2e	-0.1570327
222	0x3fbf2e6b	1.4936041
223	0x3d41c0be	0.047302954
224	0x3c3e2f8d	0.011608017
225	0x3d2f01be	0.04272627
226	0x3f58549b	0.845041
227	0xbe397762	-0.18111947
228	0x3f358426	0.7090477
229	0xbe284a5c	-0.16434616
230	0xbe1d0d67	-0.15337144
231	0xbe277832	-0.16354445
232	0xbe3c11d9	-0.18366183
233	0xbe49afbb	-0.19695942
234	0x3c9bc6da	0.019015718
235	0x3fad1229	1.3521167
236	0xbe22b634	-0.15889817
237	0xbe22c02d	-0.15893622
238	0x3c5a4830	0.013322875
239	0x3cc62f7f	0.02419257
240	0x3ce1c950	0.027561814
241	0xbe1c4d59	-0.15263881
242	0xbe481b83	-0.19541745
243	0x3f74f1f8	0.95681715
244	0xbe3e51f3	-0.18585949
245	0xbe116648	-0.14199173
246	0x3bff839c	0.0077976715
247	0x3d222f0f	0.03959566
248	0xbe113740	-0.14181232
249	0xbe4d4869	-0.20047154
250	0xbb20dc1b	-0.0024545256
251	0xbe2f9d08	-0.17149746
252	0xbe44d8ca	-0.19223323
253	0x3d01a083	0.031647217
254	0xbbe0144b	-0.0068383566
255	0x3fb21400	1.3912354

norm.weight f4 [26]
0	0x3f901632	1.1256773
1	0x3f8a3053	1.0795997
2	0x3f818efd	1.0121762
3	0x3f7fc013	0.99902457
4	0x3f521c50	0.8207445
5	0x3f4e0f27	0.8049187
6	0x3f5a7817	0.8533949
7	0x3f6da825	0.92834693
8	0x3f6f4611	0.9346629
9	0x3f71e3ec	0.94488406
10	0x3f4e4f8e	0.8059014
11	0x3f573823	0.8407003
12	0x3f5c1c4d	0.85980684
13	0x3f714d61	0.94258696
14	0x3f602eee	0.8757161
15	0x3f6722dd	0.9028757
16	0x3f6cf4b4	0.9256089
17	0x3f70321c	0.9382646
18	0x3f4c3ab2	0.7977706
19	0x3f514143	0.81740206
20	0x3f6c42f5	0.9228967
21	0x3f848cbc	1.0355449
22	0x3f94f0d5	1.1635996
23	0x3f88e20e	1.0693986
24	0x3ff0d278	1.881423
25	0x3fadd8dd	1.3581806

norm.bias f4 [26]
0	0x3f0551f4	0.52078176
1	0x3f0026bf	0.5005912
2	0x3ee861bb	0.45387062
3	0x3ee6b2ae	0.45058197
4	0x3edd50d8	0.4322574
5	0x3f2a73cf	0.6658296
6	0x3eece138	0.46265578
7	0x3dcc71aa	0.09982617
8	0x3ee2814e	0.44239277
9	0x3e9c7614	0.30558836
10	0x3ebf83d9	0.3740528
11	0x3e8efda8	0.279279
12	0x3ea608dd	0.32428637
13	0x3eaba33b	0.33522972
14	0x3eaac54d	0.33353654
15	0x3e54fec5	0.20800312
16	0x3e9e2d56	0.30893964
17	0x3ea69663	0.3253661
18	0x3edbaea9	0.42906693
19	0x3f260b2d	0.648608
20	0x3f0675fd	0.52523786
21	0x3ed8b2c2	0.4232388
22	0x3efc40eb	0.49268278
23	0x3e4be1e6	0.19910392
24	0x3d871754	0.06596246
25	0x3e2d808d	0.1694357

norm.running_mean f4 [26]
0	0x3fc6e9b9	1.5540076
1	0x3fc74243	1.5567096
2	0x3fce315e	1.6108816
3	0x3fd9e72e	1.7023675
4	0x3fe3e82b	1.7805227
5	0x3ff00647	1.8751916
6	0x3ffc8c51	1.9730321
7	0x40035518	2.0520687
8	0x40090fc3	2.141587
9	0x400ccba6	2.1999297
10	0x400deb17	2.2174737
11	0x400da609	2.213259
12	0x400ddb1f	2.216499
13	0x400d121e	2.2042308
14	0x400be9e0	2.1861496
15	0x40078949	2.1177542
16	0x40038be2	2.0554128
17	0x3ffdf131	1.9839231
18	0x3ff54d31	1.9164182
19	0x3fe82a1b	1.813785
20	0x3fdaa252	1.7080786
21	0x3fcf5822	1.6198771
22	0x3fc9b5b9	1.5758582
23	0x3fc6fbcf	1.5545596
24	0x3de22cef	0.11043727
25	0x3f94c058	1.1621199

norm.running_var f4 [26]
0	0x3ea90c58	0.3301723
1	0x3ea70ecb	0.32628474
2	0x3ecc6009	0.3991702
3	0x3f081647	0.5315899
4	0x3f1c4aac	0.6105144
5	0x3f330a24	0.6993735
6	0x3f422ef0	0.7585287
7	0x3f3da37d	0.7407759
8	0x3f302cef	0.68818563
9	0x3f167c5d	0.58783513
10	0x3eeb75f9	0.45988443
11	0x3ec4d0b8	0.3844049
12	0x3ecc94c0	0.39957237
13	0x3edd64c9	0.43240955
14	0x3f04e442	0.51910794
15	0x3f22c22c	0.6357753
16	0x3f386466	0.72028196
17	0x3f3e6118	0.74366903
18	0x3f40ef48	0.75365114
19	0x3f32a23e	0.6977881
20	0x3f14ad7b	0.5807721
21	0x3ee6c047	0.4506857
22	0x3ebdffa1	0.37109092
23	0x3eaa02e5	0.33205333
24	0x401afb74	2.4215975
25	0x3ebd2439	0.36941698

norm_a.weight f4 [2]
0	0x400d1c29	2.2048438
1	0x3f971ed3	1.1806282

norm_a.bias f4 [2]
0	0xbdd3584d	-0.103195764
1	0xbdbdba06	-0.09263997

norm_a.running_mean f4 [2]
0	0xbc3fbd9b	-0.01170292
1	0xbdc6c950	-0.09706366

norm_a.running_var f4 [2]
0	0x3e1fe8b7	0.15616117
1	0x3e14e044	0.14538676
