turtlebot3_ddpg/save_model_ddpg/2020_12_03-01_44_19/stage_3_150_actor.pth (torch_old, 588798 bytes, 10 tensors)

fc1.weight f4 [512, 28]
0	0xbd9fad6c	-0.077967495
1	0x3cf81e46	0.030287873
2	0xbda63984	-0.08116439
3	0xbd8f04e4	-0.06983355
4	0xbc629540	-0.013829529
5	0x3d9638a2	0.073350206
6	0x3ceabc82	0.02865434
7	0x3b99bf02	0.0046919594
8	0x3d29f127	0.041489746
9	0x3d6b19e2	0.05739773
10	0xbc97c97c	-0.018528692
11	0xbd44e9b1	-0.048074428
12	0xbd7c1fee	-0.061553888
13	0xbde5f12f	-0.11227643
14	0x3d9c7fb9	0.07641549
15	0xbe0631cd	-0.13104935
16	0x3de261b6	0.11053793
17	0xbe3d4b1a	-0.1848568
18	0xbd0de89d	-0.034645665
19	0xbe38faf9	-0.18064488
20	0xbe2914c8	-0.16511834
21	0x3dabb228	0.0838359
22	0xbe1e0622	-0.15432027
23	0xbe24b8d3	-0.1608613
24	0x3c25468c	0.0100876205
25	0xbd3332b4	-0.043749526
26	0xbc67ff38	-0.01415997
27	0xbca5785d	-0.020198995
28	0xbde67a1d	-0.1125376
29	0x3d29ec36	0.041485034
30	0x3dd759ae	0.10515152
31	0xbde561db	-0.11200305
32	0x3d97c1da	0.07410021
33	0x3e626946	0.22110471
34	0x3e0e5d4e	0.1390278
35	0x3e311340	0.172925
36	0xbcb7cc84	-0.022436388
37	0x3d708b58	0.05872664
38	0xbdaebb2a	-0.085317925
39	0x3dcaa16e	0.098940715
40	0xbcd7ee5a	-0.026358772
41	0xbe1d5317	-0.15363728
42	0xbc0f6f72	-0.008754598
43	0x3e2e92a2	0.17048123
44	0x3e1e9a82	0.15488628
45	0x3d2b3e12	0.04180724
46	0x3e2ad62e	0.16683266
47	0xbe3b907f	-0.1831684
48	0x3cef1975	0.029186944
49	0xbd562bc5	-0.052287836
50	0x3e2e71c5	0.17035587
51	0x3d58fdaa	0.052976288
52	0x3e3ac440	0.18238926
53	0x3da3f0e6	0.08004932
54	0xbde1466a	-0.109997585
55	0xbdbd0fdc	-0.092315406
56	0xbe334d60	-0.17509985
57	0x3d7f99df	0.062402602
58	0x3dad1d62	0.0845287
59	0x3df2006f	0.11816489
60	0xbb40d287	-0.002942236
61	0xbd555d09	-0.05209068
62	0x396dfa4a	0.00022695321
63	0xbe62bb42	-0.22141746
64	0x3c46414e	0.012100531
65	0x3d856646	0.06513648
66	0xbe06a4b0	-0.13148761
67	0xbc131fb5	-0.0089797275
68	0x3d8ebc11	0.069694646
69	0x3b217a10	0.0024639405
70	0xbe02c79b	-0.12771456
71	0x3c777656	0.015103897
72	0x3dcd7a93	0.10033145
73	0xbc4bb005	-0.012432103
74	0x3e0abb9d	0.13548131
75	0x3dc2601d	0.094909884
76	0xbe1e96fa	-0.1548728
77	0x3cb0a4f0	0.021563023
78	0xbd9ec883	-0.07753088
79	0x3d8469c1	0.064654835
80	0x3e040a1b	0.1289448
81	0xbdede1f0	-0.1161536
82	0x3da21e2b	0.0791591
83	0x3e1ac281	0.1511326
84	0xbe24336f	-0.16035245
85	0xbd525571	-0.051351015
86	0xbcfec227	-0.031098438
87	0x3e32b0e0	0.17450285
88	0x3db2a3f5	0.087226786
89	0xbd16b4c5	-0.03679349
90	0xbdbbe724	-0.09174946
91	0xbe01e251	-0.12683989
92	0xbe41bde8	-0.189201
93	0xbd844ead	-0.06460319
94	0x3dd65404	0.104652435
95	0xbe2d5cda	-0.16929951
96	0x3d41b716	0.047293745
97	0x3e1302f1	0.14356591
98	0xbde8ea5a	-0.11372824
99	0x3e3fd01c	0.18731731
100	0xbe2e0596	-0.16994318
101	0x3e22995a	0.15878811
102	0xbcac66a1	-0.021045031
103	0x3db89c08	0.090141356
104	0xbd0e6767	-0.03476658
105	0x3dc2e8a8	0.09517032
106	0x3d58f892	0.05297143
107	0xbc8ae2bf	-0.016953824
108	0xbe82610f	-0.25464675
109	0x3d8123e8	0.06305677
110	0x3e7c1b8a	0.2461988
111	0xbcd0d385	-0.025491485
112	0x3e03d39b	0.1287369
113	0x3db4d7d4	0.088302284
114	0xbe08fae6	-0.1337696
115	0x3d404e62	0.04694975
116	0x3df6233f	0.120184414
117	0x3e271f1e	0.16320464
118	0xbdb46cf9	-0.088098474
119	0x3b93f6ea	0.0045155184
120	0x3c99119f	0.01868516
121	0xbd5c2ac7	-0.053751733
122	0x3e07d7d8	0.13265932
123	0xbe2bed83	-0.16789822
124	0xbe6a63b1	-0.22889592
125	0xbd648786	-0.055793308
126	0x3e390ea8	0.18071997
127	0xbd831117	-0.06399744
128	0xbe0b6fd3	-0.13616876
129	0xbc55624d	-0.013023925
130	0x3c2f3813	0.0106945215
131	0xbe013759	-0.1261877
132	0xbd8a7203	-0.06760027
133	0xbd3c4ecf	-0.045973595
134	0xbcf7406f	-0.030182092
135	0xbd955350	-0.07291281
136	0x3e5c7de1	0.21532394
137	0xbdf21f3d	-0.118223645
138	0x3d2d1445	0.04225566
139	0x3db9fcb1	0.090814
140	0x3e10dc92	0.14146641
141	0xbe402a24	-0.18766075
142	0x3dc96589	0.098338194
143	0x3d8e8257	0.06958454
144	0x3e24e01d	0.16101117
145	0x3e52e716	0.20595965
146	0x3e2b908b	0.16754358
147	0xbc63d5d3	-0.01390596
148	0xbc91e291	-0.01780823
149	0xbd799fba	-0.060943343
150	0x3d1bd7f8	0.03804776
151	0x3dfbbfe9	0.12292463
152	0xbce41271	-0.027840825
153	0xbd886d95	-0.06661526
154	0x3df31f9b	0.11871263
155	0x3dcad248	0.09903389
156	0xbcb1b7c9	-0.02169408
157	0x3e160d31	0.1465347
158	0x3e0cc834	0.13748246
159	0xbe23d4db	-0.15999167
160	0xbe256ac0	-0.16154003
161	0xbe0a5e87	-0.13512622
162	0xbd4f73c8	-0.050647527
163	0xbe5fa446	-0.21840009
164	0x3e5ecd63	0.21758036
165	0x3d812e45	0.06307653
166	0xbe628089	-0.22119345
167	0x3d030e3f	0.031996008
168	0x3ddf0088	0.10888773
169	0xbd8acb8b	-0.06777104
170	0x3bc3920a	0.005968337
171	0x3e29616d	0.16541071
172	0xbe26cdfe	-0.16289517
173	0x3c07a242	0.008278431
174	0x3d5500ad	0.052002598
175	0xbdd4e285	-0.10394768
176	0x3d82ff27	0.06396323
177	0xbd5d58c0	-0.054039717
178	0x3de9bc1d	0.11412833
179	0xbb9cb9d8	-0.0047828965
180	0xbd3bec09	-0.045879398
181	0x3e35663e	0.17714784
182	0x3e56dd97	0.20982967
183	0xbd521fce	-0.051299863
184	0xbe026191	-0.12732531
185	0x3da2054e	0.07911168
186	0x3c03182a	0.008001367
187	0xbdb66d28	-0.08907539
188	0x3e2abf2c	0.16674489
189	0xbb5d25aa	-0.0033744373
190	0x3c96bb19	0.018399762
191	0x3e0418f2	0.12900141
192	0xbdc9a364	-0.098456174
193	0xbda0574f	-0.07829153
194	0x3df1b649	0.11802346
195	0x3dbc39b2	0.09190692
196	0x3e0a32f0	0.13495994
197	0x3e03babb	0.12864201
198	0x3c33d565	0.01097617
199	0xbdb57cd6	-0.08861701
200	0xbe0ce68a	-0.13759819
201	0x3c389d57	0.0112679815
202	0x3e3c946f	0.18415998
203	0xbdb6052d	-0.08887706
204	0x3d68f5f6	0.05687519
205	0xbdb9b2cd	-0.09067307
206	0x3e14f073	0.14544849
207	0x3d8c07ce	0.06837426
208	0x3ceb4add	0.028722221
209	0xbd6aee5c	-0.057356223
210	0xbd82203a	-0.06353803
211	0xbd821b80	-0.063529015
212	0xbd82e4ad	-0.06391273
213	0x3d1335b7	0.0359399
214	0xbdd09884	-0.1018534
215	0x3de65772	0.112471476
216	0xbd1f6bd9	-0.03892121
217	0x3d99f182	0.07516767
218	0x3df8f9a6	0.12156992
219	0xbc0fb3ec	-0.008770924
220	0x3d6da2a2	0.058016427
221	0xbd9a5ea1	-0.0753758
222	0x3d03066e	0.031988554
223	0xbd4d1584	-0.050069347
224	0x3e192b8b	0.14958017
225	0x3d1ec9f1	0.038766805
226	0xbe0552f7	-0.1301993
227	0xbd877ed0	-0.066159844
228	0x3ded4fa5	0.115874566
229	0xbd7413cd	-0.059589196
230	0xbdc763a6	-0.09735803
231	0x3d40f7d9	0.047111366
232	0x3dda858f	0.106700055
233	0x3cbf43f1	0.023347827
234	0x3df3aeb6	0.11898558
235	0xbdb1f781	-0.08689786
236	0xbdd9ba4a	-0.10631235
237	0x3cd982bf	0.026551602
238	0xbe1d3a93	-0.15354376
239	0xbdaec1d4	-0.085330635
240	0xbc74daa4	-0.014944706
241	0xbd825423	-0.06363704
242	0x3d84bbe9	0.064811535
243	0xbe356bf4	-0.17716962
244	0xbe334869	-0.17508091
245	0xbe679429	-0.22615112
246	0x3d9022a0	0.07037854
247	0x3dff2006	0.1245728
248	0x3d78b994	0.060723856
249	0xbe299183	-0.16559415
250	0xbe8151f8	-0.2525785
251	0xbd19455a	-0.037419654
252	0xbdd572bc	-0.104222745
253	0xbcaa45e6	-0.020785283
254	0xbdb69cce	-0.08916627
255	0x3e489445	0.1958781

fc1.bias f4 [512]
0	0xbd1dd07b	-0.0385289
1	0x3e2ee494	0.17079383
2	0xbe045210	-0.1292193
3	0xbe1adf66	-0.15124282
4	0xbd0dba4a	-0.034601487
5	0xbdeee9c0	-0.11665678
6	0xbdc6050e	-0.09668933
7	0x3daf3f1a	0.085569575
8	0xbcb95e00	-0.02262783
9	0xbdf9ae27	-0.1219142
10	0xbaf74f73	-0.0018868282
11	0xbd9ccd49	-0.076563425
12	0x3d5bc529	0.053654823
13	0xbe2b2008	-0.16711438
14	0x3e7be378	0.24598491
15	0x3cf5524c	0.029946469
16	0x3cefc8a5	0.02927048
17	0x3beb6641	0.0071838205
18	0xbdfd732b	-0.12375482
19	0x3de0349e	0.10947536
20	0x3e56422e	0.20923683
21	0x3e51bd6a	0.20482412
22	0xbe0d3ce5	-0.1379276
23	0xbe12bf93	-0.14330892
24	0x3e357698	0.17721021
25	0x3e5bc08c	0.2146017
26	0x3dc04c57	0.09389561
27	0xbdf27ecb	-0.1184059
28	0x3c1f9b98	0.009741686
29	0x3e4591c2	0.19293883
30	0x3dc7fe70	0.09765327
31	0x3e4cce7b	0.20000641
32	0x3c67e106	0.014152771
33	0x3de7829e	0.1130421
34	0xbe490fdf	-0.1963496
35	0xbe172ec6	-0.14763936
36	0xbce1dbe3	-0.02757067
37	0x3df5087c	0.11964509
38	0xbd8b9764	-0.06815985
39	0x3cd73ba0	0.026273549
40	0x3e16c82d	0.14724799
41	0x3e04e68d	0.12978573
42	0xbda7d710	-0.08195317
43	0xbe6244ce	-0.2209656
44	0x3c3a48b9	0.0113698775
45	0xbd2e04e2	-0.042485125
46	0xbde1acb3	-0.11019268
47	0xbdb3a972	-0.087725535
48	0x3e14744c	0.14497489
49	0xbda5ed48	-0.081018984
50	0x3d0eb019	0.03483591
51	0xbe0cae23	-0.13738303
52	0x3e03528d	0.1282446
53	0xbdccc9a8	-0.099994004
54	0xbbb8b1ea	-0.0056364434
55	0xbe173ed6	-0.14770064
56	0x3e022522	0.12709478
57	0xbe24aec8	-0.16082299
58	0xbe2cd43c	-0.16877836
59	0xbe422468	-0.189592
60	0xbcdb8415	-0.02679638
61	0x3dff5818	0.124679744
62	0x3e1bf046	0.15228376
63	0x3d166515	0.036717493
64	0xbdbb2b79	-0.09139151
65	0xbd731801	-0.059349064
66	0xbe55ab21	-0.20866062
67	0xbd0f8421	-0.035038117
68	0x3dec392d	0.11534343
69	0x3dfac747	0.122450404
70	0xbd0f60ab	-0.0350043
71	0x3e115f47	0.14196502
72	0x3dcbdb1c	0.09953901
73	0xbd957774	-0.072981745
74	0xbe1d0f79	-0.15337934
75	0x3e3932bd	0.18085761
76	0xbbe41f31	-0.006961726
77	0xbd2265dd	-0.039647926
78	0xbd0343ff	-0.032047268
79	0x3dfc9e79	0.12334914
80	0xbdb91d7f	-0.09038829
81	0xbd646b42	-0.05576635
82	0xbd6e0b90	-0.058116496
83	0x3e5a734e	0.21333048
84	0xbdbb115d	-0.09134171
85	0x3cfb6951	0.030689867
86	0x3c9e2c25	0.01930816
87	0x3c9a4a1f	0.018834172
88	0x3bb93504	0.005652072
89	0xbd79984f	-0.06093627
90	0xbd8afd91	-0.06786645
91	0x3e47a48d	0.19496365
92	0x3e2645b5	0.16237529
93	0xbca9049d	-0.020632083
94	0x3d478f0b	0.0487204
95	0xbe31d964	-0.17368084
96	0xbbdc939c	-0.0067314636
97	0x3da68a60	0.08131862
98	0xbe1a1755	-0.15047963
99	0xbe28fb72	-0.16502169
100	0x3d9851df	0.07437491
101	0x3de203c4	0.110358745
102	0x3cb73cea	0.022367913
103	0x3d941784	0.07231048
104	0xbcbac304	-0.022798069
105	0x3e2a2719	0.16616477
106	0x3dadad2b	0.08480295
107	0xbd2cdc46	-0.042202257
108	0x3dfce0ec	0.12347588
109	0xbdcdf6c2	-0.10056831
110	0xbe31abe5	-0.17350729
111	0xbe0001e9	-0.12500729
112	0x3e16ebdc	0.1473841
113	0x3d4b9c92	0.049709864
114	0x3de56641	0.11201144
115	0x3d2a464b	0.041570943
116	0x3e45312d	0.1925704
117	0xbc776707	-0.015100247
118	0x3cc725fa	0.0243101
119	0x3e0a8ffd	0.1353149
120	0xbe4d5420	-0.20051622
121	0x3dc3f45b	0.095680915
122	0x3de52b2a	0.111898735
123	0x3d8dedcd	0.069301225
124	0x3e30864a	0.17238727
125	0x3dff9280	0.124791145
126	0xbe2e716b	-0.17035453
127	0x3e6a1734	0.22860414
128	0x3cfc2a91	0.030782016
129	0xbb0dcdba	-0.0021637515
130	0xbe25346c	-0.16133279
131	0x3d89b5b0	0.06724107
132	0x3dd3ec34	0.103477865
133	0x3e095340	0.13410664
134	0x3d375fd3	0.04476912
135	0xbe19dd60	-0.15025854
136	0x3e25c311	0.16187693
137	0xbdf6d05c	-0.1205146
138	0xbcfbc908	-0.030735508
139	0x3dee3a09	0.11632163
140	0x3dc7234e	0.09723531
141	0xbe323d6b	-0.17406242
142	0x3d589d9a	0.052884676
143	0xbe52c7eb	-0.20584075
144	0xbe23db9f	-0.16001748
145	0x3dc9d207	0.09854513
146	0x3c5257ec	0.012838345
147	0xbe663d2d	-0.22484274
148	0x3d296643	0.04135729
149	0xbe3a22f5	-0.18177398
150	0xbda55a58	-0.08073872
151	0x3e160437	0.14650045
152	0x3d993221	0.074802645
153	0x3d962feb	0.073333584
154	0xbd87694f	-0.06611883
155	0xbcfb18b1	-0.030651422
156	0x3d9e4d83	0.07729628
157	0x3c20a785	0.009805565
158	0xbd27613d	-0.040864218
159	0x3e132cff	0.14372633
160	0xbe143078	-0.14471614
161	0xbc49a288	-0.012306817
162	0xbe227a31	-0.15866925
163	0xbe23fbc4	-0.1601401
164	0x3e06ed75	0.1317652
165	0xbe03eab3	-0.128825
166	0x3d78cb74	0.060740903
167	0x3dedad9b	0.11605378
168	0x3de919e9	0.11381895
169	0x3e01309c	0.126162
170	0xbdd0b95c	-0.101916045
171	0x3e216ccd	0.1576416
172	0xbdea5b13	-0.11443152
173	0xbe4514fc	-0.19246286
174	0x3dd3faf5	0.10350601
175	0x3e1259fb	0.14292137
176	0x3e085f25	0.13317545
177	0xbd79acc5	-0.06095578
178	0xbe2602c1	-0.16211988
179	0x3e768b70	0.24076629
180	0xbdb80bb8	-0.0898661
181	0xbde3ad48	-0.11117035
182	0xbdb4829f	-0.088139765
183	0x3e746f43	0.23870568
184	0xbe173913	-0.14767866
185	0x3e17ef42	0.14837363
186	0x3e3872ca	0.18012539
187	0x3e89b735	0.26897588
188	0xbe34b628	-0.17647612
189	0x3d31eeb4	0.043440536
190	0xbd4a2614	-0.04935272
191	0xbe20a6f1	-0.15688683
192	0xbe065548	-0.1311847
193	0xbe0e52d9	-0.13898791
194	0x3db7eace	0.08980332
195	0xbd3522fa	-0.04422281
196	0x3dca12cb	0.09866866
197	0xbb9d17e8	-0.0047941096
198	0xbdf061ea	-0.117374256
199	0x3cfbaa80	0.03072095
200	0xbd2749e0	-0.040841937
201	0xbda5885f	-0.08082651
202	0x3c337293	0.01095261
203	0xbbc671ff	-0.00605607
204	0xbc9461e2	-0.01811308
205	0xbdd54250	-0.10413039
206	0xbdb91d05	-0.09038738
207	0xbe279ba6	-0.16367969
208	0xbcecf4b8	-0.028925285
209	0x3d308eea	0.043105043
210	0xbe51ef69	-0.20501484
211	0x3e02444b	0.12721364
212	0x3e585d40	0.21129322
213	0xbe1cd98a	-0.1531736
214	0xbe49832c	-0.19678944
215	0xbe7f9640	-0.2495966
216	0x3e684019	0.22680701
217	0xbbb3116a	-0.0054647224
218	0xbe0d85a7	-0.13820516
219	0xbcba92c9	-0.02277507
220	0x3dc4d5df	0.09611105
221	0x3d2331d6	0.03984245
222	0x3dfa5996	0.122241184
223	0xbdd84b85	-0.10561279
224	0xbe26a6d7	-0.16274582
225	0xbe2a0b09	-0.16605772
226	0xbdbda074	-0.0925912
227	0xbd318a88	-0.043345004
228	0xbdd5f57b	-0.10447212
229	0xbda9fd92	-0.08300318
230	0xbc9d6e5f	-0.019217668
231	0xbc9b7bc5	-0.018979916
232	0xbe1c0344	-0.1523562
233	0x3e5b285d	0.21402116
234	0x3d42d85c	0.047569618
235	0x3df2d286	0.118565604
236	0xbe014a68	-0.1262604
237	0xbbf3b8d4	-0.0074378047
238	0xbda4e855	-0.08052126
239	0xbe1de011	-0.15417506
240	0xbdc6cbc7	-0.09706836
241	0x3dfa0035	0.12207071
242	0x3e0da495	0.13832314
243	0x3e41ce85	0.18926437
244	0x3e5cbd46	0.21556577
245	0xbe0a996a	-0.13535085
246	0x3e00ac80	0.12565804
247	0x3d9253e8	0.0714491
248	0x3e15a0bd	0.14612098
249	0xbd97910a	-0.07400711
250	0xbe19307f	-0.14959906
251	0xbe134342	-0.14381126
252	0xbda56a52	-0.080769196
253	0xbe0c5803	-0.13705449
254	0x3d878dc8	0.066188395
255	0x3d2cc8e2	0.042183764

fc2.weight f4 [256, 512]
0	0x3d05c65c	0.032659873
1	0xbcd26559	-0.025683092
2	0x3d2db3e3	0.04240788
3	0xbd0cc614	-0.03436859
4	0x3b8a835d	0.0042270855
5	0xbd51fa5f	-0.051264163
6	0xbbd5fe50	-0.0065305606
7	0x3b9a1985	0.004702749
8	0xbd225224	-0.039629117
9	0xbd586e7f	-0.052839752
10	0x3cbd1184	0.023079641
11	0xbc0150af	-0.007892772
12	0xbc862786	-0.016376268
13	0x3c205312	0.0097854305
14	0x3cc6b206	0.02425481
15	0xbc637d1e	-0.013884811
16	0xbd8791ba	-0.06619592
17	0xbbfcac65	-0.0077109807
18	0xbb7775e2	-0.0037759473
19	0x3c1d935f	0.009617656
20	0xbd14d5d2	-0.036336727
21	0xbca3e64d	-0.020007277
22	0xbc3cf448	-0.011532851
23	0xbd410532	-0.047124095
24	0x3bf01f5c	0.007327957
25	0xba980d5c	-0.0011600661
26	0xbca93dc1	-0.02065933
27	0x3bc2e7aa	0.0059480267
28	0xbd28a9de	-0.041177623
29	0xbcf6e0bb	-0.030136457
30	0xbcee4685	-0.02908636
31	0x3d2a6591	0.041600768
32	0x3cb6c89c	0.022312455
33	0x3cb64c93	0.02225331
34	0xbc5a85fa	-0.013337607
35	0xbcaf6460	-0.021410167
36	0xbc4e5e57	-0.012595735
37	0x3c93bf01	0.018035414
38	0xbd5435b1	-0.051809017
39	0x3c8b7047	0.017021311
40	0x3b9f65ec	0.004864445
41	0xbcb5c3f5	-0.022188166
42	0xb9bd323a	-0.0003608631
43	0xbd1673ae	-0.036731414
44	0xbd0cdee3	-0.03439225
45	0xbd03919b	-0.032121282
46	0xbc64e571	-0.013970719
47	0xbba1ea7d	-0.0049412833
48	0x3c829708	0.015941158
49	0xbcb915d7	-0.022593422
50	0xbca21a71	-0.019787999
51	0xbc0accac	-0.008471649
52	0xbd2a4c2c	-0.04157655
53	0xbda8b4d2	-0.08237614
54	0xbcf788c2	-0.030216578
55	0x3d315344	0.0432923
56	0xbcb14032	-0.021637056
57	0x3cb81860	0.02247256
58	0xbd20997b	-0.03920887
59	0x3cad4c57	0.021154566
60	0xbd320e64	-0.043470755
61	0x3c5e9abf	0.013586699
62	0xbcee72fb	-0.029107561
63	0xba9191bf	-0.0011106058
64	0xbd661906	-0.056176208
65	0x3c6b82d5	0.0143744545
66	0xbbe4219c	-0.0069620144
67	0x3cf43c3a	0.029813875
68	0x3c312b85	0.0108135985
69	0xbcd9d3c5	-0.026590237
70	0x3c00f876	0.007871738
71	0x3ccadb88	0.024762884
72	0xbd54d921	-0.051964883
73	0x3c42dee0	0.011893958
74	0xbd6d8929	-0.057992134
75	0xbd5d37c6	-0.054008268
76	0x3d2d72d6	0.042345844
77	0xbc637245	-0.013882224
78	0x3c2e4be9	0.010638216
79	0xbd8c38cb	-0.0684677
80	0x3d59818d	0.053102065
81	0xba6de0c4	-0.0009074325
82	0xbc1f9954	-0.009741146
83	0xbab616b3	-0.0013892263
84	0xbd1a0842	-0.03760553
85	0x3d191c54	0.03738053
86	0xbc14a810	-0.009073272
87	0xbcf2c20d	-0.029633546
88	0xbd23be1c	-0.039976224
89	0xbcd65ab0	-0.02616629
90	0xbcca83c4	-0.024721034
91	0xbc83745c	-0.016046695
92	0x3ca0816e	0.019592967
93	0xbba72d3d	-0.0051018284
94	0x3cf31041	0.029670836
95	0xb81dd943	-3.7634058e-05
96	0xbd336258	-0.04379496
97	0x3ca6f6e4	0.020381398
98	0xbcea17af	-0.028575746
99	0x3ccda29b	0.02510195
100	0x3d281fad	0.041045833
101	0xbd636bb8	-0.05552265
102	0xbc4524cb	-0.012032698
103	0xbcd0eff3	-0.025505042
104	0xbbd8fb22	-0.0066217342
105	0x3c2d2e76	0.010570159
106	0xbd09e6a4	-0.03366722
107	0xbd6c2f93	-0.057662558
108	0xbccd3c75	-0.025053242
109	0xbbd63bf8	-0.0065379106
110	0x3bf6d79e	0.007533028
111	0xbcb2a7ea	-0.021808583
112	0xbd1247e7	-0.035713103
113	0x3d170bc1	0.036876444
114	0xbca1bbf3	-0.019742941
115	0x3c8c00c8	0.017090216
116	0x3a87b555	0.0010353724
117	0xbc1cff90	-0.009582415
118	0xbd70296c	-0.058633253
119	0xbc9e39d0	-0.019314677
120	0xbaad7bc5	-0.0013235739
121	0xbb2e8d38	-0.0026634466
122	0xbd32d53e	-0.043660395
123	0x3b94eab6	0.0045445813
124	0x3c1017b7	0.008794717
125	0xbcf52d56	-0.029928844
126	0x3c05145b	0.008122529
127	0x39e6de93	0.0004403485
128	0x3c7e4afa	0.0155208055
129	0xbd456706	-0.048193954
130	0x3c8b95cf	0.017039208
131	0xbcdc619a	-0.026902009
132	0xbcdad87f	-0.026714562
133	0xbd351cea	-0.044217028
134	0xbd53e1f9	-0.051729176
135	0x3d0c2cc3	0.034222376
136	0xba918f6c	-0.0011105365
137	0x3c26f054	0.010189135
138	0xbcf276de	-0.029597696
139	0x3c8108b7	0.015751226
140	0x3d1666aa	0.036719
141	0xbc943a0a	-0.018094081
142	0xbd70d8f9	-0.05880067
143	0xbd328e37	-0.043592658
144	0xbced6fc8	-0.028983966
145	0xbc832f12	-0.016013656
146	0x3d2906a1	0.041266087
147	0x3939d70f	0.0001772309
148	0x3be0ea22	0.0068638483
149	0x3b449a2c	0.002999912
150	0xbc059dcd	-0.008155298
151	0xbbc88a3b	-0.006119994
152	0xbc0774a2	-0.0082675535
153	0xbba7df47	-0.0051230523
154	0xbd1d8fea	-0.038467325
155	0x3ce6fcdf	0.02819675
156	0xbcb2507d	-0.021766895
157	0x3c2855d7	0.010274372
158	0xbc81ecb3	-0.015859937
159	0x3d155a8f	0.036463317
160	0xbc6a0853	-0.014284211
161	0x3b906535	0.004406596
162	0xbc959095	-0.018257419
163	0xbb2fbf9d	-0.0026817091
164	0xbcfd199d	-0.030896002
165	0xbd981dab	-0.07427534
166	0xbcf119bc	-0.029431216
167	0xbc453a0c	-0.012037765
168	0xbd0cd1fe	-0.03437995
169	0xbc0ac2c2	-0.008469285
170	0xbc9ff228	-0.019524649
171	0xbd2bb786	-0.04192307
172	0x3c8c71a9	0.017144041
173	0xbc2a272d	-0.010385317
174	0xbca1b6ff	-0.01974058
175	0x3c59a5eb	0.013284187
176	0x3caed79a	0.021343041
177	0x3b6e5de3	0.0036371879
178	0xbd033fb1	-0.032043163
179	0x3b1ef3ad	0.0024254129
180	0x3cb7296c	0.022358619
181	0xbb223158	-0.002474865
182	0xbd1cbf64	-0.03826846
183	0xbcab2752	-0.020892773
184	0x3d04b9fd	0.032403935
185	0xbcda0f7d	-0.026618714
186	0xbd041c4e	-0.032253556
187	0xb99aeace	-0.00029548112
188	0x3cfcc63d	0.030856246
189	0xbd3dcee0	-0.04633987
190	0x3c8f6ff0	0.01750943
191	0xbcd2a173	-0.02571175
192	0xbd487dda	-0.048948146
193	0x3cb21c03	0.021741873
194	0xbd43860f	-0.04773527
195	0xbd09db3a	-0.033656336
196	0xbcd92a46	-0.026509415
197	0xbba97c7a	-0.0051723095
198	0xbbc65a83	-0.0060532703
199	0xbd343523	-0.043995988
200	0x3d182ad0	0.037150204
201	0x3d2cc19a	0.04217682
202	0xbcdef0d6	-0.027214449
203	0xbd486fa7	-0.048934605
204	0x3c535db4	0.012900759
205	0x3cd8a858	0.02644746
206	0xbd83108a	-0.06399639
207	0x3d206dc1	0.03916717
208	0x3c12701e	0.008937864
209	0xbd238ccb	-0.039929193
210	0x3cdecd27	0.027197434
211	0x3b5bdc1e	0.0033547948
212	0xbc098b0b	-0.008394967
213	0x3cafe496	0.021471303
214	0x3ca877dc	0.020564966
215	0xbd096168	-0.03354016
216	0x3c1da3ae	0.009621544
217	0x3cfb693f	0.030689834
218	0x3d2381c0	0.03991866
219	0xbd2a9ee4	-0.041655436
220	0x3d075500	0.033040047
221	0x3d3ef192	0.0466171
222	0xbc962996	-0.018330377
223	0xbcf5630a	-0.029954452
224	0xbdbec666	-0.09315185
225	0x3cd315e7	0.02576728
226	0x3d09c80a	0.033638038
227	0x3c76b2fa	0.01505732
228	0xbd8160a3	-0.0631726
229	0x3c0a62d0	0.00844641
230	0x3d24ba35	0.040216643
231	0xbd443025	-0.047897477
232	0x3b162cca	0.002291488
233	0x3d058bb4	0.032603934
234	0xbd5bab8f	-0.053630408
235	0x3bb6028d	0.0055545033
236	0x3d30435d	0.043032993
237	0x3cffc24c	0.031220578
238	0xbc909737	-0.01765023
239	0x3cb98e8c	0.02265098
240	0xbcda73fc	-0.026666634
241	0x3c3405be	0.010987697
242	0x3c85b2ef	0.016320674
243	0xbc87f6c3	-0.016597157
244	0x3d24c7eb	0.04022972
245	0xbd58b987	-0.052911308
246	0xbb633b8b	-0.0034672942
247	0xbcd9334a	-0.026513714
248	0x3b931f48	0.004489813
249	0xbc875b9b	-0.016523173
250	0x3cb7b91e	0.022427138
251	0xbd409ba7	-0.04702344
252	0x3bb9168c	0.0056484398
253	0x3c540a03	0.01294184
254	0xbd420327	-0.047366288
255	0xbcc1aa08	-0.023640648

fc2.bias f4 [256]
0	0xbbf7bf30	-0.007560633
1	0x3bc331f4	0.0059568826
2	0x3c3aff26	0.011413371
3	0xbca0dd90	-0.0196369
4	0xbb7ed068	-0.0038881544
5	0x3dae5d4f	0.08513891
6	0x3d5c1391	0.053729597
7	0x3dce6815	0.10078446
8	0xbc8ee68e	-0.017443921
9	0x3cc0a291	0.023515018
10	0x3cc15e73	0.023604607
11	0x3cb00667	0.021487428
12	0x3d099154	0.03358586
13	0xbc8caa54	-0.017171063
14	0x3c870e20	0.016486228
15	0x3c0553f0	0.008137688
16	0x3d062796	0.032752596
17	0x3cac6f48	0.021049157
18	0xbcb17346	-0.021661412
19	0x3d3d1757	0.046164837
20	0xbd1e34fc	-0.03862475
21	0x3c91eaec	0.017812215
22	0x3d75ecac	0.06004016
23	0xbd5eeb07	-0.05442336
24	0x3b9d53c3	0.004801245
25	0x3d01fe13	0.031736445
26	0xbdb415db	-0.08793231
27	0x3a956d41	0.0011400358
28	0x3c958777	0.018253071
29	0xbb28478d	-0.0025677413
30	0xbcc43a68	-0.023953632
31	0x3c938e6f	0.018012254
32	0x3d8b3d05	0.06798748
33	0x3bd46cd1	0.0064826985
34	0x3b8dad47	0.004323635
35	0x3da083f6	0.078376696
36	0x3d43b0b7	0.04777595
37	0x3d5454ea	0.051838793
38	0xbc81865f	-0.015811143
39	0x3ba2e089	0.0049706143
40	0x3d90ed7d	0.07076547
41	0xbb65d470	-0.003506925
42	0xbd50c892	-0.05097253
43	0xbcebe5cc	-0.0287961
44	0x3be1ef13	0.006894955
45	0xbd474ec9	-0.04865912
46	0x3cc6d556	0.024271648
47	0x3d300246	0.042970918
48	0xbcd5fdc6	-0.026121985
49	0x3cc9d538	0.024637803
50	0xbcdd9800	-0.027050018
51	0xbd656f17	-0.056014147
52	0xbd1ee8c1	-0.03879619
53	0x3d4fdebf	0.050749537
54	0xbd6d5f93	-0.057952475
55	0xbce26eec	-0.027640782
56	0xbd638306	-0.055544876
57	0x3c32483a	0.010881478
58	0x3cf9a052	0.030471954
59	0x3dc6bef0	0.09704387
60	0x3d2028cd	0.03910141
61	0x3d21b6d0	0.039480984
62	0xbc344b68	-0.011004306
63	0x3d523a39	0.051325057
64	0xbb793ebe	-0.0038031782
65	0xbb819014	-0.003953943
66	0x3c475270	0.012165651
67	0xbc86dacc	-0.016461752
68	0xbc039ff5	-0.008033742
69	0x3dc25b75	0.094901
70	0x3cffa5cb	0.031206986
71	0x3d03cdd3	0.03217871
72	0x3d27c4c8	0.04095915
73	0xbb17627b	-0.002309947
74	0xbd04f528	-0.03246036
75	0xbc8a72ed	-0.016900504
76	0x3d911dff	0.070857994
77	0x3da711fd	0.08157728
78	0x3c7f4e18	0.015582584
79	0x3b756fe4	0.0037450725
80	0xba92f876	-0.0011212963
81	0x3c86308f	0.016380576
82	0x3d4eef93	0.050521445
83	0x3d9db150	0.07699835
84	0xbd104ae5	-0.035227675
85	0x3c730a57	0.014834008
86	0x3c562321	0.013069899
87	0x3d1a48d9	0.03766713
88	0xbc4faf74	-0.012676109
89	0xbcc9ed16	-0.024649184
90	0x3cdf8cf0	0.027288884
91	0xbb9db3fc	-0.0048127156
92	0x3ceb9b22	0.028760497
93	0xbc8a243f	-0.016862987
94	0xbda8c691	-0.082409985
95	0xbd1c2ab5	-0.038126666
96	0xbc0c57fd	-0.0085659
97	0x3cb1ea1b	0.021718075
98	0xbd3ff0a7	-0.046860363
99	0x3d5e5b8a	0.054286517
100	0x3d826b26	0.06368093
101	0x3cd12bc5	0.025533566
102	0xbc6b4eb0	-0.014362022
103	0x3d0ace83	0.03388835
104	0x3d58da6a	0.05294267
105	0x3c8119d3	0.015759384
106	0x3db27901	0.08714486
107	0xbd6d4a09	-0.057931934
108	0x3c31419a	0.010818863
109	0xbcf26694	-0.029589929
110	0x3d38576e	0.045005254
111	0x3d1decf7	0.038556065
112	0xbbe83eff	-0.007087588
113	0x3a0cfb82	0.0005378054
114	0x3ce8f938	0.02843915
115	0x3d5cfa50	0.053949654
116	0xbd127804	-0.035758987
117	0x3d9e3f55	0.077269234
118	0x3d6204f5	0.05518051
119	0xbbb397eb	-0.0054807565
120	0x3b2e908e	0.0026636454
121	0x3d627865	0.0552906
122	0x3c2ce4ec	0.010552626
123	0xbcab98d5	-0.0209469
124	0x3cd3a1ec	0.025834046
125	0xbcaae76a	-0.0208623
126	0x3d012cc5	0.031536836
127	0xbd2895fb	-0.041158658
128	0x3da74f3a	0.08169408
129	0xbd5ce08f	-0.053925093
130	0x3cfcc581	0.030855896
131	0x3d086249	0.033296857
132	0xbb3fea76	-0.0029284037
133	0x3d87ee6c	0.06637272
134	0x3dae0dde	0.08498739
135	0x3db70baa	0.089377716
136	0x3ced97b7	0.029003007
137	0xbce3eb57	-0.02782218
138	0x3b03e5de	0.0020126025
139	0xbcba51ed	-0.022744143
140	0xbd70af34	-0.058760837
141	0xbcbb0255	-0.02282826
142	0xbd589b30	-0.052882373
143	0xbd04a4b0	-0.03238362
144	0x3ceb1d35	0.02870045
145	0x3d164d24	0.03669466
146	0xbc3e06bb	-0.011598284
147	0x3d342abf	0.04398608
148	0xbba6b55b	-0.005087537
149	0xbc1e2d2b	-0.009654324
150	0x3c4686bd	0.012117085
151	0x3d79cb99	0.06098518
152	0x3d570024	0.05249037
153	0xbd88f9e4	-0.06688288
154	0xbd528f42	-0.051406153
155	0xbcdc357a	-0.026880968
156	0xbd4cb91c	-0.04998122
157	0xbc171400	-0.009221077
158	0xbc313a7d	-0.010817167
159	0x3d952ab5	0.07283536
160	0x3c3e3b10	0.011610761
161	0x3dbce6f8	0.09223741
162	0x3cc3545a	0.023843933
163	0xbbe176f2	-0.0068806345
164	0x3ab99b71	0.0014160705
165	0x3db8663c	0.09003875
166	0x3b908cc8	0.0044113137
167	0x3d01f77b	0.031730156
168	0x3a92dbf8	0.0011204472
169	0x3d48330f	0.04887682
170	0x3c502b63	0.012705657
171	0x3bda3498	0.0066591017
172	0xbd4d60ca	-0.050141133
173	0x3d82f341	0.06394053
174	0xbbc83633	-0.0061099767
175	0xbc803c5e	-0.015653785
176	0x3ce5603f	0.027999995
177	0xbd759490	-0.059956133
178	0x3ce596b8	0.02802597
179	0x3cdf8a1f	0.027287541
180	0x3c1bda92	0.00951256
181	0xbbeb5574	-0.0071818177
182	0x3d148311	0.036257807
183	0x3bf3a2a0	0.007435158
184	0x3c460980	0.012087226
185	0x3cfd6a99	0.030934619
186	0xbd8f4241	-0.06995059
187	0x3cc797ef	0.02436444
188	0x3db014f6	0.08597748
189	0xbd312b5a	-0.043254234
190	0xbd26385a	-0.040581085
191	0xbbfc24bf	-0.00769481
192	0x3d0f2518	0.034947485
193	0xbccc3d1a	-0.02493148
194	0x3d37c7cf	0.044868287
195	0x3d11deb4	0.035612777
196	0xbdc049d8	-0.093890846
197	0xbd14cb31	-0.03632659
198	0x3d7793bc	0.060443625
199	0xbc84a1a9	-0.016190367
200	0x3c318337	0.010834507
201	0xbd40a9bc	-0.04703687
202	0x3a06b642	0.0005138853
203	0xbd781881	-0.060570244
204	0x3db2f200	0.08737564
205	0x3ccf95cb	0.025339982
206	0xbd401790	-0.04689747
207	0x3cf88556	0.030337017
208	0xbd2a8279	-0.041628335
209	0x3d171833	0.036888313
210	0x3d81251c	0.06305906
211	0xbc2c19aa	-0.010504166
212	0xbd3aa34f	-0.0455659
213	0x3c73d105	0.014881377
214	0x3ce15a60	0.027508914
215	0xbd004386	-0.031314395
216	0xbbc41c48	-0.0059848167
217	0x3d979114	0.07400718
218	0xbcebf815	-0.028804818
219	0xbcc04cb8	-0.023474082
220	0xbd112fd3	-0.035446
221	0xbbefa4bf	-0.0073133404
222	0x3d2e0be3	0.042491805
223	0x3d86869b	0.06568643
224	0xbcea27b7	-0.02858339
225	0x3d7daee5	0.06193437
226	0x3cc7119f	0.024300395
227	0x3da1d435	0.079018034
228	0x3d18570a	0.037192382
229	0x3d9c49b7	0.076312475
230	0xbc41d7ba	-0.011831218
231	0x3c2251b7	0.009907178
232	0xbc9021ea	-0.017594296
233	0xbdb02b70	-0.08602035
234	0xbafed8f9	-0.0019443325
235	0xbc974daa	-0.01846965
236	0xbccaf6ac	-0.024775825
237	0xbd248f04	-0.040175453
238	0x3d19076e	0.0373606
239	0xbd999bfd	-0.075004555
240	0x3c145455	0.009053309
241	0xbccc24a6	-0.02491982
242	0x3cafbb49	0.02145161
243	0xbc8d4e31	-0.017249199
244	0x3cdb5f6f	0.026778905
245	0x3b457497	0.0030129307
246	0x3d3b63b4	0.04574938
247	0x3d13f543	0.03612257
248	0x3d30464a	0.043035783
249	0xbd2c21cf	-0.04202443
250	0xba3089d5	-0.0006734406
251	0x3dd144af	0.102181785
252	0xbd706bfa	-0.058696724
253	0x3d710fa6	0.058852814
254	0xbcb62041	-0.022232177
255	0xbd3fa486	-0.04678776

fc3.weight f4 [2, 256]
0	0x3db78797	0.089614086
1	0x3d4603ba	0.048343398
2	0x39d5791e	0.00040716765
3	0x3d57a8f5	0.052651364
4	0x3d74ae5a	0.059736587
5	0x3c562ff0	0.013072953
6	0x3bbdf0b5	0.005796517
7	0xbd6833fa	-0.056690194
8	0x3d7fe7f8	0.062477082
9	0xbba8103a	-0.0051288875
10	0x3b4fb7df	0.003169529
11	0xbd8ec569	-0.06971247
12	0x3c074b7e	0.008257745
13	0xbd2f6a40	-0.042825937
14	0x3b59ff8c	0.003326389
15	0xbcd570af	-0.026054708
16	0xbdb36a0f	-0.087604634
17	0x3b1764bc	0.0023100814
18	0xbd8417b8	-0.064498365
19	0xb9c24c24	-0.00037059293
20	0xbe058779	-0.1303996
21	0x3dd9e17b	0.1063871
22	0xbcd0f0e0	-0.025505483
23	0xbc76256f	-0.015023573
24	0x3ca2f266	0.019890975
25	0xbcfd0dbe	-0.030890342
26	0x3d6254b3	0.055256557
27	0xba9347b6	-0.0011236581
28	0x3d505261	0.050859813
29	0xbcfcb106	-0.03084613
30	0xbde31b94	-0.110892445
31	0x3e0306ad	0.12795515
32	0x3bdf16ec	0.0068081524
33	0x3b7eed19	0.0038898645
34	0xbc257394	-0.010098357
35	0x3dc1158e	0.09427939
36	0x3dede38d	0.116156675
37	0xbd5ce749	-0.05393151
38	0x3d020665	0.03174438
39	0x3cd1bfe8	0.025604203
40	0xbd55033e	-0.052005045
41	0xbd96dbf8	-0.073661745
42	0x3d0f8e2b	0.03504769
43	0x3db0ea40	0.0863843
44	0xbc66a5f5	-0.014077653
45	0x3d1f52a9	0.03889719
46	0x3d8c4bb9	0.068503805
47	0xbd8417a9	-0.06449825
48	0xbd66519f	-0.056230184
49	0xbd257b2e	-0.040400676
50	0x3ce241e2	0.027619306
51	0x3d12ec90	0.035870135
52	0x3c27119c	0.0101970695
53	0x3e196e2f	0.14983438
54	0x3d19dbdc	0.03756319
55	0x39ff3ec0	0.00048684143
56	0x3df5c326	0.12000112
57	0x3d4163de	0.04721438
58	0x3b1f2bad	0.0024287507
59	0x3b4cafcd	0.0031232715
60	0x3c12ebae	0.008967323
61	0x3dc90a16	0.09816377
62	0xbcdf3cf0	-0.027250737
63	0xbdb7e4ae	-0.08979164
64	0x3d7bfdbd	0.06152128
65	0xbb90b616	-0.0044162376
66	0x3c9f0de2	0.0194158
67	0xba94b64d	-0.0011345834
68	0x3a035026	0.00050091965
69	0xbd82151f	-0.06351685
70	0xbd2fe2bb	-0.042940836
71	0xba8f59da	-0.0010936812
72	0xbd77ffbf	-0.060546633
73	0xbc8538f6	-0.016262513
74	0x3e009336	0.12556157
75	0x3d390484	0.045170322
76	0xbcc22dbe	-0.023703452
77	0xbcf47fab	-0.029846033
78	0xbd105e0c	-0.03524594
79	0x3cc0e1a2	0.02354509
80	0xbdb17f3a	-0.08666845
81	0x3b687cf2	0.0035474864
82	0x3d176ba1	0.036967877
83	0xbad013b7	-0.0015875016
84	0xbdebae12	-0.11507811
85	0xbb9d88cb	-0.0048075668
86	0xbb2ac8c8	-0.0026059616
87	0xbd3f236f	-0.04666465
88	0xbdb05d2a	-0.0861152
89	0xbd06669a	-0.032812692
90	0x3c81a70c	0.015826724
91	0x3d166d25	0.036725182
92	0x3cfc660d	0.03081038
93	0x3dbfad2d	0.093592025
94	0xbdbafdc5	-0.09130434
95	0xbd9b20ae	-0.075745925
96	0xbd9aa680	-0.075512886
97	0x3ca409b8	0.020024166
98	0x3df8d96a	0.121508434
99	0x3cb8ac57	0.022543116
100	0xbdd87773	-0.10569658
101	0xbd667f47	-0.056273725
102	0xba360b9c	-0.0006944479
103	0x3ac75e9b	0.001521069
104	0x3d6ff9ea	0.058587946
105	0xbb480e0d	-0.0030525953
106	0x3cdcb0c5	0.026939759
107	0x3d2029d4	0.03910239
108	0x3d4d9486	0.05019047
109	0x3dac72ff	0.08420371
110	0xbca79e76	-0.020461302
111	0x3caa3dd8	0.020781443
112	0xba8fc3b8	-0.0010968363
113	0xbd94a479	-0.07257933
114	0xbc9f83e4	-0.01947207
115	0x3d433778	0.04766032
116	0x3a5e0934	0.00084699993
117	0x3d967297	0.07346075
118	0xbc8a149e	-0.016855534
119	0x3ceef0f1	0.029167624
120	0x3da3bcf7	0.079950266
121	0x3d34704f	0.04405242
122	0x3c287d27	0.010283745
123	0xbd50e917	-0.05100354
124	0xbce1be21	-0.02755648
125	0x3c82974e	0.015941288
126	0xbcf0fb14	-0.029416598
127	0x3daa56cd	0.08317337
128	0xbd9601cc	-0.073245615
129	0x3ced24ac	0.02894815
130	0x3da4e846	0.08052115
131	0xbd07c57d	-0.033147324
132	0x3db59f40	0.08868265
133	0xbc9d89bd	-0.019230718
134	0x3cdca0c7	0.026932133
135	0x3e16d0fd	0.1472816
136	0x3cbb80f5	0.02288864
137	0xbcc5c00d	-0.024139429
138	0xbb8e0bc1	-0.0043348973
139	0xbc64b96f	-0.013960226
140	0xbce88aa4	-0.028386422
141	0x3db77e0d	0.08959589
142	0x3d8dd2d4	0.06924978
143	0x3d1c818f	0.038209494
144	0xbc8b45af	-0.017001001
145	0xbe059246	-0.1304408
146	0x3d2dfb96	0.04247626
147	0x3dd0bac7	0.10191875
148	0xbc47a34d	-0.01218493
149	0x3de18be9	0.11013014
150	0xbc07be50	-0.00828512
151	0xbcc4ff10	-0.024047405
152	0xbd2f5863	-0.0428089
153	0x3db156c4	0.08659127
154	0xbd26a4a9	-0.040684376
155	0xbe14dc89	-0.14537252
156	0x3c461925	0.012090956
157	0x3d63755e	0.055531852
158	0x3d1a4465	0.037662882
159	0xbcc77b83	-0.024350887
160	0x3da40054	0.08007875
161	0xbd3d3fcf	-0.04620343
162	0x3dc327d6	0.095290825
163	0xbc6193c9	-0.013768145
164	0xbd01bfad	-0.031676937
165	0xbd45a080	-0.048248768
166	0x3ca4bf2f	0.020110695
167	0xbcfebd01	-0.031095983
168	0x3cff1318	0.031137034
169	0xbc2f91ac	-0.010715883
170	0xbd362079	-0.044464562
171	0xbbf23bed	-0.0073923976
172	0xbc5826a7	-0.013192809
173	0x3d0679ff	0.03283119
174	0xbe1db331	-0.15400387
175	0x3c8d8a47	0.01727785
176	0x3cac554e	0.02103677
177	0xbc789e96	-0.015174529
178	0xbc873e23	-0.016509121
179	0xbcd0f6bf	-0.025508283
180	0xbcc4209e	-0.023941334
181	0xbb383867	-0.002810979
182	0xbcb38ffd	-0.021919245
183	0x3d565b4b	0.052333158
184	0x3e17c1d4	0.14820033
185	0xbce42ac5	-0.027852425
186	0x3d1a645c	0.037693366
187	0x3d6eefba	0.05833409
188	0xbd60a08b	-0.054840606
189	0xbd7c82db	-0.06164823
190	0x3dbf8f72	0.09353532
191	0xbc639714	-0.013891
192	0x3d494956	0.049142204
193	0x3d6c43a2	0.057681687
194	0xbddadae0	-0.10686278
195	0xbcb4b446	-0.022058617
196	0x3db9067d	0.09034441
197	0x3cf65eca	0.030074496
198	0xb9295456	-0.00016148514
199	0x3d26b520	0.040700078
200	0xbb7a9b75	-0.0038239632
201	0xbd89f069	-0.06735308
202	0xbdde4b6a	-0.10854228
203	0xbda41fbb	-0.080138646
204	0x3d6bc9f5	0.057565648
205	0x3d62ddcc	0.055387303
206	0x3d80365b	0.062603675
207	0x3947315d	0.00018996508
208	0x3d521d33	0.051297378
209	0xbcbb0f9d	-0.022834593
210	0x3d814a8c	0.06313047
211	0x3d53fec9	0.051756654
212	0xbce8e97f	-0.028431652
213	0x3b834c73	0.004006916
214	0xbdbf14af	-0.09330117
215	0x3aaa4c53	0.0012992717
216	0x3d2b7c45	0.04186656
217	0x3da8ba81	0.08238698
218	0x3d7275be	0.05919432
219	0x3d98c673	0.07459726
220	0x3d60f844	0.054924265
221	0xbcfd16d9	-0.030894684
222	0x3c1f3a4c	0.009718489
223	0xbc85474b	-0.016269347
224	0x3dc1ce81	0.094632156
225	0xbd03e747	-0.032202985
226	0xbd958ec3	-0.0730262
227	0xbdcd8847	-0.100357585
228	0xbd6309e1	-0.055429343
229	0x3ceb7601	0.028742792
230	0x3db5cda2	0.08877112
231	0xbc5dc68d	-0.013536108
232	0x3d078ea4	0.033095017
233	0x3dda4765	0.10658149
234	0xbdc70147	-0.097170405
235	0xbe0112c1	-0.1260481
236	0x3dc6c100	0.097047806
237	0x3d0ca0e4	0.034333125
238	0x3c92ba9c	0.017911248
239	0x3da70e87	0.08157068
240	0x3d7c347b	0.061573487
241	0x3d9b9cf4	0.07598296
242	0xbe02a8f6	-0.12759766
243	0x3d75bc00	0.059993744
244	0x3cc212c7	0.023690594
245	0x3da6555c	0.0812175
246	0x3cb40abb	0.021977773
247	0x3d3aca3b	0.04560302
248	0xbd367d31	-0.044552986
249	0x3da3ab90	0.07991707
250	0x3d93493f	0.07191705
251	0x3d8a0d19	0.067407794
252	0xbc87268b	-0.01649787
253	0x3de8f76f	0.11375319
254	0xbc34ae34	-0.011027861
255	0x3b82e451	0.0039945026

fc3.bias f4 [2]
0	0x3d0fbf8b	0.03509478
1	0xbda1917e	-0.078890786

norm.weight f4 [28]
0	0x3f76795c	0.9627893
1	0x3f6c5e91	0.92331797
2	0x3f7a297c	0.9771955
3	0x3f835dba	1.0262978
4	0x3f6b57bb	0.9193074
5	0x3f7457bf	0.9544639
6	0x3f7ee59c	0.99569106
7	0x3f7fb165	0.9988006
8	0x3f7f70b8	0.9978137
9	0x3f77ff5a	0.9687401
10	0x3f7b7489	0.98224694
11	0x3f755043	0.95825595
12	0x3f689d3a	0.9086491
13	0x3f7d9079	0.9904857
14	0x3f7a87ce	0.9786347
15	0x3f7458d0	0.9544802
16	0x3f7e59a5	0.99355537
17	0x3f7404c8	0.95319796
18	0x3f6b8e0b	0.92013615
19	0x3f7aff5b	0.9804589
20	0x3f7cde62	0.9877683
21	0x3f7626a0	0.9615269
22	0x3f7ba345	0.98296005
23	0x3f79fd63	0.9765226
24	0x3f8f81d5	1.1211497
25	0x3f92a311	1.1456014
26	0x3f899aed	1.0750405
27	0x3f61b0da	0.8816048

norm.bias f4 [28]
0	0x3d04bd99	0.032407377
1	0xbac32ad2	-0.0014890081
2	0x3d925cc8	0.07146603
3	0x3d438ffa	0.04774473
4	0x3d0069e0	0.03135097
5	0xbd134912	-0.035958357
6	0x3b3462ce	0.0027524712
7	0x3c554cbe	0.013018785
8	0xbb0690b8	-0.0020533036
9	0x3ccce900	0.025013447
10	0x3bf38df3	0.007432693
11	0xbd05f1a7	-0.03270116
12	0xbc21af43	-0.009868446
13	0x3bb3b1f2	0.005483859
14	0xbd12eb81	-0.035869125
15	0xbc5c6a52	-0.013453083
16	0x3bcb5811	0.0062055667
17	0xbb9d6bef	-0.0048041265
18	0x3b9d5554	0.0048014317
19	0xbc08d223	-0.008350882
20	0x3b9471d1	0.0045301695
21	0x3d7508cf	0.059822854
22	0x3d42d721	0.047568444
23	0x3d3d5096	0.04621943
24	0xbb8112ba	-0.003939
25	0x3d7d8b3e	0.06190037
26	0x3d157f94	0.03649862
27	0xbca9fc1d	-0.0207501

norm.running_mean f4 [28]
0	0x3fad22b0	1.3526211
1	0x3fb1d750	1.3893833
2	0x3fbb9fbe	1.4658124
3	0x3fb4288c	1.4074874
4	0x3fc294e1	1.5201684
5	0x3fcd1272	1.6021254
6	0x3fdaf49e	1.7105901
7	0x3fe0c4aa	1.7560017
8	0x3fe9ea49	1.8274623
9	0x3fea4c46	1.8304527
10	0x3ff3b53d	1.9039685
11	0x3ffa5ef6	1.956023
12	0x3ff6f4f0	1.9293499
13	0x3ff34fbf	1.9008712
14	0x3fddbe52	1.7323706
15	0x3fd6046f	1.6720103
16	0x3fd57a8e	1.6678026
17	0x3fcfa75e	1.6222951
18	0x3fbf996c	1.4968696
19	0x3fbbd1d1	1.4673406
20	0x3fa8bb03	1.3182071
21	0x3fadb826	1.3571823
22	0x3fabf0d5	1.3432871
23	0x3fad047c	1.3516994
24	0x3e495e6b	0.19664924
25	0x3fbd6272	1.4795668
26	0x3edf939a	0.436673
27	0x414358da	12.209192

norm.running_var f4 [28]
0	0x3ef61fd9	0.48071173
1	0x3ef98a54	0.48738348
2	0x3eff932f	0.4991698
3	0x3f0b6978	0.5445781
4	0x3f1198de	0.5687388
5	0x3f10b977	0.56532997
6	0x3f19fb5d	0.60149175
7	0x3f1b56f0	0.6067953
8	0x3f29e499	0.6636444
9	0x3f37a729	0.7173944
10	0x3f26e96b	0.6519992
11	0x3f16506f	0.5871648
12	0x3f17d85e	0.59314525
13	0x3f127efa	0.57225
14	0x3f249432	0.6428863
15	0x3f25cb2f	0.6476316
16	0x3f1108e1	0.56654173
17	0x3f098b99	0.53728634
18	0x3f024c57	0.50897735
19	0x3f0441a6	0.5166267
20	0x3efdec2a	0.4959424
21	0x3f005a65	0.5013793
22	0x3ef5050b	0.4785541
23	0x3ef67052	0.4813257
24	0x408fc9d8	4.493389
25	0x3e9bc369	0.30422524
26	0x3ce193ed	0.027536357
27	0x426a3d96	58.560143
