turtlebot3_ddpg/save_model_ddpg/2020_12_03-01_44_19/stage_3_4500_critic.pth (torch_old, 590398 bytes, 13 tensors)

fc1.weight f4 [512, 28]
00000000: 5341 e3bd cabe 82be 959d 303e 7118 01bd
00000010: e812 9bbe 54d9 b6bd a8d1 a03c 54fd 693e
00000020: e83e 06bd 17a8 6c3e 91b9 053e b05c ac3d
00000030: 5864 1a3e 5c8c 07be f05b e7be f66c c1bd
00000040: 0984 abbd 8fb7 4cbe 669b 5bbe 9c87 353e
00000050: 7384 a03e e5fe 0bbe d7d3 d3bd 91a6 19bd
00000060: 291b 1fbd f207 b5be 0a12 39be b034 043d
00000070: 4810 453d 695d 433c f929 b8bb f8dd 0dbe
00000080: 302d 253c 96b2 16be 61f0 803d 4637 f33d
00000090: 1153 953e 988a 553e d624 893c 45c3 813e
000000a0: 6598 1a3d 86d4 25be efce 6a3e 86be febe
000000b0: 32e2 0dbe 701e c3bc ed77 71ba 7b4f 22be
000000c0: d090 4abe b85e 7dbd 6db5 423d 20d7 a9b9
000000d0: 6061 dfbe 5a3c fcbe 73b2 013e 8632 813d
000000e0: 216c 863e f9c7 24bd 4ca2 503d 918e 773e
000000f0: 6605 c73d 675e 38bd 6da8 c23d bd07 893d
00000100: c1ee dd3c 5e54 59be 0030 21be 5925 69be
00000110: e533 9dbd 0b40 1ebe a0dc 13be ba22 073e
00000120: d02e 363e 2743 9b3e 3ad3 323e e85f 403d
00000130: 446d 01be 29b5 8c3d 2c5b cc3d 3da7 75bd
00000140: 9c77 e83e 1dd4 63bf e887 a0be cf3f 14bd
00000150: 293d 473e c503 d4bd 45d0 c1bd 2a8c 66bc
00000160: 1050 5abe 8965 433e 4625 45be d6ea 65bd
00000170: 67f1 3abe bc06 26bd 9cb8 2fbc ad97 ac3e
00000180: ee3b f6bd cef1 833d 8b34 0f3d e79a 60be
00000190: 239b c1bd 0a0a 04bf 4d4c c33d ba84 6c3e
000001a0: 7b99 2ebe e571 b83d a3b6 06bf dc40 a63e
000001b0: 6cae 32be 883d 74be 21c1 adbd 6a29 19be
000001c0: 3d7f 2ebd 7a29 47be b187 adbc 8cfc 6a3e
000001d0: bf2b 57bd e634 fabe 947e d63d 24ab cfbe
000001e0: e26b 4dbc 60aa 09bd 58e6 503e 1f39 a93e
000001f0: 256b 8f3e 8170 933e bcf4 373e 9a54 85bd
00000200: 98fa d23d 8911 463e dc56 5f3e 6099 22be
00000210: 02c2 983d 5373 783d bc8f d9bd 0270 d8be
00000220: bd0c 73be 300e 583e 05cd 38bd 1492 d73d
00000230: 6c43 07be ac19 acbc 64d1 473e dfba 49be
00000240: f3a2 e93e 7503 1a3e 7769 41be 038c 05be
00000250: f4ee 33be 5970 733d 305a 263f 111b 85be
00000260: 53e2 09be f1ab 1dbe 62cf a9bd e1bc fabd
00000270: ea47 e3be b89e d13e 1e6b 3cbd ae17 1dbe
00000280: 8128 03be 2310 3abe bd62 a23e 8634 80ba
00000290: 8695 5fbb 46f4 723c b526 5d3e 9dba 4cbe
000002a0: 1bf0 54bd e1d8 353e 4c27 0b3e 4fb3 34bd
000002b0: d708 583d d3b7 9e3e b562 9cbe 9bcf 8bbd
000002c0: f970 a5bd af2a 6a3e e087 bb3e 7060 30bd
000002d0: 29b8 cb3e 44c0 173c ea92 ae3d f079 2c3b
000002e0: e0b6 533c 324d 20be b80c 963e 575d 25bd
000002f0: 01df 583e d7c1 ac3d af4a 543e 999a 223d
00000300: 738e 2fbe fa09 fb3e 9a39 743d fd02 71bd
00000310: ee31 9ebc d5f1 12be 672c 53be fc33 c9be
00000320: 3e07 ebbd e119 c23c d244 88be f7df d6bd
00000330: c7d7 4b3e a745 3ebd c82a f43d 4a52 df3e
00000340: fc51 403d 3771 85bd 1c7a 95bd 0fe2 a13e
00000350: 610f 5a3c 077e 923e d531 d03d 7dab 053f
00000360: cc72 e4bc e4c6 9bbd 83c0 693d f589 f1bd
00000370: b1e8 3a3d 4fa8 fb3d daa0 db3e a56e 2c3f
00000380: d0e3 1a3e a841 35bf a2cc 353e 48e2 afbd
00000390: 09be dfbd e4ae 9d3d 41f7 34be aace 7c3d
000003a0: 18b0 9cbc bbac 87bd d7ac 153d c1e6 d23d
000003b0: 76a7 a0bd 5960 be3c 1781 da3d 7397 5e3e
000003c0: d9ac 9b3c c3cf 89bd 2001 cbbe 0c07 92be
000003d0: e4cf f7bd 2c0a 2e3e a6df 883e 332c 06bd
000003e0: f032 8fbe 3890 c1bd 54cd c43d 4adb 873d
000003f0: 2158 8ebd 7693 df3d a6c0 d33e 1cc8 c23e
-0.11096444 -0.25536186 0.17247613 -0.03151745 -0.30287862 -0.08928171 0.019631222 0.22850543
-0.032774836 0.23110996 0.13059069 0.08416116 0.1507734 -0.13237137 -0.4518733 -0.09444611
-0.08374793 -0.19991897 -0.21445999 0.17727512 0.3135105 -0.13671453 -0.103431396 -0.037512366
-0.03884426 -0.35357624 -0.18073288 0.03227681 0.04811123 0.011924126 -0.005620238 -0.13854206
0.010081574 -0.14716563 0.06295849 0.11875777 0.29164937 0.2085365 0.016741198 0.2534429
0.03774299 -0.16194353 0.22930501 -0.49754733 -0.13855818 -0.023818225 -0.0009211291 -0.15850632
-0.19781804 -0.06185791 0.047536302 -0.00032394473 -0.4362898 -0.49264795 0.12665729 0.06308465
0.2625437 -0.04022977 0.05093603 0.24175479 0.097178265 -0.045011904 0.09504781 0.06690929
0.027091386 -0.2122359 -0.15740967 -0.22768153 -0.07675914 -0.15454118 -0.1443963 0.13196841
0.17791295 0.3032467 0.17463389 0.046966463 -0.12639338 0.06870491 0.09978327 -0.059973944
0.45403755 -0.88995534 -0.31353688 -0.036193665 0.19456924 -0.103522815 -0.094635524 -0.014071504
-0.21319604 0.19081701 -0.192525 -0.05613216 -0.1825615 -0.040533766 -0.010725167 0.3370947
-0.120231494 0.06442605 0.03496222 -0.2193409 -0.09453418 -0.5157782 0.095360376 0.23097506
-0.17050736 0.09006099 -0.5262243 0.3247136 -0.17449349 -0.23851597 -0.08484102 -0.14957204
-0.042601813 -0.19449416 -0.021182867 0.22947901 -0.052531954 -0.48868483 0.104733616 -0.40560257
-0.012537928 -0.033609748 0.20400369 0.33051392 0.28011432 0.2879677 0.17964453 -0.06510277
0.10301703 0.19342627 0.21810478 -0.1587882 0.07458879 0.060656857 -0.10623118 -0.42272955
-0.23735328 0.21099162 -0.045117397 0.10525909 -0.13209313 -0.021008335 0.1951347 -0.19700192
0.45632133 0.15040381 -0.18887888 -0.13041691 -0.17571622 0.059433315 0.64981365 -0.25997213
-0.13465242 -0.15397622 -0.08291508 -0.12243057 -0.44390804 0.40941405 -0.046000592 -0.15341064
-0.1280842 -0.18170218 0.31715956 -0.0009781278 -0.0034116223 0.014828747 0.21596797 -0.19993062
-0.051986795 0.17758514 0.1358921 -0.044116315 0.052742805 0.30999622 -0.30544057 -0.06826707
-0.080781884 0.22867845 0.36627102 -0.04306072 0.3978894 0.009262148 0.085241154 0.0026317798
0.012922019 -0.15654448 0.2930658 -0.04037222 0.21178819 0.084354095 0.20731615 0.039698217
-0.17144184 0.4903105 0.059625246 -0.05884074 -0.019310918 -0.14350064 -0.20622407 -0.39297473
-0.11475991 0.02369398 -0.26615006 -0.10491937 0.19906531 -0.046453144 0.119222224 0.4361747
0.046953186 -0.06515735 -0.07298681 0.31617782 0.013309331 0.28611776 0.10165755 0.52214795
-0.02788677 -0.07606295 0.05706836 -0.11793891 0.045632068 0.12287962 0.42896158 0.6735633
0.15125966 -0.7080331 0.17753842 -0.085880816 -0.10924918 0.07699373 -0.17672445 0.061720528
-0.019126937 -0.066247426 0.036541786 0.10297919 -0.07844441 0.023239302 0.10669153 0.21737461
0.019003319 -0.067290805 -0.39649296 -0.28521 -0.12100199 0.16996068 0.2673313 -0.032756995
-0.2796855 -0.09451336 0.09609476 0.06633623 -0.06950403 0.10916798 0.41357917 0.38043296

fc1.bias f4 [512]
00000000: dba8 3f3e 3270 47be a8f3 41bf 7c9b 8dbd
00000010: f344 2fbd 0b3c 113d abea 1f3f 5e68 c1be
00000020: 25fb f0be c8f2 ecbe f739 b93e 43e4 e0bd
00000030: 4bd6 ed3e d6e2 a43e 089b 413d f612 24bf
00000040: 26db 963d fece fbbe 80fa a4be 44bf 573f
00000050: 5c59 78be c4c1 973e 4ac2 643d 8228 c0bc
00000060: d407 67bd 2bca 05bf b8c1 b7be d0de 8d3d
00000070: 545d a63d 10b9 96be 69bc 21be 6515 63be
00000080: 67b9 b93e b938 35bf fbce 853c bf60 70bd
00000090: 557a 10bf bf71 673e 752a 52bf 63e3 9e3e
000000a0: 4b65 8b3e 1b26 ffbe 2663 10bf 57c3 84be
000000b0: 1d99 683f 83b3 79be feed 12bf 329b 1e3e
000000c0: 8ea9 51bf efac ca3e f692 dabe c493 923e
000000d0: a8cc 3b3f cf77 b83e b55f dabe c2eb aabe
000000e0: 88ce a13e 0396 e0be c617 143f 5669 583f
000000f0: e826 babe 6dc5 bebd afaf 003f 0c2f 313e
00000100: c0bb 8fbe 0780 cbbe 03cd 54be 5b0c c03e
00000110: acee 02bf b663 d1bb 7bb0 4dbf e650 323f
00000120: 575b 1d3f 481f 7dbd b2e8 3e3f c86e ecbe
00000130: 72e3 6bbe 200a a4be 635d 6cbe 2e1d 81be
00000140: 26e6 5ebe 10ed b93c 4f78 08bf cf06 74bf
00000150: 8057 7abe ceb1 fe3e c2ad 5ebe 2a00 9ebe
00000160: c463 d93e 8393 5bbe adbd 363e 7e1a 62be
00000170: a178 acbe 6129 70bf 6a40 f83e 6b53 fcbd
00000180: 3187 663e 02b8 953e c22a 093f 826c 993e
00000190: 5d7c 1dbf de3c 3cbf 7366 c73e a9c6 0dbd
000001a0: cc6b c3be d27b 65be 1314 2d3f cc66 b7be
000001b0: d85d fe3e 04cc 96be 39a6 af3e 91b6 c5be
000001c0: c0b3 08bf c482 67be 8d72 f83e e93b a5be
000001d0: f03c 273f 7bb2 d6be e679 07bf 1097 193d
000001e0: 3d2d 1cbe b013 99be 7e5d 62be 1211 ab3e
000001f0: 3f62 94be c409 50be b1f6 24bf 2205 36bf
00000200: 6319 c6be 9e6e 37bd 1127 4f3f 95ca 05bf
00000210: 7063 eb3e 17e4 61be 8acd 1abe c4e5 f7be
00000220: 21f9 18bf 6505 34be bbde adbe 756a 753e
00000230: 78b3 90be 32c2 08bf 1e98 13be 5ea0 aabd
00000240: f63e 193f 7acc 2fbf a5a9 573e 8030 0fbe
00000250: 8c11 42be efc9 d73e 5968 57be e8e0 493e
00000260: a6ac 8abd 3b2e 1b3f 3d72 fbbe 297e 0cbf
00000270: 139f c83e 9874 723e d8a0 debd 3758 0cbf
00000280: 8524 763e d4e3 89be 71c2 e9bd a76e a5be
00000290: 779d cc3e 0690 02bf 07e9 c43e a77b 58be
000002a0: 0a09 b7be 7b5d d63e 6b78 663e 7005 dcbe
000002b0: 1b63 05be 6f5a 46be 1cd7 a3be 9913 f7bd
000002c0: f15c e3be d9a5 efbe 51ea 89bd e23a 8abe
000002d0: 0751 98be 99f6 ab3e 7383 01be a40d 38bf
000002e0: 9f09 0d3f 5d3d dabd e8f0 bfbe a277 c8be
000002f0: 12a3 4dbe e8ed d53e f4d9 4b3c 8dad b83e
00000300: 1f5f 9b3d 8786 8dbe f27f 613e 6423 0c3e
00000310: 3ddb 0fbe cd04 163e e649 353e fcf3 8b3e
00000320: 6003 12bf 7be4 eb3c 2c7b 513e 5095 59bd
00000330: 4139 a1bb 395b 933d b449 0ebf e1ba aabe
00000340: 236a d7be 01a8 00bf 7b94 7dbe fd45 47bf
00000350: 69d5 07be 3822 16be 015a 8c3e 8e78 05bf
00000360: 9eff 113e 5060 dfbe 070b 3ebf 4e2e f6be
00000370: 0a66 e4be cfeb e0bd 60f9 143e da10 1abf
00000380: 74cd 52be 5114 583e 85cb 333f f3e1 ce3e
00000390: 4ced eebe d079 7fbe b52d 15bf 96a5 a13e
000003a0: 4284 c5be 3f4b 32bf 0143 02bf 5058 19bf
000003b0: 6b6e 1d3f 4c62 eabe 31cc 0ebf 4efb 85bf
000003c0: c88e f7be dbab 063f 2320 03bf aa49 4fbf
000003d0: 2f68 bc3e c287 42be 3e76 7ebe 18fb 583e
000003e0: 3602 2abd 811c 673f 6a7b 973e 11c7 053d
000003f0: 72c0 cdbe 38f7 52bf 9a12 d4be f083 55be
0.18716757 -0.19476393 -0.75762415 -0.06914422 -0.042790364 0.035457652 0.6246745 -0.37774938
-0.47066608 -0.46278977 0.36177036 -0.109810375 0.46452555 0.32204312 0.04726699 -0.6409143
0.07366018 -0.4918136 -0.32222366 0.84276223 -0.24252838 0.2964002 0.05584935 -0.023456816
-0.05640395 -0.5226161 -0.35889983 0.06927264 0.0812327 -0.29438066 -0.15794529 -0.2217613
0.36274263 -0.70789677 0.016334048 -0.058686014 -0.56436664 0.22601984 -0.82096034 0.31032857
0.27225718 -0.4983376 -0.5640129 -0.25930282 0.9085863 -0.24384885 -0.573944 0.1548889
-0.81899345 0.39585063 -0.42690247 0.2862836 0.73359156 0.36028907 -0.42651144 -0.33382994
0.31602883 -0.4386445 0.57848775 0.8453573 -0.36357808 -0.09315 0.5026807 0.17303103
-0.2807293 -0.39746115 -0.20781331 0.37509426 -0.51145434 -0.0063900603 -0.8034741 0.6965469
0.614675 -0.06179741 0.74573815 -0.4617827 -0.23035982 -0.32038975 -0.23082499 -0.25217575
-0.21767482 0.022696048 -0.53308576 -0.9532289 -0.24447441 0.4974503 -0.21745971 -0.308595
0.42458928 -0.2144299 0.17845793 -0.22080418 -0.33685783 -0.9381314 0.48486644 -0.12320598
0.22512509 0.2924195 0.5358087 0.29965597 -0.6151789 -0.73530376 0.3894535 -0.034613285
-0.3816818 -0.22410515 0.67608756 -0.35820615 0.49680972 -0.29452527 0.34306505 -0.3861585
-0.53399277 -0.22608477 0.48524895 -0.3227227 0.6532736 -0.41933045 -0.5292038 0.03749758
-0.15251632 -0.29897833 -0.22105977 0.3341146 -0.28981206 -0.20316225 -0.6443892 -0.7110158
-0.38691244 -0.044783227 0.80918986 -0.5226224 0.45974302 -0.22059666 -0.1511747 -0.48417485
-0.5975514 -0.17580183 -0.33958992 0.23966391 -0.28261924 -0.5342132 -0.14413497 -0.08331369
0.59861696 -0.6867138 0.21060808 -0.13983345 -0.18952006 0.4214625 -0.21035899 0.19714701
-0.06771211 0.6061742 -0.49110594 -0.54880005 0.39183864 0.2367729 -0.10870522 -0.54822105
0.24037369 -0.26931632 -0.1141404 -0.32310984 0.39963886 -0.5100101 0.38459036 -0.2114092
-0.35749084 0.41868195 0.22506873 -0.42972898 -0.13026087 -0.19370435 -0.32000053 -0.12064285
-0.44406846 -0.4680622 -0.067341454 -0.2699805 -0.2974932 0.33586577 -0.126478 -0.71895814
0.55092806 -0.10656235 -0.37488484 -0.39153773 -0.20081738 0.4178307 0.012442101 0.3606991
0.07586502 -0.276417 0.22021464 0.13685375 -0.14048477 0.14650269 0.17703971 0.27334583
-0.570364 0.028795471 0.20457143 -0.05312091 -0.0049201553 0.07195134 -0.5558121 -0.33345702
-0.42073163 -0.50256354 -0.24763672 -0.7784117 -0.13265003 -0.14661491 0.27412418 -0.52137077
0.14257666 -0.43628168 -0.74235576 -0.48082203 -0.446091 -0.10982477 0.14548254 -0.60181963
-0.20586187 0.211015 0.7023242 0.4040676 -0.46665418 -0.24948812 -0.5827287 0.31571645
-0.38577467 -0.69646066 -0.5088349 -0.5990038 0.6149661 -0.4577812 -0.5578032 -1.0467317
-0.4835112 0.5260598 -0.5122091 -0.8097178 0.36798236 -0.189971 -0.24849793 0.21189535
-0.041506015 0.9027787 0.29586345 0.032660548 -0.40185887 -0.82408476 -0.41420442 -0.20851111

fc2.weight f4 [256, 514]
00000000: cde8 ebbd 78ed 633e 03ba 313e d1ba 243e
00000010: 5822 443e 37b9 593e 0afb 6d3e c880 00bf
00000020: 0da5 c3ba 3d89 99be 39fa e7bd a439 00be
00000030: 5ea3 b8be 4b0c dabb 22cc 49bc d8b2 113e
00000040: bd07 383e 229a ac3d c23e 553d 6936 e93b
00000050: a935 9dbe b0ff 43be 6e9d cabe e6a3 9dbd
00000060: 7ad8 533e d0c7 8abe 3880 d5bd 9143 3dbe
00000070: d655 1e3d 1ef0 723e 9728 e83e 54c2 33be
00000080: 10ea 10be d801 1dbe 6c42 803e d2d2 353e
00000090: 313b 1c3e 2765 35bf 0fec 2bbe 6d5d 26bc
000000a0: 87d8 003e 917b 9f3e 2395 2cbe c858 713d
000000b0: 4377 333c dff1 b83e 5c6d 96be 4a70 803e
000000c0: 1403 fcbd a3d6 58be 8e8e 35be 0ebd 373e
000000d0: 4c6a aebd 9211 ec3d 1446 eb3d 34ba febc
000000e0: 2e3a 7bbd 2284 873e d84a a43d 270d 24be
000000f0: 6d36 d0be f509 c43b 6096 ea3d 4693 c13e
00000100: 1009 4ebe 70c6 3abf 85ff 293e 373d 18be
00000110: e006 83be efdb bd3c 487e 1ebd 0557 c4bd
00000120: 823c 853e 49d2 d3be 88cd 323e 8c10 24bf
00000130: 3bdc abbe 262e f53e 6d90 2f3d 5a6a 1fbd
00000140: 53d8 5cbe 3126 82bd d19e 143d d49d ac3d
00000150: 7d01 d6be 2e0f 6f3d c6b2 e1bc 8032 1abf
00000160: 4e91 06be 5c5b 103d 50fc 9ebe 3176 8e3d
00000170: 3c8b d33e 8941 013e 411a 0abe aad0 fa3d
00000180: c2b4 b63d 546b 22be 3c68 813d ee4a 1cbe
00000190: 8e06 13be d927 853c f871 ef3d 4979 663e
000001a0: 0175 e43e ed8c 573e 5152 0d3e be30 1f3c
000001b0: 3db7 d3be 230e bc3e da6e f2bd 57ef 9dbd
000001c0: b5c1 463e c299 ca3e 94a2 103d d096 eabd
000001d0: 6f1c 8dbd 28ba a83e a617 c2bd 7320 36bd
000001e0: b8a0 89bc 2a35 96be 6210 8bbd 145a 0fbb
000001f0: 4852 8c3e f6b9 a2be 796f 5dbe 2e21 86be
00000200: 4e2d a23e 1b53 803e a653 843d 565e 29be
00000210: 03de 4bbe ac08 36bd 8d03 d53d ae58 cebd
00000220: fb01 83bd b091 513e 0949 afbd d706 d93d
00000230: 4b1a e9bd 0915 dabd ef0c 183e cec8 f93d
00000240: 7299 4d3e abaa cabd b272 ecbd 6c6a 9bbe
00000250: 7b69 993e 1a60 fcbe 5f9c 2fbe 3e2c 4b3e
00000260: bef2 52bd 5c8a 7e3d 1e29 183e 72a4 693d
00000270: 4bd7 933d 7ee4 d7bd 59b8 24be a57a a8bc
00000280: d932 b0be 97f8 7d3e 1791 653e 9aa3 163a
00000290: e363 a139 edea 73be 5909 a1bc c30e 8dbe
000002a0: 5667 3f3d 73cd 20be 46ed 0dbe d329 a5be
000002b0: 67f6 13be c84d a6be 0e2f 2c3e b2bd 3fbe
000002c0: 5198 33be ebba 5f3e 9542 733e d3d7 983d
000002d0: cdaa 2fbd 0e7a 013f 235c 88bc a359 15bf
000002e0: 59f0 aabd d12a d2bd e0be 2e3b 55ae 0cbe
000002f0: 3edf a53d ca3a a8be 8234 c03e ad88 5abd
00000300: f934 e6bd eb19 fe3d 2064 89bd 6965 99bd
00000310: f18e f4be 3d87 ec3b 7401 62be c0ad 933d
00000320: 8ebc 55bd 9603 8abe dcc0 87bc 4ef2 e7bd
00000330: 5594 82be 6f81 1e3d ad85 f0be 3a03 173e
00000340: 5131 63be f093 363e 40cf cabd e165 06bf
00000350: c44e c8bc 5c49 c33e 5058 9ebd d993 e0bc
00000360: dfa9 83bd 5d72 9abe c849 9a3d e835 fc3e
00000370: 5e48 23bf f39c 023e b147 d9be 0645 423d
00000380: 3aaf 0cbf b802 6ebd cd46 d4bd 6bdf c7bd
00000390: a178 adbd af2b d4bd 58ac a23e e0bd e23d
000003a0: f18c 18bd 6c32 05bc 43ee afbe e430 d3be
000003b0: 8f29 15be e8b6 a4be aab9 efbc 4723 e7bd
000003c0: 8896 653d 5509 923e 9040 30bd 9f25 d1bd
000003d0: 840c fd3d 77ab 83be 8b11 e13e 3d85 fc3d
000003e0: 4a9e b23d ffea bd3e d22c 48be c859 44bd
000003f0: f0cc 133e 9a01 1b3e 056b 8bbe 6cab b53e
-0.115190126 0.22258556 0.17356114 0.1608689 0.19153726 0.2126206 0.23240295 -0.50196505
-0.0014926508 -0.29987517 -0.11327023 -0.12521988 -0.3606214 -0.0066542975 -0.012316735 0.1422838
0.17971702 0.08427836 0.052061804 0.007117082 -0.30705002 -0.19140506 -0.39573234 -0.07697277
0.20688048 -0.2710557 -0.104248464 -0.18482806 0.03865608 0.2372441 0.45343468 -0.17554599
-0.14151788 -0.15332735 0.25050676 0.17756203 0.15256955 -0.7085747 -0.16789268 -0.01015411
0.12582599 0.3114896 -0.16853766 0.05892256 0.010953727 0.36122033 -0.2938031 0.2508567
-0.123052746 -0.21175627 -0.17730162 0.17943212 -0.08516368 0.11526789 0.11487976 -0.031094648
-0.06133478 0.26467997 0.08022088 -0.16020642 -0.40666524 0.0059826323 0.11454463 0.37807673
-0.20120645 -0.7295904 0.16601379 -0.14867102 -0.25591183 0.023176162 -0.03869465 -0.0958691
0.26022726 -0.41371372 0.17461216 -0.6408775 -0.3356646 0.4788677 0.042862345 -0.038919784
-0.21566896 -0.06354941 0.03628427 0.08428541 -0.4179801 0.058364086 -0.027551066 -0.60233307
-0.13141367 0.035243377 -0.31051874 0.06956137 0.41317165 0.12622656 -0.13486578 0.12246831
0.089211956 -0.15861255 0.06318709 -0.15262958 -0.14357969 0.016254352 0.1169166 0.22507204
0.44620517 0.21049853 0.13800932 0.009716211 -0.41350737 0.36729535 -0.118375495 -0.07711666
0.19409831 0.39570433 0.035311297 -0.114545465 -0.06890189 0.32954526 -0.09477167 -0.04446454
-0.01680027 -0.29337436 -0.06790234 -0.002187376 0.27406526 -0.31782502 -0.21624555 -0.2619719
0.3167519 0.25063404 0.06461267 -0.16539893 -0.1990891 -0.044441864 0.10401068 -0.10075508
-0.06396862 0.20465732 -0.08558852 0.10597008 -0.11381968 -0.106485434 0.14848684 0.121965036
0.20078066 -0.098958336 -0.11545314 -0.3035463 0.29963288 -0.4929207 -0.17149495 0.19841096
-0.05150103 0.06214367 0.14859435 0.057041593 0.07218798 -0.10541628 -0.16085948 -0.020566294
-0.34413794 0.24801861 0.22418629 0.00057464244 0.00030782734 -0.23820086 -0.019657778 -0.27550325
0.04672941 -0.15703373 -0.13860044 -0.32258472 -0.14449464 -0.32481217 0.16814825 -0.18724707
-0.17538573 0.21848647 0.23755868 0.0746304 -0.042887498 0.50576866 -0.016645497 -0.583399
-0.08346624 -0.10262073 0.0026664063 -0.13738377 0.08099221 -0.32857352 0.3754006 -0.053353
-0.112405725 0.12407287 -0.067085505 -0.074900456 -0.47765306 0.00721827 -0.22070867 0.072108746
-0.052181773 -0.2695586 -0.016571455 -0.11325513 -0.25503793 0.038697656 -0.46976987 0.14747325
-0.22186781 0.17829871 -0.09902811 -0.52499205 -0.02445162 0.38141906 -0.07731688 -0.02741425
-0.06428885 -0.30165377 0.07533604 0.49259877 -0.637823 0.12755184 -0.4243751 0.047429107
-0.54954875 -0.05810806 -0.10365067 -0.097594105 -0.08470274 -0.103598945 0.31772113 0.11071372
-0.037243787 -0.008129697 -0.34361467 -0.41248238 -0.14566635 -0.32170796 -0.029263336 -0.112860255
0.05605176 0.28522745 -0.04303032 -0.10212254 0.12355903 -0.25716755 0.43958697 0.12330101
0.087215975 0.3709335 -0.19548348 -0.047937185 0.14433646 0.1513733 -0.27230087 0.35482347

fc2.bias f4 [256]
00000000: 23be 1c3c c98f 5ebf 6903 a43d 7d8e 5bbf
00000010: 2dad 49bf aa34 6fbf 4f34 a2be 93a0 893f
00000020: 35d8 f93d 3b39 9f3d 15b1 743e d6d6 5bbd
00000030: ba88 39be ee5d 88bc 5399 43bf d93d a73e
00000040: a6c7 8e3f c3b3 44bf f82b 04bd 1e55 ad3f
00000050: 288d 4fbf 452d 093f fc03 92bd 751e d5bd
00000060: a0e8 273d e844 083f b0d3 873f 19d8 b1bd
00000070: 1ae3 d63e 0c23 febe e002 6bbf e90f d5be
00000080: da6a 42bf 4489 ba3f 1164 263e 1132 36bf
00000090: 71b8 163f 587d 92be 2b2b 683e 88df 063c
000000a0: 22a5 8c3e 069d b33f 16e9 fbbe 4dcb 0a3e
000000b0: 8f26 1d3c 44e1 483d 6c04 42bf 3e43 c13d
000000c0: 2ec4 7bbc c154 8e3f a26a aa3e a476 41bf
000000d0: 52e7 153f bee4 4cbe ceaa 143f a82d 4dbf
000000e0: a49e 683d 9d83 48be 223c f0be 4d58 9d3e
000000f0: 704f 1fbf 866a 5bbf f4df 27bf 3775 debd
00000100: 262f 88bf 539d 9ebe 7709 033f 8177 2c3e
00000110: d995 4fbd 5f41 413f eb6f 95bd b292 8ebc
00000120: 086a 1a3e 96e2 663e 9086 b2be 1743 4ebe
00000130: c531 3ebf 8ae5 e9bd 5573 f7be e1f8 1fbf
00000140: ae9b 243f 5764 4a3e 4687 3bbf 735f 55bf
00000150: 9761 d0bb 98c9 39bf d0ec 123f dcdb 9a3d
00000160: f1be 90be 2e55 aa3f 124e fbbe f677 3dbf
00000170: d915 b03f b88c dabc b516 44bf 5453 753c
00000180: fa0d 9b3e aa73 2b3f a26a 9b3d 8289 53bf
00000190: 8819 573b 3da0 b83f 41b3 623f 56a3 0bbf
000001a0: f635 143f d9e2 823f 611c 9e3e 49b9 62bd
000001b0: 3ae4 41bf 8b3d 3cbf ec88 04be 20c4 3b3f
000001c0: f9be 95be d45a 1a3f 3e50 4f3e 9797 15bf
000001d0: 5e10 84be a236 473f a063 61bf f529 0ebe
000001e0: e7c8 493c 6367 2e3f 4e2a ccbc ad27 8e3f
000001f0: e861 133d 2bd7 4ebf 0469 4a3d 0dbf bebd
00000200: f93e a73f e8aa 56bf 6bce fcbe 11a7 62bf
00000210: 69cb e93e 6169 9b3f 6e55 d6be a238 09bf
00000220: 6bab 8cbd 62b4 323d 596c f33e 02f3 a03f
00000230: b7c7 823f 41f0 613e 36c8 063e f948 133e
00000240: 19bc 5a3f e04b 8b3f 6f90 033f eb33 963f
00000250: bed2 173f f3d3 3ebf 2509 02bf d0c3 493e
00000260: 9af6 903f 66e7 383e f181 7a3f 1e9b 603d
00000270: 0cd4 c4be 2457 383f a86e 1dbf 7740 2dbf
00000280: 8417 b13f af41 6abf c1b2 43bf 8934 8c3f
00000290: 56c1 633f 3c12 0abf 0b38 23bf 2ed2 903e
000002a0: 523f b53f 5ab2 ae3f 4a76 a33f 7bf7 ad3e
000002b0: d51a 453e a1dc 823f d39b fcbe 3b72 06bf
000002c0: 266b 4ebd bdee a73f 028e d9be f568 80be
000002d0: fb39 7e3f 13cf 22bf 8431 ab3f 3903 813d
000002e0: ce53 e5bd bf8a b13c 7037 26bf 4f4d 88be
000002f0: 752a 40bf d195 49bf f996 10be 6ea7 2b3f
00000300: f81c 1fbe 2419 c83e 1f23 3a3d 4608 91bb
00000310: 11dc 68bf 636f 0fbf 326c c83d 0c20 aaba
00000320: 5f68 cfbc 8c96 57bf 7bc2 3abd 5378 563b
00000330: 8934 613c 56af 17be b5e3 133d c75e a6be
00000340: d46d af3b 6a5b fb3e cb55 ab3f 0bd2 38bf
00000350: edcf 583e f2e9 5cbf e898 ab3e db3c 75bf
00000360: cfe9 ef3e d42f f53b 855a 38bf 55ec b83c
00000370: 4a53 68bf 79f5 ab3f 8604 5ebf 0d34 933f
00000380: 0e21 043e fec7 803e 451b c33d c9e0 823f
00000390: efc8 36bf dc7c 9c3e 9c4a c8be 550f a2be
000003a0: 5e61 2fbc d86b 973f 9c8b 72be aa92 65bf
000003b0: c53b 333d 97f9 96bd 109f 32bf d78a 9d3f
000003c0: 5ab6 423e 00c4 cf3d af6f 6a3f 7ec8 293e
000003d0: 81f7 073f 56d9 64bf 7b58 2e3e 20fd 803f
000003e0: 30d0 193f cd30 7abe 0a3b 083f b18c 233f
000003f0: 716f 8b3f 38c6 993f b348 9d3f 7974 9bbe
0.0095668165 -0.8693815 0.08008463 -0.85764295 -0.7877987 -0.93439734 -0.31680533 1.0752128
0.12199441 0.07774588 0.23895676 -0.05367168 -0.18118563 -0.016646352 -0.7640583 0.32664374
1.1154678 -0.76836795 -0.032268494 1.3541601 -0.8107476 0.535847 -0.07129666 -0.104062
0.040993333 0.5323014 1.0611477 -0.086837955 0.4197014 -0.49636114 -0.9180126 -0.416137
-0.7594429 1.457314 0.1624911 -0.71170145 0.58875185 -0.28611255 0.22672717 0.008232005
0.27469736 1.4032295 -0.49201268 0.13554116 0.009591713 0.049042955 -0.75788 0.094366536
-0.015366597 1.1119615 0.3328448 -0.75571656 0.5855609 -0.20009133 0.5807313 -0.8014779
0.056791916 -0.19581456 -0.46920878 0.3073143 -0.62230587 -0.85709417 -0.655761 -0.10862201
-1.0639389 -0.30979404 0.5118632 0.16842462 -0.050680015 0.75490373 -0.07296737 -0.017403934
0.1507951 0.22547373 -0.34868288 -0.2014278 -0.7429469 -0.11420734 -0.4833018 -0.62489134
0.6430005 0.19764839 -0.73253286 -0.8334877 -0.00635929 -0.7257323 0.573926 0.07561466
-0.28270677 1.3307245 -0.49083 -0.7401117 1.3756667 -0.026678428 -0.7659715 0.01497348
0.302841 0.66973364 0.07588698 -0.82631695 0.0032821614 1.4423901 0.8855477 -0.54546106
0.5789484 1.0225478 0.30881026 -0.055352483 -0.7573887 -0.7353141 -0.12942857 0.7334614
-0.29247263 0.6029484 0.20245454 -0.5843443 -0.25793737 0.7781774 -0.8804264 -0.13883193
0.012315965 0.68126506 -0.024922516 1.1105858 0.035982043 -0.8079707 0.049416557 -0.09313784
1.3066093 -0.8385453 -0.49376234 -0.88536173 0.45663002 1.2141534 -0.41862053 -0.5360204
-0.06868633 0.043629058 0.475436 1.257416 1.0217198 0.22064306 0.13162312 0.14383306
0.85443264 1.088253 0.51392263 1.1734594 0.5930594 -0.7454216 -0.50795203 0.19703603
1.1325257 0.18057021 0.97854525 0.05483543 -0.3844303 0.72007966 -0.61496973 -0.6767649
1.3835301 -0.91506475 -0.7644463 1.0953532 0.8896688 -0.53934073 -0.6375739 0.28285354
1.4159949 1.3648179 1.2770474 0.33977875 0.19248517 1.0223581 -0.49337634 -0.5251805
-0.050395153 1.3119732 -0.42491156 -0.25080076 0.9930722 -0.6359722 1.3374486 0.06299443
-0.11197625 0.021672605 -0.6492834 -0.26621482 -0.75064784 -0.78744227 -0.14120091 0.6705235
-0.15538394 0.3908168 0.04544365 -0.004426035 -0.90960795 -0.5602934 0.097862616 -0.0012979521
-0.025318323 -0.8421409 -0.045595627 0.0032725527 0.0137454355 -0.14812979 0.03610583 -0.32494184
0.0053536687 0.4909318 1.3385557 -0.721955 0.21173067 -0.8629447 0.33515096 -0.95795983
0.4685807 0.007482508 -0.7201312 0.02257363 -0.9075209 1.3434287 -0.8672565 1.150026
0.12903234 0.25152582 0.095266856 1.0224849 -0.7140035 0.3056401 -0.39119422 -0.31652322
-0.0107043665 1.1829786 -0.23686069 -0.89676917 0.043758173 -0.07371824 -0.6977396 1.2307996
0.19014874 0.10144806 0.91576666 0.16580388 0.53112036 -0.8939413 0.1702594 1.0077248
0.60083294 -0.24432679 0.53215086 0.63886553 1.0893384 1.2013617 1.2287811 -0.303623

fc3.weight f4 [1, 256]
00000000: a2bc db3f ff5f 21bb 63d5 3dbf 809d 21bf
00000010: 0012 e93c dfba 603d 318c b8be 5213 143f
00000020: 57ff 77bf 6dbe 81bf 4e6e dd3f ba41 acbf
00000030: df70 963f a60f 66bf 0177 813b 9d7a aa3f
00000040: 675d 873f 93aa 873a 4a75 90bf 11fc 723f
00000050: d379 1b3e 3d6d a83f 7f0a 343f c7fb 453f
00000060: f2d7 4a3f d1e1 6f3f 02b7 473f a0e9 86bf
00000070: 7e99 923f 53c2 433f 632b d4bb cd0a d3bd
00000080: c3af 91bf a67a 473f 44f3 7f3f f460 a83b
00000090: aaad 713f ea7b b33f b90a 8f3f 4700 193d
000000a0: 9cac 973f 1bf3 6e3f c4e0 023f 28fc a3bf
000000b0: 95d7 60bf ac18 97bf 502d 62be dc1d 323f
000000c0: 6239 63bf 6515 6e3f 9a47 793f 215c b53e
000000d0: 47e9 953f e28a 68bf c3cb b73f def4 503c
000000e0: 5c37 70bf bb49 d73f 9444 6b3f 66e6 ac3f
000000f0: 4db7 373f 7eb9 f13a b193 3c3f 3eff 90bf
00000100: 2859 49bf 5211 1fbf 09e4 4d3f 1054 773f
00000110: 1001 4abf c322 b73f 940a 3cc0 c02b 58bf
00000120: 802c 633f 4cc8 c43f 90e6 79be 36bd 70c0
00000130: 4aaa d23d 8ea8 77bf ab6c 163f d461 da3e
00000140: 3621 d03f dfbb 5cbf f5a0 863e 7a57 9bbf
00000150: 57c7 813f 59a9 9ebb f7f3 833f d3c4 4e3f
00000160: 2676 d6be 27f4 853f f7b7 5cbe cfa4 833e
00000170: 47c7 153f c56d 90bf 9ee4 023c 2115 6bbf
00000180: f243 733f 7c65 c53f 16f7 5ebf f913 8b3b
00000190: 2630 8dbf d33d 343f 4fb1 913f 6d55 8c3f
000001a0: 0852 a43f 3286 9d3f 81f3 7d3f cf55 4fbf
000001b0: c425 55bf fa26 7a3e 413f 0e40 8def 1f3f
000001c0: c824 01bf be51 dc3f 711e 8e3f 4f5e 423f
000001d0: f2c0 ccbe 25fe 893f 05ad 4fbf 959a 3cbf
000001e0: 9adc 86bf b138 953f d1f9 8a3f c680 2e3f
000001f0: 4441 323f 786b adbd a0cc 4dbf a4f7 5c3f
00000200: fac2 823f 79ba dd3c 7aea 47be be05 79bf
00000210: 4932 9e3f 6003 6e3f ec3a 57be ff31 103f
00000220: 4426 913f 52dd 51bf c6b8 663f dc8c 453f
00000230: bcad 6c3f ff2e 333f 0d79 3e3f 5f68 923f
00000240: 4581 aa3f f237 fa3e cf3b 1a3f 95e5 893f
00000250: a83f ce3f 2a05 963a fcdb 47be 6442 8e3f
00000260: 78d8 293f 87cc 54bf 9c91 013f bfd2 5abf
00000270: 9e1e 50be ffb6 2a3f 5d8e f93e 88be 89bf
00000280: a669 1e3f 3cc1 7a3d 04f8 9f3b bf8a ff3e
00000290: 0f79 6d3f 0092 323f c92f 7e3e e10c 653f
000002a0: 2051 3e3f 20f2 6c3f f458 473f acca c23f
000002b0: 1b94 703f e25f 483f 471b 223f f33b be3e
000002c0: b83a 5a3f bc00 393f 8a05 43be be6f 36bf
000002d0: 4b1d ba3f 7b22 813e 89a8 1b3f 09c2 853f
000002e0: 406c 533f f598 513f 0c99 b33e 77e9 b1bf
000002f0: 298b b33e 4f14 6abf e716 2840 856e a73f
00000300: ee47 e83f e210 ba3f a965 7bbf ad7f 4fbf
00000310: c1bf 5ebe 3e49 ac3f 5bd2 5abf 0436 773f
00000320: 23a9 7dbf d12c d93b 2fb3 88bf d72d 0bc0
00000330: 7583 983f eb46 3ec0 277a 60bf 8cbc c5be
00000340: 3c19 c93c 544e 573f 4a53 7b3f 9b91 fe3d
00000350: 66a9 293f d8cb c7bd 609d 823f fc41 47ba
00000360: 12af 1f3f 9596 85bf 83aa bf3b 64b2 66bf
00000370: 6097 93bb dcf4 823f c862 f83a a1ef 2c3f
00000380: f42e 873f e8f9 743f 4390 9fbf 977a 773f
00000390: b702 fcbb bc2a a03f 748d 7ebe 14f1 f4be
000003a0: c7a8 3dbf 36fa 2c3f 2f31 8cbf fda1 943a
000003b0: 9a6f a5bf ccb4 89bf aff7 6e3e d9a1 6c3f
000003c0: d3af 793f 6d82 74bf 90b1 b03f b1e2 a03f
000003d0: 4333 863f 3ebd f6bc 3e89 943f 41b7 9e3f
000003e0: fa4b ce3f b0b1 8abf 9421 b03f 88d2 d63f
000003f0: 48d6 2a3f c3a4 593f caa3 7c3f 3a4c 05bf
1.7166941 -0.0024623869 -0.7415373 -0.6313095 0.028450966 0.054865714 -0.36044458 0.5784198
-0.9687399 -1.0136238 1.7299287 -1.3457558 1.1753196 -0.8986763 0.003950954 1.3318669
1.0575379 0.0010350518 -1.1285794 0.9491587 0.15183191 1.3158337 0.70328516 0.77337307
0.79235756 0.93703943 0.7801362 -1.0540047 1.1453092 0.7646839 -0.0064748987 -0.103047945
-1.1381763 0.7792152 0.9998057 0.005138511 0.94405615 1.402219 1.1175147 0.03735378
1.1849551 0.933397 0.51124215 -1.2811327 -0.8782895 -1.1804404 -0.22087598 0.6957681
-0.88759434 0.93001395 0.9737488 0.3542185 1.1711816 -0.9083692 1.4359058 0.012753693
-0.9383447 1.6819376 0.91901517 1.3507812 0.7176407 0.0018442122 0.7366286 -1.1327894
-0.78651667 -0.62135804 0.8042608 0.96612644 -0.7890787 1.4307483 -2.9381456 -0.8444176
0.88739777 1.5373626 -0.24404359 -3.7615485 0.10286386 -0.9674157 0.58759564 0.42652762
1.6260135 -0.8622417 0.26294675 -1.2136071 1.0138959 -0.004841965 1.0308827 0.8076908
-0.41887015 1.0465134 -0.21554552 0.25711676 0.585072 -1.1283499 0.007989077 -0.91829115
0.9502555 1.5421596 -0.87095773 0.0042443243 -1.1030319 0.70406836 1.1382235 1.096357
1.2837534 1.2306578 0.9919968 -0.8099031 -0.8326075 0.24428931 2.2226107 0.624749
-0.5044675 1.7212446 1.110304 0.75925153 -0.39990956 1.0780684 -0.8112338 -0.73673373
-1.0536072 1.1657926 1.0857488 0.6816524 0.6963084 -0.08467764 -0.8039036 0.8631537
1.0215752 0.027066456 -0.1952304 -0.97274387 1.2359096 0.929739 -0.2101857 0.5632629
1.1339803 -0.81978333 0.9012569 0.7716806 0.924526 0.69993585 0.7440346 1.1438102
1.33207 0.48870808 0.6024751 1.0773188 1.6113176 0.0011445631 -0.19517511 1.1114011
0.6634593 -0.83124584 0.5061281 -0.85477823 -0.2032418 0.6668548 0.48741427 -1.076127
0.61879957 0.06121944 0.0048818607 0.49910542 0.92762846 0.6975403 0.24822916 0.89472777
0.74342537 0.92556953 0.77870107 1.52181 0.9397599 0.78271306 0.6332287 0.37155113
0.8524585 0.72266746 -0.19045082 -0.71264255 1.454019 0.2522162 0.6080404 1.044984
0.8258705 0.8187402 0.35077703 -1.3899373 0.35067108 -0.9143724 2.6263978 1.3080603
1.8146951 1.4536402 -0.98201996 -0.8105419 -0.21752836 1.3459852 -0.85477227 0.96566796
-0.9908621 0.006627657 -1.0679682 -2.1746728 1.1915118 -2.9730785 -0.8768639 -0.38620412
0.024548166 0.84103894 0.98173964 0.12430116 0.66274107 -0.09755677 1.0204277 -0.000760108
0.6237651 -1.0436579 0.005849184 -0.9011595 -0.0045041293 1.0230975 0.0018950338 0.67553145
1.0561204 0.95693827 -1.24659 0.9667143 -0.0076907533 1.2513041 -0.24858648 -0.47840178
-0.7408566 0.6756929 -1.095251 0.001133978 -1.2924683 -1.07583 0.23336671 0.9243446
0.9753391 -0.95511514 1.3804188 1.2569181 1.0484394 -0.030119535 1.1604383 1.2399675
1.6116936 -1.0835476 1.3760247 1.6782999 0.6673322 0.8501703 0.9868742 -0.5206944

norm.weight f4 [28]
00000000: 2cf5 883f e97e a93f 075a a53f 0afc a83f
00000010: 66c6 ac3f b401 b23f 9ee0 af3f 1238 a93f
00000020: 10e1 a03f 556c 9d3f 6f33 933f b4ee 9a3f
00000030: b054 9e3f e361 a93f 6b27 a13f 6c89 aa3f
00000040: 2621 a43f a981 963f b683 b33f 6efa a13f
00000050: 2d6c b73f f0ac ae3f 6636 bf3f 0add 643f
00000060: db14 1140 8cfe ca3f 4bd6 bb3f 5cad b13f
1.069982 1.3241855 1.2918099 1.3201916 1.3498046 1.390677 1.3740423 1.3220236
1.2568684 1.2298685 1.1500071 1.2104096 1.2369595 1.3232998 1.2590154 1.3323188
1.2822616 1.1758319 1.402457 1.265455 1.4329888 1.3646526 1.4938476 0.8939978
2.266898 1.5858932 1.4674772 1.388103

norm.bias f4 [28]
00000000: 2ebe 173d ccc5 0d3f 2a20 083f e2f6 1b3f
00000010: 00aa 1a3e 3456 6e3e 4682 e7bd e9b2 bc3d
00000020: d673 513d e98e 58bc 9cd1 a8bd d042 12be
00000030: 1e4a aabe 013b 05bf d858 c2be a60c 91be
00000040: a7b1 c7be 1994 b3be cf81 aabd 1f03 1e3d
00000050: c2d4 563e 523b d33e f4d3 bb3e ce1d 3f3f
00000060: 95c4 9d3d 0339 193e b1ab 0c3f c783 03bd
0.037046604 0.5537994 0.5317408 0.6092359 0.15103912 0.23275071 -0.113041446 0.09213812
0.05113586 -0.013217666 -0.08243105 -0.142833 -0.33259672 -0.5204316 -0.37958407 -0.28329962
-0.39002725 -0.35073927 -0.0832554 0.038577195 0.20979598 0.41256195 0.36685145 0.74654853
0.07703511 0.14963154 0.5494948 -0.032108095

norm.running_mean f4 [28]
00000000: 9c0c c33f 6bf5 d23f 90be d53f 2f9c d63f
00000010: 70db dc3f 5519 df3f 44f0 d43f 323b dc3f
00000020: 8c8a e83f f7e3 e63f 73c8 ee3f 0c92 e23f
00000030: e2c9 da3f 66db cc3f dc48 b83f 38f9 b83f
00000040: a3ca b43f 93f9 a83f 330f aa3f 5885 ad3f
00000050: d447 ad3f 7f23 b83f f803 b83f a8dd c23f
00000060: 0f68 d03e fbcb 9e3f b08e da3e 72a9 3a41
1.5238223 1.6481146 1.669878 1.6766413 1.7254467 1.7429606 1.6635823 1.7205565
1.8167281 1.8038319 1.8654922 1.770082 1.709286 1.6004455 1.4397235 1.4451056
1.412434 1.3201164 1.3285888 1.3556318 1.3537545 1.4385833 1.4376211 1.5223894
0.4070439 1.2406 0.42686987 11.6663685

norm.running_var f4 [28]
00000000: 3150 dd3e b3d6 033f 61ce 203f dc69 513f
00000010: ed9d 5d3f 07d6 733f 9a9a 713f 5bed 6c3f
00000020: e3cd 493f ab30 2d3f f312 043f b28c ef3e
00000030: f993 fd3e ef5c 063f a730 0b3f 97b3 243f
00000040: 0f00 253f 2d59 183f 50a6 1f3f 0dcf 103f
00000050: 7d17 0d3f 90c1 033f f9d6 e23e 0454 dc3e
00000060: 298f f73f b464 ee3e bdd6 b23c 477c 4442
0.43225244 0.5149948 0.6281491 0.81802154 0.865691 0.95248455 0.9437653 0.92549676
0.78829783 0.67652386 0.51591414 0.4678703 0.49526957 0.52485555 0.5437111 0.6433653
0.64453214 0.5951107 0.6236315 0.56565934 0.55113965 0.5146723 0.44304636 0.4303285
1.9340564 0.46561205 0.02183091 49.121365

norm_a.weight f4 [2]
00000000: d44f 0c40 73f2 1b40
2.1923723 2.436673

norm_a.bias f4 [2]
00000000: c9cf 653e 4788 a43d
0.22442545 0.08033805

norm_a.running_mean f4 [2]
00000000: a10d c5bc 731d 193e
-0.02405435 0.1495264

norm_a.running_var f4 [2]
00000000: 1d8c fe3d 977a 053e
0.12429068 0.13035046
