turtlebot3_ddpg/save_model_ddpg/2020_12_03-01_44_19/stage_3_3050_critic.pth (torch_old, 590398 bytes, 13 tensors)

fc1.weight f4 [512, 28]
00000000: 7129 26be f79e 4abe e546 0e3e a812 58bd
00000010: 9d93 68be 8f15 efbc ce54 cbbc 4fdd 693e
00000020: bd4c 5dbb 9525 543e b21e 233e e94d 063d
00000030: 295e 643e 2b70 2cbe 776e a6be 7629 c8bd
00000040: 6577 f6bd 41ee d1bd de40 58be 6aac 633e
00000050: 2a69 713e b4a4 04be 06c7 efbd 4340 cbbd
00000060: 60a4 a2bd d8d8 b3be 6c1e 54be f727 52bc
00000070: 433f 7e3c eb6e d13d 843c 89bd 48c9 01be
00000080: c1c3 43bd e007 28be 62dd 083e a14f 87bc
00000090: 0fab 373e b0fd 2a3e b926 243e 8ada 403e
000000a0: c83c 563d c2ca 0abe bc37 a63d 4797 c9be
000000b0: 7152 a4bd 191b 873d d9b4 fa3c 7bda bbbd
000000c0: d05a 1dbe ad3a 873d e756 833c 1e17 d4bc
000000d0: 10d7 9bbe 0667 96be fca7 bbbd 47d6 853d
000000e0: c4df 993d 026f f5bd 03b0 e53d 5a9f 993e
000000f0: fbdb 053e 25db 963d f4e4 c73d 5e00 013d
00000100: 2c1c b33d 37cf ebbd 7d35 95bd af00 b2bd
00000110: 7f1a 33be f175 803c 0abd a0bc 2d6e 9a3e
00000120: 36a0 553e 14db 2b3e 91ed 293e 5c7b cabd
00000130: c846 23be aeb2 f2bd 63ed 223e 9d2a 19bd
00000140: 7189 a43e c349 aabe cd0b b1be 8f5c 70be
00000150: b331 a23d f3be b2bd afef 1bbe c560 aebd
00000160: 71ef 0bbe 3e88 f93d ff91 dfbd 6792 18be
00000170: da93 18be ea8d e33d e458 84bd 0862 213e
00000180: 6bdb 1dbd 6bec 5f3c ee91 b6bc fdb0 23be
00000190: 211f 00be 3470 b9be 9258 973d 498d 813e
000001a0: 9c55 7abe d75f cabb 1546 c9be 2149 6c3e
000001b0: 5d8c 19be 8ba8 1ebe 40db e7bd de86 0ebd
000001c0: f32b 153d 4668 20be c028 6bbc cc5d d73d
000001d0: d470 a1bc 25f1 87be eac0 2a3d de00 e2be
000001e0: c044 cc3b d421 ebbc 6da5 103e b197 6f3e
000001f0: 50b3 783e 3864 843e 9162 023e 8901 33be
00000200: ffa2 af3d d933 f93d b63e 9a3e 29a6 0dbe
00000210: e62f 423d e423 023e e113 1cbe eb8a 6cbe
00000220: fd2d afbd 5191 413e 9329 96bd b696 383d
00000230: f489 1dbe 1f9c c1bc 5308 a13d 8cdb 02be
00000240: ae11 c13e 65bc 7d3e f872 c23b 8c4a 29be
00000250: 71b2 983d 6a9c 213e 9bd2 d23e 49c0 7cbe
00000260: ff0c 0ebe 29ee e0bc 2b3b 1dbc 534c b0bc
00000270: f370 a9be b3db ce3e 48c3 d73c 332d 03be
00000280: f035 3bbe cfb8 a2bd 37da 363e f80c d93c
00000290: fbe6 86bb 2980 a4bd 763e 173e 91c1 31be
000002a0: cdd4 e8bd c1e9 453e 1b50 1e3c 2313 cabd
000002b0: 6535 ec3d af00 b83e 3335 8bbe 74dd 143c
000002c0: 76e4 a6bd 26f6 583e 8211 823e 533e 38be
000002d0: ade2 743e 866d 723d 3770 463d 0ceb f4bd
000002e0: 4fa8 bd3d 7c68 fcbd e598 503e f9f6 83bd
000002f0: 777c 393e 682d cd3c f5f8 483e 48ca 9abd
00000300: c7cd 3fbe 8d86 b83e 3ef2 013d 6cd4 0a3d
00000310: ae63 20be 7bfe f6bd f732 f3bd dcca cdbe
00000320: c3f9 c7bd 6d13 1a3e bff6 31be eadd acbd
00000330: 5256 963d a742 b5bd 66a3 533d df2b 953e
00000340: f9e8 153c 34c6 583d e544 803d 3735 143e
00000350: 5f5d 48bd 84b1 483e 3bb8 87bd 4af0 b93e
00000360: 5d89 a4bd 0dae 04bd 8b97 7cbc f0df 45be
00000370: b855 433d f00d 013e 38f5 d13e b179 0b3f
00000380: f594 123e 2b5f f4be c027 623e 8be9 a4bd
00000390: b365 dbbd 3cf5 60bd 61c4 82be 8db6 04bd
000003a0: 4223 dd3c e6ed aabd a16b 273d ffa1 b93d
000003b0: 2a33 acbc 0eb3 33bd 2e38 1c3e 94af ad3d
000003c0: 9878 513c 86ec 553d 2f18 9ebe bbda 86be
000003d0: 4f94 06be 7da8 953d 9dd9 763e 7350 903d
000003e0: 8e5f 9ebe 4c01 07bd 591f 06bd 68c7 e6bb
000003f0: ee9a aebc 8965 173e 7ce8 a83e 33a1 823e
-0.16226746 -0.19787203 0.13894232 -0.052752167 -0.2271256 -0.029185085 -0.024820711 0.22838329
-0.0033767663 0.20717461 0.15929678 0.032789145 0.22301544 -0.16839664 -0.32506153 -0.09773533
-0.120344914 -0.102505215 -0.21118495 0.2223374 0.23575273 -0.12953454 -0.117078826 -0.09924366
-0.07941508 -0.35126376 -0.2071473 -0.012826911 0.015518012 0.10226234 -0.067009956 -0.12674439
-0.047794107 -0.16409254 0.13365701 -0.016517462 0.17936347 0.16698337 0.16030397 0.18833366
0.05230406 -0.13553908 0.08116099 -0.39373228 -0.08023537 0.06596965 0.030603813 -0.09172531
-0.15366673 0.066029884 0.01603265 -0.02588993 -0.30437517 -0.29375476 -0.091629 0.06535011
0.07513383 -0.11984064 0.11215212 0.30004388 0.13072197 0.07366017 0.09760466 0.03149449
0.08745608 -0.115141325 -0.07285593 -0.08691537 -0.17490576 0.015681239 -0.01962139 0.30162182
0.20861897 0.1678279 0.1659453 -0.0988681 -0.1594497 -0.11850487 0.15910868 -0.037394155
0.3213611 -0.332594 -0.34579316 -0.23472808 0.079196356 -0.08727827 -0.15228151 -0.08514551
-0.13665558 0.12184189 -0.109165184 -0.14899598 -0.14900151 0.11111052 -0.06462267 0.15760052
-0.03853933 0.013667206 -0.022286382 -0.15985484 -0.12511875 -0.36218417 0.0738994 0.25303105
-0.2444672 -0.006175976 -0.3931128 0.23074771 -0.1499495 -0.15493982 -0.113211155 -0.034796588
0.036418866 -0.15664777 -0.014352977 0.10515937 -0.019707121 -0.26551166 0.041687883 -0.44141287
0.0062337816 -0.028702654 0.14125605 0.2339771 0.24287152 0.2585771 0.12732913 -0.17481054
0.08576011 0.12168092 0.3012597 -0.13832916 0.04740896 0.12709004 -0.15241958 -0.23099868
-0.085536934 0.1890309 -0.073321484 0.045065604 -0.15384656 -0.023634015 0.07862916 -0.12779063
0.377088 0.24778898 0.0059341155 -0.16532344 0.0745591 0.15782323 0.41176304 -0.24682726
-0.13872145 -0.027457314 -0.009596626 -0.02152077 -0.33093986 0.40401992 0.026338235 -0.12810211
-0.18282294 -0.07945406 0.1785668 0.026495442 -0.0041168905 -0.08032257 0.1476992 -0.17358996
-0.113687135 0.19327451 0.009662653 -0.09866931 0.11533622 0.35938022 -0.27189025 0.009086002
-0.08149044 0.21187648 0.25403982 -0.17992525 0.23914595 0.05918648 0.04844686 -0.11958894
0.09260618 -0.12324616 0.20370825 -0.06443591 0.18113886 0.025046065 0.1962622 -0.07558113
-0.18730842 0.36040154 0.03172516 0.033893988 -0.15663025 -0.12060257 -0.11874955 -0.40193832
-0.09764435 0.15046473 -0.17379282 -0.08440764 0.07340683 -0.088506036 0.0516695 0.29135033
0.009149783 0.052923396 0.062631406 0.14473425 -0.04891717 0.19598967 -0.06626936 0.36316139
-0.080340125 -0.03239255 -0.01541699 -0.19323707 0.04768917 0.12602973 0.410074 0.5448256
0.14314635 -0.47728857 0.22085476 -0.08052357 -0.10712757 -0.054921374 -0.2554045 -0.032400656
0.026994351 -0.08346157 0.040874127 0.090641014 -0.02102049 -0.04387193 0.15255806 0.084807545
0.012785099 0.05222752 -0.30877826 -0.26338753 -0.13142513 0.07307527 0.2410645 0.070465945
-0.30932277 -0.03296022 -0.03274474 -0.007042814 -0.02131411 0.14784826 0.32989872 0.2551361

fc1.bias f4 [512]
00000000: 3f71 903d d9d6 f5bc 04ff 8abe 4033 a9bd
00000010: 576e d83c 2abd c23d 8ec7 b33e 597c 03be
00000020: 0148 cebd 548d 95be de0e 993e ab9d cebd
00000030: e4ba 953e 08a1 5c3e 14b3 fc3c 003a 64be
00000040: ba3a 1f3d fee1 10be 1ded d0bd b1d2 053f
00000050: 015e 91bd 433f aa3e fecc a63b d479 36bd
00000060: af99 debd a047 27be 5579 81be 86a7 0c3d
00000070: e389 8d3d 054d 04bd 731b 68bd 8676 2bbd
00000080: 1aad 4d3e 4c40 06bf 5229 113d 62f6 4abc
00000090: 0499 b9be 0743 f63d d341 24bf efc5 103e
000000a0: 283a 9f3e e843 80be 3611 b3be 9fc0 bebd
000000b0: 5aa0 173f 94d5 c6bd 2834 d7be 46ab a43c
000000c0: ef9d 19bf 44dd f63d f90a 8cbd 54f1 983d
000000d0: 0b7f f03e 3b14 653e 0e52 32be cfd5 84bd
000000e0: bb2f 1a3e 0365 c13d dc2a 8b3e 962f de3e
000000f0: 6d1b 76be 9dbd 893c 7f43 9e3e af68 0d3e
00000100: 5c0a 4dbe 1c05 48be 48c4 5abe 2a61 743e
00000110: 1a1b 51be 15ea 99bc f564 a4be 4d5a eb3e
00000120: 04d3 a73e e85d c7bc 4fe1 b63e b291 91be
00000130: 18df 45be acf4 84be d227 c4bd 22a7 36be
00000140: e916 b9bd c442 11bd 0db8 aebe 3f13 f7be
00000150: c8a7 dbbd 5eac 673e efa9 4fbd 6cf8 57be
00000160: 83ab a23e 0161 acbd f365 423e 9028 81bd
00000170: 6511 a8be 8848 1dbf 5487 593e 8fe5 a4bd
00000180: 0bd6 dd3d 6e7b 0e3e b699 3d3e 34c1 4a3e
00000190: bb8e d5be 17dd 6dbe 44e5 613e ddf3 ac3d
000001a0: 331e 2bbe 16e3 2ebe cb03 ca3e 7e08 6bbe
000001b0: 7cc3 c83e 75cd a4bd 2140 0f3e bbab 11be
000001c0: 563f bdbe 0551 b1bd 36d7 3b3e 9fae 41be
000001d0: b797 723e c279 aebe 0d27 abbe 1daf 603c
000001e0: a50b 2fbe 83ed ebbc 19f5 8fbd d6d2 e93d
000001f0: 9eae 5ebe a376 bbbd 22c3 c6be 898c f6be
00000200: 904e 4cbe 33f0 f93c 10af f33e 5bfe 98be
00000210: e237 ab3e bd47 24be 5300 e8bd f172 a9be
00000220: 9e51 86be ebad 79bb fccf 69be cdf9 dd3d
00000230: 4ac6 843d 8698 99be c1d8 febd d642 babd
00000240: 6391 863e 4a52 9bbe 8004 713e a08a cabd
00000250: b9bb 0c3d 901d 903e 0d6f e5bb 049d 463c
00000260: 30d8 e23d d130 9d3e 4ec8 7fbe 150c 84be
00000270: b044 f93d 27b1 8d3e e895 10bc c17e b4be
00000280: a856 3f3e c9d5 28be 5096 d63c 1788 4abd
00000290: 8130 3b3e b933 a9be 4d76 663e 8083 28bd
000002a0: 9d70 cb3c cdc7 723e 1e78 263e b669 25be
000002b0: 7918 c23a 4a82 13be 1a80 88be e897 3dbe
000002c0: 6794 7abe f9ea a5be 5624 cebd 0a9d f3bd
000002d0: 4d78 e5bd 1690 a93e 4585 18bd 202c c2be
000002e0: cd6e 8a3e 7b52 793d 561a 92be 15f3 7bbe
000002f0: 8d66 d4bb 4a71 813e 5fa7 c9bd 3246 043e
00000300: 21a1 4fbc 02fb 87be 3c95 833b 792d ab3d
00000310: 9f9e 0fbe 0707 fd3c 6984 113e 189d b23d
00000320: dd7d a7be f4f5 71bc 05a6 223e 307a 6d3d
00000330: 92c1 b9bd fe23 8a3d afab aabe e864 95be
00000340: 56f4 8ebe 5c62 9dbe ecd2 2bbe 4664 bebe
00000350: 1629 1bbe fb32 ebbd 2bd9 773e 66ea a6be
00000360: 301c 073e f39c 39be e08a b8be 64f1 98be
00000370: a545 79be 2a68 96bd 663f 083e c167 d6be
00000380: aa6c 1abe 0762 883d 63a4 b03e b63e 703e
00000390: 458e a2bd 657a 9fbe 4d92 aabe 1525 663e
000003a0: cb8d 70be 430f 9fbe 33b0 0abe 10f7 41be
000003b0: 92bd b63e 19bb c1be 597d b6be 9b22 18bf
000003c0: 7e72 83be 8ec2 ad3e ee41 a7be c5a9 fcbe
000003d0: 38d6 483d 5284 cf3c 1b0b 35be 1e10 283e
000003e0: 13e9 5abd 09a2 203f 7c73 7a3e 0837 db3c
000003f0: 33ec 69be 0609 f1be ae7c 85be 0103 1ebd
0.0705285 -0.030009674 -0.27147686 -0.08261728 0.026419802 0.095087364 0.35113186 -0.12840404
-0.100723274 -0.29209387 0.29894155 -0.100886665 0.2924415 0.21545804 0.03084711 -0.2228775
0.038874365 -0.14148709 -0.10201476 0.52274615 -0.07098008 0.3325139 0.005090355 -0.044549778
-0.108691566 -0.16335917 -0.25287881 0.03433945 0.069110654 -0.032300014 -0.056666803 -0.04186108
0.20085564 -0.5244186 0.035439797 -0.012387844 -0.36249554 0.12024503 -0.6416294 0.14138006
0.31099057 -0.25051808 -0.34974068 -0.09314083 0.5922905 -0.097087055 -0.4203198 0.0201012
-0.6000661 0.12053922 -0.0683803 0.07467905 0.46971926 0.22370999 -0.17414114 -0.06486093
0.1505727 0.094430946 0.27181137 0.4339568 -0.240339 0.016814047 0.3091087 0.13809465
-0.20023483 -0.19533199 -0.21363938 0.2386519 -0.20420495 -0.018788377 -0.32108274 0.45967332
0.3277818 -0.02433677 0.35718772 -0.2843147 -0.19323385 -0.2596792 -0.095779076 -0.17837194
-0.09037573 -0.035464063 -0.34124795 -0.4825687 -0.10725361 0.22624347 -0.05069917 -0.21090859
0.31771478 -0.084169395 0.18984203 -0.06306565 -0.3282577 -0.614388 0.2124303 -0.08051597
0.10831841 0.13914272 0.18515667 0.19800264 -0.41710457 -0.2322887 0.22060114 0.08444951
-0.16710739 -0.17078814 0.3945602 -0.22952458 0.39211643 -0.08047 0.13989307 -0.14225666
-0.36962384 -0.086580314 0.18343815 -0.18914269 0.23690687 -0.3407727 -0.3342823 0.013713625
-0.17094286 -0.028799778 -0.070291705 0.11417167 -0.21746299 -0.091534875 -0.3882075 -0.48154095
-0.19951844 0.030510044 0.475945 -0.29881558 0.33441073 -0.16042991 -0.11328187 -0.33095506
-0.26234144 -0.0038098048 -0.22833246 0.10838661 0.06483133 -0.2999918 -0.12443686 -0.09094779
0.26282796 -0.3033622 0.23536873 -0.09889722 0.034358714 0.28147554 -0.0070017637 0.012122396
0.11076391 0.30701306 -0.24978754 -0.25790468 0.12171304 0.2767422 -0.008824803 -0.35252956
0.186854 -0.16487803 0.026194721 -0.04944619 0.18280222 -0.33047274 0.22506066 -0.041141033
0.024833972 0.2370903 0.16256759 -0.16153607 0.0014808319 -0.1440517 -0.26660234 -0.18514979
-0.24470674 -0.32405832 -0.10065524 -0.11895187 -0.11204586 0.3311774 -0.03723647 -0.3792429
0.2703766 0.060869675 -0.28535718 -0.24604447 -0.0064819516 0.25281745 -0.09846377 0.12917402
-0.0126726935 -0.2655869 0.004015593 0.083582826 -0.14025353 0.03088714 0.14210667 0.087213695
-0.32713214 -0.014768112 0.15883644 0.057977855 -0.09070124 0.06745146 -0.3333411 -0.29178548
-0.2792079 -0.30739105 -0.16779679 -0.37185878 -0.15152392 -0.11484333 0.24203937 -0.32600707
0.13194346 -0.18126278 -0.36043453 -0.29871666 -0.24342974 -0.073440865 0.13305435 -0.41876033
-0.15080515 0.06659322 0.34500417 0.23461422 -0.07937292 -0.31148067 -0.33314744 0.22475083
-0.2349159 -0.3106633 -0.13543777 -0.18941903 0.35691506 -0.37838057 -0.35642508 -0.59427804
-0.25673288 0.33937496 -0.32667488 -0.49348274 0.04903242 0.02533165 -0.17680018 0.16412398
-0.053444933 0.62747246 0.24458116 0.02675964 -0.22844009 -0.47077197 -0.26071686 -0.038577083

fc2.weight f4 [256, 514]
00000000: dde0 8fbc 70d8 143e 4a39 7a3e 663a 353e
00000010: 20ec 463e 44e5 db3d 4933 a43d 70f6 6fbe
00000020: e197 e5bc 53cf 4fbe 6289 8cbc aaed eabd
00000030: 3c5d 01be 08f1 5ebd ffc6 fc3d ccdd 673b
00000040: 1f95 803d 57a5 98bc 9d0f 043d 0fd7 0a3e
00000050: 9c12 02be 966e 453c 4ea3 8ebe 9750 df3d
00000060: 272d 6f3d e5f3 a1bd 80f6 b5bd 47c1 4fbd
00000070: 62d2 c93d 0abe e83c 9566 5f3e 8c6d 78bd
00000080: 1a29 a7bd 3b9b 99be 23b6 473e cd1c 533e
00000090: 39a6 3b3d 1cec abbe dee8 d7bd 2705 f53b
000000a0: 0a4e 0d3d 80d4 3e3e 7d47 14bc 6d52 4cbd
000000b0: f832 1ebd c03f 453e 03d2 15be b2c8 353e
000000c0: 8c6c 85bd fa53 7abe 40b3 87be 92cc 3d3e
000000d0: a4cb 6bbd de6a be3d a932 113d 2724 aebd
000000e0: cbd9 af3a a1cd 9d3e 4026 2a3e 8b45 b3bd
000000f0: 8ae4 92be 1a5b 673d 55bd 2d3d 5ec9 a03e
00000100: b590 3bbe 84dc bebe 5b88 793e dd82 a0bd
00000110: 34f8 12be 89c1 9abc 230e c8bd 201a 3ebe
00000120: 5aa2 913e 498a 76be 410a 653e 08f4 ddbe
00000130: 8f44 4ebe cb14 673e e202 d53c 3019 613d
00000140: e0ab 99bd faad 91bc f8cf c13d 63dd 113e
00000150: 49ea bebe 1ee4 61bd 8f03 9fbe 8d50 0dbf
00000160: 5884 46bd 1bc8 0c3e 3246 23be 78b8 19bc
00000170: 7447 e43c f551 253e 9c00 eeb9 e72c 3d3d
00000180: d4ae 4b3d 5494 93bb d241 983d 2be5 d2bc
00000190: 5ef1 eebd 9a61 e3bd dcd3 90bc 961c d73d
000001a0: d638 db3d 145f 6a3d 3c15 e93d dbae 2cbd
000001b0: 7662 9ebe f3ef 6d3e 265f 64bd 71c8 0a3d
000001c0: f14d cb3d 3e3b 1a3d 1d74 81bc b326 36be
000001d0: d4c1 4fbd 8d2d 8b3d 60fa 00bd 6e97 893d
000001e0: 91f0 4e3d 7b51 5bbe 62ab bdbd 8595 2ebd
000001f0: 2e82 1c3e a571 c7be 90b0 64be 897a 4ebe
00000200: a418 3f3e 951f 963e 8a2d 3e3d a2cc b63a
00000210: 0277 14be 6667 e93d 961e e03d 7a06 89be
00000220: 2ae7 b63d 4079 453e 5ce2 24bd 60b7 373d
00000230: 9d45 db3b 57e8 c5bd 3934 49bc 7c30 993c
00000240: b43d d03d 3d0b 94bc 7ec8 21be 6838 debe
00000250: 9ad6 543e 08ac b0be 8b0f 94bd eb7e 243e
00000260: e4bb 35bd 4675 2b3d 6fab b03d 3cdc 213d
00000270: 71db e83d 215e 0c3c a389 2cbe d21a 803d
00000280: 9c38 39be e760 e33d a074 8f3d a531 81bd
00000290: d1df e23c ea23 e2be 940b 083d e480 46be
000002a0: 4f29 edbd e4de 7bbd ef16 81bd b9ce 0fbe
000002b0: 8146 43be b989 c3be a629 b73d 8406 08be
000002c0: 59b7 3abe 03a6 8d3e 2d1a 6f3e 1b3b e03d
000002d0: c1f9 bfbd 7102 963e b71f 3bbd 42dd 8bbd
000002e0: dcf9 8dbd 2503 353b 78f7 e43b 6600 27be
000002f0: a9ea 2d3e 6c34 973b 26ab 963e 47aa afbc
00000300: bc71 6ebd 2a7f f63d c2f7 223c a11f a1bb
00000310: 75ab e3be 6fb2 08be 8e52 b9bd fcf9 913d
00000320: 7364 32bd b5a5 8dbe a827 1ebe ea49 1cbe
00000330: 2a9c 06bd bc17 313e c99e c5be f65e 0b3e
00000340: 0c26 61be daad 60bc f455 a3bd 4c5a 91be
00000350: 9ac2 d2bd 90f2 b23e a5b4 bb3d 364b 24bc
00000360: 2eb5 9cbd 1cbc 18bd fba7 163c a819 813e
00000370: ff50 c4be bbb3 a33d 2a49 75be d9c6 2dbd
00000380: 9427 d8bd f0ab 33bd 2f22 c3bb d04b 7bbc
00000390: 27bc 14be 3830 55be 0758 41bd 3d75 b43d
000003a0: 853f 1f3b 0b42 e8bc 625c 22be cd70 b0be
000003b0: 673a b4bd d89d c2bd f570 b1bd 20d4 59be
000003c0: b37d cf3c 1ab6 863e 06ff 90bd eb92 65be
000003d0: 0097 76bd 5757 72be cee4 753e aa53 363e
000003e0: 47d4 8f3d 0fb6 1c3e 4045 b7bd 156b 03bd
000003f0: 8827 32bd de46 0a3e 7022 c3be 7876 6d3e
-0.017563278 0.1453569 0.24435917 0.17698058 0.19426012 0.10737088 0.08017594 -0.23433852
-0.028026523 -0.20293932 -0.017155353 -0.11471112 -0.12633222 -0.054429084 0.12342643 0.0035380004
0.062784426 -0.018633528 0.032241452 0.13558601 -0.12702411 0.0120502915 -0.27858967 0.10904043
0.05839267 -0.07907847 -0.08884907 -0.050721433 0.098545805 0.02841093 0.21816476 -0.060651347
-0.081621364 -0.30001244 0.19503073 0.20616455 0.04581282 -0.33578575 -0.10542463 0.007477421
0.034498252 0.1863575 -0.009050247 -0.049883295 -0.038622826 0.192626 -0.14630894 0.1775234
-0.06514844 -0.24446097 -0.26503944 0.18535069 -0.057567254 0.09297727 0.035448704 -0.08502989
0.0013416348 0.30820945 0.16616154 -0.08753499 -0.28689986 0.056483366 0.04241689 0.3140363
-0.1831692 -0.37277615 0.24368422 -0.0783746 -0.14352494 -0.018891113 -0.09768321 -0.18564653
0.28444177 -0.24076189 0.22367193 -0.43350244 -0.2014334 0.22566526 0.026002351 0.05495566
-0.07503486 -0.017783154 0.09463495 0.14244609 -0.3728812 -0.05514919 -0.31057402 -0.55201036
-0.048466057 0.13748209 -0.15944746 -0.00938236 0.027866103 0.16144545 -0.00045395351 0.0461854
0.049727276 -0.004503766 0.07434429 -0.025744041 -0.11667131 -0.111026004 -0.017679147 0.10503499
0.107042 0.05721958 0.11381003 -0.042158943 -0.30934495 0.23236065 -0.055754803 0.033882562
0.099269755 0.037654154 -0.015802437 -0.177882 -0.05072196 0.067957975 -0.031488776 0.06718336
0.05052239 -0.21417801 -0.09261204 -0.04262306 0.15284035 -0.3895389 -0.22332978 -0.20163931
0.18661743 0.2932097 0.04643015 0.0013946483 -0.14498523 0.11396675 0.10943334 -0.26762754
0.0893081 0.19284534 -0.040254936 0.044852614 0.006691648 -0.09663456 -0.012280517 0.018699877
0.10168019 -0.018071765 -0.15799138 -0.4340241 0.20784989 -0.3450625 -0.07229527 0.1606404
-0.04436864 0.041859888 0.08626448 0.039516672 0.1136998 0.008567364 -0.16849379 0.062551156
-0.18088001 0.11102467 0.07004666 -0.06308297 0.027694615 -0.44168025 0.033214167 -0.19385105
-0.115801446 -0.061491862 -0.06303202 -0.14043702 -0.19069864 -0.38191012 0.08943491 -0.13283736
-0.18234004 0.2766572 0.23349829 0.109487735 -0.09373809 0.29298738 -0.045684543 -0.06829311
-0.069324225 0.0027620282 0.0069875084 -0.16308746 0.16984047 0.0046144035 0.2942745 -0.0214435
-0.058213934 0.12035973 0.009946765 -0.0049171005 -0.4446675 -0.13349317 -0.09048949 0.07127759
-0.043552827 -0.27665487 -0.15444815 -0.15262571 -0.032863773 0.1729421 -0.38597706 0.13610443
-0.2198717 -0.013713324 -0.07975379 -0.28389204 -0.102910236 0.34950686 0.091653146 -0.010027697
-0.07651745 -0.03728877 0.009195323 0.25214887 -0.38343045 0.07993265 -0.23953691 -0.042425964
-0.10554424 -0.043865144 -0.0059550027 -0.015337899 -0.145249 -0.20819175 -0.04720309 0.08811424
0.0024299335 -0.028351804 -0.15855554 -0.3446106 -0.08800202 -0.095027626 -0.08664123 -0.21272326
0.025328493 0.26310807 -0.07079892 -0.22419326 -0.0602026 -0.2366613 0.24013063 0.17805353
0.070229106 0.15303825 -0.08948755 -0.032084543 -0.04349473 0.13503596 -0.3811221 0.23189723

fc2.bias f4 [256]
00000000: 36d8 13be e873 57be 7ffd 063d a4e9 57be
00000010: 878b 3fbe aa18 82be 8091 53bd 8d0f e73e
00000020: 3c2b f93a 47b1 c2bc 5c2b 0b3d e3aa acbc
00000030: 2746 bfbc dc58 133c 7fd8 60be 731e 773d
00000040: a887 dc3e 3568 82be e236 60bd 6875 1c3f
00000050: 7341 82be 247d 773e bd01 acbd 340d c7bd
00000060: b698 68bd 8439 023e 3a5a eb3e 95f2 bcbd
00000070: 4948 2c3e 044a 5ebe a61c 86be 49e6 93bd
00000080: d864 85be 06ce 253f fba4 473b 6887 44be
00000090: 538b 6c3e ad65 4bbe a64f 443d 88df 063c
000000a0: 1e00 eb3d e4d6 1d3f 9655 51be f9a9 4b3a
000000b0: a548 6abd 700d 11bc ab53 7dbe debb 03bc
000000c0: 472e 19bd 2106 f23e 95e5 f53d ac6c 7ebe
000000d0: 5b59 ac3e 4c51 7bbd c34b 733e 3841 82be
000000e0: 831d 8fbc 820d 19be e51d 89be 83b7 df3d
000000f0: ef39 80be d233 40be 9da0 84be d56e babd
00000100: f85b 8ebe d1b8 86bd d9d1 063e d1a5 8abc
00000110: 4278 85bd 562e 893e 8797 29bd a73b a3bd
00000120: 3fde cc3c 4e09 0a3d 6083 a2bd 83c2 32be
00000130: 869f 47be 033c b9bd 3383 69be d6c2 5dbe
00000140: 4906 d13e 6b67 3f3d fb75 6ebe 3952 81be
00000150: 12b6 27be 808b 89be 1d1f 403e 04b0 41bd
00000160: 1720 96bd c51d 153f e9ed d9bd ddda 4fbe
00000170: ce23 113f 6642 b1bc d7d6 4cbe a9db 66bd
00000180: e559 df3c 5a73 693e 18aa 723c 5e1d 6bbe
00000190: 3f5a 02bd 3833 1f3f 3e66 b03e 8751 4abe
000001a0: 0c48 293e b359 eb3e c196 8b3d 87cf 9cbd
000001b0: dc56 7fbe c186 46be 57e7 08be 2b58 743e
000001c0: bbae d7bd 7b78 963e 052e d43d 2f92 8dbe
000001d0: c45d 20bd dfc7 503e 6f19 92be 30c9 203b
000001e0: b754 e7bc 6d3d 3a3e e1bd e1bd 4632 da3e
000001f0: fc90 2abd 3718 33be 82b6 debc aac8 fcbd
00000200: 54df 123f 2e3c 36be 53ba e6bd 737b 8ebe
00000210: d94a 363e 0c73 043f 98c7 f3bd d69d 74be
00000220: 6cc7 6dbd 59cb e1bb 85d6 a83d c1b6 013f
00000230: b220 e73e 4eec 8a3d 84ae edbb 404c e93c
00000240: b48a d23e 6975 e43e f363 0e3e df8e 0a3f
00000250: 1a9f 4a3e 5161 60be 613c 0bbe aa0f ca3b
00000260: 22c8 e93e 2154 5d3d b963 c13e fcfd e9bc
00000270: 752a 39bd 62ea 933e 9eda 53be ad73 55be
00000280: 0834 173f 80b8 7fbe 81ab 62be 53cb ca3e
00000290: 25eb a93e 0ccf 47be ff5b 69be f07a e23d
000002a0: 36a2 133f a913 163f c9ef 103f 450a 763d
000002b0: d798 4a3d 1d03 cc3e 3adf 58be 8e9b 5cbe
000002c0: cb04 143c 0461 103f 7803 b6bd 92f8 4bbd
000002d0: 71be cd3e cb5f 5dbe 0f91 0f3f 1072 1dbd
000002e0: 604e ddbd 05f4 39bd a164 78be 350a 9dbd
000002f0: bfd2 5abe db11 91be 8951 a1bd 9485 833e
00000300: f045 b6bd a010 683e 468d 29bc eb3c 5bbd
00000310: 9862 61be e4de 7dbe a3e5 e73c e395 52bd
00000320: 08fa 84bd 2c1d 43be 778a 99bd 7c72 74bc
00000330: 9283 1fbd 4221 94bd 5ccf 98bc 03f8 16bd
00000340: d46d af3b c6b8 e23d bea0 193f 2075 49be
00000350: daf2 203d 748b 40be 97b4 0a3e bdc1 84be
00000360: 5b8e 373e 235c 50bd 60ef 44be bb01 2fbc
00000370: c1f6 81be 0abe 1b3f 911f 84be f2df 003f
00000380: 5f43 4e3c f84b 9c3d d0da 83bc d27e f43e
00000390: 07bb 8abe 2cf6 053e c85e 4ebd e57c 88bd
000003a0: 8c32 72bd 6b74 023f 511f 4fbd ac35 5fbe
000003b0: 94f8 0ebd 82f7 60bd 734e 4fbe 4417 0a3f
000003c0: bf96 5cba 80bf bfbc aee0 e13e 0700 1abd
000003d0: 6b19 583e 7715 37be 5288 923c f351 003f
000003e0: 98e5 8c3e 6e11 85bd 5edc 123e f51b 983e
000003f0: c81f ef3e 3f66 093f 3247 013f 4fe2 adbd
-0.14437947 -0.21040308 0.032956596 -0.2108522 -0.18705569 -0.25409442 -0.05165243 0.45129052
0.0019010077 -0.023766173 0.033976898 -0.021077579 -0.023348881 0.008993354 -0.21957587 0.060331773
0.43072248 -0.2547013 -0.05473984 0.6111665 -0.2544056 0.24168831 -0.08398769 -0.09719315
-0.05678626 0.12717253 0.45967275 -0.09225956 0.1682445 -0.21707922 -0.26193732 -0.07221658
-0.260535 0.6476749 0.0030463326 -0.19192278 0.23100023 -0.19863005 0.04792752 0.008232005
0.11474632 0.6165602 -0.20442805 0.00077691633 -0.057198185 -0.008853301 -0.24738948 -0.0080403965
-0.03739765 0.472703 0.1200668 -0.24846143 0.33661923 -0.061356828 0.2375937 -0.25440383
-0.017470127 -0.14946559 -0.2678062 0.10923674 -0.250442 -0.18769768 -0.25903788 -0.09103171
-0.27804542 -0.0657822 0.13165988 -0.01692477 -0.06517078 0.26793164 -0.041404273 -0.07970362
0.025008319 0.03370028 -0.07935214 -0.17457013 -0.19494447 -0.090446495 -0.22803955 -0.21656355
0.40825108 0.046729486 -0.23287193 -0.25258043 -0.16378048 -0.26864243 0.18761869 -0.047287002
-0.073303394 0.5824855 -0.10641081 -0.20298333 0.5669526 -0.021638107 -0.2000383 -0.056361828
0.027264545 0.2279791 0.014811061 -0.22960421 -0.031824347 0.6218753 0.34453005 -0.19757663
0.1653139 0.45966873 0.068158634 -0.0765677 -0.24935478 -0.19387342 -0.13369499 0.23861758
-0.10531374 0.29388794 0.1036034 -0.27650592 -0.039151922 0.20388745 -0.2853503 0.002453398
-0.028238637 0.18187495 -0.11022545 0.4261648 -0.041642174 -0.17489706 -0.027186636 -0.12342961
0.5737202 -0.17796394 -0.11266007 -0.2782856 0.1780199 0.5173805 -0.11903304 -0.23888335
-0.05805151 -0.006890696 0.08244041 0.50669485 0.45142132 0.06783353 -0.00725347 0.028478742
0.41121447 0.44620827 0.13905315 0.54124254 0.19787255 -0.21912123 -0.13597251 0.006166418
0.45660502 0.05403531 0.37771395 -0.028563492 -0.045206506 0.28889757 -0.20688865 -0.20844908
0.5906377 -0.24972725 -0.22135736 0.3960825 0.33187214 -0.19512576 -0.22789 0.11058605
0.5766939 0.5862375 0.56615883 0.060068388 0.049462166 0.39846125 -0.21178904 -0.21543714
0.009034346 0.56398034 -0.0888738 -0.049797602 0.40184358 -0.21618573 0.56080717 -0.038438857
-0.108059645 -0.04539873 -0.24257137 -0.076679625 -0.21369456 -0.28333935 -0.0787688 0.2568785
-0.08900058 0.22662592 -0.010348624 -0.053524893 -0.22010267 -0.24792057 0.028307742 -0.051412474
-0.06493002 -0.19054097 -0.07497113 -0.014919873 -0.038943835 -0.07232906 -0.018653564 -0.036857616
0.0053536687 0.11070399 0.600109 -0.19673586 0.0392941 -0.18803197 0.13545452 -0.2592906
0.17925398 -0.05086912 -0.1923194 -0.010681565 -0.2538357 0.6083685 -0.25805333 0.50341713
0.012589305 0.076316774 -0.016095549 0.47753006 -0.27095816 0.13082188 -0.05038336 -0.06664447
-0.059130237 0.5095889 -0.050566975 -0.21797818 -0.03490503 -0.05492354 -0.2024477 0.5394175
-0.0008414797 -0.023406744 0.4411673 -0.037597682 0.21103446 -0.17879282 0.017887268 0.50125045
0.27518916 -0.06497465 0.14341876 0.2970883 0.46703935 0.5367164 0.5049926 -0.084904306

fc3.weight f4 [1, 256]
00000000: 129e ae3f 4440 c8bd daef 07bf f8d6 c0bc
00000010: 31d2 b5bd 8b57 c2bd 1057 2ebe e49a 073f
00000020: abd5 38bf ab14 40bf 16f7 983f 782c 6fbf
00000030: ffe5 553f 8084 02bf 93ee 9abd 94b4 5f3f
00000040: e35c 543f 8d02 91bd 8d5e 36bf f5d4 423f
00000050: 6e33 a0bd 07fe 5c3f 3af4 1b3f d366 0f3f
00000060: c76e 113f ede0 1d3f b928 363f c4c4 27bf
00000070: 8bc1 413f 81ca 25bd 4548 bfbd 7d1a a4bd
00000080: 03d1 dcbc aa82 233f 7961 693f 21db 8cbd
00000090: 6dc0 503f 7d9f 903f 4948 503f 4700 193d
000000a0: 2658 7f3f e0c6 533f 4903 4abd 7c8a 78bf
000000b0: 1aa8 30bf abae 69bf b359 88bd af13 033f
000000c0: d231 04bf efb8 3d3f 40f5 283f 12b2 96bd
000000d0: 1cc9 623f df52 18bf e54f 833f f2f8 98bd
000000e0: eb6d 3ebf bf37 8d3f 3d76 35bd 66d3 8c3f
000000f0: c993 20bd 8d4b c3bd 3633 6bbd 581d 5bbf
00000100: 6ea5 16bf e487 8dbe 44c9 013f 4a1b 043f
00000110: d2aa 21bf ff83 813f f955 debf fd63 17bf
00000120: 6d26 213f c425 7f3f 20cf 17be 48a1 0dc0
00000130: 9d82 a9bd f358 1fbf 13f6 30bd 97c0 57bd
00000140: 0593 583f a651 21bf a59f 96bd 4040 05bd
00000150: b12c 403f a016 73bd 3550 3f3f 306f 1b3f
00000160: 20c8 8fbe 5ded 263f 594f 27be cb4f 9dbd
00000170: d699 083f 7168 5ebf edd5 9abd fb6e 29bf
00000180: 289c 2c3f 8c1f 803f d095 1abf e5c8 afbd
00000190: 3fb5 61bf 1723 1a3f eefe 633f 8e05 2ebd
000001a0: 59f9 3f3f 6490 863f 41fd 603f a88a 0bbf
000001b0: 2a0a 9bbc 1e96 a0bd a627 c93f bada f13e
000001c0: 4bfe babe 5307 ad3f a1aa 563f 5a57 2bbd
000001d0: e4d9 74be 5492 593f 7990 7fbc 9e65 05bf
000001e0: e35c 39bf 9de1 573f ed6c 563f 3e22 213f
000001f0: 9047 243f 6a35 b9bd eeec 08bf 68bb 333f
00000200: a213 5b3f 63ca d2bd 25b4 eebd 3fe8 e5bc
00000210: 7c48 3c3f d5b6 033f 63c1 f8bd 728c 44bd
00000220: ebc4 523f 6014 04bf 96ba 263f 4274 263f
00000230: 8bcf 393f b1b3 1a3f 1e33 113f 2162 463f
00000240: 4575 6e3f d88b ba3e e595 8f3e fbf5 4f3f
00000250: acfd 913f 9ace 94bd 9c9d d2bd 032e 483f
00000260: 87d6 083f c7b3 1abf 65ba a13e efd8 13bf
00000270: e917 33be a439 d13e 3a6a 63bd 159e 0dbd
00000280: e936 063f 5a19 c8bd 3e61 9abd 38e6 a93e
00000290: d4e4 213f b5dd 44bd 4bcc 74bd 6f47 183f
000002a0: 7561 1b3f 8ce4 493f 3f90 1a3f 9fbe 713f
000002b0: 4114 103f 302c 383f 4e08 40bd dd35 55bd
000002c0: 91f0 143f b047 1f3f a10a 1fbe 416b 96be
000002d0: 4231 923f fd03 51bd 6016 103f 4f40 483f
000002e0: 8099 273f 1c8a 153f c22a 8dbd 251e 96bf
000002f0: 7827 99bd 268a e9bc b485 d83f 269b 7b3f
00000300: 7c94 9f3f e479 853f a21e 3cbf 900a 0abf
00000310: e1ea c8bd a630 1ebd 4bfe 28bf 905c 4f3f
00000320: 02ee 35bf c189 c5bd f245 51bf 6595 aebf
00000330: 8922 6b3f 7965 e3bf 77cd 1abf 73e3 3ebe
00000340: 3c19 c93c e56b 1c3f ecdf 573f 65fd 9cbd
00000350: 0083 f53e 55c8 c8bd 5d4d 513f 5db3 d0bd
00000360: 2585 e03e 00de 48bf fc43 93bd f5b7 11bf
00000370: 7870 c3bd 1ec2 4e3f 7db5 b7bd c56f 303f
00000380: c81c 603f 9c63 243f 8c91 5bbf 13cb 553f
00000390: dccd 86bd 0db2 773f 033a 25be 10a8 82be
000003a0: da26 02bf 951f 363f 8e91 74bf 2722 c7bd
000003b0: 0ca6 7bbf fd86 2abf 64dc 96bd 6aed 383f
000003c0: 441f 143f efb7 49bf 30ec ae3f 25ae 5a3f
000003d0: 0caf 153f e1bb d3bd 2025 4c3f 9837 5e3f
000003e0: 9631 5f3f b3d1 7bbe 7cb8 5f3f c6f5 b13f
000003f0: 4626 2e3f 23a0 413f 1c5d 4a3f 225f 78be
1.3641989 -0.09777883 -0.5310036 -0.023540005 -0.088779815 -0.09489354 -0.17025399 0.5297072
-0.7220103 -0.75031537 1.1950405 -0.9342723 0.8355407 -0.5098343 -0.07565036 0.87384915
0.82954234 -0.07080565 -0.71238023 0.76106197 -0.078223094 0.86325115 0.60919535 0.5601627
0.5680966 0.61671335 0.7115589 -0.65534616 0.7568595 -0.040476326 -0.09339956 -0.08012865
-0.026955133 0.6387125 0.91164356 -0.06877733 0.8154362 1.1298672 0.813603 0.03735378
0.9974388 0.82725334 -0.04931954 -0.9708631 -0.690065 -0.9128215 -0.06657734 0.5120191
-0.5163852 0.7411031 0.6599922 -0.07358183 0.8858812 -0.5950145 1.0258757 -0.074693576
-0.7438647 1.1032637 -0.044302214 1.1002014 -0.03920344 -0.095358945 -0.057421885 -0.8559165
-0.58846176 -0.2764274 0.5069773 0.5160414 -0.63151276 1.0118407 -1.7369987 -0.59136945
0.6294926 0.99667 -0.14825106 -2.2129688 -0.08276866 -0.622451 -0.043203425 -0.052673902
0.84599334 -0.6301521 -0.073546685 -0.032531977 0.75068194 -0.05934775 0.7473176 0.60716534
-0.2808237 0.6520594 -0.16338862 -0.07681235 0.53359735 -0.86878115 -0.07560334 -0.6618497
0.67425776 1.0009627 -0.60384846 -0.085832395 -0.88167185 0.6020979 0.89060867 -0.042485766
0.7498985 1.0512815 0.87886435 -0.5450845 -0.018925745 -0.078411326 1.5715225 0.47237188
-0.36522135 1.351786 0.8385411 -0.04183135 -0.23911244 0.84988904 -0.01559841 -0.5210818
-0.7240736 0.84328634 0.8375996 0.62942874 0.64171696 -0.09043391 -0.53486526 0.70207834
0.8557683 -0.102925085 -0.116554536 -0.028064845 0.735481 0.51450855 -0.121462606 -0.0479855
0.8233172 -0.5159359 0.6512846 0.65021145 0.7258231 0.6043044 0.56718624 0.7749348
0.9314769 0.36434817 0.28044048 0.8123471 1.140554 -0.072659686 -0.10283968 0.7819521
0.5345234 -0.6043057 0.3158752 -0.5775289 -0.1748959 0.4086429 -0.055521227 -0.034574587
0.52427536 -0.097704604 -0.07538079 0.33183455 0.6323979 -0.048063 -0.05976514 0.59484
0.6069558 0.7886436 0.6037635 0.9443149 0.56280905 0.71942425 -0.04688292 -0.05205332
0.58179575 0.6221876 -0.15531398 -0.29378703 1.1421282 -0.051029194 0.5628414 0.7822313
0.654686 0.58413863 -0.06892921 -1.1727949 -0.07478231 -0.028508257 1.6915803 0.9828361
1.2467189 1.0427823 -0.7348424 -0.5392237 -0.098104246 -0.038620614 -0.6601302 0.81000614
-0.71066296 -0.09645415 -0.81747353 -1.3639342 0.9184957 -1.7765342 -0.60469764 -0.18641452
0.024548166 0.61102134 0.8432605 -0.07665519 0.47951508 -0.09803835 0.8175867 -0.10190461
0.4385158 -0.78463745 -0.07190701 -0.5692132 -0.09542936 0.8076495 -0.08970163 0.68920547
0.87543917 0.6421449 -0.8576896 0.8351299 -0.06582233 0.9675606 -0.16135411 -0.25518847
-0.5084053 0.7114194 -0.955346 -0.09723311 -0.9830024 -0.66612226 -0.07366255 0.72237265
0.5786021 -0.78796285 1.3665829 0.85421973 0.58470225 -0.103385694 0.7974415 0.8680358
0.8718504 -0.24591713 0.87390876 1.3903129 0.6802715 0.75634974 0.79048324 -0.2425504

norm.weight f4 [28]
00000000: 104b 8b3f 59e3 a23f 82bb 9b3f 15cc 983f
00000010: 1929 973f d641 9f3f 6a26 9a3f e613 9c3f
00000020: 5fa0 9c3f 57fd a13f dc6f 9a3f 3b7e ad3f
00000030: e434 ae3f 69c0 b03f 6179 9f3f e6d1 b03f
00000040: a542 a83f 9b53 983f 11cb b13f 049c 9c3f
00000050: f44a ae3f 6bc6 a43f fa7d b13f 813f 863f
00000060: aef0 0240 b664 b43f ce36 b33f 39a8 b03f
1.0882282 1.2725631 1.2166598 1.1937281 1.1809417 1.2441967 1.2042973 1.2193573
1.2236441 1.2655438 1.2065387 1.3554147 1.3609891 1.3808719 1.2458917 1.3814056
1.3145338 1.1900514 1.3890096 1.2235112 1.3616624 1.2873052 1.386657 1.048813
2.04594 1.4093235 1.40011 1.3801337

norm.bias f4 [28]
00000000: 4ea7 243e 6131 8f3e 8b67 813e 36d0 9c3e
00000010: f53d 2a3d 3e00 153e f265 85bd aafd b03d
00000020: 3345 df3b c630 f9bd 8b2c 5bbd ecbe eabc
00000030: 37ef 00be 17ce 92be b66f 48be 6ec1 a0bc
00000040: 3182 c5bd 2b92 5ebd 0304 d13d ac90 fe3d
00000050: 3180 653e 111f b33e 6d8b 903e 5dd1 c73e
00000060: c292 74bb b1d2 573d 0321 a13e 7c40 2139
0.16079447 0.2796736 0.2527431 0.30627602 0.041562993 0.14550874 -0.06513585 0.086421326
0.006813669 -0.12167506 -0.053509276 -0.028655492 -0.12591253 -0.2867286 -0.19573864 -0.019623484
-0.09643973 -0.054338615 0.10205843 0.12429938 0.22412182 0.3498464 0.28231373 0.3902692
-0.003731892 0.052691165 0.31470498 0.00015378179

norm.running_mean f4 [28]
00000000: 63ed b23f 8817 ba3f cce8 be3f 728a b93f
00000010: e4dc c53f 3c5a cf3f 87cc d03f 8832 dd3f
00000020: 1b53 e63f 8cfc e23f c431 f03f 9a6b ee3f
00000030: fe86 f13f 778e e93f 5656 dc3f b468 d23f
00000040: 9ede ce3f 028d c83f bc89 c23f b383 bc3f
00000050: 4d13 af3f d3c6 ac3f 6ab1 b43f b3b4 b23f
00000060: 1bef 043d baac a83f fcbe d43e b6ad 4141
1.3978695 1.4538431 1.4914794 1.4495375 1.5458035 1.6199412 1.6312417 1.7281046
1.7994112 1.7733321 1.8765187 1.8626587 1.8869321 1.8246602 1.7213848 1.6438203
1.6161687 1.5668032 1.5198283 1.4727691 1.3677765 1.3498176 1.4116642 1.3961395
0.03245459 1.3177712 0.4155196 12.10491

norm.running_var f4 [28]
00000000: 7241 013f 9b17 043f 5bcd 113f ce68 1c3f
00000010: f69e 243f 7701 283f 0a24 1c3f 57f2 203f
00000020: b88b 253f 4a3e 353f bda5 1d3f 926b 1c3f
00000030: 47c0 1c3f f3f6 153f dce1 213f 979a 283f
00000040: e867 193f e44e 0c3f 0a21 0a3f 6e4d 073f
00000050: 2f2c 063f 771a 073f b0bb 0b3f df61 013f
00000060: d8b8 3940 7154 c73e 6563 cb3c bf2f 5d42
0.50490487 0.5159852 0.5695397 0.6109742 0.64305055 0.65627235 0.6099249 0.6286978
0.6466632 0.7079817 0.6158102 0.6110164 0.6123089 0.5857994 0.6323526 0.65860885
0.59924173 0.5480788 0.53956664 0.52852523 0.5241117 0.5277476 0.54583263 0.50539964
2.901907 0.3893161 0.024827668 55.296627

norm_a.weight f4 [2]
00000000: b2ff d13f 4a6e ca3f
1.6406157 1.5814908

norm_a.bias f4 [2]
00000000: 6793 1a3e b084 08bd
0.15095292 -0.033329666

norm_a.running_mean f4 [2]
00000000: 7f9e d9bc a534 853d
-0.026564835 0.06504182

norm_a.running_var f4 [2]
00000000: bf66 683e f687 263e
0.22695445 0.16262802
