turtlebot3_ddpg/save_model_ddpg/2020_12_03-01_44_19/stage_3_4950_critic.pth (torch_old, 590398 bytes, 13 tensors)

fc1.weight f4 [512, 28]
0	0xbde92509	-0.11384017
1	0xbe81034e	-0.25197834
2	0x3e467cd8	0.19383562
3	0xbd45bcb7	-0.048275676
4	0xbec018ff	-0.3751907
5	0xbda4ea7f	-0.08052539
6	0x3c119552	0.008885698
7	0x3e2f8c48	0.17143357
8	0xbabef95c	-0.0014570164
9	0x3e7b6b88	0.24552739
10	0x3dee389d	0.11631892
11	0x3d1718d0	0.036888897
12	0x3e212fb5	0.15740855
13	0xbe1db1da	-0.15399876
14	0xbefd60e1	-0.49487975
15	0xbd98590e	-0.07438861
16	0xbd64bd30	-0.055844486
17	0xbe57d685	-0.21077926
18	0xbe51cb6b	-0.20487754
19	0x3e531a32	0.20615461
20	0x3e91e49e	0.28494734
21	0xbe267849	-0.16256823
22	0xbdbee294	-0.0932056
23	0xbd197bb3	-0.037471484
24	0xbd07e87d	-0.033180702
25	0xbe88d941	-0.26728252
26	0xbe4dcc6a	-0.20097509
27	0x3d4d4338	0.050112933
28	0x3e17da0d	0.14829274
29	0x3cec20cc	0.028824233
30	0x3d1e72c7	0.03868368
31	0xbd82a37f	-0.06378841
32	0x3d75a3d2	0.059970684
33	0xbe21ecbe	-0.15812966
34	0x3dc62b18	0.09676188
35	0x3e343624	0.17598778
36	0x3eb2780a	0.34857208
37	0x3e4df713	0.20113783
38	0x3ca28b1e	0.019841727
39	0x3eb85e08	0.3600924
40	0xbcb128b4	-0.021625854
41	0xbe567710	-0.20943856
42	0x3e7ce72a	0.24697557
43	0xbef81eb1	-0.48460916
44	0xbe350701	-0.17678453
45	0xbd666254	-0.056246117
46	0xbaf5d1d3	-0.0018754549
47	0xbe5f1819	-0.21786536
48	0xbe64b254	-0.22333652
49	0xbdf9f567	-0.1220501
50	0x3dfbd0de	0.12295698
51	0x3d071a61	0.03298414
52	0xbed3cff7	-0.41369602
53	0xbf0227a5	-0.5084174
54	0x3e4de121	0.20105411
55	0x3cd886d6	0.026431482
56	0x3ea50971	0.32233766
57	0xbdc4f6d5	-0.09617392
58	0xbd123deb	-0.03570358
59	0x3e101b76	0.14072976
60	0x3dc37f5d	0.09545777
61	0x3becb688	0.007223908
62	0x3decd2a9	0.11563618
63	0x3cfbf295	0.03075532
64	0xbd412460	-0.04715383
65	0xbe46d49f	-0.19417046
66	0xbe40bb54	-0.1882146
67	0xbe3f83af	-0.18702577
68	0xbc9ce765	-0.019153306
69	0xbdc4df3b	-0.0961289
70	0xbe2048e2	-0.15652803
71	0x3d77ac7d	0.060467232
72	0x3e0d3261	0.1378875
73	0x3e812083	0.25220117
74	0x3e7cb83a	0.24679652
75	0x3db713fc	0.089393586
76	0xbd9a8a04	-0.07545856
77	0x3db8fafc	0.090322465
78	0x3daf0d40	0.08547449
79	0xbdedf23c	-0.11618468
80	0x3eef4fe0	0.46740627
81	0xbf9d8618	-1.2306547
82	0xbe1e45ba	-0.15456286
83	0x3b9e1ff6	0.0048255874
84	0x3e608027	0.21923886
85	0xbe102df6	-0.14080033
86	0xbd71dd0d	-0.0590487
87	0x3c8a7188	0.016899839
88	0xbe4dfe2f	-0.20116495
89	0x3e3b9ae2	0.18320802
90	0xbe1c90fb	-0.1528968
91	0xbdaa2c07	-0.08309179
92	0xbe5fed1b	-0.21867792
93	0x3d06f5ea	0.032949366
94	0x3ad7852a	0.0016442884
95	0x3ec5592b	0.38544592
96	0xbda7d760	-0.081953764
97	0x3dde9297	0.108678035
98	0x3baae929	0.005215783
99	0xbe58cd46	-0.21172056
100	0xbdf780c7	-0.12085109
101	0xbf1315ec	-0.57455325
102	0x3dda3acf	0.10655748
103	0x3e308add	0.17240472
104	0xbdeedc79	-0.116631456
105	0x3d3fcf05	0.04682829
106	0xbf1534a0	-0.58283424
107	0x3ea37b30	0.31929922
108	0xbe46dd2f	-0.19420312
109	0xbe88d3ba	-0.26724035
110	0xbd5c0567	-0.05371609
111	0xbe21f81c	-0.15817302
112	0xbd9117d3	-0.07084622
113	0xbe7b032c	-0.24512929
114	0xbd4aaeeb	-0.04948322
115	0x3e442836	0.19155964
116	0xbd353507	-0.044240024
117	0xbf1581d3	-0.5840122
118	0x3de0cb32	0.109762564
119	0xbecdd2d4	-0.40199912
120	0xbce9f08d	-0.028557086
121	0x3d0851da	0.033281185
122	0x3e86650b	0.26248965
123	0x3ed1f126	0.41004294
124	0x3e7f8474	0.2495287
125	0x3e8e4c00	0.27792358
126	0x3e3df7c0	0.1855154
127	0xbc6263e9	-0.013817766
128	0x3ddcf3f5	0.107887186
129	0x3e5b5662	0.21419671
130	0x3e6e792f	0.23288415
131	0xbde91ee4	-0.11382845
132	0x3d86b01f	0.06576561
133	0x3dfe31f9	0.12411875
134	0xbd2c0f0b	-0.042006534
135	0xbf040902	-0.51576245
136	0xbe59990c	-0.21249789
137	0x3e455e9b	0.1927437
138	0xbd8f4bcc	-0.06996879
139	0x3e16bbde	0.14720103
140	0xbde5d514	-0.11222282
141	0x3b1ce9af	0.0023942997
142	0x3e253ebd	0.16137214
143	0xbe5e2957	-0.21695457
144	0x3ef19bec	0.4718927
145	0x3e0e5d2a	0.13902727
146	0xbe104809	-0.14089979
147	0xbe204c46	-0.15654096
148	0xbe5f773b	-0.21822827
149	0x3cbe0f33	0.023200607
150	0x3f3238ce	0.6961793
151	0xbe9ba086	-0.30395907
152	0xbe2d21fe	-0.16907498
153	0xbe2f5e40	-0.17125797
154	0xbd9ac7d1	-0.07557643
155	0xbe1e2e43	-0.15447335
156	0xbeeef343	-0.4666997
157	0x3ec8ac68	0.39194036
158	0xbc8d0f61	-0.017219247
159	0xbe3afd38	-0.18260658
160	0xbdf5e63c	-0.12006804
161	0xbe6b7605	-0.2299424
162	0x3eb0e91a	0.34552842
163	0x3c5ff58a	0.013669381
164	0x3c7bff21	0.015380652
165	0xb9b5b1da	-0.0003465552
166	0x3e867347	0.26259825
167	0xbe601210	-0.2188189
168	0xbd52c6cf	-0.05145913
169	0x3e31e92b	0.17374103
170	0x3e218075	0.15771659
171	0x3bceef3d	0.0063151405
172	0x3d90c57a	0.07068916
173	0x3e984705	0.29741684
174	0xbe9f1640	-0.31071663
175	0xbe0789f0	-0.13236213
176	0xbdc739ad	-0.09727798
177	0x3e626de6	0.22112235
178	0x3eda22fa	0.4260481
179	0xbd65f86f	-0.056145128
180	0x3ef7b142	0.48377424
181	0x3d73a407	0.0594826
182	0x3dc34e3e	0.09536408
183	0x3c8a4eef	0.016883342
184	0xbc959b0c	-0.018262409
185	0xbe060d95	-0.13091119
186	0x3ea26c9b	0.31723484
187	0xbd8527f1	-0.06501759
188	0x3e3832df	0.17988156
189	0x3d238a3d	0.039926756
190	0x3e49b25c	0.19696945
191	0x3d855550	0.06510413
192	0xbe3970e5	-0.18109472
193	0x3f08e3b2	0.53472435
194	0x3d9da621	0.07697702
195	0xbd96b0f3	-0.07357969
196	0xbb3297e9	-0.002725119
197	0xbe245966	-0.16049728
198	0xbe6edaa4	-0.23325592
199	0xbeb61ddc	-0.35569656
200	0xbe28b7df	-0.16476391
201	0x3b13b715	0.0022539545
202	0xbe809e86	-0.25120944
203	0xbe06bf5b	-0.13158934
204	0x3e67bc24	0.22630364
205	0xbd5bf0fd	-0.05369662
206	0x3e1395aa	0.14412561
207	0x3ef09a82	0.4699288
208	0x3dd43edb	0.10363551
209	0xbdaa5057	-0.08316105
210	0xbd69756e	-0.056996755
211	0x3eb26280	0.34840775
212	0xbc8aa89a	-0.016926099
213	0x3e8bd9c4	0.2731458
214	0x3d4519e1	0.048120383
215	0x3f160b2d	0.586108
216	0xbd848aa1	-0.06471754
217	0xbdb6184c	-0.08891353
218	0x3ccee342	0.02525485
219	0xbe1f6f92	-0.15569904
220	0x3db7827e	0.08960436
221	0x3e0669f6	0.13126358
222	0x3eceab33	0.4036499
223	0x3f3a9817	0.7288832
224	0x3e465141	0.19366933
225	0xbf53c881	-0.8272782
226	0x3e73e353	0.23817186
227	0xbdc2c369	-0.09509928
228	0xbdcf4e8f	-0.10122406
229	0x3d8668dc	0.06562969
230	0xbe54f4d0	-0.20796514
231	0x3da63a7d	0.081166245
232	0x3c39bcfd	0.011336562
233	0xbc6a79c2	-0.014311256
234	0x3b162801	0.0022912028
235	0x3d594024	0.053039685
236	0xbd1eda9c	-0.0387827
237	0x3c9e15d6	0.019297522
238	0x3dbfc717	0.09364145
239	0x3e5ee2fd	0.21766277
240	0x3d2dd7fb	0.042442303
241	0xbe1bfd47	-0.15233336
242	0xbec00214	-0.37501585
243	0xbe99da98	-0.30049586
244	0xbddfcf3e	-0.109282
245	0x3e240126	0.16016063
246	0x3e5478e2	0.20749238
247	0xbcc01b44	-0.023450501
248	0xbe907a2c	-0.2821821
249	0xbddf586b	-0.10905536
250	0x3df53bde	0.119743094
251	0x3cc6776a	0.024226863
252	0xbd216060	-0.03939855
253	0x3db7aee6	0.08968906
254	0x3efb3a66	0.49067992
255	0x3ee9b94a	0.45649177

fc1.bias f4 [512]
0	0x3e614c8b	0.22001855
1	0xbe9780fb	-0.29590592
2	0xbf6ddc08	-0.92913866
3	0xbd74d393	-0.059772085
4	0xbd9a9b86	-0.07549195
5	0x3d33fde3	0.043943297
6	0x3f3492d8	0.70536566
7	0xbeedb289	-0.46425274
8	0xbf0e8c59	-0.55682904
9	0xbf095a59	-0.53653485
10	0x3ea6cd72	0.32578617
11	0xbde3b792	-0.11118998
12	0x3f0b33ff	0.54376215
13	0x3ed371d2	0.41297776
14	0x3d3280d7	0.043579902
15	0xbf5a6ea0	-0.8532505
16	0x3d95611b	0.07293912
17	0xbf21d9e1	-0.6322308
18	0xbeda449c	-0.4263047
19	0x3f7598e4	0.9593642
20	0xbe8844ba	-0.26614934
21	0x3ea34c5f	0.31894204
22	0xbcdf4bef	-0.027257888
23	0xbc02a727	-0.007974423
24	0xbc84b373	-0.01619885
25	0xbf2768e5	-0.6539443
26	0xbeced90e	-0.40399975
27	0x3dbfea9d	0.09370921
28	0x3da67b3c	0.08128974
29	0xbed3de56	-0.41380566
30	0xbe2d0e2c	-0.16899937
31	0xbe924bb6	-0.28573388
32	0x3ed7a936	0.42121285
33	0xbf437d27	-0.7636284
34	0xbdb13e49	-0.08654458
35	0xbdc7d39a	-0.09757157
36	0xbf2c8ed1	-0.6740542
37	0x3e5dd897	0.21664654
38	0xbf651c5e	-0.8949641
39	0x3e9ea9cd	0.30988923
40	0x3e8736b2	0.26408917
41	0xbf0cecca	-0.5504881
42	0xbf3237eb	-0.69616574
43	0xbe9964f9	-0.2995985
44	0x3f7d9523	0.9905569
45	0xbe582fc3	-0.2111197
46	0xbf15cb54	-0.5851338
47	0x3e3067fe	0.1722717
48	0xbf6122db	-0.8794381
49	0x3eda695f	0.42658517
50	0xbef6d47e	-0.48208994
51	0x3ec082be	0.37599748
52	0x3f563d29	0.83687073
53	0x3eaac1f4	0.333511
54	0xbee52123	-0.44751844
55	0xbece843e	-0.40335268
56	0x3eb4be5c	0.35301483
57	0xbf2da814	-0.6783459
58	0x3f20017d	0.6250227
59	0x3f68f215	0.9099439
60	0xbee0b5fb	-0.4388884
61	0xbe1bdcd1	-0.15220954
62	0x3f07f695	0.5311063
63	0x3e163e1b	0.14672129
64	0xbeb17e62	-0.34666735
65	0xbef76f04	-0.48326886
66	0xbe48ca7d	-0.19608493
67	0x3ed401c1	0.41407588
68	0xbf22119a	-0.6330811
69	0xbd0ce90c	-0.03440194
70	0xbf7c2c19	-0.9850479
71	0x3f43a957	0.7643027
72	0x3f2abbd6	0.66692865
73	0xbd619c7d	-0.05508088
74	0x3f5765e2	0.84139836
75	0xbf0e6233	-0.5561859
76	0xbe825174	-0.2545277
77	0xbeac50c0	-0.33655357
78	0xbe989b11	-0.29805806
79	0xbe964d4e	-0.29355854
80	0xbe7fa947	-0.24966918
81	0xbc8c09de	-0.017094549
82	0xbf1d28e8	-0.61390543
83	0xbf8880e1	-1.0664331
84	0xbec3d74d	-0.382502
85	0x3f0bf191	0.54665476
86	0xbe692279	-0.22767057
87	0xbec259a7	-0.37959024
88	0x3ee977bb	0.4559916
89	0xbe659d4a	-0.22423282
90	0x3e065180	0.13117027
91	0xbe7d8129	-0.24756302
92	0xbe8e34de	-0.2777471
93	0xbf7b9599	-0.9827514
94	0x3f1c481b	0.61047524
95	0xbe2defe4	-0.16986042
96	0x3e4006b6	0.1875256
97	0x3ea66ee3	0.32506475
98	0x3f178217	0.59182876
99	0x3e75084a	0.23928943
100	0xbf22c51a	-0.63582003
101	0xbf532e4c	-0.8249252
102	0x3ecba9d8	0.39778018
103	0xbda3fea3	-0.080075525
104	0xbeed8b9d	-0.4639558
105	0xbe704319	-0.23463096
106	0x3f3d9e1f	0.740694
107	0xbeb3c5f1	-0.35111955
108	0x3f0318ea	0.5120989
109	0xbec69b81	-0.38790515
110	0x3ee88fa5	0.45422092
111	0xbebce6a8	-0.36894727
112	0xbf145f9f	-0.57958406
113	0xbe99aaee	-0.30013222
114	0x3f1bd31b	0.60868996
115	0xbea0f196	-0.31434315
116	0x3f435204	0.7629702
117	0xbee3bc8c	-0.44479787
118	0xbf0f63e3	-0.5601179
119	0x3c654493	0.0139934
120	0xbe19fd11	-0.15037943
121	0xbec4326c	-0.3831972
122	0xbe9c7a2e	-0.30561966
123	0x3ecc027f	0.39845654
124	0xbea3e0c6	-0.32007426
125	0xbe898871	-0.2686191
126	0xbf348c74	-0.70526814
127	0xbf46a08e	-0.77588737
128	0xbed8b709	-0.42327145
129	0xbd8614e0	-0.0654695
130	0x3f6ad48e	0.9173058
131	0xbf146516	-0.57966745
132	0x3ef34075	0.47510114
133	0xbe6934ed	-0.22774096
134	0xbe305c7d	-0.17222781
135	0xbf064149	-0.5244337
136	0xbf32f607	-0.6990666
137	0xbe8fb645	-0.28068748
138	0xbec5d064	-0.38635552
139	0x3e8b6bcb	0.27230677
140	0xbe94f046	-0.29089564
141	0xbf21dc50	-0.63226795
142	0xbe2cb899	-0.16867293
143	0xbd91f06c	-0.07125935
144	0x3f356420	0.70855904
145	0xbf47f796	-0.7811216
146	0x3e48a98a	0.19595924
147	0xbe3e72be	-0.18598458
148	0xbe853d8b	-0.26023516
149	0x3f014c5a	0.5050713
150	0xbe92722e	-0.28602737
151	0x3e424dc9	0.18974985
152	0xbe208ffa	-0.15679923
153	0x3f290b4f	0.6603288
154	0xbf099ea2	-0.5375768
155	0xbf21a948	-0.6314893
156	0x3ee646bf	0.4497585
157	0x3e67ed54	0.22649127
158	0xbe38560b	-0.18001573
159	0xbf18ead1	-0.597333
160	0x3e2e8c43	0.17045693
161	0xbe896a32	-0.26838833
162	0xbe41649d	-0.18886037
163	0xbeb7d231	-0.3590255
164	0x3eee5fb5	0.46557394
165	0xbf03601d	-0.5131853
166	0x3ef648c0	0.4810238
167	0xbe997e49	-0.2997916
168	0xbecd2b7c	-0.40072238
169	0x3eed64f4	0.46366084
170	0x3e52fafb	0.20603554
171	0xbf0aa4f6	-0.5415796
172	0xbe5e0cdc	-0.21684593
173	0xbe50bbdc	-0.20384163
174	0xbec97fe0	-0.39355373
175	0xbe06ebd4	-0.13175899
176	0xbf0597a4	-0.5218451
177	0xbf078bce	-0.529477
178	0xbe0113bb	-0.12605183
179	0xbec0c5ed	-0.37651005
180	0xbeb94bef	-0.36190745
181	0x3e9b2ac4	0.30306065
182	0xbe504f21	-0.20342685
183	0xbf4cb701	-0.7996674
184	0x3f28c136	0.65919816
185	0xbe4d02e3	-0.20020632
186	0xbed1ed9d	-0.41001597
187	0xbf036db2	-0.51339257
188	0xbe804b65	-0.2505752
189	0x3ef9ab46	0.48763484
190	0x3c5bb861	0.013410659
191	0x3ee25c3c	0.44210994
192	0x3cadc006	0.021209728
193	0xbe93aa35	-0.28840795
194	0x3e7894c4	0.242755
195	0x3e046ee5	0.12932928
196	0xbe0fe907	-0.14053737
197	0x3e1862c5	0.14881428
198	0x3e07e160	0.13269567
199	0x3ea207b1	0.31646493
200	0xbf1ec20e	-0.62014854
201	0x3cf93faf	0.030425875
202	0x3e4dc926	0.20096263
203	0xbd4ca370	-0.049960554
204	0x3ca2778d	0.019832397
205	0x3d803f63	0.0626209
206	0xbf1a1801	-0.6019288
207	0xbeba1036	-0.36340493
208	0xbeecc7d1	-0.46246198
209	0xbefe73b5	-0.49697652
210	0xbe8f2362	-0.27956682
211	0xbf612bf1	-0.87957674
212	0xbe32c08d	-0.17456265
213	0xbe50381a	-0.20333901
214	0x3e978143	0.29590806
215	0xbf08066e	-0.5313481
216	0x3e324685	0.17409714
217	0xbf10f5c5	-0.56625015
218	0xbf6c3017	-0.9226088
219	0xbef4f3f0	-0.4784236
220	0xbee9b4ea	-0.4564584
221	0xbda4b95e	-0.080431685
222	0x3d2e5842	0.042564638
223	0xbf2b4e95	-0.6691678
224	0xbe8907b1	-0.2676368
225	0x3e6424ce	0.22279665
226	0x3f54313d	0.8288763
227	0x3ecf38f2	0.40473133
228	0xbf055d8e	-0.5209588
229	0xbe676f8f	-0.2260115
230	0xbf1ac364	-0.6045439
231	0x3eb0574d	0.34441605
232	0xbeeae580	-0.4587822
233	0xbf4a3df8	-0.79000807
234	0xbf14fd99	-0.5819946
235	0xbf2f583b	-0.68494004
236	0x3f35b951	0.70985895
237	0xbf041558	-0.5159507
238	0xbf1c3072	-0.6101142
239	0xbf97a32c	-1.1846671
240	0xbf0c2700	-0.5474701
241	0x3f153b2c	0.58293414
242	0xbf0ae4fd	-0.5425566
243	0xbf74d710	-0.9564066
244	0x3ebdf4e2	0.37100893
245	0xbe78192f	-0.24228357
246	0xbe9b9431	-0.303865
247	0x3e41fc01	0.18943788
248	0xbd277d6d	-0.0408911
249	0x3f861af7	1.0476979
250	0x3e94ea04	0.2908479
251	0xbcc2d0c2	-0.023781184
252	0xbedb6128	-0.42847562
253	0xbf60732f	-0.87675756
254	0xbeedced4	-0.4644686
255	0xbe8a36c0	-0.26994896

fc2.weight f4 [256, 514]
0	0xbdf7450c	-0.120737165
1	0x3e69dabc	0.22837347
2	0x3e2378fa	0.15964118
3	0x3df999e2	0.12187554
4	0x3e03e568	0.1288048
5	0x3e4fdcbf	0.20299052
6	0x3e7401e0	0.2382884
7	0xbf0115bd	-0.50423795
8	0x3dc9d575	0.09855167
9	0xbe9f13a8	-0.31069684
10	0xbdcbbd27	-0.09948187
11	0xbcc061c9	-0.023484128
12	0xbeed482f	-0.46344134
13	0x37d2cfce	2.5130717e-05
14	0xbc1c1edd	-0.009528843
15	0x3e3a38ad	0.18185683
16	0x3e65821c	0.22412914
17	0x3df887d6	0.12135284
18	0x3d917259	0.07101888
19	0xbb8ec980	-0.0043575168
20	0xbea338a2	-0.31879145
21	0xbe212f5f	-0.15740727
22	0xbee80582	-0.45316702
23	0xbd855e5a	-0.06512137
24	0x3e584351	0.21119429
25	0xbe058709	-0.13039793
26	0xbd98a133	-0.07452621
27	0xbe35cc12	-0.17753628
28	0xbb83af2b	-0.0040186844
29	0x3e9010b9	0.28137758
30	0x3ed9884d	0.42486802
31	0xbe1da86e	-0.15396282
32	0xbe0f627a	-0.1400241
33	0xbe1f25ac	-0.15541714
34	0x3e7f56c8	0.24935448
35	0x3e560ded	0.2090375
36	0x3e5f0cf6	0.21782288
37	0xbf3ebfad	-0.74511224
38	0xbde4b059	-0.11166448
39	0x3d3c9d8a	0.04604868
40	0x3e11dfad	0.14245482
41	0x3e991db9	0.2990549
42	0xbdadf0a5	-0.08493165
43	0x3d9ad54c	0.075602144
44	0x399576ae	0.00028507918
45	0x3ee6a7b0	0.4504981
46	0xbeb24a4f	-0.34822318
47	0x3e85504a	0.26037818
48	0xbddcaaa1	-0.107747324
49	0xbe5c3fd0	-0.21508718
50	0xbe75d32d	-0.24006338
51	0x3de0ba9f	0.10973095
52	0xbdb14bc3	-0.086570285
53	0x3dac2b48	0.08406693
54	0x3dbfc71e	0.093641505
55	0xbc92f7ff	-0.01794052
56	0xbd928777	-0.07154744
57	0x3e82bc00	0.25534058
58	0x3d1cfd2c	0.03832738
59	0xbe05cafd	-0.13065715
60	0xbede06b3	-0.43364486
61	0xbc580c89	-0.013186582
62	0x3e1d3fa5	0.1535631
63	0x3e987f2f	0.29784533
64	0xbe72fa60	-0.23728323
65	0xbf3d2aef	-0.73893636
66	0x3d9abbd5	0.07555357
67	0xbe070dcc	-0.13188857
68	0xbe734972	-0.23758486
69	0xbc0ec901	-0.008714915
70	0xbdaeda66	-0.0853775
71	0xbdaa36ba	-0.083112195
72	0x3e7c2224	0.24622399
73	0xbed18580	-0.40922165
74	0x3e1a7f67	0.15087663
75	0xbf0bc17f	-0.54592127
76	0xbeafdd9d	-0.34348765
77	0x3f0ae4a4	0.5425513
78	0xbd4900f8	-0.04907319
79	0xbdc18ed7	-0.09451073
80	0xbe3b105a	-0.18267956
81	0xbc554ad4	-0.013018329
82	0x3d513efc	0.051085457
83	0x3d74311d	0.05961715
84	0xbec8772d	-0.39153424
85	0x3e15f488	0.14644063
86	0x3dac01c4	0.08398774
87	0xbf12adda	-0.57296526
88	0xbe28b5c1	-0.16475584
89	0xbd2e3303	-0.042529117
90	0xbea41b83	-0.3205224
91	0x3c8cde00	0.017195702
92	0x3edf2196	0.43580312
93	0x3dc9bda3	0.098506235
94	0xbe2e0a7c	-0.16996187
95	0x3e44bc69	0.19212498
96	0x3da36e07	0.079799704
97	0xbe3bfcbf	-0.18358134
98	0x3dc92055	0.0982062
99	0xbe106153	-0.14099626
100	0xbdf90bab	-0.121604286
101	0x3d18d4a9	0.037312184
102	0x3e151b28	0.1456114
103	0x3e87cace	0.26521915
104	0x3f0fda09	0.5619207
105	0x3e568017	0.209473
106	0x3e16b55d	0.14717622
107	0x3d98ba74	0.07457438
108	0xbeee4e6d	-0.4654421
109	0x3eb90377	0.36135456
110	0xbe280fb6	-0.16412243
111	0xbe19fc71	-0.15037705
112	0x3e33125b	0.17487471
113	0x3ecb1518	0.3966453
114	0x3dbeaee8	0.093107045
115	0xbdf1816a	-0.11792262
116	0xbd35cc16	-0.044384085
117	0x3eced342	0.40395552
118	0xbdc2d48a	-0.09513195
119	0xbd299275	-0.041399438
120	0x3c5a127a	0.013310069
121	0xbe902db4	-0.2815987
122	0xbc305596	-0.010762593
123	0xbd0fd92a	-0.035119213
124	0x3e8ae6c7	0.27129194
125	0xbea5132b	-0.32241186
126	0xbe8d53c4	-0.2760297
127	0xbe8e3105	-0.27771774
128	0x3eb156b6	0.34636468
129	0x3e88cf5d	0.26720706
130	0x3c93ce09	0.018042581
131	0xbe830f60	-0.25597668
132	0xbe741a34	-0.2383812
133	0xbcbcc4b8	-0.023043022
134	0x3d8b6267	0.06805878
135	0xbe83dbea	-0.2575372
136	0xbd2b7315	-0.041857798
137	0x3e6e33ea	0.23261991
138	0xbe025885	-0.1272908
139	0x3dd4cd43	0.10390713
140	0xbe04780b	-0.12936418
141	0xbe057dbd	-0.13036247
142	0x3e340795	0.17581017
143	0x3e100c02	0.1406708
144	0x3e5efcba	0.21776095
145	0xbe004de5	-0.12529714
146	0xbdeb6477	-0.114937715
147	0xbe95e034	-0.29272616
148	0x3e9f8923	0.31159315
149	0xbedd3e24	-0.43211472
150	0xbe529514	-0.20564681
151	0x3e71d469	0.23616184
152	0xbd46731e	-0.048449628
153	0x3d7b21de	0.061311595
154	0x3e3de1a3	0.18543105
155	0x3ccffd75	0.025389412
156	0x3d78e7b1	0.060767833
157	0xbe26d18f	-0.16290878
158	0xbe54e33b	-0.20789807
159	0xbe07fc7b	-0.13279907
160	0xbec67b71	-0.38766053
161	0x3e759276	0.23981652
162	0x3e91fb73	0.28512153
163	0x3d6df3b0	0.058093727
164	0x3ca66d4b	0.020315787
165	0xbe7bdeea	-0.24596754
166	0xbd74b0dd	-0.059738982
167	0xbea1e28d	-0.31618157
168	0x3d7d9e37	0.061918464
169	0xbe4c8bf8	-0.19975269
170	0xbe77df26	-0.24206218
171	0xbedbe73f	-0.42949864
172	0xbe305dad	-0.17223234
173	0xbeb22e07	-0.3480074
174	0x3e2a91e1	0.16657211
175	0xbe7c444f	-0.24635433
176	0xbe737b60	-0.23777533
177	0x3e2ab741	0.16671468
178	0x3e5e9c34	0.21739274
179	0x3d72e894	0.059303835
180	0x3cde845e	0.027162727
181	0x3f179cf4	0.59223866
182	0xbda77ae2	-0.08177735
183	0xbf3457a7	-0.70446247
184	0xbd86ea18	-0.065876186
185	0xbdafe2db	-0.08588191
186	0x3d65559b	0.055989843
187	0xbc93f732	-0.018062208
188	0x3d1ce686	0.03830578
189	0xbeb81e97	-0.35960838
190	0x3e8d5002	0.27600104
191	0xbd965e2a	-0.07342179
192	0xbdc9cbc0	-0.09853315
193	0x3da59648	0.080853045
194	0xbe067b2d	-0.13132925
195	0xbe2d1949	-0.16904177
196	0xbee8ac26	-0.4544384
197	0x3c240a33	0.010012197
198	0xbe8c666d	-0.27421895
199	0x3dfe04da	0.12403269
200	0xbcdcf72c	-0.02697333
201	0xbebb8248	-0.36622834
202	0xbca228c6	-0.019794833
203	0xbd9bf7ba	-0.076156095
204	0xbe9fbe25	-0.31199756
205	0xbcd80ac8	-0.026372328
206	0xbf2025cb	-0.6255767
207	0x3dcd01d5	0.10010115
208	0xbe4a8c4f	-0.19780086
209	0x3e548150	0.20752454
210	0xbe0579ab	-0.13034694
211	0xbedd75ed	-0.43254033
212	0xbc822b4e	-0.01588979
213	0x3ec32feb	0.38122496
214	0xbe21bbd2	-0.15794304
215	0xbd757a2c	-0.059930965
216	0xbcb3930e	-0.021920707
217	0xbeab47a5	-0.33453098
218	0x3dec118c	0.11526784
219	0x3f005434	0.50128484
220	0xbf4dbe19	-0.8036819
221	0x3e47117a	0.1944026
222	0xbeded67e	-0.4352302
223	0x3d7818ec	0.060570642
224	0xbf19a6a1	-0.6001988
225	0xbdbd5259	-0.09244222
226	0xbe12f1a1	-0.14349987
227	0xbda4053a	-0.080088094
228	0xbdcb4898	-0.099259555
229	0xbd57c6df	-0.052679893
230	0x3eb23062	0.34802538
231	0x3e072e87	0.13201343
232	0xbd895b46	-0.06706862
233	0x3d9f75e0	0.07786155
234	0xbf07c439	-0.53033787
235	0xbee06ba3	-0.4383212
236	0xbe2fb88b	-0.17160241
237	0xbe8f9d4f	-0.28049704
238	0x3d23b9c5	0.039972086
239	0x3d288cdd	0.041149963
240	0x3d6ed8b2	0.058312126
241	0x3e975b2d	0.2956175
242	0xbdbd61e1	-0.092471845
243	0xbd89123c	-0.06692931
244	0x3e21d1d2	0.15802696
245	0xbe6bb355	-0.23017628
246	0x3ed0549f	0.4068956
247	0x3d61d0d5	0.0551308
248	0x3d9105cb	0.07081183
249	0x3ec0f163	0.37684163
250	0xbe5f6179	-0.21814527
251	0xbd264f4a	-0.04060296
252	0x3e562ffc	0.20916742
253	0x3d872f33	0.066007994
254	0xbe89c7d6	-0.26910275
255	0x3eb6eb8d	0.35726586

fc2.bias f4 [256]
0	0x3dbb107e	0.09134005
1	0xbf5e8fc9	-0.8693815
2	0x3de40fec	0.11135849
3	0xbf83b61e	-1.0289953
4	0xbf52eeb3	-0.82395476
5	0xbf77d3f6	-0.968078
6	0xbece6c13	-0.4031683
7	0x3fa66a45	1.3001181
8	0x3e254d62	0.161428
9	0x3dc6c204	0.09704974
10	0x3e918366	0.28420562
11	0xbd858a4d	-0.065205194
12	0xbe7f6604	-0.2494126
13	0xb8c674b6	-9.463115e-05
14	0xbf439953	-0.7640583
15	0x3ed6c5a4	0.41947663
16	0x3facda26	1.3504074
17	0xbf46ba2f	-0.77627844
18	0xbd198b4e	-0.037486367
19	0x3fcb569c	1.5885806
20	0xbf4d564f	-0.8020982
21	0x3f1e994b	0.61952657
22	0xbd344742	-0.04401327
23	0xbe110d86	-0.14165315
24	0x3da07f22	0.07836749
25	0x3f27dae6	0.6556839
26	0x3fa4087a	1.2815087
27	0xbdc1199c	-0.09428713
28	0x3ef56fb5	0.47936788
29	0xbeed9905	-0.46405807
30	0xbf6c6870	-0.9234686
31	0xbf08a67b	-0.5337903
32	0xbf562a89	-0.83658653
33	0x3fdd656c	1.7296576
34	0x3e8677ce	0.2626328
35	0xbf363211	-0.71170145
36	0x3f39e47a	0.7261425
37	0xbea02760	-0.3128004
38	0x3eb3859b	0.3506287
39	0x3c06df88	0.008232005
40	0x3ea3b541	0.31974223
41	0x3fd59f40	1.6689224
42	0xbee600be	-0.4492244
43	0x3e224027	0.15844785
44	0x3c925e9d	0.01786738
45	0x3d9192d8	0.07108086
46	0xbf468959	-0.77553326
47	0x3df791f5	0.12088386
48	0xbcb64f8e	-0.022254732
49	0x3fac7524	1.3473248
50	0x3ee379ee	0.44428962
51	0xbf3c1724	-0.7347281
52	0x3f240658	0.6407218
53	0xbe6bdf30	-0.23034358
54	0x3f352719	0.70762783
55	0xbf4d2da8	-0.8014779
56	0x3d8203c7	0.06348377
57	0xbe52de89	-0.20592703
58	0xbec97f7b	-0.39355072
59	0x3ed114d1	0.40836194
60	0xbf3022da	-0.6880318
61	0xbf5d71d3	-0.86501807
62	0xbf25f934	-0.6483338
63	0xbe0068e5	-0.12540014
64	0xbfa9cc16	-1.3265407
65	0xbece4788	-0.4028895
66	0x3f3033f1	0.68829256
67	0x3e77bc47	0.24192916
68	0xbd36151b	-0.04445372
69	0x3f715f57	0.942861
70	0xbd9e0c0c	-0.077171415
71	0xbae285a6	-0.0017282262
72	0x3e362d48	0.17790711
73	0x3e94b8d0	0.2904725
74	0xbedd7380	-0.43252182
75	0xbe55a612	-0.20864132
76	0xbf2c194b	-0.67226094
77	0xbdf0528e	-0.11734496
78	0xbee03614	-0.43791258
79	0xbf316550	-0.69295216
80	0x3f2cc23f	0.67483896
81	0x3e82b387	0.25527593
82	0xbf32781d	-0.6971453
83	0xbf79f762	-0.976431
84	0x3d9697f3	0.07353201
85	0xbf39c998	-0.7257323
86	0x3f3c160d	0.73471147
87	0x3e075ed3	0.13219766
88	0xbeae7789	-0.34075573
89	0x3fc91a46	1.5711143
90	0xbf1ac4f7	-0.60456795
91	0xbf30f9e3	-0.69131297
92	0x3fd2577b	1.6432947
93	0xbd2b95d9	-0.041890953
94	0xbf4416b5	-0.7659715
95	0x3cec1e44	0.028823026
96	0x3ed0be73	0.407703
97	0x3f4b5531	0.79426867
98	0x3dd0e9d9	0.10200853
99	0xbf538982	-0.82631695
100	0xbc9ee8d3	-0.019398129
101	0x3fdbbc53	1.7166847
102	0x3f854b08	1.0413523
103	0xbf09d3e8	-0.5383897
104	0x3f3c024e	0.73441017
105	0x3f9a5ec5	1.2060171
106	0x3ee24cb9	0.4419916
107	0xbd84439d	-0.06458209
108	0xbf5a7abb	-0.8534352
109	0xbf2dc5e2	-0.6788007
110	0xbddb251a	-0.10700436
111	0x3f671afd	0.90275556
112	0xbeae2250	-0.34010553
113	0x3f3c79cc	0.7362335
114	0x3e6d7346	0.23188505
115	0xbf1d6521	-0.61482435
116	0xbea96f94	-0.3309294
117	0x3f7b0594	0.98055387
118	0xbf814c2a	-1.0101368
119	0xbe3e655c	-0.18593353
120	0x3af4c2ea	0.0018673812
121	0x3f5d5546	0.8645824
122	0x3c60eab8	0.013727836
123	0x3faedc13	1.3660911
124	0x3da012b4	0.07816067
125	0xbf5ac51d	-0.8545702
126	0x3da435e5	0.08018092
127	0xbd9de6af	-0.07710015
128	0x3fc8b9ba	1.5681679
129	0xbf4dcfce	-0.8039521
130	0xbf1f409e	-0.62207973
131	0xbf8838e8	-1.0642366
132	0x3f0acb53	0.542165
133	0x3fb6d9f5	1.4285265
134	0xbf0421e1	-0.51614195
135	0xbef25076	-0.47327012
136	0xbd987ad2	-0.07445301
137	0x3d3f8edc	0.0467671
138	0x3f1c9771	0.6116858
139	0x3fc33702	1.5251162
140	0x3f9ec428	1.2403612
141	0x3e8e7d6c	0.27830064
142	0x3e2b1f45	0.16711147
143	0x3e41ccc1	0.18925764
144	0x3f795d9a	0.9740845
145	0x3fa680d2	1.3008063
146	0x3f21fc90	0.63276005
147	0x3fb1c5f9	1.3888541
148	0x3f400da3	0.7502081
149	0xbf3ed3f3	-0.7454216
150	0xbf2440c7	-0.6416134
151	0x3e88eef0	0.26744795
152	0x3face655	1.3507792
153	0x3e586298	0.2113136
154	0x3f969267	1.1763428
155	0x3d8299cc	0.06376991
156	0xbefedb9f	-0.49776933
157	0x3f506c42	0.8141519
158	0xbf1b8551	-0.607503
159	0xbf3f06d3	-0.7461979
160	0x3fd3adad	1.6537377
161	0xbf591751	-0.84801203
162	0xbf43b2c1	-0.7644463
163	0x3fa62ae3	1.2981838
164	0x3f873d4d	1.0565583
165	0xbf0156e8	-0.50523233
166	0xbf18d1a0	-0.5969486
167	0x3ec0487a	0.37555295
168	0x3fd8e171	1.6943799
169	0x3fd0553f	1.6276015
170	0x3fc36098	1.5263853
171	0x3ede2080	0.4338417
172	0x3e7f94e8	0.24959147
173	0x3fa0a79a	1.2551148
174	0xbef6b981	-0.48188403
175	0xbef3907a	-0.47571164
176	0xbd66cdd7	-0.056348648
177	0x3fc75884	1.5573888
178	0xbf094f38	-0.53636503
179	0xbea1af20	-0.31578922
180	0x3f984891	1.1897146
181	0xbf224e37	-0.63400596
182	0x3fcd3c51	1.6034032
183	0x3e0d928d	0.13825436
184	0xbdb777af	-0.08958375
185	0x3dc973b7	0.09836524
186	0xbf1582a7	-0.58402485
187	0xbea3a9dc	-0.3196553
188	0xbf37f823	-0.71863
189	0xbf6960dd	-0.91163427
190	0xbe17b136	-0.14813694
191	0x3f596058	0.84912634
192	0xbe2679c3	-0.16257386
193	0x3edf24a3	0.4358264
194	0x3d5ae145	0.05343749
195	0x3b88acd8	0.004170995
196	0xbf7d6e65	-0.98996574
197	0xbf0e2a21	-0.55533034
198	0x3df331a4	0.118747026
199	0x3c8bb900	0.017055988
200	0xbceccc20	-0.028905928
201	0xbf57968c	-0.8421409
202	0xbda81e1f	-0.0820887
203	0xbbe4c7ea	-0.0069818394
204	0x3d800c21	0.062523134
205	0xbe1ac81c	-0.15115398
206	0x3d80352e	0.06260143
207	0xbed25a31	-0.41084436
208	0x3baf6dd4	0.0053536687
209	0x3f2337a1	0.6375676
210	0x3fcafb32	1.5857909
211	0xbf30a2a4	-0.6899817
212	0x3e8fc87c	0.28082645
213	0xbf6f6af1	-0.93522555
214	0x3ed09e39	0.40745714
215	0xbf75438f	-0.9580621
216	0x3f130921	0.57435805
217	0x3cb643c8	0.022249117
218	0xbf385a85	-0.7201312
219	0x3d15d140	0.03657651
220	0xbf6a5bb8	-0.915462
221	0x3fcc6a3b	1.5969919
222	0xbf600cf4	-0.87519765
223	0x3faa9d9a	1.3329346
224	0x3e45362f	0.1925895
225	0x3e9837af	0.29729983
226	0x3e05f37e	0.13081166
227	0x3f9cabbf	1.2239913
228	0xbf36c8ef	-0.7140035
229	0x3ec83fe8	0.39111257
230	0xbf0057de	-0.50134075
231	0xbedd2113	-0.43189296
232	0x3c5f03f2	0.0136117805
233	0x3fb62db8	1.4232702
234	0xbea4f356	-0.322169
235	0xbf6c9ea7	-0.92429584
236	0x3d635b3b	0.055506926
237	0xbd93344c	-0.07187709
238	0xbf1d670e	-0.61485374
239	0x3fbace40	1.4594193
240	0x3e868e8e	0.26280636
241	0x3e1f4f41	0.15557577
242	0x3f8c055d	1.0939137
243	0x3e7cc2e3	0.24683718
244	0x3f1f4eb8	0.6222949
245	0xbf7b6914	-0.9820721
246	0x3e81c2a7	0.2534382
247	0x3f9875b7	1.1910924
248	0x3f2d667b	0.677345
249	0xbea04b6a	-0.31307536
250	0x3f2a20c9	0.66456276
251	0x3f496ed3	0.7868473
252	0x3fa7115c	1.3052173
253	0x3fb58244	1.4180379
254	0x3fbbb7f9	1.4665519
255	0xbeb6095f	-0.35554025

fc3.weight f4 [1, 256]
0	0x3fd470de	1.6596944
1	0xbb215fff	-0.0024623869
2	0xbf4e82e4	-0.80668473
3	0xbf48e468	-0.7847352
4	0x3ebd98c9	0.37030628
5	0x3efdbaf1	0.49556687
6	0xbebecba1	-0.37264732
7	0x3f168d25	0.5880912
8	0xbf8138ea	-1.0095494
9	0xbf85bcd1	-1.0448247
10	0x3fe91786	1.8210304
11	0xbfbf613c	-1.4951549
12	0x3fb2f259	1.3980209
13	0xbf8124bb	-1.0089334
14	0x3b817701	0.003950954
15	0x3fb72f2a	1.4311268
16	0x3f8d77be	1.1052167
17	0xbbe24026	-0.0069046197
18	0xbfa378bc	-1.277122
19	0x3f77c53e	0.9678534
20	0x3f45499e	0.77065456
21	0x3fa80630	1.3126888
22	0x3f41e03f	0.757328
23	0x3f56658e	0.8374871
24	0x3f53890f	0.8263101
25	0x3f81110e	1.008333
26	0x3f40598e	0.7513665
27	0xbf954c59	-1.1663924
28	0x3fa0f2a4	1.2574048
29	0x3f81e522	1.0148051
30	0xbbe6e033	-0.0070457696
31	0xbdcb5fcb	-0.099303804
32	0xbfae401a	-1.3613312
33	0x3f496707	0.7867283
34	0x3f7d6762	0.98985875
35	0x3ba860f4	0.005138511
36	0x3f7d3b80	0.98918915
37	0x3fc607e6	1.547116
38	0x3f96aede	1.1772115
39	0x3d190047	0.03735378
40	0x3f967763	1.1755184
41	0x3f69da1f	0.9134845
42	0x3f3284d3	0.69733924
43	0xbfabe7d5	-1.3430125
44	0xbf61ac05	-0.88153106
45	0xbf9adeda	-1.2099259
46	0xbf4c094c	-0.79701686
47	0x3f3a8537	0.7285952
48	0xbf7b14fd	-0.980789
49	0x3f74b23f	0.9558448
50	0x3f8bda0c	1.0925918
51	0x3f5642da	0.8369576
52	0x3fa29b57	1.2703656
53	0xbf72e048	-0.94873476
54	0x3fc697a2	1.5515025
55	0x3c50f4de	0.012753693
56	0xbf741c6b	-0.9535586
57	0x3fe0785b	1.753673
58	0x3f9620e4	1.1728787
59	0x3fb671ea	1.4253514
60	0x3f97bfc3	1.1855396
61	0xbbc7c580	-0.006096542
62	0x3fad37e8	1.3532686
63	0xbf983aff	-1.1893004
64	0xbf509da8	-0.81490564
65	0xbf2cad87	-0.6745228
66	0x3f5e9a83	0.86954516
67	0x3f8a94b2	1.0826628
68	0xbf50d725	-0.81578285
69	0x3fbb7ff0	1.4648418
70	0xc0535561	-3.302086
71	0xbf61d759	-0.8821922
72	0x3f7bbe20	0.9833698
73	0x3fcf3f56	1.6191204
74	0xbe823d2d	-0.25437298
75	0xc083bd47	-4.116855
76	0x3f161c37	0.586368
77	0xbf848f1a	-1.0356171
78	0x3f3ebc85	0.7450641
79	0x3f63a625	0.8892539
80	0x3ff9cb58	1.951518
81	0xbf687193	-0.907983
82	0x3f231cbd	0.63715726
83	0xbfcf70db	-1.6206316
84	0x3f8a299e	1.079395
85	0xbb9ea959	-0.004841965
86	0x3f8c4826	1.0959518
87	0x3f52d0a9	0.8234964
88	0xbeee3765	-0.46526638
89	0x3f8f2430	1.1182919
90	0xbe66a69f	-0.22524498
91	0x3f64afa2	0.89330494
92	0x3f12708e	0.57202995
93	0xbf95071c	-1.1642795
94	0x3c02e49e	0.007989077
95	0xbf6e99bc	-0.9320333
96	0x3f7c821e	0.98636043
97	0x3fce0e48	1.6098108
98	0xbf64b45b	-0.893377
99	0x3b8b13f9	0.0042443243
100	0xbf933e15	-1.1503321
101	0x3f366b2a	0.7125727
102	0x3f91837c	1.1368251
103	0x3fc00c35	1.5003725
104	0x3fab6189	1.338914
105	0x3f9ad7d1	1.2097112
106	0x3f800f76	1.0004718
107	0xbf5a7215	-0.85330325
108	0xbf8403ff	-1.031372
109	0x3f5188b1	0.818492
110	0x4019de38	2.4041882
111	0x3f2af8eb	0.6678607
112	0xbf02f4c8	-0.51154757
113	0x3fe3e3e6	1.7803924
114	0x3f92f001	1.1479493
115	0x3fb43dc0	1.4081345
116	0xbefd27a0	-0.49444294
117	0x3f89fef0	1.0780926
118	0xbf7211c5	-0.94558364
119	0xbf3a32cd	-0.72733766
120	0xbf8dc94b	-1.1077055
121	0x3f9a3449	1.2047206
122	0x3f8d8a0c	1.1057754
123	0x3f27cdee	0.655486
124	0x3f39f2a5	0.7263587
125	0xbf1f8b8a	-0.62322295
126	0xbf5aec74	-0.8551705
127	0x3f5f70ca	0.8728148
128	0x3f7d7af5	0.9901574
129	0x3eaadcf8	0.3337171
130	0xbe4c1a8d	-0.19932003
131	0xbf9ae565	-1.2101256
132	0x3fb166a3	1.3859447
133	0x3f7bd878	0.9837718
134	0xbe8401b0	-0.25782537
135	0x3f5bab38	0.85808134
136	0x3f9e3bb9	1.2361976
137	0xbf5a7d8c	-0.8534782
138	0x3f756b9d	0.9586733
139	0x3f41412e	0.7549008
140	0x3f6d84cf	0.92780775
141	0x3f37bb1d	0.7176989
142	0x3f522e7a	0.8210217
143	0x3f9c1cd0	1.2196293
144	0x3faf8086	1.3711097
145	0x3f0a6f8b	0.5407645
146	0x3f3af033	0.73022765
147	0x3f869ab8	1.0515966
148	0x3fdd7dcf	1.7304019
149	0x3a96052a	0.0011445631
150	0xbe59e34c	-0.21278113
151	0x3f9638d3	1.1736091
152	0x3f254617	0.64560074
153	0xbf5ec6bc	-0.87021995
154	0x3f0f59c9	0.55996376
155	0xbf64d1c3	-0.8938257
156	0xbe4ea00a	-0.20178238
157	0x3f3879fd	0.7206114
158	0x3f7d9684	0.99057794
159	0xbfb64291	-1.4239064
160	0x3f2177c4	0.6307337
161	0x3ed488d0	0.4151063
162	0x3b9ff804	0.0048818607
163	0x3f049ae7	0.5179886
164	0x3f652ba4	0.89519715
165	0x3f918d5b	1.1371263
166	0x3efa4531	0.48880914
167	0x3f6dddca	0.9291655
168	0x3f4280fb	0.7597806
169	0x3f6f84bf	0.9356193
170	0x3f478dbc	0.77950644
171	0x3fd42969	1.6575137
172	0x3f845650	1.033884
173	0x3f4c09eb	0.79702634
174	0x3f9b9c50	1.2157078
175	0x3f196f1d	0.5993517
176	0x3f7696e3	0.96323985
177	0x3f3abaa9	0.7294107
178	0xbe405f01	-0.18786241
179	0xbf485d1f	-0.7826709
180	0x3fb7a097	1.4345883
181	0x3f88d1f7	1.0689076
182	0x3f141577	0.5784525
183	0x3f905204	1.1275029
184	0x3f5c7387	0.8611378
185	0x3f6bcb65	0.9210723
186	0x3f2dd360	0.6790066
187	0xbfacf4db	-1.3512224
188	0x3f5c7e2f	0.8613004
189	0xbf989219	-1.1919585
190	0x402aed34	2.6707277
191	0x3fae5e1f	1.3622473
192	0x3ffdd844	1.9831624
193	0x3fc6a0eb	1.5517858
194	0xbf80f107	-1.0073556
195	0xbf584cc0	-0.8449211
196	0xbf45865f	-0.7715816
197	0x3fe6df0c	1.8036819
198	0xbf68cf1c	-0.90941024
199	0x3f7d2156	0.9887899
200	0xbf884b0d	-1.0647904
201	0x3bd92cd1	0.006627657
202	0xbf8b7a40	-1.0896683
203	0xc019ab0e	-2.4010653
204	0x3fa23518	1.2672453
205	0xc0539b4c	-3.3063536
206	0xbf64fd63	-0.8944914
207	0xbee9baba	-0.45650274
208	0x3cc9193c	0.024548166
209	0x3f5cbb9a	0.8622376
210	0x3f7859d4	0.97012067
211	0x3ee318cf	0.44354865
212	0x3f44c682	0.768654
213	0xbf16465c	-0.5870111
214	0x3f83358a	1.0250714
215	0xba2f3914	-0.00066842255
216	0x3f33ce30	0.7023649
217	0xbf86ef79	-1.0541831
218	0x3bbfaa83	0.005849184
219	0xbf71119a	-0.9416748
220	0x3b523cd5	0.0032079716
221	0x3f8866b5	1.0656344
222	0xbbc62087	-0.006046358
223	0x3f252ef7	0.6452479
224	0x3f895810	1.073
225	0x3f7c2c70	0.98505306
226	0xbfba4c09	-1.4554454
227	0x3f74959b	0.9554078
228	0xbbfc02b7	-0.0076907533
229	0x3fabe220	1.3428383
230	0xbe8a9fa5	-0.27074924
231	0xbf1b4ab9	-0.6066089
232	0xbf4b2ed4	-0.7936833
233	0x3f26d4e9	0.65168625
234	0xbf86a8cb	-1.0520262
235	0x3a9b2651	0.0011836981
236	0xbfac2f6f	-1.3451976
237	0xbf970fdd	-1.1801716
238	0x3f177451	0.5916186
239	0x3f73879f	0.95128816
240	0x3f8ecb9d	1.1155888
241	0xbf82c4aa	-1.0216267
242	0x3fa9f11a	1.3276703
243	0x3fa57af5	1.2928149
244	0x3f9a5b65	1.2059141
245	0xbee3c9ba	-0.44489843
246	0x3f9a58f0	1.2058392
247	0x3fa46a80	1.2845001
248	0x3fdbfc18	1.7186308
249	0xbf9ccad6	-1.2249401
250	0x3fb96a26	1.4485519
251	0x3fd2ee95	1.647906
252	0x3f27bdc4	0.65523934
253	0x3f5138a1	0.81727034
254	0x3f7b2a57	0.9811148
255	0xbf1fa296	-0.6235746

norm.weight f4 [28]
0	0x3f84814e	1.0351961
1	0x3fa84ff7	1.3149403
2	0x3fa161c4	1.2607961
3	0x3fab9635	1.3405215
4	0x3faa617d	1.3311001
5	0x3fb1093c	1.3830943
6	0x3fae5642	1.3620074
7	0x3fa719e1	1.3054773
8	0x3fa0bed5	1.2558237
9	0x3f9522c5	1.1651236
10	0x3f910bb4	1.1331697
11	0x3f94b4e5	1.1617705
12	0x3f9bdeb8	1.2177343
13	0x3fa2bfca	1.2714779
14	0x3f9755d6	1.182307
15	0x3fa2a4d3	1.270655
16	0x3f9e4ebf	1.2367781
17	0x3f92618e	1.1436021
18	0x3faeadb3	1.3646759
19	0x3fa1b341	1.2632829
20	0x3fb53a0c	1.415834
21	0x3fae4a3f	1.3616408
22	0x3fbf0836	1.4924381
23	0x3f589b2f	0.8461179
24	0x4012e640	2.2953033
25	0x3fd32254	1.6494851
26	0x3fbdc0fa	1.4824517
27	0x3fb3898d	1.4026352

norm.bias f4 [28]
0	0xbd4bf36c	-0.049792692
1	0x3f175f14	0.5912945
2	0x3f131ab2	0.5746261
3	0x3f2ac557	0.66707367
4	0x3e145a8b	0.14487664
5	0x3e8ede76	0.279041
6	0xbd93c70a	-0.07215698
7	0x3dae2352	0.085028306
8	0x3db9c8c4	0.09071496
9	0x3cd5a6cf	0.026080517
10	0xbd6567ad	-0.056007076
11	0xbe231c01	-0.15928651
12	0xbed0421a	-0.4067543
13	0xbf0e72ea	-0.55644095
14	0xbed8a32e	-0.42311996
15	0xbeaa2491	-0.33231023
16	0xbee3e6d6	-0.4451205
17	0xbecdffa7	-0.4023411
18	0xbdd566fc	-0.10420033
19	0x3bd9f4d6	0.006651501
20	0x3e2051de	0.1565623
21	0x3ed09739	0.40740374
22	0x3eb9ed5c	0.36313903
23	0x3f5c1113	0.85963553
24	0x3dfd54ac	0.123696655
25	0x3e29ad1b	0.16569941
26	0x3f2118fd	0.62928754
27	0xbc9a3847	-0.018825663

norm.running_mean f4 [28]
0	0x3fc9e2fe	1.5772398
1	0x3fd6d921	1.6785012
2	0x3fdd16d6	1.7272594
3	0x3fd3eed7	1.6557263
4	0x3fdb78df	1.7146262
5	0x3fd4c5da	1.662288
6	0x3fd6cfd0	1.6782169
7	0x3fe2251a	1.7667572
8	0x3fea9855	1.8327738
9	0x3fec117e	1.8442838
10	0x3fe77712	1.8083212
11	0x3fdce650	1.7257786
12	0x3fd2dd0d	1.6473709
13	0x3fc3eeaa	1.530721
14	0x3fbb90a3	1.4653515
15	0x3fadc918	1.3576994
16	0x3fa9242a	1.3214161
17	0x3fa5173f	1.2897719
18	0x3fa76683	1.3078159
19	0x3fa9dc93	1.3270439
20	0x3fa858ae	1.3152063
21	0x3fadc8e8	1.3576937
22	0x3fba1e1d	1.454044
23	0x3fc9cb72	1.5765212
24	0x3ec5416f	0.38526484
25	0x3f993d3e	1.1971815
26	0x3ecf4ba4	0.40487397
27	0x41312806	11.072271

norm.running_var f4 [28]
0	0x3eecd207	0.46253988
1	0x3f071640	0.52768326
2	0x3f2719db	0.6527383
3	0x3f4f516b	0.8098361
4	0x3f6f6278	0.93509626
5	0x3f721d38	0.94575834
6	0x3f780ccb	0.9689452
7	0x3f5eb8eb	0.8700091
8	0x3f560ef4	0.83616567
9	0x3f305430	0.6887846
10	0x3f0da50c	0.55329967
11	0x3efe8489	0.4971049
12	0x3ef3adc0	0.47593498
13	0x3f07821b	0.529329
14	0x3f1cf8ff	0.6131744
15	0x3f1e156a	0.61751425
16	0x3f218592	0.6309444
17	0x3f2257a7	0.63414997
18	0x3f219bba	0.63128245
19	0x3f1acf05	0.60472137
20	0x3f16f113	0.589616
21	0x3ef86f9d	0.48522654
22	0x3ee564ab	0.44803366
23	0x3eec8e52	0.46202332
24	0x3fec7bfd	1.8475338
25	0x3ee5bb1c	0.44869316
26	0x3ca2ab10	0.01985696
27	0x423db19d	47.42345

norm_a.weight f4 [2]
0	0x401c20b3	2.4394958
1	0x402b19e7	2.673456

norm_a.bias f4 [2]
0	0x3e8df70d	0.27727547
1	0x3e12c179	0.14331616

norm_a.running_mean f4 [2]
0	0xbb605e6c	-0.0034235967
1	0x3e34f985	0.17673309

norm_a.running_var f4 [2]
0	0x3de2db3a	0.110769704
1	0x3de615cc	0.11234626
