turtlebot3_ddpg/save_model_ddpg/2020_12_03-01_44_19/stage_3_1400_critic.pth (torch_old, 590398 bytes, 13 tensors)

fc1.weight f4 [512, 28]
-0.15270059 -0.14836293 0.04854823 -0.06819883 -0.13822474 0.041959647 0.0035253316 0.2248939
-0.031195313 0.12025224 0.18043801 -0.054697644 0.21053381 -0.18394707 -0.2534381 -0.06342045
-0.15408568 0.02308197 -0.14458829 0.23719177 0.20617332 -0.10676276 -0.1518961 -0.08657006
-0.057968143 -0.30895016 -0.2727334 -0.021466995 0.02103514 0.07366119 -0.18398936 -0.10178991
-0.12957753 -0.08862681 0.07994132 -0.08717701 0.13737923 0.06752933 0.11802852 0.21220414
0.038516656 -0.17964831 0.026892819 -0.23092201 -0.047418673 -0.05085743 -0.038761117 0.03933845
-0.15532161 0.12745261 0.077855386 -0.02271153 -0.24558675 -0.21001145 -0.18677805 0.018121928
0.16848823 -0.11403865 0.11133148 0.15486231 0.071130306 0.09337514 0.10913352 0.05516033
0.03620251 -0.044925194 -0.108285226 -0.033741545 -0.06077604 0.105484016 0.057075378 0.18150929
0.12823893 0.16981041 0.08285907 -0.086961694 -0.24578805 -0.19144286 0.13620545 0.05221611
0.12895304 -0.17480452 -0.33316946 -0.23483273 0.096913725 -0.16317339 -0.14214185 -0.09612955
-0.1298152 0.106703185 -0.04660778 -0.115344115 -0.17839111 0.11071666 -0.024676625 0.16548489
-0.1018472 -0.005508062 -0.011389388 -0.15919991 -0.10861867 -0.2442432 0.09294289 0.2261792
-0.1902779 -0.027949119 -0.2566571 0.2440404 -0.11340159 -0.08964719 -0.15485796 0.019400911
0.045724954 -0.19655673 -0.099970125 0.16099013 0.04435882 -0.1019704 0.10529186 -0.32478362
-0.029821793 -0.08885484 0.16438226 0.2704964 0.21114925 0.25572968 0.14991026 -0.15902717
0.08184353 0.15306434 0.20448373 -0.21671826 0.08834406 0.09258787 -0.11360234 -0.18196207
0.009894211 0.17311792 -0.0608295 -0.00096193235 -0.13455525 -0.07968268 0.037396807 -0.21941727
0.39413825 0.15872844 0.08642244 -0.24840522 0.038881212 0.09279609 0.2977304 -0.22715412
-0.098894805 0.03954976 -0.026466442 -0.0641239 -0.18825074 0.40204728 -0.022628965 -0.1758282
-0.17883848 -0.031422473 0.063496955 0.0527157 0.09482402 -0.09795506 0.09224532 -0.10916697
-0.058755875 0.13599952 -0.15854578 -0.030837204 0.13999726 0.29951447 -0.2599009 -0.008213998
-0.026908023 0.10954345 0.21810369 -0.18072937 0.2437132 0.0912302 0.020594526 -0.120284885
0.14527757 -0.12627038 0.19569005 -0.09969332 0.1904706 0.0006581557 0.18012269 -0.00948793
-0.17703484 0.35148984 0.02364286 0.07510419 -0.19781598 -0.20602316 -0.116040945 -0.31834924
-0.13195243 0.09117061 -0.13630563 -0.028575541 0.015326245 -0.11756194 0.051805444 0.22098823
0.109307386 0.1197071 0.103227794 0.08404055 0.0016020152 0.17459224 0.06484754 0.23664667
-0.04578453 -0.0041344212 -0.047800105 -0.22409472 8.714455e-05 0.113740176 0.36063817 0.41293386
0.13822931 -0.3358093 0.22990823 -0.020558992 -0.0065380675 -0.07110176 -0.28241575 -0.04893357
0.021692472 -0.035387352 -0.09133756 0.05764524 0.0587243 -0.014933655 0.15022777 0.16064636
0.03349816 0.04781199 -0.2909983 -0.22917685 -0.09486195 0.04769701 0.19542815 0.07190835
-0.35001326 -0.049816463 -0.07893044 -0.040444035 0.019593295 0.23839082 0.34477124 0.15432796
00000000: 8b5d 1cbe 74ec 17be 82da 463d d4ab 8bbd
00000010: c98a 0dbe e1dd 2b3d 4009 673b 964a 663e
00000020: 508d ffbc ce46 f63d bec4 383e a30a 60bd
00000030: 2d96 573e 9f5c 3cbe a3c2 81be 95e2 81bd
00000040: a3c8 1dbe 6616 bd3c f40e 14be 66e2 723e
00000050: 191f 533e 6fa6 dabd a78a 1bbe a54b b1bd
00000060: 0170 6dbd b72e 9ebe b6a3 8bbe 8ddb afbc
00000070: e351 ac3c aedb 963d b567 3cbe 3a77 d0bd
00000080: f9af 04be f981 b5bd 46b8 a33d dc89 b2bd
00000090: 24ad 0c3e d14c 8a3d f0b8 f13d 0b4c 593e
000000a0: a4c3 1d3d baf5 37be 544e dc3c d276 6cbe
000000b0: 153a 42bd e14f 50bd fac3 1ebd 5b21 213d
000000c0: a10c 1fbe f082 023e a572 9f3d 880d babc
000000d0: 187b 7bbe 3e0d 57be bf42 3fbe 7074 943c
000000e0: 2e88 2c3e 198d e9bd c201 e43d 3a94 1e3e
000000f0: c4ac 913d 773b bf3d 6581 df3d ccef 613d
00000100: 1549 143d 7b03 38bd a5c4 ddbd 9334 0abd
00000110: 4cf0 78bd 0108 d83d dfc7 693d 92dd 393e
00000120: 1151 033e c8e2 2d3e 04b2 a93d f918 b2bd
00000130: ddaf 7bbe 9909 44be 7179 0b3e 8fe0 553d
00000140: 440c 043e f5ff 32be 3095 aabe fe77 70be
00000150: b47a c63d ed16 27be a28d 11be 92df c4bd
00000160: 47ee 04be 3387 da3d cde7 3ebd 8939 ecbd
00000170: 29ac 36be 6bbf e23d a226 cabc df74 293e
00000180: 4495 d0bd f97c b4bb 8e9a 3abc 4d05 23be
00000190: 7773 debd e41a 7abe d858 be3d 859b 673e
000001a0: 36d8 42be 8df5 e4bc 8f68 83be bae5 793e
000001b0: 183f e8bd f298 b7bd 1693 1ebe a9ee 9e3c
000001c0: 174a 3b3d 2b46 49be 23bd ccbd 99da 243e
000001d0: 98b1 353d dbd5 d0bd 42a3 d73d 0a4a a6be
000001e0: d54c f4bc 87f9 b5bd d353 283e 817e 8a3e
000001f0: 8237 583e 00ef 823e 1382 193e 05d8 22be
00000200: 959d a73d e6bc 1c3e 2f64 513e 64eb 5dbe
00000210: bbed b43d b69e bd3d 58a8 e8bd 4454 3abe
00000220: 541b 223c d345 313e 5b28 79bd 302a 7cba
00000230: dac8 09be ac30 a3bd 652d 193d ecae 60be
00000240: 7dcc c93e b589 223e 40fe b03d f05d 7ebe
00000250: e841 1f3d e00b be3d 1e70 983e 179b 68be
00000260: 5c89 cabd eefe 213d 27d0 d8bc 6453 83bd
00000270: cdc4 40be 24d9 cd3e 6160 b9bc 4f0c 34be
00000280: 6f21 37be dab4 00bd b10a 823d 6bec 573d
00000290: 1933 c23d aa9c c8bd 1deb bc3d ef92 dfbd
000002a0: 00aa 70bd 7543 0b3e d359 22be 4e9e fcbc
000002b0: 715b 0f3e f659 993e bb11 85be 0194 06bc
000002c0: 376e dcbc 5158 e03d 9356 5f3e 1f11 39be
000002d0: f48f 793e e6d6 ba3d dab5 a83c ec57 f6bd
000002e0: a5c3 143e 064d 01be f962 483e 032c ccbd
000002f0: ba0a 433e 1588 2c3a 1572 383e 4373 1bbc
00000300: 9f48 35be 7af6 b33e acae c13c 3ad0 993d
00000310: 4690 4abe bcf7 52be e0a6 edbd acfe a2be
00000320: 8a1e 07be a8b7 ba3d b493 0bbe 4117 eabc
00000330: ee1a 7b3c 50c4 f0bd f231 543d bd4a 623e
00000340: 8ddc df3d ff28 f53d 1869 d33d 741d ac3d
00000350: b6fa d13a 4fc8 323e c9ce 843d 8153 723e
00000360: 8f88 3bbd 0a7a 87bb 0bca 43bd 1679 65be
00000370: 60c1 b638 9cf0 e83d 91a5 b83e 116c d33e
00000380: fc8b 0d3e 32ef abbe 106d 6b3e 556b a8bc
00000390: 493d d6bb cd9d 91bd cc98 90be 916e 48bd
000003a0: 69b4 b13c 54f2 10bd 300f bbbd 6a1d 6c3d
000003b0: e488 703d 4aac 74bc 4fd5 193e 7b80 243e
000003c0: 5e35 093d 81d6 433d bbfd 94be 56ad 6abe
000003d0: fb46 c2bd f15d 433d 511e 483e af44 933d
000003e0: f034 b3be 590c 4cbd 48a6 a1bd a5a8 25bd
000003f0: 1e82 a03c b91c 743e db85 b03e 2608 1e3e

fc1.bias f4 [512]
0.019668285 0.062375743 -0.26820004 -0.07164483 0.14227234 0.051781755 0.2835427 -0.0805863
0.05334816 -0.21779075 0.2734305 -0.08649843 0.21054631 0.11071619 0.09583101 -0.006317856
-0.005134825 -0.11580805 0.073149666 0.305656 -0.14662561 0.21564287 0.021794947 0.015904417
-0.075798854 -0.12002437 -0.20535386 -0.03367623 0.0050078337 0.027784804 -0.022283271 -0.016127383
0.12323322 -0.32988068 -0.0076698116 0.024108253 -0.16391559 0.15023492 -0.46978 0.07625829
0.24986352 -0.16803287 -0.27001116 -0.029965775 0.41030166 0.008026309 -0.30818367 -0.03525345
-0.42872587 0.06586324 -0.04962584 -0.036199793 0.34245622 0.12473983 -0.056242343 -0.030214256
0.12053454 0.12208973 0.15564644 0.3795688 -0.15256521 0.13982877 0.30123624 0.14175247
-0.11518891 -0.060092006 -0.15098177 0.16939043 -0.080721006 -0.004539873 -0.10958528 0.21517268
0.23344682 -0.030821301 0.25904277 -0.21087718 -0.0819182 -0.19930238 -0.05704985 -0.06799174
-0.08724642 -0.048788216 -0.092255875 -0.3037436 -0.07031015 0.14559303 0.10261963 -0.15556225
0.27843472 -0.07110905 0.16198036 -0.03068055 -0.27136216 -0.47674263 0.1549675 -0.008787581
0.08820796 0.06213583 0.122370094 0.14550851 -0.28875676 -0.14625709 0.17280364 0.0765274
-0.15426533 -0.1720501 0.25817642 -0.18352297 0.26745084 0.016136212 0.074968316 -0.10126884
-0.30780286 -0.03562712 0.13560346 -0.10851283 0.17155655 -0.21169868 -0.21838959 0.04999498
-0.13166288 0.078906134 -0.0442869 0.035871536 -0.074886024 -0.09613669 -0.32354623 -0.33318934
-0.072925426 -0.06972172 0.2841719 -0.23541695 0.24844418 -0.13329166 -0.115721285 -0.23060583
-0.18982008 0.0725594 -0.081212945 0.09620811 0.10074976 -0.2338861 -0.1299947 -0.01578355
0.17251188 -0.18665007 0.1352607 -0.080790885 0.05247716 0.23931009 0.018778492 -0.14234242
0.097997405 0.21745954 -0.15053086 -0.16662492 0.08544751 0.18155454 0.032932125 -0.20882846
0.16222967 -0.023003435 -0.021769874 0.03095774 0.051522333 -0.19167764 0.22954215 -0.00077023864
0.13386212 0.094412744 0.09658862 -0.109451614 -0.0085949255 -0.2397529 -0.27131122 -0.15183738
-0.12690337 -0.22828878 -0.05255211 -0.16667765 -0.09399283 0.2680564 -0.050435808 -0.15562004
0.22815005 0.041457165 -0.2076998 -0.13489561 -0.022219546 0.14370266 -0.1439999 0.07783583
0.039584678 -0.27041018 -0.026939062 0.086558975 -0.12000503 0.055786263 0.1531481 0.039340086
-0.2452001 -0.022814834 0.12979779 0.07409694 -0.12140469 0.0013827492 -0.23130041 -0.22708343
-0.15871705 -0.20136538 -0.090282165 -0.22537912 -0.17778571 -0.057182353 0.14145142 -0.18847723
0.08721791 -0.0741033 -0.24279821 -0.10514123 -0.1522652 -0.017467605 0.11884245 -0.2028297
-0.073117554 -0.034357574 0.16886714 0.15398149 0.0517097 -0.25273687 -0.15175517 0.101706184
-0.21335712 -0.14930193 -0.0026658436 -0.039857168 0.2502109 -0.24571857 -0.20145363 -0.39900473
-0.12038707 0.22308819 -0.11924791 -0.34279275 -0.0066408673 0.08641648 -0.045546897 0.08248115
-0.020839073 0.46071526 0.10859398 -0.028266419 -0.18482867 -0.2555026 -0.18587756 0.017170575
00000000: 621f a13c b57d 7f3d 8451 89be 86ba 92bd
00000010: d7af 113e 1b19 543d 822c 913e 6e0a a5bd
00000020: 9a83 5a3d 8a04 5fbe 15ff 8b3e 1726 b1bd
00000030: 7499 573e 2bbf e23d 0c43 c43d 0406 cfbb
00000040: 0942 a8bb c52c edbd 7ecf 953d f17e 9c3e
00000050: 0625 16be 7cd1 5c3e 518b b23c fb49 823c
00000060: 6e3c 9bbd 56cf f5bd 4848 52be 16f0 09bd
00000070: c118 a43b f59c e33c 688b b6bc 931d 84bc
00000080: b361 fc3d 1fe6 a8be 0b53 fbbb ac7e c53c
00000090: 7dd9 27be 2fd7 193e 0187 f0be 4e2d 9c3d
000000a0: 39dc 7f3e cf10 2cbe e73e 8abe c97a f5bc
000000b0: 0f13 d23e c880 033c 40ca 9dbe ec65 10bd
000000c0: f581 dbbe 4ee3 863d 7744 4bbd 3c46 14bd
000000d0: 6c56 af3e 9977 ff3d 5f5e 66bd e383 f7bc
000000e0: d0da f63d 2e0a fa3d c861 1f3e d756 c23e
000000f0: 0e3a 1cbe 462f 0f3e a33b 9a3e 8f27 113e
00000100: 2ae8 ebbd 0923 76bd f79a 1abe af74 2d3e
00000110: 0e51 a5bd 37c3 94bb 3f6e e0bd 3a56 5c3e
00000120: af0c 6f3e f47c fcbc 41a1 843e 30f0 57be
00000130: bbc4 a7bd ec15 4cbe 1aad 69bd 413f 8bbd
00000140: 40ae b2bd 27d6 47bd a6f0 bcbd 4884 9bbe
00000150: c5fe 8fbd 5716 153e 3e2a d23d b64b 1fbe
00000160: ff8e 8e3e 9fa1 91bd 2ede 253e c755 fbbc
00000170: fbef 8abe 9c17 f4be cdaf 1e3e c9f9 0fbc
00000180: 60a6 b43d 2482 7e3d 2c9d fa3d 2f00 153e
00000190: edd7 93be 6bc4 15be 70f3 303e 66ba 9c3d
000001a0: bbf7 1dbe e72d 30be b32f 843e 72ed 3bbe
000001b0: 51ef 883e 1730 843c fd88 993d 0a66 cfbd
000001c0: 5698 9dbe beed 11bd a2db 0a3e fa3b debd
000001d0: 85ac 2f3e 8ac7 58be 85a1 5fbe 89c7 4c3d
000001e0: a2d2 06be 8a99 a13d 2e66 35bd 08ee 123d
000001f0: d85d 99bd 50e3 c4bd daa7 a5be cb97 aabe
00000200: ed59 95bd 43ca 8ebd fb7e 913e 2411 71be
00000210: 2768 7e3e 9c7d 08be 48ff ecbd ef23 6cbe
00000220: 3260 42be 069a 943d f952 a6bd c208 c53d
00000230: e455 ce3d d67f 6fbe 551d 05be 814c 81bc
00000240: f4a6 303e 3221 3fbe c881 0a3e b175 a5bd
00000250: 4af2 563d b40d 753e 5ad5 993c 36c2 11be
00000260: ddb2 c83d b7ad 5e3e c324 1abe b99f 2abe
00000270: 1bff ae3d 6fe9 393e d6e3 063d 21d7 55be
00000280: 891f 263e b371 bcbc bc56 b2bc 169b fd3c
00000290: 1509 533d 2547 44be 190d 6b3e d7e9 49ba
000002a0: 2713 093e 785b c13d 41d0 c53d 2b28 e0bd
000002b0: bbd1 0cbc c981 75be 4ee9 8abe 427b 1bbe
000002c0: f5f2 01be 89c4 69be e240 57bd 8cad 2abe
000002d0: 507f c0bd b03e 893e c795 4ebd dc5a 1fbe
000002e0: 2ba0 693e fdce 293d 42af 54be 1322 0abe
000002f0: c405 b6bc ca26 133e b674 13be 6468 9f3d
00000300: 8b23 223d 3473 8abe 4faf dcbc d545 b13d
00000310: 32c5 f5bd 2380 643d dbd2 1c3e 1223 213d
00000320: bc15 7bbe 2de6 babc b6e9 043e 23c0 973d
00000330: 06a3 f8bd 5d3d b53a 04da 6cbe 8f88 68be
00000340: b986 22be ba32 4ebe dbe5 b8bd c9c9 66be
00000350: 750d 36be 0b38 6abd a4d8 103e 2d00 41be
00000360: 4e9f b23d 79c3 97bd 18a0 78be 4954 d7bd
00000370: 69eb 1bbe 3918 8fbc ac63 f33d 97b2 4fbe
00000380: a8be 95bd 87ba 0cbd 82eb 2c3e 53ad 1d3e
00000390: 8dcd 533d ba66 81be b565 1bbe 554b d03d
000003a0: 4a7a 5abe 9be2 18be 6fb5 2ebb 4541 23bd
000003b0: a51b 803e a69d 7bbe dc49 4ebe 594a ccbe
000003c0: 7f8d f6bd 3b71 643e 4038 f4bd 8882 afbe
000003d0: a29b d9bb 20fb b03d 628f 3abd e1eb a83d
000003e0: b4b6 aabc dfe2 eb3e 8566 de3d fa8e e7bc
000003f0: ba43 3dbe 3dd1 82be b056 3ebe 4ea9 8c3c

fc2.weight f4 [256, 514]
0.031253513 0.07220902 0.1759303 0.075215824 0.033660546 0.12793994 -0.00782666 -0.18177052
-0.01140215 -0.173774 -0.04991593 -0.067470774 -0.0381726 0.020697063 0.06475378 -0.061754063
-0.122378826 -0.1757912 0.014199912 0.1312832 -0.022778276 0.05478941 -0.25272605 0.066825606
0.083538815 -0.02660935 -0.035964224 -0.013577816 0.13073456 -0.041316666 0.032225918 -0.0076235887
0.019310333 -0.15090246 0.18299122 0.2607983 0.02333482 -0.049544524 -0.056591403 -0.05133205
-0.028047863 0.017411474 0.028268157 -0.014714529 -0.009914563 0.12663357 -0.017164182 0.12406699
-0.16923264 -0.22826429 -0.11485538 0.009979397 0.0018636553 0.07422766 0.046261106 -0.034987915
0.057199392 0.25776643 0.088702716 -0.0027051417 -0.2598214 0.0051390287 0.120151445 0.1446641
-0.0067128153 -0.13543124 0.26694286 0.08860922 0.0023131387 -0.05480306 -0.048371956 -0.12820266
0.26827165 -0.027727105 0.17985468 -0.18664403 -0.05750818 0.0633059 -0.044436228 0.16145504
-0.11633336 0.005669711 0.09600824 0.11332909 -0.22193217 0.060603324 -0.43053904 -0.22391942
-0.007469475 0.22141078 0.013584828 -0.02357117 -0.10026731 0.10816942 0.03228706 0.020151738
0.06223558 0.07478679 0.036573984 -0.04027415 0.05097614 -0.11911874 0.04454057 0.046091687
-0.005522462 0.09177739 0.06732743 -0.10188193 -0.12663095 0.07461096 0.10680786 0.022084
-0.09145493 -0.014956811 -0.062019438 -0.15847272 -0.02337878 0.04129586 0.07090801 0.13194443
0.06309821 -0.17364748 -0.13741177 0.009739288 0.11739851 -0.47030637 -0.15712017 -0.21446341
0.038462456 0.24907051 0.13567571 0.09107719 -0.021982925 0.21269163 0.10182922 -0.19183894
0.12094404 0.1012067 -0.027402561 0.04294677 0.09301327 -0.08771347 0.069977365 0.16016379
0.09243306 0.1047263 -0.020002175 -0.2825002 0.15145315 -0.06595073 -0.01496932 0.118330255
0.0060254596 0.06287847 0.00670091 0.024030525 0.027225345 0.094512045 -0.18535016 0.12170306
-0.0013791791 0.07614533 0.044875816 -0.004404172 0.009715614 -0.3011475 0.072841905 -0.02167982
-0.07885033 -0.14410459 -0.0043332926 -0.09113796 -0.06429275 -0.3069688 -0.0041129603 -0.1594613
-0.23169085 0.13540086 0.17673768 0.0014368265 -0.089927375 0.16318728 0.005665298 -0.099416666
-0.013580226 -0.06648529 -0.04756704 -0.053552996 0.16871233 0.097014956 0.21668093 -0.033636104
0.031797025 -0.20605426 0.049091212 0.13674091 -0.20622082 -0.085876815 -0.10873519 0.01898611
-0.030310238 -0.17508802 -0.14527135 -0.09765838 0.12000859 0.25557417 -0.2418113 0.06578686
-0.31473833 -0.022431273 -0.072416134 -0.20676398 -0.19198997 0.14387086 0.22303689 -0.03471149
-0.09460487 -0.024194824 -0.0581708 0.08199452 -0.21672586 -0.0030311923 -0.06568313 -0.044268616
-0.0153512815 0.071622804 0.042935777 -0.0023678467 -0.19068792 -0.047463853 -0.1498103 0.15151446
-0.19822127 -0.03660364 -0.081798285 -0.1655181 -0.08520829 4.27997e-05 -0.09239128 -0.11567517
0.03581708 0.15620701 0.033569057 -0.07575031 -0.03322932 -0.11084109 0.034121614 0.17906892
0.03252016 0.04723897 0.049057927 0.06106132 -0.04767377 -0.016713405 -0.25604504 0.11744049
00000000: af03 003d 53e2 933d 1327 343e c10a 9a3d
00000010: a4df 093d b002 033e 643b 00bc 0d22 3abe
00000020: 15d0 3abc d0f1 31be a574 4cbd 1e2e 8abd
00000030: df5a 1cbd e38c a93c a19d 843d d4f1 7cbd
00000040: c0a1 fabd 9c02 34be bfa6 683c 1a6f 063e
00000050: 8299 babc dc6a 603d 4f65 81be dddb 883d
00000060: 6616 ab3d dafb d9bc 394f 13bd 7d75 5ebc
00000070: 48df 053e aa3b 29bd 53ff 033d 4ccf f9bb
00000080: b430 9e3c 2d86 1abe 0d62 3b3e 5b87 853e
00000090: aa28 bf3c 33ef 4abd 63cc 67bd 8e41 52bd
000000a0: a2c4 e5bc 82a2 8e3c 9f92 e73c 3515 71bc
000000b0: b170 22bc 3bac 013e e69b 8cbc d616 fe3d
000000c0: 524b 2dbe 1dbe 69be 4c39 ebbd a080 233c
000000d0: e545 f43a ac04 983d 497c 3d3d 7d4f 0fbd
000000e0: e949 6a3d f6f9 833e c5a9 b53d bf48 31bb
000000f0: 4f07 85be 4c65 a83b f611 f63d d322 143e
00000100: 2df7 dbbb 7dae 0abe bcac 883e c078 b53d
00000110: 0798 173b 2c79 60bd ac21 46bd 8f47 03be
00000120: e75a 893e f423 e3bc d32b 383e 9d1f 3fbe
00000130: b38d 6bbd 86a6 813d c302 36bd 7854 253e
00000140: 2f40 eebd fcc8 b93b f89f c43d 1519 e83d
00000150: 3042 63be 313b 783d 9d6f dcbe 224b 65be
00000160: 7fc2 f4bb 82b9 623e e692 5e3c 5418 c1bc
00000170: f358 cdbd ee87 dd3d 703f 043d 4215 a53c
00000180: bcea 7e3d d129 993d 9ace 153d 82f6 24bd
00000190: 5bcc 503d 87f4 f3bd 2c70 363d a3ca 3c3d
000001a0: c5f5 b4bb c9f5 bb3d f7e2 893d 79a7 d0bd
000001b0: 8bab 01be a2cd 983d 14be da3d 81e9 b43c
000001c0: b94c bbbd 6a0d 75bc 1808 7ebd ac46 22be
000001d0: db84 bfbc d925 293d 3838 913d 711c 073e
000001e0: a239 813d a5d0 31be acb5 0cbe 8991 1f3c
000001f0: a16e f03d ffcb f0be 1ce4 20be 4c9c 5bbe
00000200: cf8a 1d3d 570c 7f3e 93ee 0a3e ae86 ba3d
00000210: 8915 b4bc d6cb 593e d78b d03d 6d71 44be
00000220: 82b1 f73d 7545 cf3d 567b e0bc f4e8 2f3d
00000230: be7d be3d 1fa3 b3bd 4b50 8f3d fa01 243e
00000240: 8b4d bd3d be7a d63d 9adb a3bc dea3 90be
00000250: 8916 1b3e 2d11 87bd e141 75bc 2257 f23d
00000260: 3871 c53b 6dc6 803d 4f93 db3b aadb c43c
00000270: b007 df3c 888f c13d 6fcc 3dbe 743f f93d
00000280: 92c5 b4ba 15f2 9b3d b4cf 373d df50 90bb
00000290: 3d2e 1f3c 0130 9abe 232e 953d e199 b1bc
000002a0: 487c a1bd 2790 13be 4bfe 8dbb 8aa6 babd
000002b0: ebab 83bd 042b 9dbe 03c6 86bb d349 23be
000002c0: 5e40 6dbe 86a6 0a3e b9fa 343e e653 bc3a
000002d0: d82b b8bd 911a 273e f7a3 b93b f79a cbbd
000002e0: 997f 5ebc 7129 88bd a8d5 42bd 635a 5bbd
000002f0: edc2 2c3e c7af c63d 9be1 5d3e 03c6 09bd
00000300: 993d 023d e3ff 52be de13 493d cf05 0c3e
00000310: 8d2b 53be 2fe0 afbd 8eb0 debd c288 9b3c
00000320: 2d4d f8bc 464a 33be 03c2 14be 1e01 c8bd
00000330: 10c7 f53d 9eda 823e 629d 77be 43bb 863d
00000340: 6225 a1be cac1 b7bc e94e 94bd f0b9 53be
00000350: 0599 44be e252 133e c863 643e a32d 0ebd
00000360: 33c0 c1bd 3934 c6bc 8144 6ebd beec a73d
00000370: 62ed 5dbe f8a6 46bb e084 86bd 0253 35bd
00000380: f183 7bbc faae 923d 6ddd 2f3d e02d 1bbb
00000390: b243 43be 7569 42bd df67 19be 9b26 1b3e
000003a0: 84fa 4abe b3ed 15bd dc85 a7bd 947d 29be
000003b0: af81 aebd d483 3338 a437 bdbd 1be7 ecbd
000003c0: eeb4 123d bbf4 1f3e b57f 093d fb22 9bbd
000003d0: 781b 08bd a700 e3bd 1bc3 0b3d d85d 373e
000003e0: dc33 053d a67d 413d f7f0 483d 6f1b 7a3d
000003f0: 9245 43bd 8dea 88bc 5618 83be a484 f03d

fc2.bias f4 [256]
-0.071340166 -0.034324594 -0.0025924724 -0.0048382836 -0.009413459 -0.077339806 0.019408748 0.24198928
-0.033306323 -0.06240621 0.014562881 -0.03147816 0.0022373693 -0.011690229 -0.039109983 0.0010699412
0.17789263 -0.07309477 -0.08262058 0.28645945 -0.07458077 0.16527331 -0.05892162 -0.072560206
-0.06384524 0.038539138 0.23531151 -0.1005307 0.042899072 -0.02313747 -0.084532656 0.013139215
-0.058035124 0.31011093 -0.019559193 -0.009468039 0.09100377 -0.10133369 -0.0010911245 0.008232005
0.056659862 0.29591495 -0.015896287 -0.07009238 -0.08053622 -0.037007138 -0.0640875 -0.011531264
-0.057245597 0.23155849 0.04820833 -0.067658655 0.24302845 -0.048589256 0.09063585 -0.07357173
-0.053255126 -0.062239543 -0.07713753 0.07702945 -0.057033572 -0.011479307 -0.073073335 -0.08022212
0.0038173217 0.008821954 0.08511579 -0.04142154 -0.081906006 0.14460573 -0.05942072 -0.08693965
-0.0056359214 0.008195013 -0.00364618 -0.10568805 -0.016554805 -0.102074586 -0.035811447 -0.029856628
0.24786867 -0.003806178 -0.051137578 -0.053880833 -0.10271735 -0.08346009 0.041905213 -0.063095465
-0.004046849 0.27223897 -0.030210525 -0.023237428 0.24712414 -0.025453752 -0.018861245 -0.08702915
0.027864542 0.082880504 -0.0023224396 -0.05135668 -0.046357386 0.28302872 0.16184309 -0.004427295
0.05108682 0.23809458 -0.024652207 -0.08810331 -0.038767114 -0.0137931155 -0.092692226 0.07913952
-0.04359751 0.12361288 0.037375886 -0.08276171 0.016038124 0.083991915 -0.07011199 0.0018041774
-0.034018815 0.074905604 -0.06100971 0.20369859 -0.050488397 0.0024676798 -0.04402299 -0.105465494
0.28480622 -0.0024866108 -0.03088141 -0.07801534 0.06191675 0.21306549 -0.03730146 -0.04940175
-0.05357971 -0.0317961 0.03417324 0.2215816 0.1985201 0.033663087 -0.016719563 -0.018643145
0.23507902 0.20630863 0.088136435 0.27238634 0.11786419 -0.03787922 -0.050848342 0.029795837
0.20205095 0.017545478 0.1464634 -0.05797682 0.024345145 0.157063 -0.020065702 -0.012730522
0.26004568 -0.07383681 -0.040175308 0.14567497 0.14728354 -0.0049741548 -0.04255938 0.07635131
0.22971897 0.272993 0.29004365 0.009205142 0.07701387 0.1925207 -0.021106659 -0.027248377
0.002835665 0.2687237 -0.018163662 0.016835649 0.19865811 -0.027419165 0.24623884 -0.017041685
-0.04631535 -0.043367215 -0.06006268 -0.06081726 -0.03279407 -0.08261749 -0.022332337 0.12486296
-0.04026523 0.17917238 -0.03297886 -0.07484727 -0.04435849 -0.052074894 -0.005537016 -0.09458113
-0.08609456 -0.014577794 -0.09402307 -0.05433657 -0.0380303 -0.029098008 -0.03405081 0.028660981
0.0053536687 0.07788858 0.27546164 -0.016687972 0.010134771 -0.012187622 0.074198246 -0.08348189
0.096719116 -0.0797698 -0.0108747035 -0.027595557 -0.07712228 0.308609 -0.08046395 0.2742439
-0.01030895 0.054915052 -0.06785656 0.2462099 -0.08911977 0.03724497 0.018664425 -0.0037865187
-0.06827283 0.28131956 -0.032892995 -0.041553438 -0.068465956 -0.06364597 -0.021217285 0.24229555
-0.035091896 -0.064778924 0.22348827 -0.035557847 0.085354365 -0.003687838 -0.005772116 0.2491369
0.15109286 0.019997071 0.040824056 0.14887577 0.2323516 0.25724635 0.23168235 -0.0125610605
00000000: cb1a 92bd f297 0cbd 78e6 29bb 778a 9ebb
00000010: e93a 1abc 5564 9ebd 18ff 9e3c 0acc 773e
00000020: 366c 08bd a79d 7fbd 2699 6e3c 3eef 00bd
00000030: d4a0 123b 6088 3fbc ca31 20bd 453d 8c3a
00000040: 7c29 363e b6b2 95bd fb34 a9bd d0aa 923e
00000050: cebd 98bd 683d 293e cc57 71bd 729a 94bd
00000060: 4bc1 82bd 37db 1d3d 80f5 703e 0ae3 cdbd
00000070: f0b6 2f3d cb8a bdbc 751f adbd dd45 573c
00000080: 3db6 6dbd dcc6 9e3e 9a3a a0bc d51f 1bbc
00000090: 2f60 ba3d 0a88 cfbd 1004 8fba 88df 063c
000000a0: 2c14 683d 2a82 973e ee38 82bc 988c 8fbd
000000b0: 2cf0 a4bd cc94 17bd 4f40 83bd a0ed 3cbc
000000c0: 5c7a 6abd ab1d 6d3e 1976 453d 9f90 8abd
000000d0: 73dc 783e 8705 47bd 4a9f b93d c6ac 96bd
000000e0: 0c22 5abd e4ee 7ebd 48fa 9dbd 9ec1 9d3d
000000f0: 099c 69bd b413 3cbc 79a7 95bd 7f4b a4bd
00000100: 082c 7a3b f589 103c 3051 ae3d a2a9 29bd
00000110: 56be a7bd 8613 143e 2463 73bd 6a0d b2bd
00000120: 89ad b8bb 6044 063c c0f4 6ebb fa72 d8bd
00000130: f19d 87bc 7b0c d1bd 06af 12bd e395 f4bc
00000140: 49d1 7d3e 1271 79bb a375 51bd 26b2 5cbd
00000150: 795d d2bd 20ed aabd cda4 2b3d 3238 81bd
00000160: 6e9b 84bb e862 8b3e 107c f7bc 6b5c bebc
00000170: 1c0e 7d3e 6384 d0bc e682 9abc 573c b2bd
00000180: 2e44 e43c 41bd a93d 1234 18bb 625b 52bd
00000190: 3ee1 3dbd 24e9 903e 32ba 253e d812 91bb
000001a0: 6a40 513d 11cf 733e 6df3 c9bc 826f b4bd
000001b0: 44ca 1ebd 85fc 61bc 6cd5 bdbd e713 a23d
000001c0: 4d93 32bd c028 fd3d 7517 193d f97e a9bd
000001d0: 6262 833c f403 ac3d e096 8fbd 267a ec3a
000001e0: 5057 0bbd 1c68 993d 51e5 79bd 5d96 503e
000001f0: eccc 4ebd ccb8 213b 7351 34bd 4bfe d7bd
00000200: 1fd2 913e 68f6 22bb 03fb fcbc 82c6 9fbd
00000210: 6b9c 7d3d d72d 5a3e 6ac9 18bd 7d59 4abd
00000220: 6676 5bbd a13c 02bd 3df9 0b3d 49e6 623e
00000230: da48 4b3e 4ee2 093d 77f7 88bc 82b9 98bc
00000240: 8eb8 703e 9242 533e e080 b43d 3976 8b3e
00000250: c862 f13d 3e27 1bbd 5a46 50bd 6616 f43c
00000260: 72e6 4e3e 89bb 8f3c 80fa 153e 1a79 6dbd
00000270: 786f c73c 20d5 203e d460 a4bc ae93 50bc
00000280: b524 853e c137 97bd dd8e 24bd d22b 153e
00000290: 7fd1 163e 3cfe a2bb bf52 2ebd 135e 9c3d
000002a0: 733b 6b3e bdc5 8b3e 9a80 943e 2ad1 163c
000002b0: 73b9 9d3d 2524 453e dfe7 acbc fd37 dfbc
000002c0: 90d6 393b 2796 893e f6cb 94bc eaea 893c
000002d0: 086d 4b3e 289e e0bc 0926 7c3e 019b 8bbc
000002e0: 2ab5 3dbd d2a1 31bd 4904 76bd 851b 79bd
000002f0: 1353 06bd 5c33 a9bd 4ef2 b6bc 27b8 ff3d
00000300: 27ed 24bd f778 373e d714 07bd 8749 99bd
00000310: 3fb1 35bd 7c4c 55bd db6f b5bb c0b3 c1bd
00000320: 5852 b0bd b3d7 6ebc 2b8f c0bd 0690 5ebd
00000330: a9c5 1bbd f25e eebc dd78 0bbd 6fca ea3c
00000340: d46d af3b 0c84 9f3d 4f09 8d3e 37b5 88bc
00000350: 4f0c 263c 97ae 47bc 40f5 973d 8ef8 aabd
00000360: ac14 c63d 595e a3bd d02b 32bc 1410 e2bc
00000370: 49f2 9dbd 0002 9e3e 49ca a4bd b269 8c3e
00000380: dfe6 28bc 9bee 603d 61f8 8abd 731e 7c3e
00000390: 6d84 b6bd 2f8e 183d 23e6 983c 3e27 78bb
000003a0: a0d2 8bbd 1e09 903e ceba 06bd f033 2abd
000003b0: e137 8cbd d158 82bd dfcf adbc 531c 783e
000003c0: 85bc 0fbd d0aa 84bd 1cda 643e 1ba5 11bd
000003d0: 45ce ae3d a8af 71bb 0524 bdbb be1d 7f3e
000003e0: 16b8 1a3e e6d0 a33c 2037 273d e472 183e
000003f0: 94ed 6d3e cbb5 833e 233e 6d3e e8cc 4dbc

fc3.weight f4 [1, 256]
0.9565665 -0.14404012 -0.42468363 -0.0847539 -0.1366228 -0.13935457 -0.19218898 0.5592591
-0.5903401 -0.6083627 0.89404076 -0.7129956 0.6385544 -0.37974986 -0.12771587 0.73145026
0.70958936 -0.124139495 -0.5071914 0.7059512 -0.12707084 0.67929816 0.6164622 0.51009417
0.5359595 0.5353492 0.6830149 -0.44007328 0.6263273 -0.095434554 -0.13491264 -0.12852779
-0.087072626 0.56526196 0.7453608 -0.118836485 0.7629884 0.866805 0.78202325 0.03735378
0.819119 0.7632865 -0.10692296 -0.8138725 -0.57220274 -0.7647165 -0.116173245 0.4335959
-0.38503504 0.6487641 0.5839887 -0.12476727 0.7319542 -0.46724546 0.8996955 -0.12397842
-0.6399451 0.7579261 -0.10420018 0.8329894 -0.098865986 -0.14407024 -0.11151924 -0.7148912
-0.4773512 -0.21732894 0.41802385 0.40692836 -0.53669786 0.73101413 -1.2389652 -0.48654404
0.4914225 0.6200568 -0.14443849 -1.2765114 -0.13688758 -0.44438976 -0.09832381 -0.11251181
0.71611166 -0.504764 -0.12023326 -0.09199311 0.6002132 -0.11296297 0.59476596 0.490306
-0.24623631 0.61349005 -0.18566722 -0.13045065 0.52472866 -0.73154104 -0.1206202 -0.54089785
0.52747524 0.73940265 -0.50818825 -0.1327827 -0.7409046 0.55727094 0.7133117 -0.095633745
0.5541638 0.7896823 0.8300328 -0.43142578 -0.08228775 -0.12625009 1.087643 0.43024558
-0.27368686 0.9017536 0.68873495 -0.095708005 -0.20822729 0.7674416 -0.07867601 -0.44799703
-0.56434876 0.6787596 0.7275151 0.5961241 0.6163992 -0.13825874 -0.43792433 0.6474968
0.7969692 -0.14639704 -0.14908785 -0.09465281 0.5852774 0.5165358 -0.15499946 -0.10301331
0.72563374 -0.39375427 0.5807065 0.6109164 0.5700095 0.6369917 0.499833 0.7025843
0.6983554 0.40225092 0.40321773 0.653133 0.78594834 -0.1222159 -0.15166153 0.62511027
0.5359718 -0.46992543 0.40557742 -0.43985763 -0.21142927 0.38419738 -0.10742175 -0.09725756
0.4989536 -0.14560688 -0.12190473 0.37304178 0.55760777 -0.10082602 -0.10962846 0.5292494
0.52326536 0.74378115 0.55885935 0.65715104 0.47959447 0.7215098 -0.099698514 -0.1051505
0.51099634 0.62240964 -0.18189073 -0.22597848 0.9694354 -0.1030387 0.5545105 0.6433867
0.6254845 0.62897545 -0.11838275 -0.9622819 -0.12517512 -0.09087589 0.79856926 0.8172746
0.8512856 0.8389106 -0.58926696 -0.39458814 -0.14714338 -0.0913242 -0.5720322 0.67790776
-0.60595036 -0.1439098 -0.61639833 -0.9746586 0.7680137 -1.1056528 -0.47907054 -0.18844944
0.024548166 0.55698013 0.7660029 -0.12764591 0.5432822 -0.14751609 0.7262326 -0.14377442
0.39189103 -0.6666584 -0.12398007 -0.42679897 -0.13895181 0.69523275 -0.13701132 0.7131347
0.7648557 0.5317381 -0.746428 0.7977453 -0.12202939 0.8706505 -0.1859338 -0.2106855
-0.40347877 0.71256286 -0.7785384 -0.1402118 -0.823478 -0.4812167 -0.12247885 0.6619564
0.42155135 -0.6820598 1.0247554 0.55457634 0.52847 -0.1485949 0.59115106 0.62480766
0.57630223 -0.24535775 0.67054987 0.9232597 0.636817 0.7166544 0.70635986 -0.2163011
00000000: 8be1 743f 417f 13be 2270 d9be 7493 adbd
00000010: d9e6 0bbe f7b2 0ebe 30cd 44be 9b2b 0f3f
00000020: 8720 17bf a8bd 1bbf dbdf 643f e186 36bf
00000030: 4d78 233f 936e c2be f3c7 02be 5340 3b3f
00000040: a6a7 353f d93c febd 4cd7 01bf 38b9 343f
00000050: dc1e 02be 7ce6 2d3f 77d0 1d3f 8895 023f
00000060: a434 093f a50c 093f 11da 2e3f 4951 e1be
00000070: fc56 203f 3173 c3bd 8a26 0abe ca9c 03be
00000080: 2253 b2bd 02b5 103f f7cf 3e3f 8b60 f3bd
00000090: 3553 433f efe6 5d3f ad32 483f 4700 193d
000000a0: c8b1 513f be66 433f 6dfa dabd f359 50bf
000000b0: e17b 12bf 76c4 43bf 3dec edbd 4800 de3e
000000c0: 5023 c5be 6715 263f 4980 153f fc85 ffbd
000000d0: 5a61 3b3f cc3a efbe 7252 663f 66e8 fdbd
000000e0: 71d3 23bf 7207 423f e766 d5bd cb3e 553f
000000f0: 407a cabd 2687 13be 3364 e4bd 1c03 37bf
00000100: 6067 f4be 7a8b 5ebe 3907 d63e ea58 d03e
00000110: 0865 09bf be23 3b3f 6996 9ebf 4d1c f9be
00000120: bb9b fb3e 0bbc 1e3f afe7 13be ba64 a3bf
00000130: 422c 0cbe 0e87 e3be fe5d c9bd 986c e6bd
00000140: 1853 373f 3738 01bf db3c f6bd e266 bcbd
00000150: 93a7 193f 2159 e7bd 9542 183f 6309 fb3e
00000160: 5f25 7cbe af0d 1d3f 8c1f 3ebe db94 05be
00000170: 9e54 063f 4646 3bbf b907 f7bd 4878 0abf
00000180: 9e08 073f 7e49 3d3f a018 02bf 30f8 07be
00000190: edab 3dbf 4fa9 0e3f 989b 363f a0db c3bd
000001a0: aedd 0d3f 9f28 4a3f 087d 543f d7e3 dcbe
000001b0: 7b86 a8bd b447 01be e337 8b3f 2649 dc3e
000001c0: af20 8cbe 53d9 663f ef50 303f 8f02 c4bd
000001d0: 8939 55be 0d77 443f e320 a1bd de5f e5be
000001e0: 2979 10bf 30c3 2d3f 6e3e 3a3f 979b 183f
000001f0: 57cc 1d3f b393 0dbe 9e37 e0be 5ac2 253f
00000200: 2c06 4c3f 1be9 15be 7caa 18be 55d9 c1bd
00000210: bdd4 153f b13b 043f 2eb8 1ebe a4f8 d2bd
00000220: 22c3 393f 299a c9be 2ea9 143f 0465 1c3f
00000230: 25ec 113f e311 233f 1cea ff3e 91dc 333f
00000240: 6bc7 323f d5f3 cd3e 8e72 ce3e b933 273f
00000250: e933 493f 544c fabd 294d 1bbe 3a07 203f
00000260: 7335 093f 119a f0be d8a7 cf3e 0535 e1be
00000270: ea80 58be 85b5 c43e efff dbbd f92e c7bd
00000280: d976 ff3e f819 15be 30a9 f9bd 55ff be3e
00000290: 62bf 0e3f df7d cebd e384 e0bd e47c 073f
000002a0: b8f4 053f 7168 3e3f 6811 0f3f 0d3b 283f
000002b0: 688d f53e deb4 383f bc2e ccbd 2559 d7bd
000002c0: a8d0 023f 3d56 1f3f 9041 3abe e766 67be
000002d0: eb2c 783f f405 d3bd 66f4 0d3f feb4 243f
000002e0: c11f 203f 8904 213f a872 f2bd 1b58 76bf
000002f0: e82d 00be 231d babd 096f 4c3f e838 513f
00000300: daed 593f d8c2 563f 33da 16bf 7507 cabe
00000310: c1ac 16be 2f08 bbbd b470 12bf 5d8b 2d3f
00000320: 901f 1bbf 175d 13be 48cc 1dbf 3a83 79bf
00000330: 8c9c 443f 0886 8dbf bc48 f5be e4f8 40be
00000340: 3c19 c93c 4096 0e3f c418 443f 9cb5 02be
00000350: 8b14 0b3f 750e 17be 61ea 393f 9a39 13be
00000360: f1a5 c83e 20aa 2abf 43e9 fdbd 6585 dabe
00000370: 6249 0ebe c6fa 313f b24c 0cbe ff8f 363f
00000380: 95cd 433f fd1f 083f e815 3fbf 0939 4c3f
00000390: 8bea f9bd f3e2 5e3f 6e65 3ebe f1bd 57be
000003a0: c594 cebe 856a 363f 4b4e 47bf af93 0fbe
000003b0: 74cf 52bf 0962 f6be 31d6 fabd fa75 293f
000003c0: 94d5 d73e 799b 2ebf 2f2b 833f b7f8 0d3f
000003d0: cf49 073f 4329 18be ad55 173f 65f3 1f3f
000003e0: 8b88 133f 103f 7bbe 28a9 2b3f bf5a 6c3f
000003f0: 7006 233f aa76 373f 00d4 343f 097e 5dbe

norm.weight f4 [28]
1.1105591 1.212844 1.2371047 1.2136759 1.2036072 1.2041985 1.2326639 1.1916554
1.2396296 1.2895889 1.2154455 1.3494759 1.3661733 1.3956572 1.252581 1.3382429
1.3066373 1.2583965 1.348119 1.2165115 1.3194265 1.2476572 1.3238854 1.1091942
1.8617425 1.2890104 1.3244091 1.3357708
00000000: cd26 8e3f 793e 9b3f 7259 9e3f bb59 9b3f
00000010: cd0f 9a3f 2d23 9a3f eec7 9d3f 2a88 983f
00000020: 2fac 9e3f 4011 a53f b893 9b3f a0bb ac3f
00000030: c4de ae3f e5a4 b23f 9354 a03f 8b4b ab3f
00000040: e43f a73f 2313 a13f 2a8f ac3f a6b6 9b3f
00000050: f8e2 a83f 3bb3 9f3f 1475 a93f 13fa 8d3f
00000060: 944d ee3f 4bfe a43f 3d86 a93f 8afa aa3f

norm.bias f4 [28]
0.14206505 0.17239976 0.1813166 0.21162161 0.0778274 0.08841629 -0.055906832 0.021148337
-0.051098533 -0.043212023 -0.049380966 -0.025178269 -0.10121764 -0.23984198 -0.1557813 0.09470015
-0.033250097 0.011486811 0.10099523 0.055540472 0.10384715 0.19357567 0.19531435 0.24605836
0.0083566215 0.16560708 0.15858418 0.009765446
00000000: 8079 113e 9089 303e 0fab 393e 56b3 583e
00000010: f963 9f3d 9a13 b53d 90fe 64bd 473f ad3c
00000020: b24c 51bd 17ff 30bd b243 4abd a842 cebc
00000030: 324b cfbd 2399 75be 2285 1fbe 27f2 c13d
00000040: 4131 08bd 2d33 3c3c 96d6 ce3d 687e 633d
00000050: d1ad d43d b338 463e 7c00 483e b9f6 7b3e
00000060: 36ea 083c e794 293e e463 223e 40ff 1f3c

norm.running_mean f4 [28]
1.4852737 1.4889524 1.5281067 1.4801008 1.5837961 1.6259727 1.7015069 1.7935033
1.7622848 1.7523038 1.8928599 1.8842051 1.8890356 1.7958813 1.7483158 1.635737
1.635369 1.6048641 1.577546 1.5136286 1.4228414 1.4207406 1.431025 1.4841611
0.14885387 1.4703798 0.4378035 12.122497
00000000: 731d be3f fe95 be3f 0099 c33f f173 bd3f
00000010: d5b9 ca3f e01f d03f faca d93f 8491 e53f
00000020: 8c92 e13f 7e4b e03f 3c49 f23f a22d f13f
00000030: ebcb f13f 70df e53f d0c8 df3f d45f d13f
00000040: c553 d13f 306c cd3f 07ed c93f 95be c13f
00000050: ab1f b63f d4da b53f d42b b73f fef8 bd3f
00000060: 266d 183e 6835 bc3f c827 e03e bff5 4141

norm.running_var f4 [28]
0.43722427 0.47754166 0.5252057 0.55278707 0.58725315 0.5820871 0.5508506 0.5818083
0.64075917 0.6213352 0.5258776 0.5583776 0.54980046 0.57080513 0.6418264 0.6095737
0.5517638 0.5234592 0.4754334 0.5112158 0.510533 0.48029697 0.46850383 0.4373188
3.610036 0.28609645 0.025687208 53.67456
00000000: dcdb df3e 5780 f43e e173 063f 7483 0d3f
00000010: 3956 163f a903 153f 8b04 0d3f 64f1 143f
00000020: cb08 243f d30f 1f3f ea9f 063f d6f1 0e3f
00000030: b9bf 0c3f 4920 123f bc4e 243f 060d 1c3f
00000040: 6440 0d3f 6c01 063f 026c f33e 0adf 023f
00000050: 4ab2 023f 7ce9 f53e bcdf ef3e 40e8 df3e
00000060: d40a 6740 3c7b 923e fb6d d23c c0b2 5642

norm_a.weight f4 [2]
1.6546847 1.393271
00000000: b5cc d33f b456 b23f

norm_a.bias f4 [2]
0.052929297 -0.0414367
00000000: 64cc 583d 87b9 29bd

norm_a.running_mean f4 [2]
-0.03854537 0.10698284
00000000: c0e1 1dbd d219 db3d

norm_a.running_var f4 [2]
0.25721636 0.17444868
00000000: ddb1 833e ada2 323e
