turtlebot3_ddpg/save_model_ddpg/2020_12_03-01_44_19/stage_3_400_critic.pth (torch_old, 590398 bytes, 13 tensors)

fc1.weight f4 [512, 28]
00000000: a05a 02be d06b d2bd 1712 883b ebe9 f4bd
00000010: 4048 21be 1bf7 623d 9288 0ebc cf62 523e
00000020: 4aff aebd 1a76 c83d c9b7 1b3e e3b1 4abd
00000030: 05fe e83d 4948 3ebe 8e11 6ebe 4a09 e7bd
00000040: 9dea 12be fe5c f03d 3470 a4bd dc49 553e
00000050: dc43 483e 6121 28be 99ef 11be 54ca 62bd
00000060: 1568 fdbc 2224 22be 8631 6dbe 8757 1fbd
00000070: 330a 9b39 fc48 ec3d 977b 48be 58ef debd
00000080: d1ee cabd 1b29 46bb 9f79 b83d e0d5 14bc
00000090: 5963 9b3d 8a0b b13d d702 e73d fda6 623e
000000a0: 1f08 0ebd 957a 28be 55a3 bd3d e2af 3dbe
000000b0: 51a1 31bd 8539 20be 6346 79bd 8426 ac3d
000000c0: 2d62 2abe 7666 593d eb9d d53d b6c8 2dbd
000000d0: e3d8 59be 2398 0ebe c9c1 41be e7a1 be3d
000000e0: 8feb 153e 3942 52be cf0b 0a3e 006b 8c3d
000000f0: e47e a83d c540 303d 8d31 de3d 052a a23d
00000100: 7611 e83c 1f01 e33d 75a2 0abe 6f72 e73b
00000110: 7c74 a2bd ab56 2b3e acdb 8f3d 4349 053e
00000120: a2cf f03d db94 223e 1321 8f3d 9c76 30bd
00000130: c921 2cbe 8b37 17be 93e9 413d 9220 f33c
00000140: 11b0 543d 12d4 fabd 59b0 a3be 0b4b 2cbe
00000150: fcb2 393d b99a 69be 4fdc 82be 04ac 5cbd
00000160: 440d 01be 9c52 9d3d 84ed a8bd c50d b2bd
00000170: a614 05be d87f da3d fd80 81bd 5b4f 0e3e
00000180: 36cc afbd 7d0a a9bc 4ecc 853d 0bcf e2bd
00000190: 6173 c3bd 2b4c 47be d16e 2e3d a346 2c3e
000001a0: fd02 6cbe 2fff 9abd 44be 42be 051b 443e
000001b0: 77bf dcbd a8e2 6abc b25d 1cbe a0e4 3e3d
000001c0: 302d fe3c ff91 44be caa5 f2bd 9ed8 df3d
000001d0: 0523 3fbd 1f17 3cbd 1088 553d 40db 66be
000001e0: dc12 b9bc a460 20be 962c a23d d09b 903e
000001f0: 2464 163e 2102 5e3e 2791 2e3e 64f3 4dbe
00000200: f2ab af3d 86ae 173e 09ed 613e 8925 6bbe
00000210: 90ea 933d e87a 733d f7ac bebd cff3 46be
00000220: 85ba 18bd 62d1 4f3e 98bd 383c cc84 03be
00000230: cc17 d9bd eb65 acbd c20f 97bc c254 85be
00000240: 7aaf ac3e 5d6a 1c3e c36f 083e 1b25 2fbe
00000250: 9e3d 20bd b373 003d b378 3b3e 8b0d 57be
00000260: e981 bebd 4bb4 fe3d 1359 acbd 3021 45bd
00000270: af6f 05be 05a8 9f3e 492a c8bd 21db 1cbe
00000280: 4f2e 3bbe f7e1 76bc 14d6 a23b f91e aa3d
00000290: 1c4a 3a3d f8e2 5cbe 8dfd 0b3d 631b 09be
000002a0: 885c 2dbd 8823 ef3d 4a0e 49be fc39 4b3d
000002b0: a8ca 783d b5be 4e3e 68f0 7abe 00be 633b
000002c0: 2934 15bc fa29 b83d d4ae 693e 7d19 4ebe
000002d0: ce90 523e 33a7 fe3d 7846 22bd c96e f5bd
000002e0: 00c6 353e eb2b b0bd a3b3 953e 106e e1bd
000002f0: e6a2 f53d 6a73 223d 3403 b53d 7ca3 273c
00000300: 95fa dbbd f6fa b13e 5425 263b df87 023e
00000310: de37 2ebe 724e 62bd f4a3 1ebe baff 60be
00000320: 93ca 5abe 5062 283d 18ae 813d 842e 7b3d
00000330: e382 f6bd a177 ed3b 58ae 153d 5013 ff3d
00000340: 2b4e 453e 86a2 0a3e fcc5 b3bd 8e09 943d
00000350: 570c faba fe12 0a3e 4a9f bcbd 2a1a 993d
00000360: 9b8d 623d 9655 f13b 6614 8bbd 8b18 41be
00000370: b9de ef3b 02e6 973d e120 383e 52c6 223e
00000380: 3614 053e e8eb 58be 8b90 603e bad9 4d3d
00000390: 5a22 173d 99dd f3bb 743d 1bbe 1e81 bcbd
000003a0: 1384 313d d8c6 da3c 88e6 95bd 8ae7 cebc
000003b0: b835 f13d eea5 16bd 1614 093e 1b2c 003e
000003c0: 63ee 113e 47d8 c33d d043 68be 40af 26be
000003d0: 9b53 83bd dadd a73c 7ebf 1c3e fa57 803d
000003e0: f1b5 c7be 91bc c93c 861a 48bd 8ea2 403c
000003f0: 55c3 373c 24ad 5d3e af5e 743e 5604 b03d
-0.12729883 -0.1027447 0.004152547 -0.11958679 -0.15750217 0.05541144 -0.008699553 0.20545505
-0.08544786 0.09788151 0.15206827 -0.049486052 0.113765754 -0.18582262 -0.23248884 -0.112810686
-0.1434731 0.11736487 -0.080292135 0.20828956 0.19557136 -0.16418983 -0.14251556 -0.055368736
-0.03093342 -0.15834096 -0.23163423 -0.038901832 0.00029571503 0.11537358 -0.19578396 -0.10885495
-0.09908832 -0.0030236903 0.090075724 -0.009084195 0.075873084 0.08644779 0.112798385 0.22134013
-0.034675714 -0.16453011 0.09259669 -0.18524125 -0.043366734 -0.15646942 -0.06085814 0.08405784
-0.16639014 0.05307623 0.10430511 -0.04242774 -0.21274142 -0.13925223 -0.1892158 0.09308224
0.1464064 -0.20533074 0.13481067 0.06856346 0.082273275 0.04303052 0.10849295 0.07918171
0.028328639 0.11084198 -0.13538535 0.007063202 -0.07932374 0.1673228 0.07024321 0.13016228
0.11758353 0.15877096 0.0698873 -0.043081865 -0.16809763 -0.14767282 0.047341894 0.029678617
0.051925723 -0.122474805 -0.3197048 -0.16825502 0.04533671 -0.22812928 -0.25558707 -0.053874984
-0.12602717 0.07681772 -0.082484275 -0.086940326 -0.12996158 0.106689155 -0.06323431 0.13897459
-0.08583872 -0.020634884 0.06533109 -0.110746466 -0.09543491 -0.1946265 0.04258615 0.16823821
-0.23048015 -0.07568204 -0.19017893 0.19150932 -0.107787065 -0.014336266 -0.15270117 0.046604753
0.031027406 -0.19196318 -0.11848028 0.10929988 -0.046664257 -0.045920487 0.052131712 -0.22544575
-0.022592 -0.15661865 0.0791866 0.28243876 0.14686638 0.216805 0.17047559 -0.20112377
0.08577718 0.14812669 0.22063078 -0.22963537 0.072224736 0.059443384 -0.09310334 -0.19428943
-0.037287254 0.20294717 0.011275671 -0.12843627 -0.10600242 -0.08417877 -0.018440131 -0.26041228
0.33727628 0.1527495 0.13323884 -0.17103998 -0.039121263 0.03136034 0.18307762 -0.2100126
-0.09302122 0.12436732 -0.08415427 -0.048127353 -0.13030885 0.31182876 -0.0977369 -0.15317966
-0.18279384 -0.015068523 0.0049693678 0.08306689 0.045480832 -0.21570957 0.03417735 -0.13389353
-0.042324573 0.11676699 -0.19634357 0.049615845 0.060740143 0.20189936 -0.2450577 0.00347507
-0.009106674 0.089923814 0.22820598 -0.2012691 0.20563051 0.124342345 -0.039617985 -0.11984021
0.17751312 -0.08602127 0.29238614 -0.11007321 0.11993961 0.03966085 0.088385016 0.010231849
-0.10741154 0.3476178 0.002535184 0.12747143 -0.17013499 -0.055250593 -0.1549223 -0.21972552
-0.21366338 0.041109383 0.06332034 0.061323658 -0.120366834 0.007246927 0.03654322 0.124548554
0.192681 0.1353856 -0.08777997 0.07228385 -0.0019077164 0.13483807 -0.092100695 0.074756935
0.055310827 0.007364939 -0.06791 -0.18857019 0.007320252 0.074169174 0.17981292 0.15895966
0.12995991 -0.21183741 0.21930139 0.05025647 0.036897995 -0.007442188 -0.15160161 -0.09204315
0.043338846 0.026706144 -0.07319361 -0.02525689 0.11777824 -0.036779337 0.13386568 0.12516825
0.14251094 0.09562736 -0.22682118 -0.1627779 -0.06412431 0.02049153 0.15307423 0.0626678
-0.39005998 0.024626048 -0.04885342 0.011757506 0.011216004 0.21648079 0.23864244 0.08594577

fc1.bias f4 [512]
00000000: dfed 073d 1b38 c53d 12cc 4ebe 3844 14bd
00000010: 1c56 d83d 75e3 c73d 141b 273e c119 dcbc
00000020: cfdb c63d 17d2 0fbe a94a 4d3e fb1a 44bd
00000030: 6f24 283e 82da b73d d459 d53d c00a ab3d
00000040: 09e8 73bd f056 3e3d 15c2 b73d 1caf 123e
00000050: 26ef 5cbe 8dd7 383e 6b5f ac3c 9b2f 4fbd
00000060: 0018 09bb d9f2 25be 33ed 3ebe 56c6 0dbc
00000070: e3ca 86bd 681a 553d 12cd 493d 4d55 94bc
00000080: d7d3 6e3d 7f0c 59be cf5a abbd c69b e93d
00000090: 3f67 adbd 1490 273d f00b 96be dc05 733c
000000a0: 43c0 223e cd05 80bd 477a 41be 9b37 6abd
000000b0: db89 7a3e 4f94 653d 8d4d 86be ee02 723d
000000c0: 7d10 4abe a11c 983c f5ff c4bd c5c3 d9bd
000000d0: 8c4c 853e a270 da3d 6632 a33d 9d01 35bd
000000e0: 04ae 853d b9d0 c63d f95d 033e c11c 833e
000000f0: 5d41 26be c741 bf3d 4609 533e f78a 163e
00000100: 2c25 46bc 7378 0e3d 36ff dcbd 78ff a23d
00000110: 9675 e2bc 7734 313d 2f14 82bd 511b 3f3e
00000120: d086 233e a76a 5dbd 8afc 383e e554 08be
00000130: 8ce5 97bd ef3c e5bd 5f02 9b3d 5ec0 6dbd
00000140: 8fa3 23be d6e8 f5bc 929c 0dbd 0db3 37be
00000150: 5ce6 efbb adae 293e 2080 293e 08c7 0dbe
00000160: ce71 1c3e d1a6 99bc eab2 283e a77c 603d
00000170: d59c 13be 234c 40be fc99 cf3c be62 e9bc
00000180: 9232 103e bdf0 7bbd 471c 343c 8087 073e
00000190: 1267 61be cdff 04be eb1a 0b3e 70b7 dc3b
000001a0: e3ab 03be f9b4 27be 03b9 3d3e 567c 13be
000001b0: be52 843e 1b4b 133e c13b 3f3d af4a 8dbd
000001c0: 61e5 1fbe 55ab 9dbd 9bb7 e63d f568 23be
000001d0: d985 2f3d f1e4 10be e519 d7bd 3b0e d13b
000001e0: 559c 16be 9998 e93d 3f48 5cbd 7366 1a3d
000001f0: ee72 fabd 9fe2 c6bd 5c41 69be 605e 9cbe
00000200: e1c0 44bd 60c4 f0bd 560a 433e 9b5e 29be
00000210: 990d 593e d69f 40bd 70ad 033c 062f b3bd
00000220: e59a babd 157e c83d ebe7 0abd eb98 bc3d
00000230: eb9d 1c3e 4a07 60be 80c5 bebd 41e7 d2bb
00000240: 730f 963d ca0b b0bd 24c5 3c3e 23e1 10bd
00000250: 7087 d03c f46c 033e 14d8 0abc 5194 d93a
00000260: e27a 0c3e 9e0d 1c3e cdd3 59bd a9a2 c2bd
00000270: 498c aa3d 8fef 483e 732d 053d b59f 41be
00000280: 72bd 4d3e 4045 ba3d d5b8 f63d 05ab 20bd
00000290: fa98 6e3c 58bc 22be 6314 563e d6fc 273d
000002a0: ccc6 0a3e d61c f73c c9ac b03d b372 ddbd
000002b0: 6fd6 f93c b628 81be 54ab 33be 4df6 2fbd
000002c0: bf26 79bd bd2d 1bbe 8b0d 0bbc 65e7 1bbe
000002d0: 8969 53bd c9b8 7f3e a271 5dbd 74b4 0ebe
000002e0: 758e 4a3e a1a0 4fbd 6b42 19be 2d72 a5bd
000002f0: 8a0a 0b3d 6e89 9c3d fa18 febd aa5d 2a3d
00000300: a133 e6bd f25f 2cbe 89eb c7bc 3307 fa3c
00000310: 499d afbd b3a8 c03d 575a 1d3e 5263 193e
00000320: 6400 47be 385d 9c3c dcab b23d 9c1c 0f3e
00000330: 87a9 fdbd ec7e 2e3c db3a 0bbe 632d 0fbe
00000340: ce5f f1bd 0ba4 18be d285 e43a 4ec2 08be
00000350: d66e 43be 9503 fabc b4b6 213d cb30 0ebe
00000360: 4c1e 623d 0693 3dbd 1bf7 35be 757f acbd
00000370: d6e6 41be 133e 50bd c974 3b3e b5eb 10be
00000380: 8e52 07bc 8c41 65bd 66bc 423d a0d0 383e
00000390: c613 6d3c 7a0e 00be 55a4 50be d74d cd3d
000003a0: 8b10 2fbe e392 11be 4171 113e 9182 c93d
000003b0: d8ad 5b3e 0db9 1abe 73d9 27bd 799b 2abe
000003c0: b5c3 99bd 3a78 023e 3b29 6fbd 011a 79be
000003d0: 30e7 a93d 6853 dd3d cb98 a7bb 33b2 d43d
000003e0: 0b41 05bc 3cbb 963e 4910 c73d 1218 b5bd
000003f0: 288d 20be 93c2 16bd fb7d 14be ae5f 883b
0.033185836 0.09629842 -0.20195034 -0.03619787 0.10563299 0.09760181 0.16318923 -0.02686775
0.09709894 -0.14044987 0.20048012 -0.047877293 0.16420148 0.08977224 0.10417524 0.0835166
-0.059547458 0.04646963 0.08972565 0.14324611 -0.21575603 0.18050976 0.021041593 -0.05058251
-0.0020918846 -0.1620592 -0.18645172 -0.008653244 -0.06581666 0.052027136 0.049267836 -0.01810708
0.058307495 -0.21196173 -0.0836693 0.114066646 -0.08466958 0.040908888 -0.29305983 0.01483294
0.15893655 -0.062511064 -0.18894301 -0.057181936 0.2446665 0.05604964 -0.26231042 0.059084825
-0.19732852 0.018568339 -0.096191324 -0.10633043 0.26034963 0.10666014 0.07968597 -0.04419099
0.065273315 0.097077794 0.12828816 0.25607875 -0.16235872 0.09338718 0.20609006 0.14701448
-0.012093823 0.034782838 -0.10790865 0.07958883 -0.02764396 0.043262925 -0.06351506 0.18662764
0.15969396 -0.05405679 0.18065086 -0.13313635 -0.074168295 -0.11193263 0.075688116 -0.058044784
-0.15980361 -0.030018251 -0.034573145 -0.17939396 -0.007321162 0.1657054 0.16552782 -0.13845456
0.15277788 -0.018756302 0.164745 0.054806378 -0.14415295 -0.18779044 0.02534198 -0.028489467
0.14081791 -0.061508883 0.01099307 0.13235283 -0.22011974 -0.12988205 0.13584487 0.0067357346
-0.12858538 -0.1637763 0.18527608 -0.14402899 0.25844377 0.14384119 0.046687845 -0.068990104
-0.15614845 -0.076986946 0.11265489 -0.15958007 0.042852256 -0.14149834 -0.10502986 0.00637987
-0.14708073 0.11406059 -0.053779837 0.03769536 -0.12228952 -0.09711193 -0.22778839 -0.30540752
-0.048035506 -0.117562056 0.19046912 -0.16539995 0.21196593 -0.04702743 0.008036956 -0.087492034
-0.09111575 0.09789673 -0.03391258 0.09208854 0.15294616 -0.2187778 -0.09315014 -0.006436259
0.073271655 -0.085959986 0.18434578 -0.035370957 0.025455207 0.12834531 -0.008474369 0.0016599988
0.13718751 0.1523957 -0.053180505 -0.09503681 0.083275385 0.19622634 0.032514047 -0.1890858
0.20091799 0.0909524 0.12046973 -0.039225597 0.01456284 -0.1589216 0.20906214 0.041012608
0.13552397 0.030165117 0.08626706 -0.10812893 0.030497758 -0.25226372 -0.17545825 -0.0429595
-0.060827967 -0.15154167 -0.008487116 -0.15224989 -0.051614318 0.24972834 -0.054063447 -0.13936025
0.19780906 -0.050690297 -0.14966743 -0.08078418 0.033945598 0.076434 -0.12407108 0.04159323
-0.11240316 -0.16833475 -0.024404304 0.030521011 -0.08574922 0.09407177 0.15366493 0.14979294
-0.19433743 0.019087419 0.08724186 0.13975757 -0.123858504 0.010650378 -0.1359667 -0.13982157
-0.117858514 -0.14906327 0.0017434901 -0.13355371 -0.1908525 -0.030519286 0.03948088 -0.138858
0.055204675 -0.04628279 -0.17770045 -0.08422748 -0.18935713 -0.05084045 0.18306269 -0.14152415
-0.008259429 -0.055970713 0.047542952 0.18048334 0.014470046 -0.12505522 -0.20375188 0.100246124
-0.17096154 -0.14216189 0.14203359 0.09839357 0.21453035 -0.15109654 -0.04097886 -0.1666087
-0.07508031 0.12741175 -0.05838893 -0.24326326 0.08296049 0.10806924 -0.00511465 0.10385551
-0.008133183 0.29439723 0.09719903 -0.08842482 -0.15678847 -0.036806654 -0.14501183 0.0041617965

fc2.weight f4 [256, 514]
00000000: 382f 843d d192 933d 767c 74bd dbf8 8e3d
00000010: 1b5a 013d 6a10 c73d d925 c0bb 22f0 aabb
00000020: d381 3ebc 1931 01be 337b cf3b 44a3 acbd
00000030: e88a dd3c 4f3e 143d 8232 053c 8d34 4cbd
00000040: bfce 2abd 8c93 98bd 8eba 063d d2bc 073e
00000050: 2716 373c 21fe 7d3d 0273 03be ac78 913d
00000060: 8f43 393d 8732 a7ba d643 31bd 9d0b fdbc
00000070: d433 a73d 8b2d 6fbd 5b2e 0ebe 7bbb a33c
00000080: 7891 86bc 64c4 25be 7bf4 093e 24bd 113e
00000090: e568 9bbd 93b0 4c3d 79f6 f3bc d609 b1bd
000000a0: bfe4 d13b fb17 333d b38e 5d3d 8daa bd3c
000000b0: e97e 39bc 592c d83d c1d8 28bd 125c 1d3d
000000c0: 3679 e8bd 363f 0abe a757 e2bc 9e51 c03c
000000d0: 05eb 2cbb 55af a93d 91de af3d 4450 1cbd
000000e0: de4c a53d 37ad 1c3e d479 a73d f96f 6abd
000000f0: dae6 57be 2fb4 a0bd 294f db3d 2430 4e3d
00000100: a277 fbbc 5350 473c 20c1 183e 8c7f 083e
00000110: da41 683d 2ebf 9ebd ab3a 0f3d ec85 0ebd
00000120: 6025 133e fb00 dcba f0b9 0b3e 69c4 f4bd
00000130: b88a e1bc 8281 1b3d 5420 b5b9 8918 093e
00000140: 72b9 8bbd d1c0 3a3d f418 133c 6782 b33d
00000150: c826 94bd 542a 9b3d 35f2 93be 177e efbc
00000160: 1577 663d 6370 cc3d 5294 12bd a2b4 253c
00000170: 8cbd 04be 0921 803d 521b 663d ca1f 113c
00000180: 7925 f43c a379 383d 8f43 c83c c8e7 1b3d
00000190: ff58 f83c 2da5 15bd 9c53 833d 9acf 893c
000001a0: c0f0 05be 0e99 c53b aa18 5c3d 5d6d 8ebd
000001b0: 07f8 60bd 1239 843d ad7b a93d e004 3e3a
000001c0: ba5c c7bd fb58 d13c 5cad 803d 1795 fdbd
000001d0: 9053 0bbd 58e4 303d 3000 973b bb38 ff3c
000001e0: 63ba 733d c62e 35be 2bd5 5dbd dacf 4e3c
000001f0: 4224 083d 7610 b5be 9c7c a0bd 41d4 febd
00000200: b788 6dbd e95e 0e3e e35b ad3d a9a2 8f3d
00000210: 9cda 353c 4def 103e 5b15 193c 8b6f 01be
00000220: a6fb c03d a953 993d 2877 223c ce89 afbd
00000230: 0abd 3e3d 6f85 febb dd75 953d a71f a63d
00000240: 37dd 943d 55eb 5d3d 2e77 3c3c 5057 36be
00000250: 2ec0 a93d 832a 543b 0066 a03c 7a07 fa3c
00000260: 9240 abbb 1ab8 a33d 7b30 81bc eae9 4c3c
00000270: 29c1 483d 14c9 f93d 6d7e bebd 1aab 3abd
00000280: 6533 a8bc 43df 013d 5d50 833d 39bb 6b3c
00000290: 3d84 163d 0b8f 47be 13e3 503d b698 99bc
000002a0: 87bf 7bbd 8415 94bd 3fdb 673c 8b40 40bd
000002b0: bb98 4abd 4507 23be d7d1 78bc fd5c 0ebd
000002c0: ec59 a2bd c087 513d d663 083e d376 2c3c
000002d0: 34ac 27be 3d7e de3d e9df 64bd 126f d8bd
000002e0: eaef 233d b718 77bc 00e8 20bd 5153 14bd
000002f0: a8ed b03d 8cb7 e03d 644d de3d dbb4 c9bb
00000300: 8a6a ca3d 642c e6bd b504 1c3d 82b7 0a3e
00000310: df81 26be f24f 633b 813c 9dbd c7d3 e53c
00000320: 3597 4fbd 1193 c8bd 6181 b1bc 4e02 17bc
00000330: 085f 7a3d c227 273e b7c7 36be 7471 423d
00000340: 1199 2fbe 0d13 a8bb 2f4d b1bc 9fde 3dbe
00000350: 46e8 07be c7c7 f43d b3f7 213e 621a a1bd
00000360: 6982 27bd 3401 bdbd c62a 96bc 5242 2c3b
00000370: 47a4 a0bd faa0 983d ec36 fb3b 214a 46bd
00000380: bb3e 72bc 482e ef3d 9d79 4f3d a5f7 6fbb
00000390: 1839 13be 9d3f c7bd 06c9 6abe 9a45 a23d
000003a0: c564 7dbe 0afe 38bd 8db7 88bd d02c 9dbd
000003b0: 982b 983b 754d 88ba b93a f3bb ea46 163c
000003c0: 3795 3bbd 850a be3d 9309 23bb 56fe b9bb
000003d0: bb59 01bd 57ab 61bc 382f a83b 2a80 673d
000003e0: b042 273c f0fb ddbc 6b00 0b3c 80a2 e53c
000003f0: 55d1 aebd d715 7d3c 1eb4 58be 9c24 c5bb
0.06454319 0.072057374 -0.059689008 0.06981059 0.031580072 0.097199276 -0.005863887 -0.0052166143
-0.011627632 -0.12616386 0.006331825 -0.08429578 0.027043775 0.036192235 0.008129718 -0.049854804
-0.041701075 -0.07450017 0.032892756 0.13255623 0.011174715 0.062009934 -0.12836841 0.071030945
0.045230445 -0.0012756147 -0.043277584 -0.030889327 0.08164182 -0.058393043 -0.1388487 0.019986859
-0.016426787 -0.16188198 0.13472168 0.14232308 -0.075883664 0.04997308 -0.029780613 -0.08644454
0.0064054425 0.04372404 0.054091167 0.023152614 -0.011321762 0.10555334 -0.041222338 0.038417883
-0.11351244 -0.13500676 -0.027629687 0.023476418 -0.00263852 0.08285395 0.08587373 -0.038162485
0.08071302 0.15300451 0.08177534 -0.05723569 -0.21084157 -0.07846867 0.10708458 0.05033888
-0.030696694 0.012165147 0.14917421 0.13329905 0.056703426 -0.077513084 0.03496806 -0.034795687
0.14369726 -0.001678496 0.13645148 -0.11951525 -0.027531967 0.037965305 -0.00034547097 0.13388266
-0.0682248 0.04559404 0.008978117 0.08765107 -0.072339594 0.07576433 -0.28895727 -0.029234929
0.05626591 0.099823736 -0.03578598 0.010113867 -0.12962931 0.06256301 0.0561784 0.008857677
0.029803025 0.045037877 0.024446277 0.03806284 0.030315874 -0.036534477 0.064124316 0.016822625
-0.1308012 0.0060302084 0.05373446 -0.06954453 -0.054924037 0.06456198 0.082755424 0.0007248651
-0.09734483 0.025555125 0.06283066 -0.12381952 -0.03401524 0.043186516 0.0046081766 0.03115498
0.059503924 -0.17693624 -0.05415837 0.012622798 0.033237703 -0.3536412 -0.07836267 -0.12442828
-0.05799171 0.13903393 0.084647916 0.07013447 0.011099484 0.14153786 0.00934347 -0.12640207
0.09422998 0.0748666 0.009916104 -0.08571206 0.046567 -0.0077673714 0.07297871 0.08111506
0.07268756 0.05417951 0.011503024 -0.17806745 0.082886085 0.0032373972 0.019579887 0.030521143
-0.0052262032 0.07994099 -0.015770188 0.012506941 0.049012337 0.12196556 -0.093014576 -0.04557333
-0.02053232 0.03170706 0.064118125 0.014387899 0.036747206 -0.1948816 0.050997805 -0.018749576
-0.06146195 -0.07230666 0.014151393 -0.046936553 -0.04946206 -0.15920742 -0.0151867485 -0.03475665
-0.079273075 0.051154852 0.13319334 0.010526377 -0.16374284 0.10863922 -0.0558776 -0.1056806
0.04002372 -0.015081576 -0.039283752 -0.03621227 0.08639079 0.10972509 0.10854605 -0.006155593
0.09883602 -0.112389356 0.038090426 0.13546565 -0.1626048 0.0034685102 -0.07677556 0.028055085
-0.05068131 -0.09793676 -0.021668138 -0.009216858 0.061125785 0.1632376 -0.17849623 0.04747148
-0.17148234 -0.005129224 -0.02164325 -0.18541954 -0.13272199 0.11952167 0.15817146 -0.0786636
-0.040895853 -0.09228745 -0.018330943 0.0026284647 -0.078438334 0.07452579 0.0076664593 -0.04841054
-0.014785464 0.11678749 0.05065309 -0.0036616114 -0.14377248 -0.0972893 -0.22928247 0.07923432
-0.24745472 -0.045164146 -0.066756345 -0.07674563 0.0046438687 -0.001039906 -0.007422772 0.009172181
-0.0457966 0.0927935 -0.0024877533 -0.005676071 -0.031579714 -0.013773761 0.005132582 0.05651871
0.010208771 -0.027097672 0.008483986 0.028031588 -0.08536021 0.015447102 -0.21162459 -0.006016327

fc2.bias f4 [256]
00000000: 622a debc f3ff 5e3c 548b 9dbc 7fb9 403d
00000010: 0a58 1e3d 2530 efbc e6d4 353c d4dc d03d
00000020: e852 d4bc 2d62 9fbd df4d 173d 63d1 79bc
00000030: d0d6 b8bc 8d1c 39bc 59ea 1b3c 1559 4d3c
00000040: b124 aa3d 4e82 c8bc d67b 84bd ac63 b03d
00000050: bcaa d4bc 2a4a b83d e503 dfbc 5e02 2bbd
00000060: 40f9 19bd bed5 b03b 49d2 a23d a3bd 91bd
00000070: ac9b b2bc f609 e33c 558d 13bd 87bb 8f3c
00000080: 58d4 ccbb ca3f 193e 0d29 293c d57c 223d
00000090: 9539 0a3d 5d26 59bd c432 39bc c67d 843c
000000a0: e963 4e3d 4984 b83d a21f 0b3d 3f64 94bd
000000b0: 2e56 98bd 9e19 06bd 194e 72bc 94a5 003d
000000c0: 4ef0 65bd c6ce bc3d 6e6f ec3b 4c51 9bbc
000000d0: 27c1 d63d 122f 7fbd fce7 bf3c adef cabc
000000e0: f14e 49bd 6725 36bc a6ad dfbc 52a2 3f3d
000000f0: aacf dbbb 919a 143d 99f4 c0bc 0197 9dbd
00000100: b94b 853d 3147 e13c f24d 453d e3e5 02bd
00000110: 6040 9ebd 4261 7a3d 1b6e 48bd b62b 99bd
00000120: 53fd fe3b 3481 b6bb f4bf ca3c 7e79 b3bd
00000130: f00c 013d fce1 b3bd 60f4 713c a230 9f3c
00000140: 220d b53d 00a8 a9bc 476c 00bb 4cf4 3dbb
00000150: 46a4 2dbd bb82 0bbd d638 33bb 3895 14bd
00000160: e2f9 1f3c 9fd7 b23d 2556 51bd 54e0 cd3c
00000170: 71a0 f43d a6fd d4bc ca77 f83c dc0a adbd
00000180: 775d 283d 5ea8 413d d8fc 5fbb c044 41bb
00000190: 7227 abbc f9e4 143e 2f57 003d 38ca 3e3d
000001a0: 3582 b53c 08ad c43d a762 3abd 9300 a1bd
000001b0: 45ce 583c 60e9 0e3d 7a6d 5cbd 6370 123c
000001c0: 5fb3 14bd 2bcb af3d a73b eabc 8a34 02bd
000001d0: 7aaa e73c ef54 223d a2e5 8fbc 1abf c8bb
000001e0: d277 37bc 0b51 ed3c 8186 46bc ee1a 953d
000001f0: 9c41 15bd 8255 4f3d 32d7 3fbd 5084 6ebd
00000200: 7c58 ad3d 8d61 3a3d da8b 0cbd 81d8 e1bc
00000210: 68fe 5b3c 1427 583d 1a73 3abd 4e52 1c3a
00000220: 7cce 07bd 2f71 2dbd 3e76 ba3c 1bd2 9b3d
00000230: de2e 8c3d e6d8 5a3d 0e49 aa3a 6f06 88bc
00000240: 330c c23d 039a a23d 697e f13c 001b 0d3e
00000250: deb1 263d 2dfd 363c 33fc 18bd bca3 ff3c
00000260: 350e 423d cdd0 06bb 862b 403d b3b4 87bd
00000270: 3589 183b 51d8 b23d f90c f33c cd28 1a3d
00000280: 5647 073e cf1e d5bc 1fd8 123c 7339 5b3d
00000290: bb36 9a3d 74b1 393d 3fed e93b 1b10 253d
000002a0: 30cc c03d 0388 893d 1825 073e adc2 103d
000002b0: fee4 2a3d 444f 7d3d 3e45 f13c ffc1 b93c
000002c0: cacd de3b 6ae4 023e 66b7 11bd cd9c 043d
000002d0: 12b6 c43d 8eb9 ba3c c0b0 b03d d10a d4bb
000002e0: 334a 43ba 151a 1abd b312 33bc 1110 95bd
000002f0: 2728 823c 3052 01bd b043 a6bc a7e2 923d
00000300: d5c4 d6bb c9d2 a53d 0579 03bd c4b9 59bd
00000310: 5767 5b3b 2492 66ba e945 49bc 6e41 88bd
00000320: 4320 a2bd af0b 083d c8ad 87bd e016 6cbd
00000330: 4aaf 3bbc 006a d6bc 2fd3 c3bc 4edd 303c
00000340: d46d af3b fc97 883d 2a95 a53d a0dd 023d
00000350: f834 cc3c 8aa2 113d d418 df3c 2a77 11bd
00000360: 142b dc3c f521 8fbd eba6 1b3d 52cd a7bc
00000370: 98ba edbc 01c4 df3d 4afb 03bd 877d d13d
00000380: daf5 c53c 555e ba3c af85 afbd 8b10 b53d
00000390: 0c43 23bd bef2 ef3b d481 f6b9 935f cd3a
000003a0: 4f8c 9cbd 1af8 113e 0fe8 4dbd a4b1 d63b
000003b0: 5ce5 71bd b42d 70bd 3a7d e23c 872c b13d
000003c0: 4fd9 debc c7bb abbd 8708 f63d 515c 49bc
000003d0: 077e 373d 7b40 343d 8435 54bc d3cd f03d
000003e0: 9263 723d 2e2d a73c c301 063d 320f ab3d
000003f0: 2dc4 a93d 167b a13d 9aa8 713d b2ae ccbb
-0.02711982 0.013610828 -0.019231476 0.047051903 0.03865818 -0.029197762 0.011098122 0.101983696
-0.025918439 -0.077823974 0.036939498 -0.015247676 -0.022563368 -0.011298311 0.009516322 0.012533446
0.083077796 -0.024476197 -0.06468932 0.08612761 -0.025960319 0.08998521 -0.027223537 -0.041750304
-0.03759122 0.005396574 0.07950265 -0.071162485 -0.021802746 0.02771471 -0.036023457 0.017545475
-0.0062508993 0.1496574 0.010324729 0.03966983 0.03374632 -0.0530151 -0.011303607 0.016173255
0.05038825 0.090096064 0.033965714 -0.07245683 -0.074383125 -0.032739274 -0.014789128 0.031407908
-0.056137376 0.092191264 0.007215432 -0.018959664 0.1048606 -0.06230075 0.023426048 -0.02477249
-0.04914755 -0.011117316 -0.027304482 0.04678566 -0.006708105 0.03628022 -0.023554133 -0.07694817
0.065085836 0.027499767 0.048170038 -0.03195752 -0.07727122 0.06112791 -0.04893313 -0.0747904
0.0077816634 -0.0055696014 0.024749734 -0.08763407 0.03150648 -0.087833375 0.014767736 0.01943237
0.088403955 -0.020709991 -0.0019595788 -0.0028984724 -0.04239299 -0.03406022 -0.002734711 -0.03627512
0.009764167 0.08732533 -0.051107544 0.025131382 0.11944664 -0.025999855 0.030330557 -0.08449337
0.04110476 0.047279708 -0.0034177806 -0.002949044 -0.020892832 0.14540471 0.031333145 0.04657957
0.022156814 0.096033156 -0.04550424 -0.07861438 0.013232772 0.034890532 -0.053815342 0.008937928
-0.036303874 0.08583673 -0.028592898 -0.031788386 0.028279532 0.03963178 -0.017565552 -0.0061262967
-0.011198001 0.028969308 -0.012117029 0.07280527 -0.036439523 0.050618656 -0.046836086 -0.05823165
0.08464143 0.045503188 -0.03431306 -0.027569057 0.013427354 0.052771643 -0.045519926 0.0005963192
-0.033155903 -0.04234427 0.02276146 0.07608434 0.06844877 0.053429507 0.0012991743 -0.01660463
0.09474983 0.07939532 0.029479222 0.13779831 0.04069697 0.01116876 -0.03734989 0.031206004
0.04737683 -0.0020571232 0.046916507 -0.066262625 0.002327514 0.08732665 0.029669272 0.037636567
0.13210806 -0.026015667 0.00896266 0.053521585 0.0752997 0.045335248 0.0071388776 0.040298562
0.09413946 0.06715395 0.13197744 0.035341907 0.04172229 0.06184317 0.029451963 0.022675512
0.0067994343 0.12782446 -0.035575293 0.0323761 0.0960504 0.022793557 0.086274624 -0.006471016
-0.0007449716 -0.03762253 -0.010929751 -0.07278455 0.015888287 -0.03157252 -0.020295948 0.07172137
-0.006554226 0.08096845 -0.032097835 -0.053155676 0.0033478343 -0.00087955804 -0.012284734 -0.06653105
-0.0791631 0.033214267 -0.06624943 -0.057639003 -0.011455366 -0.026173592 -0.023904411 0.010794951
0.0053536687 0.06669614 0.080850914 0.03194964 0.024927601 0.0355554 0.027233519 -0.035514034
0.02687601 -0.06988899 0.038000982 -0.020483647 -0.029019639 0.10926057 -0.03222207 0.102290206
0.024165083 0.02275006 -0.0857042 0.08841046 -0.039858863 0.0073226383 -0.00047017506 0.0015668742
-0.07643949 0.142548 -0.050270136 0.006551938 -0.059056625 -0.058637336 0.027647603 0.08651071
-0.02720323 -0.08385425 0.12013345 -0.012290076 0.044797923 0.044006806 -0.012952212 0.11758008
0.05917699 0.020407286 0.032716524 0.08352508 0.08289371 0.07884805 0.05899868 -0.0062464112

fc3.weight f4 [1, 256]
00000000: d451 073f c1e8 2bbe 4c40 51be 6522 e4bd
00000010: 7c0b 2bbe 3ab7 29be 1ab0 38be c26e c63e
00000020: cb66 9cbe 31fd a9be d5a3 093f fc5e bbbe
00000030: 1ffd cb3e 959c 50be 8603 20be c6fd ea3e
00000040: 61dc 0b3f ec5e 20be b170 5ebe c890 ad3e
00000050: d285 1fbe eaf0 fd3e a7f8 d73e 221a a73e
00000060: 56d8 cc3e b61a b53e 5a23 bd3e 6e6b 3fbe
00000070: da5f fe3e 6280 f9bd 3aef 1fbe 2fe2 ebbd
00000080: 3fae e1bd 587a cb3e 1f86 d93e 657a 16be
00000090: f28b ff3e bd9f 103f 5016 0a3f 3687 393d
000000a0: 9e98 013f 7557 be3e aa83 08be a320 d8be
000000b0: 4610 9cbe 0743 cebe 9e2d 12be 53f0 8a3e
000000c0: c1fa 54be c8c6 d13e 0e7f e23e bc95 1fbe
000000d0: c275 da3e f6f4 71be b44a 153f a175 1abe
000000e0: f8c3 b6be 9193 ee3e e899 09be 9807 d73e
000000f0: 67c3 04be 53fd 30be 9334 10be e2c1 d1be
00000100: c995 d9be 53dd 37be 1097 a43e a8e2 8d3e
00000110: b2cb 95be cc7c ee3e b769 febe f5d9 85be
00000120: a5dc cb3e 6d70 e33e 79e2 00be 4152 02bf
00000130: 9999 2cbe 398a 42be 9c99 ffbd 60a4 12be
00000140: bbd4 c33e 1c70 8fbe 6822 17be ffec f6bd
00000150: 1a89 b93e 7ba9 10be baa4 e63e a455 9c3e
00000160: 419d 51be 9f03 983e 625f 26be 5158 26be
00000170: b5fa c53e 8a02 e0be 041e 14be b3d2 97be
00000180: 4d4f bd3e 1fa9 033f 961a 8ebe 146b 22be
00000190: cf62 d2be dd0a d53e 4f9c dc3e 37e0 f4bd
000001a0: a36f d63e 11ee 083f 2172 113f 5e5f 4ebe
000001b0: ebf2 e0bd e80f 1ebe b0e1 243f 35e1 9f3e
000001c0: 6e05 35be b94f 173f e080 ee3e 8581 f4bd
000001d0: 4c5e 2fbe 0811 023f 2107 d7bd 1686 76be
000001e0: 9324 99be 1195 f13e 41be e73e 4d2c c83e
000001f0: a03c d73e 8aec 2abe 0e31 69be 1904 d73e
00000200: 9f72 ba3e 5ab1 2dbe bd33 ffbd 64b3 03be
00000210: 03f9 df3e 52ce 9d3e 38ff 0dbe b9cf 07be
00000220: 62f1 083f 6261 33be 85d7 e43e fd88 c13e
00000230: 7a25 bd3e d619 f33e 0c29 be3e e260 ef3e
00000240: c099 d63e f171 9d3e 1555 ad3e 0523 ae3e
00000250: 58f7 f63e 13af 16be 724e 15be 492d be3e
00000260: 4bcb a53e 3bd0 7dbe 5eb3 b13e ee17 5dbe
00000270: 8062 41be fc21 973e 4a3d 0cbe ddd2 04be
00000280: b9db b33e 5acc 2fbe 16e6 15be fa3f 9f3e
00000290: c05c e33e 5ee1 04be b2a1 09be 8c91 af3e
000002a0: 6958 c43e bbdd b83e c98a aa3e 298e d33e
000002b0: 314e b73e e4a6 023f c692 00be cfac 09be
000002c0: ad61 b83e edae cd3e 3d27 20be 21f0 47be
000002d0: e8fb 223f 7410 06be 24a5 b03e 6039 f63e
000002e0: e629 e33e ebaa db3e 0b0e 17be aa8c f7be
000002f0: 1242 1ebe e4a1 f5bd f9a4 d73e aa88 0e3f
00000300: c937 013f 23f5 043f 04b1 a7be a653 37be
00000310: 8a36 33be fcc3 f3bd 2bf2 a4be cea6 f33e
00000320: 8787 acbe f89e 30be 406c b1be 7ac1 d4be
00000330: 3136 d43e 7c42 edbe 01c3 8cbe b72d 25be
00000340: 3c19 c93c bb51 d13e 5229 d83e 0f02 1fbe
00000350: f789 b93e dd99 33be 5a46 143f 028e 2dbe
00000360: daa1 9a3e 7234 bfbe 7626 1abe 5654 56be
00000370: 5ef4 29be ad82 a83e 7311 28be f002 c23e
00000380: 3a88 023f 2805 c03e 4984 d4be da80 dc3e
00000390: 79f7 1ebe 409d 253f 4290 21be 3b17 32be
000003a0: 0d83 56be f8da ec3e c895 d2be ce27 2abe
000003b0: e938 e5be a9c7 4dbe bcd0 1cbe 3e63 c83e
000003c0: 7c1e 983e 7c02 cdbe 8b04 253f d39d c53e
000003d0: 91ad ca3e 4334 32be f27d d13e 308e cc3e
000003e0: ee25 be3e 7cc9 4dbe 3ca4 d73e 187c fd3e
000003f0: ce9d cc3e 6170 bd3e 4de0 b73e d0dd 36be
0.52859235 -0.16788007 -0.20434684 -0.11139373 -0.167036 -0.16573802 -0.18035927 0.38756377
-0.30547175 -0.33200982 0.5376561 -0.36595905 0.39841554 -0.20372231 -0.15626344 0.4589674
0.54633147 -0.1566121 -0.21722676 0.33899522 -0.15578392 0.49597865 0.42181894 0.32637125
0.400088 0.3537194 0.36941034 -0.18693325 0.49682504 -0.1218269 -0.15618601 -0.115177505
-0.11019563 0.39741778 0.4248514 -0.14695127 0.49911457 0.5649374 0.53940296 0.045294963
0.506235 0.371761 -0.13331476 -0.422124 -0.30481166 -0.40285513 -0.14275214 0.27136478
-0.2079878 0.4097197 0.4423756 -0.15584463 0.42667967 -0.23628601 0.5831711 -0.15083934
-0.35696387 0.4659696 -0.13437617 0.4199798 -0.12965165 -0.17284136 -0.14082555 -0.40968233
-0.4249709 -0.17955522 0.32146502 0.27711987 -0.2925697 0.46579587 -0.4969003 -0.2614285
0.39816776 0.44421712 -0.12586392 -0.5090676 -0.16855468 -0.1899804 -0.124804705 -0.14320517
0.38248238 -0.2801522 -0.14759219 -0.12056922 0.36237413 -0.14127152 0.4504755 0.3053409
-0.20470144 0.29690263 -0.16247323 -0.16244628 0.38667837 -0.43751937 -0.14464575 -0.29652938
0.36974564 0.51429933 -0.27754658 -0.1586116 -0.4109101 0.4160985 0.43088004 -0.11956828
0.41882047 0.5348826 0.5681477 -0.20153567 -0.10983833 -0.15435755 0.6440687 0.31226507
-0.17677853 0.5910602 0.465827 -0.119387664 -0.17125815 0.5080724 -0.104994066 -0.24074587
-0.29910716 0.4718404 0.4526234 0.390963 0.4203844 -0.16691795 -0.22772619 0.41995314
0.36415574 -0.16962186 -0.1246104 -0.12861401 0.43744668 0.30821472 -0.1386689 -0.13262834
0.5349332 -0.17517617 0.44695678 0.37799826 0.36942655 0.4748065 0.3714069 0.46753603
0.41914177 0.30750993 0.33853975 0.34011093 0.48235583 -0.14715223 -0.14580706 0.37143925
0.32381663 -0.24786465 0.3470716 -0.2159116 -0.18885231 0.29518116 -0.13695255 -0.12971063
0.35128573 -0.17167798 -0.14638552 0.31103498 0.444067 -0.12976596 -0.13440588 0.3429073
0.38348702 0.36106667 0.3330901 0.41319397 0.35801843 0.51035905 -0.1255599 -0.13444827
0.3601202 0.4017252 -0.15639968 -0.19525196 0.6366563 -0.13092214 0.34500992 0.4809065
0.44367903 0.42903838 -0.1475145 -0.48349506 -0.15454891 -0.11993769 0.42118052 0.5567728
0.50475746 0.5193655 -0.3275224 -0.17903003 -0.17501274 -0.119026154 -0.3221601 0.475882
-0.3369715 -0.17248142 -0.346529 -0.4155386 0.41447595 -0.46339786 -0.27492526 -0.1613072
0.024548166 0.40882668 0.42219025 -0.15528129 0.3623807 -0.17539163 0.5791985 -0.16948703
0.30201608 -0.373447 -0.15053734 -0.20930609 -0.16597125 0.32912198 -0.16412906 0.37892866
0.50989115 0.37503934 -0.41507176 0.43067056 -0.15524091 0.6469307 -0.15777686 -0.17391674
-0.2094843 0.4626081 -0.411299 -0.16616747 -0.44769982 -0.20095696 -0.15314001 0.39138216
0.29710758 -0.40040958 0.6446006 0.38596973 0.39585546 -0.17402749 0.409164 0.3995223
0.37138313 -0.20096391 0.42117488 0.4950874 0.39964145 0.369998 0.35913315 -0.17858052

norm.weight f4 [28]
00000000: 0325 8b3f 9389 933f 65f6 903f 42ca 8e3f
00000010: 3985 8d3f b658 9c3f 71ba 903f ad51 8d3f
00000020: ae83 943f 2ff8 953f 4764 913f 83b4 9e3f
00000030: 2221 9d3f 94e1 9b3f 46fc 963f 6ddf 963f
00000040: 8adf a03f 800d 8e3f 7f02 973f 389c 8d3f
00000050: 7bb3 963f 65e1 903f 8c27 9e3f 6bc7 8a3f
00000060: 98a2 d63f 3a64 973f cc9a 9a3f 3d61 9d3f
1.087067 1.1526359 1.1325194 1.1155474 1.1056281 1.2214572 1.1306897 1.104055
1.1602685 1.1716365 1.1358727 1.2398838 1.2275736 1.2178216 1.1795738 1.1786934
1.2568219 1.109787 1.1797637 1.1063299 1.1773523 1.1318785 1.2355819 1.0842108
1.676837 1.1827462 1.207849 1.22953

norm.bias f4 [28]
00000000: 1cfa 593d bd0b 863d 1a13 a33d a4a2 a53d
00000010: 8c35 5d3d a3ee 0c3d 7864 16bd ca75 f2ba
00000020: e868 5339 5d43 d539 d99f 543c 3211 a7bc
00000030: c503 10bc a870 b9bd 0497 ccbd e76f b93d
00000040: 97a7 c53c bcf0 ce3c b306 7e3d 3336 713c
00000050: e898 f83c 6064 c33d 0689 c43d 0509 983d
00000060: 2cfe 993c c1d8 8b3d a8b6 6c3d b6a6 2d3c
0.05321704 0.06545208 0.07962628 0.08087662 0.054006144 0.03440727 -0.03671691 -0.0018498239
0.00020161609 0.00040676715 0.012977564 -0.020393942 -0.008789961 -0.090546906 -0.099897414 0.09054547
0.024127765 0.025261275 0.062018108 0.014722395 0.030346349 0.095406294 0.09596448 0.07423595
0.018797956 0.06828452 0.057791382 0.010598829

norm.running_mean f4 [28]
00000000: 47f4 ae3f 80d0 b43f c728 c43f 8e2b b63f
00000010: addb c63f 0ca7 cb3f 1e41 d83f 862d e63f
00000020: ecfe eb3f dfe5 df3f ee36 f33f 2c73 f33f
00000030: 3441 f73f ef06 f63f 57ce e13f 412d d83f
00000040: f017 db3f 368a d03f 6ac6 c43f be71 be3f
00000050: 1d1e a63f 4a8e a63f eb43 ab3f 40b5 ae3f
00000060: 3b0a 0abe 81e8 bf3f d746 d83e c1a4 4a41
1.3668298 1.4126129 1.5324944 1.4232042 1.553579 1.5910354 1.6894872 1.7982643
1.8437171 1.7492026 1.9001138 1.9019523 1.9316773 1.9220866 1.7641095 1.688881
1.711668 1.6292179 1.5373051 1.4878461 1.297794 1.3012173 1.3380102 1.3649063
-0.13480465 1.499283 0.42241547 12.665223

norm.running_var f4 [28]
00000000: 9a5b f13e 9f33 f43e 94bd 003f b9e4 043f
00000010: f267 0a3f 1d53 073f a7bb 0e3f 5c64 0a3f
00000020: 28e2 2e3f b24e 343f 7e75 1e3f fc07 123f
00000030: 434e 213f 1b02 163f 2ab0 213f f279 293f
00000040: 3b64 143f 120e 173f fe2a 093f c9d0 063f
00000050: 89f4 083f 703a fd3e 3bf6 f33e deb3 f13e
00000060: 3498 7e40 f884 963e 7475 d83c a676 5d42
0.471402 0.47695634 0.50289273 0.51911503 0.5406486 0.52861196 0.55755085 0.54059386
0.6831384 0.7043258 0.6189803 0.57043433 0.6301004 0.5859696 0.6315943 0.662017
0.5796544 0.59005845 0.53581226 0.5266233 0.5349813 0.49458647 0.47648796 0.4720754
3.9780397 0.29398322 0.026423194 55.365868

norm_a.weight f4 [2]
00000000: 145e d53f 6860 8c3f
1.6669335 1.0966921

norm_a.bias f4 [2]
00000000: 469d fb3b d498 3dbc
0.0076786606 -0.011572082

norm_a.running_mean f4 [2]
00000000: 2131 c6bb 6cf4 c03d
-0.006048337 0.0942162

norm_a.running_var f4 [2]
00000000: 2bd5 8e3e ae17 703e
0.2789701 0.23446533
