turtlebot3_ddpg/save_model_ddpg/2020_12_03-01_44_19/stage_3_2100_actor.pth (torch_old, 588798 bytes, 10 tensors)

fc1.weight f4 [512, 28]
000000 49 c5 a0 bd a7 0e b2 3d 12 fc 46 bd ae e9 83 bd
       -0.07850129 0.08694201 -0.048580237 -0.06441055
000010 08 ae 33 bd ec 4e eb bc 25 47 2c 3b f8 6f 14 3d
       -0.04386714 -0.028724156 0.0026287523 0.036239594
000020 3a b8 c5 3d b3 86 b7 3d 80 ba 06 bd 8f a1 c4 bd
       0.09654279 0.08961239 -0.032892704 -0.09601127
000030 68 ae cb bd 46 ac ff bd a9 0d 25 bd d4 fa ee bd
       -0.09945375 -0.124840304 -0.04029623 -0.116689354
000040 5c 44 a6 3d c9 7c 35 be 84 52 4f bd d6 08 cb bd
       0.08118507 -0.17723383 -0.050615802 -0.09913795
000050 a7 70 d4 bc f7 1e 1f 3e de 85 8a be 96 ef 2d be
       -0.025932623 0.15539156 -0.27055258 -0.16985926
000060 ef 41 c3 bd 49 02 17 be 76 de 97 bd e5 a8 08 3d
       -0.0953406 -0.14746965 -0.07415478 0.033364195
000070 72 20 30 be 4f c5 90 3b d7 0c 08 3e 95 db 21 bd
       -0.17199877 0.0044180523 0.13286148 -0.03951605
000080 4b e3 82 bc 30 08 a9 3e 50 dc e4 3d 2b 9d e8 3c
       -0.015977522 0.3301406 0.11174834 0.028395256
000090 58 cd d9 3d fd 48 ab 3d 0d de 09 be 17 34 b4 3d
       0.10634869 0.08363531 -0.13463612 0.08798998
0000a0 f4 fa 42 3c 5b bc 1c be a5 ef 63 bd 5f a8 36 3e
       0.011900652 -0.15306227 -0.055648465 0.17837666
0000b0 fd 7b 8d 3c ec 5b 33 3e 73 55 a3 3d c3 3c bd bd
       0.017271036 0.17515534 0.079752825 -0.09240105
0000c0 34 7a 8a 3d 55 f1 9f bd 8e 4b 8c 3d e9 72 8e bc
       0.0676159 -0.07809702 0.068503484 -0.017388778
0000d0 68 da 85 3e 99 2d 80 bc d5 2f a7 bd ad b9 87 bd
       0.26143193 -0.015646743 -0.0816342 -0.06627212
0000e0 ab 7d 3c be d6 8e c2 bb a5 18 05 3e af dc 7d 3e
       -0.18407314 -0.0059374375 0.12997682 0.24791215
0000f0 0d 27 af 3c 41 3c e9 bd c7 93 a7 bd 81 9c 1f be
       0.021380926 -0.11388446 -0.08182483 -0.15587045
000100 2d 53 06 3d ca 0e 95 ba fa bc 17 3c 85 7f 57 3d
       0.032794166 -0.0011372205 0.009261364 0.052611846
000110 4f ba b4 3d 82 16 9b 3d 9d 1f 02 bd fa 77 31 3e
       0.08824598 0.075726524 -0.03176843 0.17330924
000120 bc b3 dc 3d 83 52 d9 3b bc 64 23 3e f6 79 25 be
       0.10776469 0.0066321506 0.15956396 -0.16159806
000130 df bb 27 be 13 79 f5 bc 44 29 6c bd f0 2a 63 3d
       -0.16380261 -0.02996496 -0.05765654 0.05546087
000140 2b 5d 93 3e 39 03 1a 3c 98 dc 3f 3e cd 89 f5 3d
       0.2878202 0.009400182 0.18736494 0.11989174
000150 f4 b9 2b bd f1 f8 18 bd 74 8a b7 bd 78 f3 29 3e
       -0.041925386 -0.037346784 -0.08961955 0.16596782
000160 3c 78 c2 3d 28 e2 87 bd b9 7f 2d be a8 a7 16 be
       0.09495589 -0.06634933 -0.16943254 -0.14712393
000170 be a9 e2 bd cd 72 17 3e 3d 8e 5b 3e 14 eb 85 be
       -0.11067532 0.14789887 0.21440978 -0.26155913
000180 51 7a d6 bc 83 09 70 3e 4b 13 87 be 6d c7 23 3e
       -0.026181372 0.23441128 -0.26381907 0.15994044
000190 95 40 07 be 94 73 a5 3d b1 82 84 bd e7 d6 6b bb
       -0.1320823 0.080786854 -0.0647024 -0.0035986246
0001a0 9b ea 98 bd f9 cf e0 bc 00 7f 0c 3e 79 16 cb 3d
       -0.074666224 -0.02744292 0.13720322 0.09916396
0001b0 78 40 2f be d0 7c ee bb 5d b9 4e 3e f3 c8 cc bd
       -0.17114437 -0.0072780624 0.20187898 -0.099992655
0001c0 f2 42 4b 3c 6f ec 97 3c 4c a1 8b bd 0b 8c 5d bc
       0.012406098 0.018545358 -0.06817874 -0.013522158
0001d0 35 27 55 bd 70 03 4d 3e 12 9a 07 be 9b 5c 91 3b
       -0.052039344 0.20020843 -0.13242367 0.0044360883
0001e0 84 9a ae 3b 62 7e a3 bd e3 b9 b2 bd 65 36 e5 bc
       0.0053284783 -0.0798309 -0.08726861 -0.027980039
0001f0 82 7e c4 bd 9d 09 e3 bd 50 2d d3 3d 65 02 13 3d
       -0.09594442 -0.11085818 0.10311377 0.035890955
000200 d5 2e 07 be 60 02 06 bd 08 45 c3 3b 0c af 83 bc
       -0.13201459 -0.03271711 0.005959157 -0.01607468
000210 7e 3d 8a 3d 06 bb 2d 3e 85 5a ec bb 35 07 4a be
       0.0675001 0.16965875 -0.007212939 -0.19729312
000220 78 c1 8c 3e 48 79 60 3b c4 b9 b6 bd 11 db 8e 3d
       0.27491355 0.0034251977 -0.08922151 0.06975377
000230 a7 97 ac 3d 3a 40 01 be a7 48 ce 3d cc 59 c9 3d
       0.08427363 -0.12622157 0.10072451 0.098315805
000240 1e c8 76 3e 93 73 22 3e 6b 8e 10 3e e3 95 ec 3b
       0.24099776 0.158644 0.14116828 0.0072200163
000250 f8 e8 a4 3d ac 07 b3 bd d8 4a f2 bb ac ea 14 3e
       0.08052248 -0.08741698 -0.007394176 0.14542645
000260 00 e1 9b 3c ac 51 ff ba 85 0b 47 3d dd 39 22 3e
       0.019028187 -0.0019479296 0.04859497 0.15842386
000270 95 e6 c7 bc f8 0b df 3d 2e f2 24 3e b5 cb f1 bd
       -0.024401942 0.10890955 0.16108009 -0.11806432
000280 2b fe 37 3d 95 31 63 bc 7e 01 7f be ff 57 8e be
       0.044920128 -0.013866802 -0.24902913 -0.2780151
000290 b7 ad b5 3d 44 01 18 bd d7 e2 04 bf cf e3 c7 3d
       0.08871024 -0.037110582 -0.5190863 0.09760248
0002a0 8e c8 03 3c cf 56 6a 3c ed ce fd 3c d6 6d e7 3d
       0.008043421 0.014302923 0.030982459 0.113002464
0002b0 fc 24 8f be dd 6f 8d 3d bd de 0b 3e e9 c7 a0 3c
       -0.27957904 0.06906102 0.13659187 0.019626575
0002c0 05 87 01 3e 7d 79 8c bd ef 6c 39 3e f8 4f ac 3d
       0.12649162 -0.068591096 0.18107961 0.0841369
0002d0 8e d0 9e bd 3b 7a 87 3e e8 99 18 3d 89 f0 04 be
       -0.077546224 0.26460442 0.03725615 -0.12982382
0002e0 45 fc f3 bd e7 fd a7 bb 03 fc 8d 3d 04 1a 06 be
       -0.11913351 -0.005126703 0.06932833 -0.13095862
0002f0 d5 b0 ff 3d cd 76 e9 3d 02 2d 32 bd 50 cd f2 3c
       0.124849 0.113996126 -0.043499954 0.029638916
000300 a2 2e 23 3c d1 07 13 be 41 82 93 3d 6e 6f 29 3e
       0.009959849 -0.1435845 0.07202578 0.16546413
000310 59 6f de 3d de 66 f5 3c 1c a1 c7 3c 19 38 87 bd
       0.10861082 0.029956277 0.024368815 -0.06602497
000320 19 18 9c bc 71 ec f4 3d ce ce 69 3e ee 5f 08 be
       -0.01905446 0.1195916 0.22832796 -0.13317844
000330 b5 50 0b 3e 28 22 19 bb 70 d3 a7 bb 0e 5a fd 3d
       0.13605006 -0.0023366306 -0.005121641 0.12370692
000340 62 4b b9 3d 52 f0 d3 3d fe 70 0d 3d 94 3e b7 bd
       0.09047581 0.10348572 0.034531586 -0.08947483
000350 9f 9a b7 bd 0c 25 e2 bb f8 4e 91 bc 20 4f ac 3d
       -0.089650385 -0.006901389 -0.01773785 0.084135294
000360 81 a3 41 bd 41 f4 08 bd 69 7c b4 3d c3 6b 26 bd
       -0.04727507 -0.033436064 0.08812792 -0.040630113
000370 25 5e 10 3d c5 2e aa 3c a8 09 b8 3c fb df 34 bd
       0.035246033 0.020774255 0.022465542 -0.044158917
000380 8c 3c 16 3e 09 8f 8c bd 28 6c d9 bd fe 9d 94 bd
       0.14671534 -0.06863219 -0.10616332 -0.07256697
000390 32 9d 27 3d 50 3c 66 3d f9 8b af bd d4 62 f3 bd
       0.040921398 0.056209862 -0.085716195 -0.11884084
0003a0 4f 40 a8 bc 7c 86 06 3c 62 fb 22 3e 4e 08 cc 3c
       -0.020538477 0.0082107745 0.15916207 0.024906304
0003b0 00 09 8d bd bf db ca 3d 37 b9 91 bd e9 88 08 bb
       -0.06886482 0.099051945 -0.07115405 -0.0020833558
0003c0 5a e5 b2 bc c5 f5 d6 bd ed 41 44 3e a4 5f f8 bd
       -0.021837879 -0.104960956 0.19165774 -0.12127617
0003d0 0e 42 75 be fc 9f 83 be a4 98 89 3c 68 95 f8 3d
       -0.23950979 -0.25707996 0.016796418 0.12137872
0003e0 d1 6d 31 3d f0 86 08 be 46 4e fb bd 18 84 1a 3e
       0.04331762 -0.13332725 -0.12270789 0.15089452
0003f0 b6 68 e7 bd e9 89 9e 3c a6 a6 b2 ba 87 27 79 3e
       -0.11299269 0.01935287 -0.0013629987 0.24331485

fc1.bias f4 [512]
000000 9b e3 67 be ff f8 1a bd d9 3b 22 be 91 b5 32 be
       -0.22645418 -0.037835117 -0.15843143 -0.17452075
000010 9b 0f 8a be 31 57 bc be 27 2f 8b be b8 7c 0a bb
       -0.2696503 -0.36785272 -0.27184412 -0.0021131467
000020 3f 3e af bd 04 81 98 be cc 69 99 be 5e 7d 85 be
       -0.085567944 -0.2978593 -0.2996353 -0.2607221
000030 18 b1 3f bc f9 b6 76 be a6 30 5a 3e 65 cf 6b be
       -0.011699937 -0.24093236 0.2130762 -0.23028333
000040 ee 27 71 bd 16 a1 96 bd a5 1b ea be 96 de a7 bd
       -0.05887597 -0.073549435 -0.45724216 -0.08196752
000050 e5 5e 20 3e 0e f0 3e 3d b8 69 58 be d9 47 4d be
       0.156612 0.046615653 -0.21134079 -0.20046939
000060 c8 46 04 3e f7 6d 94 3e 07 2e 01 bd 43 d0 01 be
       0.12917626 0.28990147 -0.031538036 -0.12677102
000070 50 1a 88 3c 34 42 3b 3e 6b 15 1d be 01 b3 3c 3e
       0.01661411 0.18286973 -0.15340202 0.1842766
000080 50 d7 12 be fc f4 9e bd f4 0c 89 be 13 5d 8c be
       -0.14339948 -0.07761571 -0.26767695 -0.2741476
000090 e6 98 61 be 75 6b 07 bd 4a 42 5e be b7 5f 08 bc
       -0.22030982 -0.033061463 -0.21704975 -0.008323601
0000a0 fc 37 e6 bd b3 be 02 3e e4 34 0d be 10 4b b9 be
       -0.11241147 0.12768058 -0.13789707 -0.3619008
0000b0 a4 67 16 be 49 69 48 be 34 7a 6f be 9a 8a 81 be
       -0.14687973 -0.19571413 -0.2338646 -0.25301057
0000c0 fc a0 f4 3d d2 b9 66 be 1b 05 1c be 0c 77 a5 be
       0.11944768 -0.22531822 -0.15236323 -0.32317388
0000d0 25 e5 84 bd ff 9a 46 be e9 7d 5a be a8 43 52 be
       -0.06489018 -0.19395064 -0.21337093 -0.20533621
0000e0 dc 02 ee 3d f1 9b 79 be e5 3f 6d be 98 be c5 be
       0.11621639 -0.24375893 -0.23168905 -0.38621974
0000f0 25 04 f7 bd 64 b4 8a bd e8 8d dc bc 9a 2b 54 be
       -0.120613374 -0.06772688 -0.026923135 -0.20719758
000100 85 b4 97 be 1e 19 34 be e4 6b 84 be c8 23 13 be
       -0.29629913 -0.17587706 -0.25863564 -0.14369118
000110 8a 47 3a 3e 94 0b 9c 3d 7b 2f 0c be 0e e0 c9 bc
       0.18191352 0.07619396 -0.13689987 -0.02464297
000120 d6 ea 20 bc df ab 98 be eb 16 13 be 9f 2b 28 bd
       -0.009821614 -0.29818627 -0.14364211 -0.041057225
000130 06 56 cb bd 46 91 30 be cb f4 27 be 18 bd ec bd
       -0.09928517 -0.17242917 -0.16401975 -0.11559504
000140 7b 77 a5 be c7 27 28 be cb 20 40 be 3d 80 45 3e
       -0.3231772 -0.16421424 -0.1876251 0.192872
000150 8c 13 a2 be a4 5e 16 bd 66 1f 64 be 09 49 24 be
       -0.31655538 -0.03671135 -0.22277603 -0.16043486
000160 62 3c 14 be 8c bf 89 be 53 b3 1a be 18 05 f9 3d
       -0.14476159 -0.2690395 -0.1510747 0.12159175
000170 d6 ff 94 3c ec 6a f1 bd 4e 27 d3 bc c6 fa dc be
       0.018188398 -0.11787972 -0.025775578 -0.43160075
000180 16 da 54 bd 99 fa b4 bd 90 f7 9e be 47 44 b9 be
       -0.051965795 -0.0883686 -0.3104825 -0.36184904
000190 80 89 e2 3b 31 17 d3 bd 67 72 2c be d6 9b 82 be
       0.006913364 -0.10307158 -0.16840516 -0.25509518
0001a0 6b 81 54 be 33 0a 20 3e 5f 03 62 be 57 56 1c be
       -0.20752494 0.1562889 -0.22071598 -0.15267311
0001b0 c5 21 ed bd 73 f4 8e be 4e 24 9d be be 83 c2 be
       -0.11578707 -0.27920875 -0.3069176 -0.37991136
0001c0 e9 e7 4e bd eb 7f c2 bd 42 0a ed 3c e6 5e fc bd
       -0.050514136 -0.09497055 0.028935555 -0.12322788
0001d0 d5 35 82 3e 3a f0 88 be cf a0 15 bb f2 e4 b1 3c
       0.25431696 -0.26745778 -0.0022831445 0.021715615
0001e0 5c cc 5a be f9 a9 00 3d 48 32 7c bd d5 2a 68 be
       -0.2136702 0.0314121 -0.06157139 -0.22672589
0001f0 40 30 10 3e 3a 8d 25 3d e6 52 80 be d0 2c c1 3e
       0.14080906 0.040417887 -0.25063246 0.37729502
000200 2d d6 2c bd a9 c5 aa 3c 81 7c b8 be 0a 0e dd 3c
       -0.04219644 0.020846205 -0.3603249 0.026984233
000210 7a 18 69 be 08 4b 85 3d d8 59 cc bd c6 74 70 be
       -0.22763243 0.06508452 -0.09978074 -0.23482046
000220 8e 16 13 3e f4 81 74 be 30 72 b6 bd 7e bf f4 bc
       0.14364073 -0.23877698 -0.08908498 -0.029876467
000230 9a c0 24 bd 5d 11 85 be f9 33 4e be 92 38 91 be
       -0.04022274 -0.2598981 -0.20137013 -0.28363472
000240 28 3a 63 be ee fd 9c bd e2 97 64 be 9f d2 bf be
       -0.22190154 -0.07665621 -0.22323564 -0.3746538
000250 cf ea 56 be 14 e7 af be d8 d1 2e be 43 2e 0b 3d
       -0.2098801 -0.34355986 -0.17072237 0.033979665
000260 ad 58 b7 bd 45 00 25 be 5f 27 41 be fa b3 a2 be
       -0.089524604 -0.16113384 -0.18862675 -0.31777936
000270 aa 03 d7 bc ca 31 0d be 96 e8 5e be 56 ac 50 be
       -0.026246864 -0.13788524 -0.21768412 -0.20378241
000280 b8 d4 92 be 03 04 0f be e7 a1 ad be 2d 55 43 be
       -0.28677917 -0.13966374 -0.33912584 -0.1907546
000290 f8 48 64 bd 14 6c 74 be 2a b3 15 be 76 1e 3b bd
       -0.05573365 -0.23869354 -0.14619127 -0.045683347
0002a0 7e 87 99 3c 49 b8 9d bd b0 49 a8 be 42 bc a8 bd
       0.018741366 -0.07701165 -0.3286872 -0.08239032
0002b0 c6 c6 2e be 5b 50 0e bf 1d b8 1d be 3f 6b 13 3d
       -0.17068014 -0.5559136 -0.15402265 0.03599095
0002c0 a7 fc ff 3d 07 99 22 be 2d 60 89 be 21 b8 64 3e
       0.124993615 -0.15878688 -0.2683119 0.22335865
0002d0 26 40 39 be 9f 94 51 be f4 7d 49 be 3e 82 30 3e
       -0.18090877 -0.2046685 -0.19676954 0.17237183
0002e0 69 6c e6 be f5 5f 0f 3d e9 7a 17 be 20 60 98 3e
       -0.45004585 0.03500362 -0.1479298 0.29760838
0002f0 e2 0c d6 be 53 72 1e be a4 42 31 bc 5a 1b 8b be
       -0.41806704 -0.15473299 -0.010819111 -0.27169305
000300 97 53 7d be ea 53 7a be ec 13 11 be 22 ba 90 be
       -0.24738918 -0.24446073 -0.14167756 -0.28267008
000310 a1 fa 03 bd 54 f9 5e be 47 33 ab be 36 5d 9f be
       -0.03222144 -0.21774799 -0.3343756 -0.31125802
000320 72 38 5a be 85 76 a5 be 15 64 20 be 2d c7 4a be
       -0.21310595 -0.32316986 -0.15663178 -0.19802542
000330 60 cc 6f be 53 8d 96 be 98 e1 22 be 04 34 c1 be
       -0.23417807 -0.29404697 -0.1590637 -0.37734997
000340 45 55 20 be 99 37 30 be 82 36 c4 be b8 12 f0 3d
       -0.15657528 -0.17208709 -0.38322836 0.1172232
000350 4a 52 49 3e 4c 0f 8a be 42 72 d2 be ed 7a e8 be
       0.19660297 -0.26964796 -0.41102797 -0.45406285
000360 05 24 59 3e ad c9 22 be b2 b6 d9 be 16 2d 83 be
       0.21205147 -0.15897246 -0.42522198 -0.25620335
000370 c2 21 a6 3d 5b 7e c9 bd 82 1c 1c 3d 10 8e 75 be
       0.081119075 -0.098385535 0.038113125 -0.23979974
000380 f8 87 89 be 90 c1 78 be 5d 9b 50 be 82 a2 b8 bd
       -0.26861548 -0.24292588 -0.20371766 -0.09015371
000390 bf 9f 32 be 96 05 f2 bc bf c5 25 be 95 ed 13 be
       -0.17443751 -0.02954368 -0.16188715 -0.14446099
0003a0 fc 8e 98 be 13 29 31 3e 44 bf 12 bd 70 9a b8 3d
       -0.29796588 0.17300825 -0.035826936 0.090138316
0003b0 e1 98 b3 be 84 a3 dd bd f1 c1 22 be 72 49 a5 be
       -0.35077575 -0.10822204 -0.15894295 -0.32282597
0003c0 5a be 69 be 50 e3 ec 3d 89 25 2f bc b7 ad 1a bd
       -0.2282652 0.11566794 -0.010690101 -0.037763324
0003d0 ea 67 55 3e 45 d1 a7 be be a9 56 3c a2 8d 30 be
       0.20840421 -0.32776847 0.013101993 -0.17241529
0003e0 86 41 3f 3d 24 21 1b be ee dc 84 be 3d 2c 98 be
       0.046693347 -0.15149361 -0.25949806 -0.2972125
0003f0 95 17 62 be 9a bd bd be ba 99 eb bd 10 f6 24 bd
       -0.22079308 -0.37058717 -0.115039304 -0.040273726

fc2.weight f4 [256, 512]
000000 5c c6 05 3d 59 65 d2 bc fd 32 0d 3d bb 29 2d bd
       0.032659873 -0.025683092 0.034472454 -0.042276125
000010 74 97 72 bb 5f fa 51 bd 50 fe d5 bb 56 0d 53 bb
       -0.0037016543 -0.051264163 -0.0065305606 -0.0032203994
000020 24 52 22 bd 7f 6e 58 bd 84 11 bd 3c d6 54 81 bc
       -0.039629117 -0.052839752 0.023079641 -0.015787523
000030 86 27 86 bc 12 53 20 3c 06 b2 c6 3c 1e 7d 63 bc
       -0.016376268 0.0097854305 0.02425481 -0.013884811
000040 ba 91 87 bd 77 22 80 bc e2 75 77 bb 5f 93 1d 3c
       -0.06619592 -0.015641434 -0.0037759473 0.009617656
000050 21 54 35 bd d8 44 e4 bc 34 7c 9f bc 46 82 61 bd
       -0.044269685 -0.027864859 -0.019468404 -0.05505588
000060 5c 1f f0 3b 5c 0d 98 ba c1 3d a9 bc aa e7 c2 3b
       0.007327957 -0.0011600661 -0.02065933 0.0059480267
000070 b6 ef 48 bd bb e0 f6 bc 85 46 ee bc 57 f1 09 3d
       -0.04905673 -0.030136457 -0.02908636 0.033677425
000080 9c c8 b6 3c 6f 92 6a 3c 06 1f ae bc 60 64 af bc
       0.022312455 0.014317139 -0.021255028 -0.021410167
000090 24 f9 a7 bc 6e b7 25 3c ab b6 74 bd b1 e7 14 3c
       -0.020504542 0.010114534 -0.05974452 0.009088443
0000a0 ec 65 9f 3b f5 c3 b5 bc 8d f6 07 bc ae 73 16 bd
       0.004864445 -0.022188166 -0.008298528 -0.036731414
0000b0 ac 5b 2d bd 9b 91 03 bd 71 e5 64 bc 7d ea a1 bb
       -0.042323753 -0.032121282 -0.013970719 -0.0049412833
0000c0 b8 3c 03 3c b6 e3 f9 bc c2 15 e3 bc ac cc 0a bc
       0.008010082 -0.030504089 -0.027720336 -0.008471649
0000d0 e7 a2 4a bd d2 b4 a8 bd c2 88 f7 bc 44 53 31 3d
       -0.049471762 -0.08237614 -0.030216578 0.0432923
0000e0 32 40 b1 bc b6 2b 6e 3c 7b 99 20 bd 57 4c ad 3c
       -0.021637056 0.014536789 -0.03920887 0.021154566
0000f0 64 0e 32 bd d1 19 b9 3b 4f af 17 bd 8f 40 14 bc
       -0.043470755 0.0056488295 -0.03703242 -0.009048595
000100 06 19 66 bd d5 82 6b 3c 9c 21 e4 bb f6 3e b3 3c
       -0.056176208 0.0143744545 -0.0069620144 0.021880608
000110 85 2b 31 3c 1c 6b 0d bd 2f 44 b5 b7 b2 d5 89 3c
       0.0108135985 -0.034525976 -2.1608632e-05 0.01682553
000120 02 f6 74 bd e0 de 42 3c 29 89 6d bd d0 b2 7d bd
       -0.059804924 0.011893958 -0.057992134 -0.061938107
000130 59 f6 0c 3d 45 72 63 bc a8 fb 30 3b cb 38 8c bd
       0.034414623 -0.013882224 0.0027005468 -0.0684677
000140 fb fe 38 3d c4 e0 6d ba 54 99 1f bc b3 16 b6 ba
       0.045165043 -0.0009074325 -0.009741146 -0.0013892263
000150 42 08 1a bd 54 1c 19 3d 10 a8 14 bc 7e 8f 19 bd
       -0.03760553 0.03738053 -0.009073272 -0.03749036
000160 1c be 23 bd 0e ae 0a bd 5e af 05 bd 5c 74 83 bc
       -0.039976224 -0.033857398 -0.032637946 -0.016046695
000170 35 f4 3e 3c 23 a3 55 bc d3 1a b2 3c 43 d9 1d b8
       0.011654903 -0.013039383 0.021741306 -3.7634058e-05
000180 58 62 33 bd e4 f6 a6 3c 81 8b 15 bd 9b a2 cd 3c
       -0.04379496 0.020381398 -0.036509994 0.02510195
000190 f4 a8 07 3d b8 6b 63 bd 60 74 a3 bc f3 ef d0 bc
       0.03312011 -0.05552265 -0.019952953 -0.025505042
0001a0 22 fb d8 bb 76 2e 2d 3c a4 e6 09 bd 3a 93 85 bd
       -0.0066217342 0.010570159 -0.03366722 -0.06522222
0001b0 ee 1a 07 bd f8 3b d6 bb ab b5 d2 b9 ea a7 b2 bc
       -0.032984667 -0.0065379106 -0.00040189674 -0.021808583
0001c0 e7 47 12 bd 09 14 ed 3c 2b a3 e2 bc f3 f9 15 3c
       -0.035713103 0.028940218 -0.027665695 0.009153831
0001d0 f5 a5 e1 bb 90 ff 1c bc 6c 29 70 bd d0 39 9e bc
       -0.0068862387 -0.009582415 -0.058633253 -0.019314677
0001e0 c5 7b ad ba 38 8d 2e bb 3e d5 32 bd 2c d4 5d bb
       -0.0013235739 -0.0026634466 -0.043660395 -0.0033848388
0001f0 c8 fb 6a 3a 3f 17 1b bd 22 bb 4f 39 d6 6f f5 bb
       0.000896391 -0.037863966 0.00019810771 -0.0074901385
000200 fa 4a 7e 3c 06 67 45 bd cf 95 8b 3c 9a 61 dc bc
       0.0155208055 -0.048193954 0.017039208 -0.026902009
000210 7f d8 da bc ea 1c 35 bd f9 e1 53 bd 1d 63 d7 3c
       -0.026714562 -0.044217028 -0.051729176 0.026292378
000220 d4 cb 13 bc 54 f0 26 3c 44 bd 19 bd b7 08 81 3c
       -0.009020764 0.010189135 -0.037534013 0.015751226
000230 aa 66 16 3d 0a 3a 94 bc f9 d8 70 bd d8 73 52 bd
       0.036719 -0.018094081 -0.05880067 -0.05138001
000240 c8 6f ed bc 12 2f 83 bc 16 83 08 3d 0f d7 39 39
       -0.028983966 -0.016013656 0.03332814 0.0001772309
000250 22 ea e0 3b 2c 9a 44 3b cd 9d 05 bc 3b 8a c8 bb
       0.0068638483 0.002999912 -0.008155298 -0.006119994
000260 a2 74 07 bc 47 cc 55 bc ea 8f 1d bd a4 14 a6 3c
       -0.0082675535 -0.013049192 -0.038467325 0.020273514
000270 b9 32 f3 bc d7 55 28 3c b3 ec 81 bc 30 bc e9 3c
       -0.029687272 0.010274372 -0.015859937 0.028532118
000280 53 08 6a bc b5 d5 66 bb 95 90 95 bc 00 db 2d bc
       -0.014284211 -0.0035222594 -0.018257419 -0.010611296
000290 9d 19 fd bc ab 1d 98 bd 4c 08 19 bd 0c 3a 45 bc
       -0.030896002 -0.07427534 -0.03736143 -0.012037765
0002a0 fe d1 0c bd 72 68 86 bc 28 f2 9f bc 15 39 4c bd
       -0.03437995 -0.016407225 -0.019524649 -0.049859125
0002b0 9a ee 16 3c 2d 27 2a bc d1 5d e2 bc eb a5 59 3c
       0.0092121605 -0.010385317 -0.027632626 0.013284187
0002c0 9a d7 ae 3c c9 e3 8c bb b1 3f 03 bd ad f3 1e 3b
       0.021343041 -0.004299615 -0.032043163 0.0024254129
0002d0 44 4e 6c 3c 58 31 22 bb 64 bf 1c bd 64 47 d7 bc
       0.014422957 -0.002474865 -0.03826846 -0.026279159
0002e0 8d a7 c8 3c 35 82 0d bd 4e 1c 04 bd 81 d8 06 bc
       0.024493957 -0.034548003 -0.032253556 -0.0082303295
0002f0 3d c6 fc 3c e0 ce 3d bd e6 d3 1c 3c 73 a1 d2 bc
       0.030856246 -0.04633987 0.009572005 -0.02571175
000300 da 7d 48 bd 03 1c b2 3c f8 c6 63 bd 36 5d 2a bd
       -0.048948146 0.021741873 -0.055609673 -0.0415928
000310 46 2a d9 bc 7a 7c a9 bb d2 03 65 bc 23 35 34 bd
       -0.026509415 -0.0051723095 -0.013977962 -0.043995988
000320 d0 2a 18 3d ac 44 0c 3d d6 f0 de bc 28 c3 68 bd
       0.037150204 0.034245178 -0.027214449 -0.05682674
000330 31 60 a3 3b 58 a8 d8 3c 8a 10 83 bd de d7 ff 3c
       0.004985832 0.02644746 -0.06399639 0.031230863
000340 1e 70 12 3c 92 0f 44 bd 27 cd de 3c 62 10 96 bb
       0.008937864 -0.04786641 0.027197434 -0.0045795897
000350 0b 8b 09 bc 96 e4 af 3c dc 77 a8 3c 1f d9 28 bd
       -0.008394967 0.021471303 0.020564966 -0.041222688
000360 16 6f de 3a 3f 69 fb 3c c0 81 23 3d e4 9e 2a bd
       0.0016970362 0.030689834 0.03991866 -0.041655436
000370 8c a5 cd 3c 58 6f 1e 3d 96 29 96 bc e9 29 1b bd
       0.025103353 0.038680404 -0.018330377 -0.037881766
000380 66 c6 be bd e7 15 d3 3c 65 df d3 3c e1 8d eb 3b
       -0.09315185 0.02576728 0.025863359 0.007188544
000390 a3 60 81 bd 4c be 08 3a 30 50 04 3d 25 30 44 bd
       -0.0631726 0.0005216345 0.032303035 -0.047897477
0003a0 ca 2c 16 3b 1c 1c ca 3c 8f ab 5b bd 70 c0 1b bb
       0.002291488 0.024671607 -0.053630408 -0.0023765825
0003b0 5d 43 30 3d a9 47 bf 3c 37 97 90 bc c0 4f 71 3c
       0.043032993 0.0233496 -0.01765023 0.014728487
0003c0 fc 73 da bc be 05 34 3c 37 58 09 3c 8e d4 c8 bc
       -0.026666634 0.010987697 0.008382848 -0.024515416
0003d0 85 45 04 3d 87 b9 58 bd 8b 3b 63 bb b3 19 0d bd
       0.03229286 -0.052911308 -0.0034672942 -0.034448337
0003e0 73 bd 60 bb 9b 5b 87 bc 1e b9 b7 3c a7 9b 40 bd
       -0.0034292608 -0.016523173 0.022427138 -0.04702344
0003f0 5d 03 16 bb 03 0a 54 3c ec 02 62 bd b7 2f 01 bd
       -0.0022890188 0.01294184 -0.055178568 -0.031539645

fc2.bias f4 [256]
000000 71 eb 7d bc 79 fa f0 3c 37 e4 0b 3e 91 df 09 3d
       -0.015498028 0.02941631 0.13661276 0.033660475
000010 db 06 b9 3c e6 4f a9 3d 31 83 f4 bc 61 9b 4a 3e
       0.022586277 0.082671925 -0.029847713 0.19785835
000020 6b bd e8 3d 2a 39 00 bd ab 56 15 bd 50 9d 07 3d
       0.113642536 -0.031304516 -0.036459606 0.03310901
000030 78 b0 7e bc 4c b6 cd bc 67 a0 2c 3d d9 bb 82 3c
       -0.015545003 -0.02511134 0.04214516 0.015958713
000040 64 ec ac 3d 23 60 19 3c 2b d8 a8 3c 07 19 09 be
       0.084435254 0.0093613 0.02061089 -0.13388453
000050 91 b4 22 be ad 29 95 3d 47 ee 0d 3e 91 01 2c 3d
       -0.15889193 0.0728334 0.13860427 0.04199368
000060 1e d4 43 be 97 18 2f 3e 13 f4 76 be df b4 8f 3d
       -0.19123885 0.17099224 -0.24116544 0.0701692
000070 a4 71 c8 3d 48 79 76 3d 4d 73 63 be 0b b5 ec 3d
       0.097873 0.060174257 -0.22211953 0.11557969
000080 73 56 9d 3d b4 87 e4 3d 37 4f d8 bd f8 c5 26 3e
       0.076825045 0.11158696 -0.10561984 0.16286457
000090 cd 8d 47 3e f7 73 01 3e 97 82 c2 bc 6f d8 05 3e
       0.19487686 0.12641893 -0.02374391 0.13070844
0000a0 f9 b9 8d 3e f1 3c 1e be 11 55 92 bd d3 86 49 3c
       0.27680948 -0.15452935 -0.071451314 0.012300211
0000b0 f0 34 da 3d ee a2 2d bd 68 5f 78 3d 86 ff 3d 3e
       0.10654628 -0.04239171 0.06063786 0.18554506
0000c0 b2 29 69 3d 72 7e c3 3d be f9 0e bd 17 6f 65 bd
       0.05692453 0.09545602 -0.03490614 -0.056014147
0000d0 92 e3 2f bd 86 19 d5 3d 58 28 6c bd 51 63 28 bd
       -0.042941637 0.10405259 -0.057655662 -0.04111034
0000e0 ce 54 1a be 14 63 e6 3d c3 1b 2b 3d 41 e7 1b 3e
       -0.15071413 0.112493664 0.041774523 0.15224935
0000f0 78 ef 9c 3d 44 86 92 3d 06 c8 db ba 70 9f 25 bc
       0.076628625 0.071545154 -0.0016767986 -0.010108814
000100 bf 5b dc 3c 98 eb 77 3d 90 3a 03 3e 80 2f 66 3d
       0.026899217 0.060527414 0.12815309 0.056197643
000110 2f 94 e1 3c 2c 58 57 3e 09 77 09 3e cd a4 e1 3d
       0.02753648 0.21029729 0.13424315 0.110177614
000120 b9 0c c4 3d 7f ff 6a 3d 0f 86 82 3c 00 e2 11 be
       0.09572739 0.057372566 0.015933065 -0.14246368
000130 ca 87 6a 3e da 2b 48 3e a8 7d 1c 3d fe 10 64 bd
       0.22903362 0.19547978 0.038205773 -0.055680268
000140 d2 66 3e 3d 39 a9 4c 3d d4 20 5c 3e 6e a7 54 3c
       0.046484776 0.04996607 0.21496898 0.0129793715
000150 45 bc 2a be 72 6f a6 3d 2b 7e b6 3b 68 e4 40 3e
       -0.16673382 0.08126725 0.0055692396 0.1883713
000160 ec 2b 4d 3d 55 00 fe bd 1e 7f 4c 3e a7 e9 98 bc
       0.050090715 -0.12402407 0.19970366 -0.018666102
000170 63 db 01 3e ad 6a aa bd c8 d7 38 be 11 30 73 bd
       0.12681346 -0.08321128 -0.18051064 -0.05937201
000180 85 0d 5f 3d 33 a8 28 3d 0c e5 15 be 7f 16 c7 3d
       0.054456253 0.041176032 -0.14638156 0.09721088
000190 85 c6 b7 3d f3 f2 5b 3e 17 51 ab 3a 27 20 11 3e
       0.089734115 0.21479397 0.0013070431 0.14172421
0001a0 2c c8 77 3e 72 fb 16 3e 9b eb 2c 3e b6 d6 86 bd
       0.24197453 0.14744356 0.16886751 -0.065839216
0001b0 e4 63 8f bc 69 4a 5c bc c9 29 fb 3d 10 15 14 3e
       -0.017503686 -0.013445475 0.12263829 0.1446116
0001c0 38 0b bf bc a3 e8 1d bc 1c ae 76 3d 67 9b e9 3d
       -0.02332078 -0.009637984 0.060224637 0.11406594
0001d0 73 58 53 ba b9 9d 50 3e 97 83 c1 3d 98 78 8a bc
       -0.0008062191 0.20372666 0.09448927 -0.016903207
0001e0 9a ef b5 3d 78 85 32 3d 27 5f 6b bd 60 ed 91 bd
       0.08883591 0.043584317 -0.05746379 -0.07125354
0001f0 68 8a 9a 3c f3 a8 a0 3d 3b 81 ca 3d 82 64 65 3d
       0.018864825 0.078447245 0.0988793 0.056004055
000200 78 e4 4f 3e 94 e6 c7 bc ae c6 14 3e 9e a9 e7 3c
       0.20301998 -0.02440194 0.14528915 0.028279122
000210 be 0f 6d 3d 16 da 45 3e 77 bd 42 3e 86 00 7e 3e
       0.05787634 0.19321474 0.19017588 0.24804887
000220 d1 9f 2a 3e 02 cf c3 bb af 70 cf 3d e8 bd a8 3d
       0.16662528 -0.005975605 0.101289146 0.08239347
000230 7d 75 ea 3c 6b e8 27 3d e6 15 ae bc 80 10 25 bd
       0.028620476 0.040993135 -0.021250676 -0.04029894
000240 03 8f 8d 3e f2 a5 f7 3d b0 aa 96 bc 18 f4 64 3e
       0.27648172 0.120921984 -0.018391937 0.2235874
000250 aa 28 5b 3d 32 d8 c4 3d 96 2f a0 bd 19 d9 0d 3e
       0.053505577 0.096115485 -0.07821576 0.13852347
000260 a9 05 21 3e 11 18 52 be 73 41 8f bd 80 b3 db 3b
       0.15724815 -0.20516993 -0.06994905 0.0067047477
000270 5a 7f 58 be b3 54 0f bd b8 32 85 3d c0 36 94 3e
       -0.21142331 -0.034992885 0.065038145 0.2894802
000280 ee 16 30 3e af e7 31 3e 73 56 68 3d d1 de ef 3c
       0.17196247 0.17373537 0.05672307 0.029281052
000290 0c 4a eb bc 7c b8 60 3e a0 11 23 3e 17 8a aa 3d
       -0.028721832 0.21945375 0.15924692 0.0832712
0002a0 03 74 03 bc e2 4f 91 3d 7e 76 46 3d b0 6d 9e 3c
       -0.008023265 0.070953146 0.048452847 0.019339412
0002b0 40 81 f4 3d 6f 5c 00 3e b3 3e 44 3d 58 65 02 3e
       0.11938715 0.1253526 0.047911357 0.12733972
0002c0 6b 8d ba 3d 5a 69 0c 3e 0c eb 16 3e ee 7f 16 3b
       0.091090046 0.13712063 0.14738101 0.0022964436
0002d0 2e 58 24 3d 62 e2 91 3d a0 af d5 bc a4 fb 2c 3d
       0.040123157 0.07123257 -0.026084721 0.04223217
0002e0 d9 de 07 be 10 b9 ee 3d 14 85 9f bd d1 7a 3c 3e
       -0.13268603 0.116563916 -0.077890545 0.18406226
0002f0 b7 56 70 3e 13 ed 05 bc d9 a1 26 be 53 2f 8c 3d
       0.23470579 -0.008174199 -0.16272677 0.06844964
000300 b7 54 d7 3d d0 13 20 bd f3 63 9f 3d 9d 82 57 3b
       0.10514205 -0.039081395 0.07782736 0.0032884248
000310 c0 98 62 be b8 4c 35 bd 3f f5 5a 3d 09 a9 c5 bc
       -0.22128582 -0.044262618 0.05345654 -0.024128454
000320 c9 21 e7 3d da 3f 60 bd 20 9e ef 3c 89 0e ab bd
       0.11285741 -0.054748394 0.029250205 -0.08352382
000330 15 b1 86 3e b7 23 cb 3d 32 d1 04 bd 8d c7 47 3d
       0.26306978 0.099189214 -0.032426067 0.04877429
000340 de 25 80 bd 86 54 5c 3e 36 5e cd 3d a1 a6 98 3c
       -0.062572226 0.21516618 0.10027735 0.018634142
000350 4f a3 3a bd c8 d3 5d 3d 73 44 5f 3d 6e 0b f0 3c
       -0.0455659 0.05415705 0.054508638 0.029302325
000360 23 d0 e4 3d b1 09 6a 3e 11 71 a0 bc bd 4b 7c 3c
       0.111725114 0.2285526 -0.019585164 0.015398917
000370 10 44 13 3d 34 a2 3d bc 7c 2e 85 3d b2 88 5d 3e
       0.03595358 -0.011574317 0.06503007 0.21634176
000380 fd 0b 4b be 40 a3 ba 3d 8b 63 b6 3d d3 fe 01 3e
       -0.19828792 0.09113169 0.08905705 0.12694864
000390 da db b5 3d ec e8 88 3e e0 4d 2f 3d ab 26 7e bb
       0.08879824 0.26740205 0.042798877 -0.0038780372
0003a0 56 94 55 3d 45 b8 66 be af b8 d7 bc 9c 99 b9 3b
       0.052143417 -0.22531231 -0.026333181 0.0056640636
0003b0 d3 66 2a bd f1 d9 55 bd 32 10 64 3e b0 d2 07 be
       -0.041601967 -0.0522098 0.22271803 -0.13263965
0003c0 e1 42 c1 3d 8b de a9 bd 3b 28 20 3e bc 5b 60 3c
       0.09436584 -0.082944 0.15640347 0.013693746
0003d0 de 6c 23 3d b9 b1 6e 3d da 9f 1b 3e db 03 57 3e
       0.039898746 0.05827496 0.15197697 0.20997564
0003e0 1c 96 b4 3d 64 87 dd ba 0c 75 c1 3d c5 b0 93 3e
       0.088176936 -0.0016901311 0.09446153 0.28845802
0003f0 52 6a 4c be cd e1 1c 3e fe 57 64 3d 94 d6 26 3d
       -0.19962433 0.15320511 0.05574798 0.04073198

fc3.weight f4 [2, 256]
000000 45 4a a7 3d 4b 59 36 3d 92 50 68 bd 8d aa 22 3d
       0.08168463 0.04451875 -0.056717463 0.03971343
000010 fa 76 5d 3d 60 b9 0d bb ea a7 50 bd 3c 5b 48 bd
       0.054068543 -0.0021625385 -0.050941385 -0.048915133
000020 af 30 81 3d ad e2 9d 3d 30 f0 75 3c 82 ed 09 bd
       0.06308114 0.077092506 0.015010878 -0.03367377
000030 01 d5 78 3c a6 3e 0f bd 63 00 22 bc f3 71 82 bd
       0.015187503 -0.034971856 -0.0098877875 -0.0636939
000040 19 1d c4 bd 3b c3 11 bc 56 cf 28 bd f8 9e 28 bd
       -0.095758624 -0.008896644 -0.041213356 -0.04116723
000050 8a 0f 89 bd 1f 8e e0 3d 31 ec ef bc 8a 23 99 3d
       -0.06692417 0.109646074 -0.02928743 0.07477482
000060 15 64 9f 3d 93 b7 36 bd 36 b8 28 3d 54 cf f5 bc
       0.07782761 -0.044608664 0.041191302 -0.030006088
000070 f9 cc 82 3c 2c ea 01 bc 3f 1b 0d be 21 96 90 3d
       0.01596688 -0.007929366 -0.13779925 0.07059885
000080 0b 0d 93 3b 4c 75 23 3d 63 6c 19 ba d9 65 94 3d
       0.004487639 0.039906785 -0.00058526377 0.072459884
000090 68 94 5a 3d 47 b2 2d bd f0 6c c3 3c a3 cc e2 3c
       0.053364187 -0.042406347 0.023855656 0.027685469
0000a0 0b 43 9f bd a1 0d d9 bc 85 b4 e6 3c 03 d8 25 3e
       -0.07776459 -0.026495757 0.02816225 0.16195683
0000b0 76 f8 9e bc cb 5a ff 3c 6c e5 ad 3d 44 6e cb bc
       -0.019405585 0.031171223 0.084910244 -0.024832852
0000c0 49 31 c8 bd ba 2d d6 bc d5 2c 0e 3d 90 ec 12 3d
       -0.097750254 -0.026144851 0.034710724 0.035870135
0000d0 16 14 04 3c 02 e5 f6 3d 93 b7 af 3d df 6d 4e 3c
       0.0080614295 0.120553985 0.08579936 0.0125994375
0000e0 e1 cb 3d 3d 8a 78 96 3d d6 6b a2 bb 8a 24 41 bd
       0.046337012 0.0734721 -0.0049567027 -0.047153987
0000f0 b2 29 9f bc 7c e4 53 3d 0e e4 4b 3c 85 56 3d bd
       -0.019429062 0.05173157 0.012444509 -0.04622509
000100 4f 1b cc 3d 31 a4 98 bc 4a fe 65 3d 44 d9 8b bc
       0.09966146 -0.01863298 0.056150712 -0.017071374
000110 2d 00 b5 bc 4f 8c 9e bc 22 bb b6 bc 27 c5 10 bd
       -0.02209481 -0.019354014 -0.022306029 -0.03534427
000120 8e ec b6 bd ef 77 09 bd 41 f9 a0 3d aa 01 06 3e
       -0.08931838 -0.033561643 0.078600414 0.13086572
000130 da c0 b4 bd 7b 85 6d bd 39 57 84 bc a9 fc 2a 3d
       -0.08825846 -0.057988625 -0.016154872 0.04174486
000140 af 28 f7 bd 0b 73 22 3d ce a0 02 3d 83 86 c3 3d
       -0.12068307 0.039660495 0.031891637 0.095471404
000150 1d 65 b7 bd 78 46 30 3c 07 46 78 bd bd 30 f9 bc
       -0.08954833 0.010758989 -0.06061366 -0.030418748
000160 0c ce 55 bc 9c 8b 1f bc 71 83 37 3d 3f 6e 59 3d
       -0.013049614 -0.009737875 0.044803087 0.053083654
000170 a9 8e c6 3d a7 32 28 3d 87 da 87 bd ad c2 91 bd
       0.09695179 0.04106393 -0.06633478 -0.071172096
000180 ee 33 04 be 74 fa 89 3c 92 8e 1a 3d ed 97 76 3d
       -0.12910435 0.016843058 0.037733622 0.06020348
000190 d2 9d b9 bd 2a 00 e1 bc 21 6a 32 bd 0b 25 67 3c
       -0.09063305 -0.027465899 -0.043558244 0.014107953
0001a0 a7 4c 24 3d fc ed 84 3b 65 50 3d 3d 1c e9 0a 3d
       0.040112164 0.0040566903 0.04621925 0.033913717
0001b0 26 21 a4 3d c8 7a 90 3d e9 2d 07 bd 81 11 4a 3c
       0.08014135 0.07054669 -0.033002768 0.012333275
0001c0 50 12 57 bc 6b 8c 60 bd c1 cc 62 bd f5 c4 86 3d
       -0.013126925 -0.054821413 -0.05537105 0.06580535
0001d0 b1 5c 52 3d 23 cb 87 3d b8 65 90 bd 1c 9b 3c 3d
       0.05135793 0.06630542 -0.07050651 0.04604636
0001e0 47 34 73 3d 64 d4 dd 3b 8c 70 ff 3c 18 c7 f9 bc
       0.059376027 0.0067697037 0.031181596 -0.030490443
0001f0 2f 9a 78 bc 1c 17 0b 3c 4c 48 e9 bc cd ae 4b 3d
       -0.015173479 0.008489396 -0.028476857 0.04972725
000200 15 f5 bf bd 0e 3d 3f 3d de 84 8f 3d 97 6d 19 bd
       -0.093729176 0.046689086 0.07007764 -0.03745803
000210 24 ad 3e 3d 66 9d 0c bd 61 d9 10 3b 89 7c 28 3d
       0.04655184 -0.034329794 0.0022102224 0.04113439
000220 c8 c2 90 bd af 7c 4e bd ce f6 3c bd c1 5d 90 3c
       -0.070684016 -0.050411876 -0.04613381 0.01762283
000230 4d 5f 8b bc b6 35 a4 3d 78 3f 73 3d 64 dd 1c 3d
       -0.017013216 0.08018057 0.0593867 0.038297072
000240 3e 24 f3 bc 3c f0 b7 bd ce 18 0d 3d 36 6e 1f 3d
       -0.029680368 -0.08981368 0.034447484 0.038923465
000250 66 ad 9f bd 26 b8 78 3d 45 d7 6a 38 e4 56 8c 3c
       -0.07796745 0.060722493 5.5990433e-05 0.017131276
000260 9a fb 4f bd b1 23 3d 3d f5 60 86 bd 6c b6 6e be
       -0.050777055 0.046176616 -0.06561462 -0.23311776
000270 2e ff e1 3d 0e d8 a2 3d a4 f1 77 3c 97 53 a8 bd
       0.11035 0.079513654 0.015133295 -0.082190685
000280 2f 5a 8a 3d 6a 39 01 bd 30 65 9b 3d b8 5a f7 b9
       0.067554824 -0.031548895 0.07587659 -0.00047179102
000290 e7 17 87 bc f8 e1 37 bd bb c1 42 3d 13 ee 03 bd
       -0.01649089 -0.044893235 0.047548037 -0.032209467
0002a0 89 dd be 3c 09 13 52 bb 70 53 7d bc af 31 be bc
       0.023298996 -0.0032054803 -0.015461788 -0.02321705
0002b0 bc 5b eb 3c c0 aa 43 3c 82 c4 db bd 92 48 53 3d
       0.028730266 0.011942565 -0.1073084 0.05158288
0002c0 3d f8 06 3d 9a fa d0 bc d9 f8 09 bc 83 3d d2 bb
       0.032951582 -0.025510121 -0.008421146 -0.006416024
0002d0 0a 4e d8 bc e3 45 29 bc 99 c9 8a bb c0 45 b7 3d
       -0.0264044 -0.010331604 -0.004235458 0.08948851
0002e0 15 01 8d 3d 55 72 ed bc 1a cc f3 3c 4d c2 11 3d
       0.06884972 -0.028985182 0.02976041 0.03558569
0002f0 73 5e ed bc 65 27 82 bd b9 d0 fd 3c bf 88 25 bd
       -0.028975701 -0.0635517 0.030983316 -0.040413614
000300 83 77 c1 3c bf 16 a7 3d 90 ef 60 be 1b 88 17 3b
       0.023616558 0.08158635 -0.21966386 0.0023121897
000310 92 2f 95 3d 2d 63 b5 3c 1f b4 81 bc d3 50 06 3d
       0.07284464 0.022142017 -0.015832959 0.032791924
000320 ce 89 bf 3a 54 c5 c8 bd 20 f3 f9 bd 88 fa 89 bd
       0.0014613213 -0.09803262 -0.122045755 -0.06737238
000330 d4 9a 8c 3d 46 06 8b 3c 4a 03 b1 3c 67 38 ac bb
       0.068654686 0.016970765 0.021608014 -0.005255747
000340 1a ec 85 3d ad f3 07 be 9b b7 38 3d 42 96 45 3c
       0.065391734 -0.13276549 0.045096975 0.01205975
000350 7f e9 e8 bc 44 75 18 3d c8 f6 e6 bd de 14 29 3b
       -0.028431652 0.03722121 -0.112775385 0.0025799791
000360 26 7b 03 3d a6 9b 2c 3d bd 63 28 39 d2 8e e5 3d
       0.032099865 0.042140625 0.00016058884 0.112088814
000370 15 16 c3 3c a3 98 2a bd e0 91 0a ba ed 4b 80 bd
       0.02381424 -0.041649472 -0.00052860193 -0.06264482
000380 72 bf c6 3d 99 79 69 bd 17 17 f2 bc 46 fd 83 bd
       0.09704484 -0.05700073 -0.029552026 -0.064447924
000390 1f 52 5e bd 73 f6 f7 3c e4 07 bf 3d 46 2b 43 bc
       -0.054277536 0.030268883 0.09327677 -0.011912173
0003a0 dd 72 c2 3a d1 32 48 3d b6 a5 cc bd a1 ad 5e bd
       0.0014835257 0.048876587 -0.09992544 -0.054364804
0003b0 45 6c 0e 3d a3 ef 87 3c 58 7c 21 3d d7 49 12 3d
       0.034771223 0.01659376 0.039425224 0.03571495
0003c0 b4 67 66 3d ba 40 ed 3d 16 25 3b bd 1b 60 3e 3d
       0.056251243 0.11584611 -0.045689665 0.046478372
0003d0 b2 7a ce 3b fa 33 84 3d 8e 56 6a 3b 02 eb 30 3d
       0.0063012475 0.06455226 0.0035757157 0.04319287
0003e0 67 34 9e 3d 32 b0 a8 3d e4 b1 8c 3b 79 e3 b9 3c
       0.07724839 0.082367316 0.004293667 0.022691475
0003f0 03 bf e5 3c 55 b1 0a 3e 3f 30 52 bd 52 1e 9f 3c
       0.028045183 0.1354421 -0.051315542 0.019423638

fc3.bias f4 [2]
000000 bf b8 f9 3d 81 5e ce 3d
       0.12193441 0.10076619

norm.weight f4 [28]
000000 fe 5f 38 3f 85 cc 3b 3f da e4 2c 3f 19 76 31 3f
       0.7202147 0.7335895 0.675367 0.6932083
000010 dd f9 25 3f 40 fe 21 3f 45 1b 2a 3f 36 fa 13 3f
       0.64834386 0.6327858 0.6644786 0.57803667
000020 09 84 2d 3f ac cb 22 3f c2 02 22 3f ae be 33 3f
       0.67779595 0.6359203 0.6328546 0.7021283
000030 24 d1 32 3f e6 43 29 3f 81 43 25 3f b9 c5 2b 3f
       0.69850373 0.6611923 0.6455613 0.67098576
000040 1a c6 29 3f 0f c8 1e 3f 22 65 34 3f 28 90 34 3f
       0.66317904 0.62024015 0.70466816 0.70532465
000050 50 a8 38 3f a5 cd 40 3f e7 ad 4a 3f 55 61 3f 3f
       0.72131824 0.7531379 0.79171604 0.7475789
000060 21 cf a1 3f 17 07 81 3f 74 0c 9a 3f 5c 74 4e 3f
       1.2641336 1.0080289 1.203505 0.806463

norm.bias f4 [28]
000000 51 4f 76 3d ae 90 09 3e 73 de 16 3e 15 47 3a 3e
       0.060134236 0.13434097 0.14733295 0.18191178
000010 8b e5 9b bd a9 3f 27 be 76 20 a1 bd 3f 47 8b 3d
       -0.07612141 -0.16332878 -0.078675196 0.068006985
000020 6b 10 ce bc ef f0 08 3d 96 e2 b7 bd e1 18 ad bd
       -0.025154313 0.033432897 -0.08978765 -0.08452011
000030 04 fb 7d bd 42 97 7f bd e1 4c 20 be 55 5f be bd
       -0.062006965 -0.06240011 -0.15654327 -0.09295527
000040 26 3d 8d bd 36 70 1d be 71 3e a5 bd 0a 8c 01 bc
       -0.06896429 -0.15374836 -0.080685504 -0.007906923
000050 5b af 98 3c 2f 85 35 3e 2a 39 04 3e f0 a0 df 3d
       0.018638304 0.17726587 0.12912431 0.10919368
000060 ca cf ca 3c 61 42 0a 3e 97 d9 96 3e da 93 86 bd
       0.024757285 0.13501884 0.29462883 -0.06571169

norm.running_mean f4 [28]
000000 1e 2c b7 3f 72 f9 bc 3f 82 4e c1 3f 41 89 bb 3f
       1.4310338 1.4763625 1.5102084 1.4651262
000010 47 8a c7 3f 0d ce cc 3f 54 d3 d4 3f 85 e3 de 3f
       1.5589074 1.6000382 1.6626992 1.7413183
000020 f2 97 e1 3f a2 7e de 3f c0 f7 ee 3f 11 51 f1 3f
       1.7624495 1.7382395 1.8669357 1.8852865
000030 08 9b ea 3f e6 c2 ec 3f 3d e2 d7 3f 4c 24 d1 3f
       1.8328562 1.8496978 1.6865917 1.6339202
000040 0a 1b d9 3f 65 94 ce 3f 16 19 c4 3f 0d 5c c1 3f
       1.6961377 1.6139036 1.5320156 1.5106217
000050 80 27 b1 3f ea 9f b6 3f 66 ab b6 3f e9 08 b7 3f
       1.384018 1.4267552 1.4271057 1.4299594
000060 61 a8 7a 3d 8a 9a b5 3f ae ae d9 3e e4 1a 42 41
       0.061195735 1.4187787 0.42516083 12.131565

norm.running_var f4 [28]
000000 24 de f3 3e b9 98 04 3f 37 1c 0d 3f c9 00 15 3f
       0.47630417 0.51795536 0.5512118 0.58204323
000010 28 11 19 3f 9c 34 15 3f ff f2 1d 3f 4a df 1c 3f
       0.59791803 0.582834 0.6169891 0.6127821
000020 f3 b1 27 3f 8d 1a 2b 3f fa b1 18 3f 01 4b 12 3f
       0.65505904 0.6683739 0.5964657 0.57145697
000030 d2 69 12 3f d3 dd 15 3f 3d 6e 1e 3f e6 5d 20 3f
       0.5719272 0.585416 0.6188696 0.6264328
000040 02 ba 0f 3f 58 6b 12 3f 2b 99 05 3f c1 30 0a 3f
       0.561432 0.57195044 0.5218684 0.5398064
000050 4d e9 08 3f bd 67 04 3f 33 1f 01 3f a4 1c f4 3e
       0.5348099 0.5172079 0.5043823 0.476781
000060 df b5 58 40 69 12 b4 3e f1 14 d5 3c 03 d6 62 42
       3.3861005 0.35170296 0.026010962 56.708996
