turtlebot3_ddpg/save_model_ddpg/2020_12_03-01_44_19/stage_3_2500_critic.pth (torch_old, 590398 bytes, 13 tensors)

fc1.weight f4 [512, 28]
00000000: 9e82 20be 5fbb 2cbe e5b4 e93d 934e 6ebd
00000010: 82f8 3fbe 246b d6bb 469a 53bc 471e 723e
00000020: 985e 6fbb 33f8 5a3e eaf3 333e e9b8 b5bb
00000030: 3d47 4b3e 50ca 3abe 3452 a2be 01ca b1bd
00000040: e2d6 04be dffe afbd 350f 4bbe df46 693e
00000050: 0060 643e b738 09be 8ecc 01be 834c c5bd
00000060: 3896 93bd f6db a9be 36a2 6dbe c735 59bc
00000070: 2127 9c3c ef29 d03d a31b c3bd c407 cbbd
00000080: b618 75bd b69e 0ebe 82df ef3d 0ad7 f9bc
00000090: 32d7 1d3e 723b f03d 2362 0b3e cfa3 623e
000000a0: fe13 833d 859c 01be ce12 6c3d e7eb c4be
000000b0: 9dfe b1bd 3ec9 3e3d 87be 973c 0bb0 6abd
000000c0: 5ecf 2ebe 3d6e e03d ca23 eb3c 766a a4bc
000000d0: 509c 8abe bf1b 6ebe 0642 f6bd 755b 2b3d
000000e0: b1f3 d03d f548 e7bd dde1 023e c153 853e
000000f0: 3526 083e bb65 bc3d 8a61 083e 3a85 063d
00000100: 38cd 533d 102b f7bd 5d9c 9fbd 5d6a 89bd
00000110: 308b 1cbe 9686 773c 1ebd 143c 2fb3 843e
00000120: cf73 463e 3b40 313e c79f 013e 64b9 a1bd
00000130: e1db 5bbe f9c8 2bbe 48df 073e 073c cbbb
00000140: a2b7 833e 1028 83be 5832 b3be caa2 82be
00000150: 81d7 ef3d 1bbb b1bd f6ad 0dbe b30c e3bd
00000160: 2784 08be ee41 133e 5889 b5bd 0b6b 0dbe
00000170: 4a89 20be 8d0d e43d ebf4 98bd 9eac 273e
00000180: 372b 94bd bac1 2e3b b820 21bd 5cd6 1dbe
00000190: b6bb c8bd 0711 a9be 14e9 a63d 1002 7b3e
000001a0: 8615 75be 7729 f1bc da52 abbe ba7d 863e
000001b0: eed4 1dbe 2705 e8bd 6bc1 b2bd 2706 44bc
000001c0: 90c4 e23c 7d06 38be 35dd 23bd 8d99 063e
000001d0: dc91 843c 9cc3 3abe 1934 853d e2b2 dcbe
000001e0: 66cc 793b 31c7 07bd 8e7b 173e 9d28 673e
000001f0: 2437 833e a103 813e abeb 173e 896c 2dbe
00000200: 5159 a73d 90ca ea3d 3ed1 853e 732f 23be
00000210: a534 573d 0872 013e 211a 11be e5ed 64be
00000220: 449c 6dbd b0a3 143e 1994 a3bd 9c8f ee3c
00000230: 1031 25be 4f59 e4bc eebe 6e3d 31c2 1cbe
00000240: 0cc5 bd3e 99df 633e b918 513b 4b66 59be
00000250: 278d ae3d f4e7 233e 0ddd b73e d5f4 72be
00000260: f58b cebd ba83 20bd 4544 abbb ead8 dcbc
00000270: c01e 95be 5719 d93e b79e b43c 48a1 25be
00000280: 0322 3fbe b704 a0bd ab54 113e 3485 b83c
00000290: 31b0 ac3c 57ee c0bd 9ac2 0a3e c8ec 0cbe
000002a0: 27f2 b2bd 16af 323e ae19 57bd 49ac bbbd
000002b0: 89a6 0c3e cbc5 ae3e dfab 94be c721 b6bb
000002c0: 50d9 33bd cfcf 273e c1f3 823e d98a 49be
000002d0: 12d3 753e 59ad a63d 8960 0d3d 8f3c e2bd
000002e0: 70fb 0b3e 5722 f3bd b354 463e 4616 9ebd
000002f0: 5399 393e 7379 66bb 1c79 2d3e 31ed 40bd
00000300: b820 38be be93 b53e 9794 393d 4a5a 823d
00000310: 5c6e 28be 6e61 16be cb00 b6bd 0d9c ccbe
00000320: bd99 c1bd d84c 173e 9538 2ebe 696e 35bd
00000330: cb04 5f3d 8cb3 a4bd f4cd 0e3d 1e8e 8e3e
00000340: 9cb0 29bc 1d5c 8d3d 11af 0d3e 351f e03d
00000350: 3df3 ddbc 55b9 573e dbd1 80bb d644 b03e
00000360: 14db 86bd d99f eebc 44f3 06bd c045 4bbe
00000370: 0ce0 073d 7ff9 dd3d 36dc d03e 17c2 fd3e
00000380: 7908 1a3e 4db5 dcbe cc8e 7a3e 19bd 57bd
00000390: 6b03 4dbd 7385 8abd 5c25 79be 9624 19bd
000003a0: af24 f53b 0b62 7ebd 74d8 f43c 804d a53d
000003b0: f9cb 2f3d f057 f0bc c680 113e 4503 f53d
000003c0: 831a 073c 001d 6f3d 75b2 a0be fc93 90be
000003d0: a00d 25be 9604 9c3d 9d07 6e3e f2ec a73d
000003e0: a73d 9cbe c112 1eba 6570 d5bc fd52 683c
000003f0: d28b deba cc55 463e 554e b63e 6448 5a3e
-0.15674827 -0.16868351 0.11411456 -0.058180403 -0.18747142 -0.006543534 -0.0129152 0.23644362
-0.0036524888 0.21383743 0.17573515 -0.0055457246 0.19851394 -0.18241239 -0.3170334 -0.08681107
-0.12972596 -0.08593535 -0.1983002 0.22780941 0.22302246 -0.13400541 -0.12675688 -0.09633734
-0.07206386 -0.3317563 -0.2320641 -0.01325745 0.019061627 0.10164248 -0.09526756 -0.099135906
-0.05983802 -0.13927731 0.117125526 -0.030498046 0.15414122 0.11730088 0.13611655 0.221328
0.064002976 -0.12657364 0.05763512 -0.3846123 -0.08691142 0.04657864 0.018523468 -0.057296794
-0.17071292 0.10958526 0.028703589 -0.020070296 -0.27072382 -0.23252772 -0.12024312 0.041835267
0.102027304 -0.11293212 0.12781473 0.26040462 0.13295825 0.09199091 0.13318458 0.0328419
0.051709384 -0.120687604 -0.07793496 -0.0670974 -0.15287471 0.015107771 0.009078292 0.25917956
0.19380115 0.17309658 0.12658606 -0.078966886 -0.21470596 -0.16775884 0.13268769 -0.006202224
0.25726038 -0.25616503 -0.34999347 -0.25514823 0.11711026 -0.08678266 -0.13835892 -0.110864066
-0.13331662 0.14380619 -0.08864087 -0.13810365 -0.15677372 0.11135397 -0.074685894 0.16374442
-0.07234805 0.0026665763 -0.039337844 -0.15413803 -0.09801428 -0.33020803 0.08149925 0.24512506
-0.23933992 -0.029438717 -0.33461648 0.26267797 -0.15413257 -0.11329108 -0.08728298 -0.011964357
0.027681619 -0.17971225 -0.04000588 0.13144512 0.016182832 -0.18238682 0.065040775 -0.43105227
0.0038116216 -0.033148948 0.14793226 0.22574086 0.25628006 0.2519808 0.14835994 -0.16935934
0.08171333 0.11464417 0.26136202 -0.15936069 0.05254044 0.12641156 -0.14170124 -0.22356375
-0.058010355 0.14515567 -0.07987232 0.029121213 -0.16131997 -0.027874617 0.058287553 -0.15308453
0.37064397 0.22253264 0.0031905605 -0.21230428 0.085230164 0.16006452 0.35910836 -0.23726209
-0.100852884 -0.039188124 -0.005226644 -0.026958901 -0.29125023 0.42402145 0.022048337 -0.16174805
-0.18665318 -0.07813399 0.14192455 0.022524454 0.021080108 -0.0942046 0.13550797 -0.137622
-0.08737593 0.17449602 -0.052514724 -0.0916372 0.13735403 0.3413528 -0.29037377 -0.005558226
-0.043908417 0.16387866 0.25576594 -0.19681872 0.24006298 0.08138532 0.03451589 -0.11046707
0.13670135 -0.11871784 0.19368248 -0.07719092 0.18124895 -0.0035167604 0.16940731 -0.047101203
-0.17981231 0.3546428 0.045307722 0.063648775 -0.16448349 -0.14685604 -0.0888687 -0.39962807
-0.094531514 0.14775407 -0.17013772 -0.04429475 0.05444793 -0.08042058 0.03486438 0.27842802
-0.010357048 0.06902335 0.13836314 0.10943452 -0.027093524 0.21066792 -0.0039312667 0.34427518
-0.065847546 -0.029128956 -0.03294684 -0.19850826 0.033172652 0.10838603 0.40793008 0.4956214
0.15042295 -0.43107072 0.24468535 -0.052670572 -0.050052088 -0.06763735 -0.24330658 -0.037388407
0.0074811797 -0.06210522 0.02988837 0.080714226 0.042919133 -0.029338807 0.1420928 0.11963514
0.008246067 0.058377266 -0.31386152 -0.28237903 -0.16118479 0.07618062 0.23245092 0.081994906
-0.30515787 -0.0006030016 -0.02605457 0.014179942 -0.0016978926 0.19368666 0.35606638 0.21316677

fc1.bias f4 [512]
00000000: ad65 253d ff62 643c b87d 74be 7e82 01be
00000010: a799 a03d 6874 a33d c325 a63e 70a7 f0bd
00000020: 13c2 8abd 3da8 89be 86a5 933e bb23 d1bd
00000030: f61b 773e 0d67 143e 9fe5 7c3d 3c5a 37be
00000040: 5ecf 9bbb f94d cbbd 651f 15bd 6730 ea3e
00000050: 8f35 92bd d26b 9f3e 8034 9b3c dedf db3a
00000060: 7c51 c7bd 0c60 19be db43 74be 20e2 0f3d
00000070: 104d 0f3d e723 15ba 8bce 50bd e2b0 04bc
00000080: 604a 2a3e 133f e1be d47e a93c 4756 6e3c
00000090: 7531 9ebe 4c9a ff3d d448 19bf 0c56 d53d
000000a0: 243f 863e 4c66 5abe 3b9b a5be d3f5 b3bd
000000b0: 4797 053f a2d5 1abd b82d ccbe 8976 28bc
000000c0: b314 0dbf 22e9 f43d 6044 68bd 2e70 743d
000000d0: 6cd3 dd3e b0d7 273e e2a8 ffbd d3d0 d9bc
000000e0: 56c6 1c3e a915 ec3d c854 633e 4a43 cf3e
000000f0: 8173 63be 3a0c 393d 7cb8 9a3e ea2d 093e
00000100: 405f 30be e1c8 17be c766 4bbe c3c3 4f3e
00000110: bd13 10be d4c5 65bc 2f88 87be 6f2c bd3e
00000120: e05c 953e 5fa6 92bc 80f7 9b3e 9468 77be
00000130: 6384 18be 0636 7bbe d583 acbd 8a16 14be
00000140: 747f 52bd 80c9 3ebd 97bb 99be e024 d8be
00000150: a35f 9ebd 043f 3e3e 713f f2bc ad0b 52be
00000160: 4d10 9d3e 59e9 bbbd 93ca 1f3e 4d0a 97bd
00000170: 8eb3 a9be 2303 0cbf 8c8f 2b3e 9c11 8abd
00000180: 1a67 b63d 2183 fe3d 9967 0a3e c7cb 253e
00000190: c920 c3be 22fd 4ebe 3b87 3a3e 189f a83d
000001a0: debc 2ebe b862 2cbe 33ae b03e 6b99 4bbe
000001b0: a0a6 bb3e eb21 acbc a18a 093e b881 fabd
000001c0: b352 b7be 06a6 84bd 6311 153e 7be5 23be
000001d0: 2dba 453e e5df 93be bf43 8ebe 7fb2 473c
000001e0: dbbd 2fbe 0c59 bd3c 0143 6dbd 419e 7b3d
000001f0: 12fa 39be 887f cbbd 772d a3be d671 d5be
00000200: 154a 05be dc5c a73c 43d8 d23e f03f 89be
00000210: 33eb a03e f36f 0abe 3c46 e5bd c118 9fbe
00000220: 25e9 70be c50c 603d 9b87 30be a4e1 b63d
00000230: 20d1 e23d c44f 85be 7e7d 19be 8639 82bd
00000240: d04a 553e 32ff 89be a0cd 493e 89d9 b4bd
00000250: 02cb 8e3d 0c58 723e 1ea1 e73a 8e72 82bd
00000260: a81d b13d a7f7 823e 26ab 5ebe 0afc 4fbe
00000270: 09dc ba3d 0459 863e e27c fc3c 8f2e 9dbe
00000280: 36e3 403e fabe f7bd c2a4 993b 6f16 44bd
00000290: 4fdc e53d 364e 87be ecba 6a3e d5d8 d2bc
000002a0: e725 413d 1a09 623e bb27 163e 9340 14be
000002b0: 8cea 023c 1840 19be 56c3 65be a699 35be
000002c0: 4733 4cbe b323 a1be 46c1 adbd 9510 e7bd
000002d0: e130 abbd df6f 9b3e 8b64 7abd 70d8 9cbe
000002e0: b0ba 853e df9a a03d 8700 8cbe c146 36be
000002f0: 577d daba 46ef 6f3e 69e8 fbbd 69ca e73d
00000300: f181 653a 8136 94be 1891 ee3b 3a5c b23d
00000310: eacb fabd 9eb8 3a3c a04b 013e b744 833d
00000320: 5bbb 95be 82bd 53bc 6c2b 213e c6af 9f3d
00000330: 183c bbbd f507 eb3c d43e a8be 75c0 83be
00000340: 776c 79be 4ea3 8bbe 03f1 1bbe 9cb3 a3be
00000350: 3817 34be b05d babd 31bc 513e c44e 8fbe
00000360: 62b8 fa3d 8372 1bbe 6cb8 aabe 9e10 59be
00000370: f58c 47be f34f 50bd 0af8 cd3d aab9 b4be
00000380: 0ff4 cdbd c64b f43c 66dc 973e 9a0a 3d3e
00000390: 72a5 e5bc 27e4 9cbe 80da 80be a4f5 3b3e
000003a0: 3807 67be 5158 86be 0008 d1bd 9c71 e6bd
000003b0: 3c91 9e3e c0b4 a9be 9419 9fbe cc50 0dbf
000003c0: 7df5 57be eb88 a13e b54f 90be a7ba eabe
000003d0: 182c 0c3d 05d1 613d ef0c e1bd a85f 033e
000003e0: 12d3 8dbd 1599 0e3f 1ad1 6b3e f0eb 3ebc
000003f0: d73b 45be 0371 bdbe 2d78 74be f4b2 09bd
0.04038017 0.013939618 -0.23876083 -0.12647435 0.07841807 0.07981187 0.32450685 -0.11750686
-0.06775298 -0.26886168 0.28837222 -0.10211893 0.2413176 0.14492436 0.06174242 -0.17905515
-0.0047549447 -0.099269815 -0.036406893 0.45740053 -0.07139122 0.31136948 0.018945932 0.0016775092
-0.09732339 -0.14978045 -0.2385401 0.03512776 0.034985602 -0.0005689249 -0.050978225 -0.008098813
0.16629934 -0.43993434 0.02069036 0.014546937 -0.30897108 0.12480602 -0.5987675 0.10416803
0.26220047 -0.21328086 -0.32344994 -0.087871216 0.52183956 -0.037801392 -0.3987863 -0.010282167
-0.5510971 0.11958529 -0.056705832 0.059677295 0.43325365 0.16390872 -0.12483384 -0.026588833
0.15310034 0.11527569 0.2220031 0.40481025 -0.2221203 0.045177676 0.30218875 0.13396421
-0.17223835 -0.14822723 -0.19863425 0.20289521 -0.1407003 -0.014024217 -0.26471087 0.36947963
0.2917242 -0.017901598 0.30462265 -0.24160987 -0.14894252 -0.24532327 -0.084235825 -0.14461723
-0.05139108 -0.046578884 -0.30025932 -0.42215633 -0.07733085 0.18578726 -0.029571267 -0.20512266
0.306765 -0.09175367 0.1560462 -0.073750116 -0.33144802 -0.54692286 0.16753978 -0.0674164
0.08906384 0.124273546 0.13516082 0.16191016 -0.3811095 -0.2021375 0.18215649 0.0823347
-0.17064235 -0.16834533 0.34507903 -0.19882743 0.36650562 -0.021012267 0.13431789 -0.12231773
-0.35805282 -0.06476979 0.14557414 -0.16005509 0.19309302 -0.28881755 -0.2778606 0.012188553
-0.17162268 0.02311375 -0.057925228 0.06143022 -0.181618 -0.09936434 -0.31870624 -0.41688412
-0.13016541 0.020430021 0.4118062 -0.26806593 0.31429443 -0.13519268 -0.11195037 -0.31073573
-0.23526438 0.054699678 -0.1723923 0.08929756 0.11075044 -0.2603742 -0.14989278 -0.06358628
0.2082932 -0.2695251 0.19707346 -0.08830554 0.069723144 0.236664 0.0017671918 -0.06369506
0.086482346 0.2557957 -0.21744975 -0.20310989 0.091239996 0.2623979 0.030821268 -0.30699584
0.18836674 -0.12096973 0.00468883 -0.047872957 0.11223661 -0.26426858 0.22922868 -0.02573816
0.047155287 0.22073784 0.14663593 -0.14477758 0.007990491 -0.14965856 -0.22437796 -0.17734393
-0.19941436 -0.3147255 -0.084841296 -0.1128246 -0.08358932 0.30358788 -0.06113104 -0.3063388
0.26118994 0.07842039 -0.27344152 -0.17800428 -0.0016669434 0.2343112 -0.12300188 0.113179035
0.00087550195 -0.28947833 0.00728048 0.08708997 -0.12245925 0.011396555 0.12626505 0.06409591
-0.29244503 -0.0129236 0.1573922 0.07797198 -0.09142321 0.028690318 -0.32860434 -0.2573277
-0.24357782 -0.2727303 -0.15228657 -0.3197297 -0.17586982 -0.09099901 0.20481946 -0.2798978
0.122421995 -0.15180402 -0.33343828 -0.21197745 -0.19487365 -0.050857496 0.10057075 -0.352979
-0.10056316 0.029821288 0.29660338 0.18461075 -0.028032992 -0.30642816 -0.25166702 0.18355423
-0.22561347 -0.26239255 -0.10206604 -0.11252138 0.3097018 -0.33145714 -0.31074202 -0.5520141
-0.2108974 0.31549773 -0.28185812 -0.4584553 0.03422174 0.055130977 -0.10988795 0.12829459
-0.06925024 0.55702335 0.23028985 -0.011652932 -0.19261108 -0.37000284 -0.23873968 -0.03361793

fc2.weight f4 [256, 514]
00000000: 1527 1abc 7d9a 0b3e 5535 563e 921b 2a3e
00000010: 8c9a 103e 4606 d43d dd5c 223d 2f53 52be
00000020: 5391 11bd a273 46be b098 35bb c977 c2bd
00000030: 9b32 b4bd 2503 f4bc e39b dd3d d780 09bc
00000040: bdb9 a43c bd3d 9bbd 37fe 7b3d f830 0d3e
00000050: ab74 aebd cc51 ab3d d657 9cbe 1737 ee3d
00000060: e6cc 983d bdc6 55bd a2d9 b0bd bfd4 93bc
00000070: e77c c53d 5d29 95bc 7d87 1c3e 09c9 84bd
00000080: 7ba8 13bd 38db 88be 6cae 383e 9824 6b3e
00000090: 0ed7 d63c 974c 81be 1c2f b8bd 846c 24bd
000000a0: 9ea2 03bd 8ff8 083e c023 6d3b f2df 3abd
000000b0: 8308 29bd 7791 2e3e 0456 bfbd f15f 283e
000000c0: 8ad2 09be 3507 87be 0c17 7cbe c0b6 db3d
000000d0: c2b4 34bd fa6f 7b3d 9657 c83c 2a14 e8bc
000000e0: f2a4 d73c 4d81 943e 4255 183e fc36 a0bd
000000f0: ee35 5cbe 81c3 8a3d 1297 7f3d 8fdd 963e
00000100: 3f9b 1cbe a7f1 81be ab49 903e b7e1 24bd
00000110: 68e4 edbd 9b8c aebc f800 abbd d65d 2dbe
00000120: 51d9 883e 2b5a f0bd de15 693e 8844 acbe
00000130: e690 01be 2e12 2d3e 0435 a73c 98ae bc3d
00000140: c662 ecbd de96 59bb a22f b43d 666e 0e3e
00000150: 1505 a6be 0150 7cbc cec3 c2be f9e0 eebe
00000160: c598 27bd b662 4b3e 2fec d2bd 531b d5bc
00000170: bf95 20bd 7d4f 243e 27b5 a83c 57f4 013d
00000180: 3d29 653d 5d63 0a3d a2a8 4a3d f438 2dbd
00000190: 1d37 abbd 2fdc 11be 0c2a a9bc baf6 bb3d
000001a0: fc75 373d da76 823d 26a2 d93d d87e 3fbd
000001b0: ba64 6fbe 268a 423e 99d5 20bd a419 0d3d
000001c0: f577 343d 8720 68bb cf55 c2bc 633e 28be
000001d0: 042f 0cbd 9d8c 9f3d 3d98 2d3d f7b3 f03d
000001e0: e26f aa3d b993 3fbe 5279 6abd c427 8bbd
000001f0: e901 213e 57aa ecbe 541a 4fbe a746 70be
00000200: ed7e fe3d d271 813e 7bc5 ab3d cabe 403d
00000210: 0399 febd 7d69 2b3e c8c2 e93d 23e4 acbe
00000220: 6aa4 963d e530 373e f3ca 93bc 38c9 5c3d
00000230: e5c0 7e3d 6716 45bd bb6b 16bc 4156 633d
00000240: 4460 a63d cef9 0c3d bc88 02be 6aa7 dcbe
00000250: 4f2e 613e 25d7 93be 5acd 23bd 597c 083e
00000260: 9907 abbc 3650 353d 25fc 853d 7464 c43c
00000270: 4374 a13d d91e 2a3d a4f2 4ebe 823a 9b3d
00000280: 7777 edbd ced8 ea3d 0544 473c a529 5bbd
00000290: af5e 1d3d 077f d4be 67cf 563d ac9b 23be
000002a0: 16c5 edbd fd48 8bbd 6c68 42ba bc80 f0bd
000002b0: a9d1 10be 92a1 babe 9d68 213d cac3 1abe
000002c0: 5e48 59be 1354 893e d0ef 553e 1e3d 8a3d
000002d0: 6168 ecbd 2e6d 7f3e 5adc fcbc d484 17bd
000002e0: 534c 54bd 06f3 03bd b558 2fbc b350 f1bd
000002f0: 740c 423e 303c 813d 3c9a 883e 3ac2 3cbd
00000300: e064 05bd a770 dd3c 2d8f 953b 77a1 b03b
00000310: 8e5d b4be 5aff 16be 8f6d a4bd 14eb 9e3d
00000320: fa21 8fbd 9d7b 8cbe ec51 2ebe e094 f8bd
00000330: f90c 6a3d e45f 4e3e b63a bdbe 8d9d 063e
00000340: 06ad 87be a3a8 3abc 47ab 4fbd dc7f 89be
00000350: 9ec9 0abe 38a4 973e 4c5b 1a3e 8fb4 c0bb
00000360: 6732 91bd 7ae2 15bd 260d 97bb 1c91 5e3e
00000370: bf31 a2be cdde cc3d 9f65 3bbe 022d adbc
00000380: a57c 1cbd b67f 39bc bdde 7cbc 6a53 6f3c
00000390: 12bc 13be d07b 4abe 7c50 93bd 3ded f93d
000003a0: f2ec 9ebd 1b07 92bc 99ee 0cbe 93c6 a2be
000003b0: b655 d8bd b6e9 a4bd 6b6a cfbd fdaf 2abe
000003c0: 879e 143d d66b 733e ba10 97bd ff61 2cbe
000003d0: 87d3 aabd dd0d 4dbe e5ec 303e 44e0 4d3e
000003e0: 0109 9f3c e0bc cf3d 169a b8bc 0a03 32bc
000003f0: 0873 19bd 95ed bb3d 9f0a c0be 0d01 703e
-0.009408732 0.13633151 0.20918782 0.1661208 0.14121455 0.10352759 0.039639343 -0.20539545
-0.035538983 -0.19380048 -0.0027709417 -0.094955035 -0.08798715 -0.029786656 0.10820749 -0.008392534
0.020108098 -0.07580135 0.061521735 0.13788211 -0.085183464 0.08365211 -0.30535764 0.11631601
0.07460956 -0.052191485 -0.0863526 -0.018045781 0.09642964 -0.0182082 0.1528606 -0.06483657
-0.036049347 -0.2672975 0.18035287 0.22963178 0.026225593 -0.25253746 -0.089933604 -0.04014255
-0.032137506 0.13376068 0.0036184639 -0.045623727 -0.041267883 0.17047678 -0.09342578 0.16442849
-0.1345922 -0.26372686 -0.24618167 0.10728216 -0.044117697 0.061386086 0.024455827 -0.028329927
0.02632377 0.290049 0.14876273 -0.078229874 -0.21504948 0.06775571 0.06239993 0.2946591
-0.15293597 -0.2537968 0.28181204 -0.04025432 -0.11615831 -0.02130728 -0.08349794 -0.16930327
0.267283 -0.11735948 0.22762248 -0.33646035 -0.1265293 0.16901466 0.020411022 0.092129886
-0.11542277 -0.0033201496 0.08798148 0.13909301 -0.32425752 -0.015399934 -0.38040012 -0.46656016
-0.040917177 0.19861874 -0.10298955 -0.026014006 -0.03920531 0.16045947 0.020594193 0.03172716
0.05594753 0.033786166 0.049477227 -0.042290643 -0.083601214 -0.1424415 -0.020649932 0.09177919
0.044790253 0.063703254 0.106266305 -0.046751827 -0.23378268 0.18998012 -0.039266203 0.03444828
0.044059712 -0.0035419778 -0.023722557 -0.16430049 -0.034224525 0.07790492 0.042381514 0.117530756
0.08322121 -0.18708695 -0.057244606 -0.06794694 0.15723385 -0.4622371 -0.20224887 -0.23464452
0.12426553 0.2528215 0.08387276 0.04705695 -0.124315284 0.1673946 0.11414105 -0.33767805
0.07355578 0.17889746 -0.01804111 0.053902835 0.062195677 -0.048117068 -0.009180958 0.05550218
0.0812383 0.03441792 -0.12747473 -0.43096477 0.21990322 -0.2887508 -0.03999076 0.13328685
-0.020877646 0.04426595 0.065422334 0.023973681 0.07883503 0.041533325 -0.20209748 0.07579519
-0.11595052 0.114671335 0.012162213 -0.053506512 0.038420375 -0.41503164 0.052443888 -0.15977353
-0.11609857 -0.06801031 -0.0007416073 -0.11743304 -0.14142479 -0.36451393 0.039406408 -0.1511375
-0.21219012 0.26821956 0.20892262 0.067499384 -0.11543346 0.24943992 -0.03086679 -0.03699191
-0.0518306 -0.032214187 -0.010702302 -0.1178297 0.18950063 0.06310308 0.2668017 -0.046083666
-0.032566905 0.027031256 0.004564187 0.005390342 -0.35227627 -0.14745846 -0.08028709 0.07759681
-0.069889024 -0.2743806 -0.17023438 -0.12137771 0.057141278 0.20153767 -0.36958855 0.13146038
-0.26499194 -0.011392745 -0.050700452 -0.2685536 -0.13553473 0.29617476 0.1507389 -0.0058808993
-0.070896916 -0.036592938 -0.0046097217 0.21735042 -0.31678578 0.100034334 -0.18300484 -0.021139625
-0.038204808 -0.011321953 -0.015433964 0.01460729 -0.14427212 -0.19773793 -0.071930856 0.12203453
-0.077600375 -0.017825654 -0.13762893 -0.31792125 -0.10563223 -0.08052389 -0.101277195 -0.16668697
0.036283996 0.23771605 -0.07376237 -0.16834258 -0.08341127 -0.2002482 0.17277868 0.20105082
0.019413473 0.10143447 -0.022534411 -0.010864982 -0.037463218 0.091761746 -0.37508103 0.23437901

fc2.bias f4 [256]
00000000: 7bd7 03be 14d6 03be 37a4 953c 9bf9 e4bd
00000010: 8e59 d6bd f455 30be fe7b a6bc fb09 bc3e
00000020: 0386 93bc d7d5 3abd 647d 553c ae38 f2bc
00000030: f6f3 c0bb 3654 9bbb 2ff3 0abe a5bc 813c
00000040: 31d7 a83e 1f50 2ebe b10e 9bbd c676 f83e
00000050: 400c 2fbe 2226 493e b51d a3bd f212 b7bd
00000060: ff7f 7cbd 3be4 a13d 8a1c bc3e 866d cebd
00000070: 2097 043e 6505 01be e81b 38be c5c7 08bd
00000080: fdc2 27be bbda 033f 253c 2abc 2f66 dbbd
00000090: 079b 2e3e b885 25be aeb2 113d 88df 063c
000000a0: 4ec0 cc3d 433e f93e 79f0 edbd f4f8 eabc
000000b0: 9ee3 9dbd 79c5 e2bc 301f 26be 1a59 f3bb
000000c0: d23d 71bd 3c32 c13e db01 b43d 585d 28be
000000d0: 7862 9b3e a549 4ebd c3d1 353e e189 2ebe
000000e0: d689 19bd ddd0 01be 2382 36be 5501 b83d
000000f0: d511 23be 65ec d8bd 9476 30be b822 bcbd
00000100: 3a75 1dbe d8ef 02bd ecc2 c73d 02ad 01bd
00000110: 53f2 98bd 8e6a 5c3e 3bd9 35bd 92f9 b1bd
00000120: 5506 c43b 22f6 4a3c a0f9 3abd 2512 20be
00000130: bb78 e5bd d45a d2bd 7131 0dbe f643 04be
00000140: ef4b b33e d0a7 533c b824 18be 3f16 22be
00000150: 5c98 1fbe 17b0 3abe ddd0 093e 1e69 64bd
00000160: 6504 31bd 1762 e73e 72be 7dbd 8e8d f4bd
00000170: cc9a df3e 0aa2 d0bc c1a4 edbd 1ac9 a2bd
00000180: bc89 733c ae0c 2c3e de71 c93b a478 16be
00000190: 1dce 47bd 7458 fa3e 5b2a 893e bb36 dbbd
000001a0: 833e fe3d 3acd bb3e 1989 103d f0c0 a9bd
000001b0: 9f94 16be 03f6 e1bd 89f8 f1bd 37bd 263e
000001c0: 10c3 adbd 39e4 6b3e 246e a83d c007 3ebe
000001d0: 9a92 88bc 1a45 133e 7d43 38be fc2e 133c
000001e0: 30a6 2bbd 55a0 093e 7163 c6bd 5efa a73e
000001f0: d934 43bd 4bb6 bdbd 0831 19bd f1f4 f1bd
00000200: dbf4 e73e d9f2 c5bd 5106 98bd b659 3abe
00000210: cee6 043e 5550 cc3e 4630 a2bd 04da 19be
00000220: 00d8 72bd f696 a7bc 20be 523d bdab c63e
00000230: 0b15 b63e e033 3b3d 9ce9 bcbc 9537 613c
00000240: 429b b23e 277a b13e fef6 eb3d 9c3a e03e
00000250: 6e38 273e 4f2d 0abe 2baf c7bd c337 c43b
00000260: 2686 b43e bd70 193d 9259 8a3e 1b2e 30bd
00000270: 8bb8 41bc 64cb 643e f66d f5bd 07fd ecbd
00000280: a971 e93e 0a26 2cbe 8a9b 0cbe df2f 923e
00000290: bf18 7d3e a87a d9bd 1012 11be e366 bc3d
000002a0: 142d e13e b0e9 eb3e 4648 e93e 318a be3c
000002b0: 1998 3d3d 8f29 a13e e61a fbbd abac 02be
000002c0: 9a53 0b3c 2323 df3e 1bd4 41bd c63c aabc
000002d0: 1aa0 a23e 8e2e 03be 2303 dd3e 6d1e 0fbd
000002e0: 6eaf 9dbd 81b2 51bd d192 21be 8260 93bd
000002f0: 1acc 04be c707 40be 1ab1 5fbd fe43 523e
00000300: 9b5d 90bd 8a29 4a3e 11a8 d3bc b5ad 95bd
00000310: 60df 0dbe a4a6 1fbe 83cf 243c 7a15 6cbd
00000320: 0939 aabd da08 dfbd 55a0 babd 05ef 13bd
00000330: 463d 30bd 881c 5bbd 39a4 03bd c3c8 75bc
00000340: d46d af3b 7121 a83d 2e1d f33e c890 e7bd
00000350: 9ac8 d23c 1ff9 d9bd 00ec cf3d 3f24 36be
00000360: 36ce 063e 75d4 8dbd 692b ddbd f291 a5bc
00000370: c91a 30be 2427 fb3e 03e7 33be c04b ce3e
00000380: c434 49ba 0caf 813d 497f 45bd 97da c73e
00000390: 05b5 3ebe a785 d33d 39b6 88bc 05b7 33bd
000003a0: 8acd 88bd 45bc d63e 3878 15bd 3d83 0bbe
000003b0: 817c 64bd 4c4f 83bd f34e f2bd 113c d73e
000003c0: 39e4 58bc 7bc5 40bd 9490 b23e 0b6b 4dbd
000003d0: 4900 1b3e 82ec c7bd aed0 743c df95 cc3e
000003e0: ca41 633e 65ae f7bc 92ee cd3d 97bc 753e
000003f0: 37fe be3e 55ab d83e c426 ca3e 0a41 68bd
-0.12875168 -0.12874633 0.01826678 -0.11180421 -0.104663 -0.17220289 -0.020322796 0.36726364
-0.018008238 -0.04561409 0.013030384 -0.029568043 -0.0058884574 -0.0047402633 -0.1356933 0.015837023
0.32976678 -0.17022751 -0.075711615 0.48528117 -0.17094517 0.19643453 -0.079646505 -0.089391604
-0.061645504 0.0790486 0.36740524 -0.10079484 0.12948275 -0.12599714 -0.17979395 -0.03339364
-0.16382976 0.5150563 -0.010390316 -0.10712849 0.17051326 -0.16164291 0.035570793 0.008232005
0.09997617 0.48680314 -0.11618132 -0.028683163 -0.0770943 -0.027682053 -0.16222835 -0.007426393
-0.058896847 0.37733638 0.087894164 -0.16441858 0.30348563 -0.0503632 0.17755799 -0.17044784
-0.037484966 -0.12677331 -0.1782308 0.08984629 -0.15924771 -0.10591964 -0.17232734 -0.091863096
-0.1537675 -0.031967014 0.09753975 -0.031659134 -0.07468095 0.21525022 -0.04439662 -0.0869018
0.0059822 0.012387784 -0.045648217 -0.15631922 -0.11204668 -0.1027123 -0.13788392 -0.1291655
0.3501887 0.012918428 -0.14857757 -0.15828799 -0.15585464 -0.18231235 0.13458581 -0.05576431
-0.04321708 0.45192024 -0.0619492 -0.11941062 0.43672788 -0.025467891 -0.1160369 -0.07948513
0.014864381 0.16801712 0.006147607 -0.14694458 -0.04878055 0.4889561 0.26790127 -0.107037984
0.12414267 0.36680013 0.035286997 -0.08288753 -0.14705132 -0.11033251 -0.118149824 0.16283117
-0.08484471 0.23036279 0.08224133 -0.18557644 -0.016671468 0.14381829 -0.17994495 0.00898337
-0.041906536 0.13440068 -0.09686936 0.32808203 -0.04765782 -0.09263285 -0.037400275 -0.11814297
0.45303997 -0.0966546 -0.0742308 -0.18198285 0.1297867 0.39905038 -0.07919364 -0.15024573
-0.059288025 -0.020457726 0.05145085 0.388029 0.3556293 0.04570377 -0.023060612 0.013746162
0.34884077 0.34663507 0.115217194 0.43794715 0.1633012 -0.13493846 -0.097502075 0.0059880926
0.35258597 0.03746103 0.27021462 -0.04301272 -0.011823784 0.22343212 -0.11983864 -0.11571699
0.45594528 -0.16811386 -0.13731208 0.28552148 0.24716471 -0.10619098 -0.14167047 0.091993116
0.43979704 0.46076727 0.45562953 0.023259254 0.04628763 0.3147702 -0.1226099 -0.1276118
0.008503819 0.43581495 -0.04732142 -0.020780932 0.31762773 -0.12810728 0.43166456 -0.034941126
-0.07699476 -0.051195625 -0.15778662 -0.07196142 -0.12968484 -0.18752967 -0.054612257 0.2053375
-0.07049104 0.19742408 -0.025836976 -0.073085226 -0.13854742 -0.15590912 0.01005924 -0.05763767
-0.0831166 -0.1089036 -0.09112612 -0.03611662 -0.043027185 -0.053494006 -0.032139037 -0.015001479
0.0053536687 0.082095034 0.474832 -0.11306912 0.02573042 -0.10643219 0.10152435 -0.17787264
0.131646 -0.069252886 -0.107992955 -0.020211194 -0.17197718 0.490533 -0.17568593 0.40292168
-0.0007675404 0.06332216 -0.04821709 0.39033958 -0.18623741 0.103282265 -0.016688453 -0.043875713
-0.066798285 0.41940513 -0.036491603 -0.13624282 -0.0557828 -0.06411609 -0.118314646 0.42038015
-0.013238006 -0.047063332 0.3487593 -0.050150912 0.15136828 -0.09761907 0.014942331 0.39958093
0.22193065 -0.030234525 0.10055269 0.23997723 0.37303326 0.42318216 0.394827 -0.05670265

fc3.weight f4 [1, 256]
00000000: 2f95 9e3f 1033 dabd 0904 01bf c6fe 2abd
00000010: 8e2e cabd e588 d5bd 126e 31be 54c4 0a3f
00000020: f03c 30bf 1105 35bf 2067 8b3f 1022 61bf
00000030: d0e1 423f c28f f1be 762a b1bd 3ec9 523f
00000040: 09db 4f3f 0e61 a9bd 120c 29bf daf5 3a3f
00000050: f46b b6bd 5083 4b3f 425e 1d3f 9a93 073f
00000060: c021 0d3f e7e0 163f cd1d 313f 558d 18bf
00000070: 2318 373f 7fa6 61bd 306c cfbd e584 cbbd
00000080: c21a 37bd 84ba 1d3f f850 643f 1fe5 a3bd
00000090: 9de9 4a3f 6923 863f a467 4b3f 4700 193d
000000a0: 5a97 773f 59f6 4b3f ddb4 82bd a9f0 6abf
000000b0: c5a6 28bf 6091 5fbf 4699 9ebd 46a7 fa3e
000000c0: 69ac f8be df2d 2f3f f5b2 203f e210 aebd
000000d0: b662 543f 8e3f 11bf 9301 793f 09c0 aebd
000000e0: 7039 37bf e70d 793f 70e4 71bd bb84 843f
000000f0: bb9e 61bd 0425 d8bd 76c8 8ebd f402 52bf
00000100: 8be6 09bf 1733 80be 8c4b f93e 957c f23e
00000110: f7de 1bbf 18b4 623f b827 cbbf 6320 10bf
00000120: 13ad 183f 6a5e 5b3f c86e 16be 8e96 efbf
00000130: 7e54 c1bd 04c4 12bf 95dd 6abd b0e4 89bd
00000140: 07aa 443f 7421 16bf a735 abbd 4ea9 44bd
00000150: 165b 363f 3dd6 91bd d661 303f a34b 123f
00000160: 054c 8abe abfb 203f 8f30 31be 778b b6bd
00000170: 15b9 063f 1175 55bf 38ab aebd dbb3 20bf
00000180: c897 173f cc45 6e3f 398c 15bf afb7 c4bd
00000190: 0080 56bf bc7e 173f a717 543f b654 64bd
000001a0: 84b7 293f 19a7 713f c9d1 603f c9db 03bf
000001b0: 8894 1bbd 7679 b5bd 7334 b53f d0d2 dd3e
000001c0: 71de b0be 7dbe 9b3f 8ffb 483f f926 64bd
000001d0: f469 68be e7d1 513f 4a9e 12bd cd06 02bf
000001e0: ea1b 2dbf 419b 463f 1386 4f3f c9b5 1c3f
000001f0: 3eaa 233f b2bb cdbd 499e 02bf a1ee 313f
00000200: f0a9 533f 8f4e e4bd 044a 04be 4f96 40bd
00000210: 9d5e 2d3f 23c5 fd3e b765 09be 07a2 7dbd
00000220: 3fbd 473f f288 f8be 1373 1b3f e9f7 213f
00000230: 093a 273f 9d19 1e3f 033c 0b3f 108d 403f
00000240: 8a6f 5a3f 7628 ba3e 2f4a 9a3e b28c 3f3f
00000250: 5f00 7c3f 846b abbd f6d1 f6bd a642 383f
00000260: 2d51 013f e054 0fbf 4000 a43e be4f 09bf
00000270: d583 3fbe 8c22 b93e b0e2 8abd cb9a 54bd
00000280: 69a6 023f 9a56 dcbd 2c48 aebd 844b a43e
00000290: 4130 153f f46c 7abd 2fea 91bd 3125 0e3f
000002a0: 584b 133f 14fd 433f bb4f 123f 7ecd 573f
000002b0: 24f0 053f cebd 393f 0636 76bd f2f6 84bd
000002c0: 0b54 0c3f ede6 1f3f 3d80 2abe 1bd6 88be
000002d0: 529c 893f d8cb 83bd 2c91 0d3f 1542 3b3f
000002e0: 9452 253f 5c7f 1a3f 905b a3bd 16c3 8dbf
000002f0: 005f afbd 07b5 3bbd 26d1 a33f 619c 6d3f
00000300: 6aea 8f3f bde6 773f 6a5d 31bf aa15 00bf
00000310: 38c6 ddbd 0500 59bd b5c7 22bf e1dc 433f
00000320: 8ddb 2dbf b8d7 dabd d72c 41bf 2f87 9dbf
00000330: 0563 613f 5bc5 c4bf 9ae0 10bf 08d7 3cbe
00000340: 3c19 c93c 0330 143f 7443 4e3f 733f b4bd
00000350: d7ad 003f b58e ddbd a5cb 463f 4bef e1bd
00000360: 7e81 cd3e 3e5a 40bf e248 aabd 27e6 06bf
00000370: 5fc1 d5bd 4612 423f 012a cbbd e5f2 303f
00000380: be41 593f 22c6 1a3f 99dd 53bf 9a2b 523f
00000390: 3fbf a3bd 94c9 6f3f e9de 2dbe f5f3 70be
000003a0: aa7c f6be ac4f 393f 7e54 68bf e66b d9bd
000003b0: 0621 70bf aaf6 1dbf 1fc8 acbd 7276 333f
000003c0: 2613 033f fae0 41bf 5b36 a03f af60 413f
000003d0: 78e4 123f f8a0 e6bd e2a4 3a3f d991 403f
000003e0: e914 403f 7f0e 79be 330d 473f 797e a03f
000003f0: 2e10 2e3f 0a1c 3b3f b92b 403f 65fb 63be
1.2389277 -0.10654271 -0.5039678 -0.041746877 -0.09872161 -0.10426501 -0.17327145 0.5420582
-0.68842983 -0.70710856 1.0890846 -0.879426 0.7612581 -0.4717999 -0.08650677 0.8233832
0.81193596 -0.08270465 -0.6603404 0.7303139 -0.08907309 0.7949724 0.6147195 0.529596
0.55129623 0.58936924 0.691861 -0.59590656 0.71521205 -0.055090424 -0.10128057 -0.09937457
-0.044703253 0.61612725 0.8918605 -0.08002686 0.79262716 1.0479556 0.7945502 0.03735378
0.9671532 0.7967277 -0.06382153 -0.9177347 -0.6587947 -0.873312 -0.07744078 0.48955745
-0.4856904 0.6842937 0.62773067 -0.08499314 0.8296312 -0.567376 0.9726803 -0.085327215
-0.7157202 0.9728684 -0.059055746 1.0353006 -0.055083018 -0.10553935 -0.06971829 -0.82035756
-0.53867406 -0.25038978 0.4869045 0.47360674 -0.6088709 0.8855605 -1.5871496 -0.5629942
0.5963909 0.8569094 -0.14690697 -1.8717821 -0.09439944 -0.57330346 -0.057340223 -0.06733072
0.7682194 -0.58644795 -0.08359843 -0.048013024 0.71232736 -0.07120941 0.68899286 0.5714666
-0.27011123 0.62884015 -0.1730368 -0.089133196 0.5262616 -0.83381754 -0.08528751 -0.6277444
0.59215975 0.9307525 -0.5841709 -0.09605347 -0.8378906 0.59177756 0.8284859 -0.05574485
0.6629565 0.94395596 0.87820107 -0.5150724 -0.037983447 -0.088610575 1.4156631 0.433249
-0.3454471 1.2167507 0.7850885 -0.05570123 -0.22696668 0.8196091 -0.035795487 -0.5079163
-0.6762072 0.7758065 0.81063956 0.6121488 0.63931644 -0.10045566 -0.51022774 0.69504744
0.8268118 -0.11147796 -0.1291886 -0.047018345 0.67722493 0.49564466 -0.13417707 -0.0619221
0.7802314 -0.4854198 0.60722464 0.63268906 0.6532293 0.6175783 0.54388446 0.75215244
0.85326445 0.36358994 0.30134723 0.7482406 0.98438066 -0.08370116 -0.120517656 0.719767
0.5051449 -0.55988884 0.3203144 -0.536373 -0.18702634 0.3615917 -0.067815185 -0.051905435
0.5103517 -0.107587054 -0.085098594 0.32088864 0.58276755 -0.061139062 -0.07124745 0.555255
0.5753684 0.7655804 0.5715291 0.8429793 0.5231955 0.72555244 -0.060110115 -0.064924136
0.5481574 0.6246174 -0.16650482 -0.2672585 1.075083 -0.064353645 0.5529964 0.7314771
0.6457913 0.60350585 -0.079764485 -1.107516 -0.08563042 -0.045826938 1.2798202 0.9281674
1.1243412 0.96836454 -0.69283164 -0.50033057 -0.10828823 -0.052978534 -0.6358598 0.7650891
-0.6791313 -0.10685676 -0.75459045 -1.230688 0.88041717 -1.5372728 -0.56592715 -0.18441403
0.024548166 0.5788576 0.80571675 -0.088011645 0.5026526 -0.10818235 0.77654487 -0.1103197
0.40137857 -0.751377 -0.083146825 -0.52694935 -0.10437273 0.75809133 -0.09920121 0.6912063
0.8486594 0.60458577 -0.82760006 0.8209778 -0.07995462 0.9366696 -0.16979565 -0.23530562
-0.48141986 0.72387195 -0.90753925 -0.10616283 -0.9380039 -0.61704504 -0.084366076 0.7010261
0.51201093 -0.7573391 1.2516588 0.7553815 0.57379866 -0.11261171 0.7290784 0.75222546
0.75031906 -0.24321936 0.77754515 1.2538596 0.6799344 0.7308966 0.75066715 -0.22263868

norm.weight f4 [28]
00000000: 0c9a 8c3f 98ce 9f3f a0c0 9d3f 54f7 993f
00000010: 0628 973f c20b 9e3f c258 993f ae7d 9b3f
00000020: 51e8 9a3f f861 a23f 3aa0 9a3f 9032 b03f
00000030: 5993 ad3f da2a ad3f b0a8 9e3f 6a5a ab3f
00000040: 2e35 a93f a11d 993f 6905 ae3f c2c1 9a3f
00000050: 5457 ae3f 96bc a43f 0eae ae3f 5808 883f
00000060: 3316 fd3f 124e b23f 9329 b13f 2ec1 af3f
1.0984511 1.2484922 1.232441 1.2028604 1.1809089 1.2347338 1.1980212 1.2147729
1.2102147 1.2686148 1.2080147 1.376543 1.3560592 1.3528702 1.2395229 1.3386967
1.3219354 1.1962167 1.3595401 1.209038 1.36204 1.2870052 1.3646867 1.0627546
1.97724 1.3930075 1.3840812 1.3730829

norm.bias f4 [28]
00000000: 2914 1b3e f214 863e 5b53 733e 21e5 893e
00000010: 6a58 333d 0f32 123e 50b4 97bd 77fd 403d
00000020: fdb5 dbbc ad17 ccbd 59b0 1dbd 44ac 1ebd
00000030: 341b d6bd bdea 8ebe cdb4 34be 06bf ed3c
00000040: 29c4 8cbd a102 c8bc 74a0 e93d e641 ac3d
00000050: 5646 3b3e 8434 963e 6f5e 853e 0976 af3e
00000060: e88c 2d3b cf42 763d 9a76 863e 5150 28bb
0.15144409 0.26187855 0.23762266 0.26932624 0.04378549 0.14276908 -0.07407439 0.047116723
-0.026820177 -0.09965453 -0.038498256 -0.038738504 -0.10454407 -0.27913466 -0.17647095 0.029021751
-0.06873352 -0.024415316 0.11407557 0.08411007 0.1828855 0.2933694 0.2604861 0.3426974
0.0026481692 0.060122307 0.2626236 -0.0025682638

norm.running_mean f4 [28]
00000000: 09cf b93f b286 bb3f d4e7 bb3f 210c b83f
00000010: 26c3 c33f f0b3 d13f a3e4 d83f 0e37 df3f
00000020: 3bde d83f 816f e13f 5819 ec3f 3dd6 ee3f
00000030: 39bc ed3f ae6a ec3f 2a3e db3f cfb4 d13f
00000040: 5de3 cf3f 4808 cf3f 6921 c53f 4cf3 b63f
00000050: 4096 b23f 8506 b73f 1681 ba3f 1bb5 b93f
00000060: b52a d03d b950 b43f 484f d83e 2a08 3b41
1.4516307 1.4650481 1.4680123 1.4378701 1.529393 1.6383038 1.6944774 1.7438676
1.6942819 1.7612153 1.8445234 1.865913 1.8573066 1.8470056 1.7128346 1.6383303
1.6241261 1.6174402 1.5400821 1.4292998 1.3952103 1.4298865 1.4570644 1.4508394
0.10164396 1.4087135 0.42247987 11.689493

norm.running_var f4 [28]
00000000: ed50 063f a226 123f 8fff 143f c2c3 213f
00000010: ee41 233f a3ce 1b3f 1ffc 183f ca28 303f
00000020: 0bba 283f a756 303f f577 1c3f edd7 253f
00000030: d2ff 213f 183e 1d3f 8552 253f 1ca8 293f
00000040: ce17 1c3f 88fb 123f f534 083f b83e 083f
00000050: 19f0 123f 5687 083f f50d 0d3f 0250 063f
00000060: f661 4b40 4d8d c23e 9af0 c93c 54b9 5742
0.5246723 0.570902 0.5820245 0.6318933 0.63772476 0.6086218 0.59759706 0.6881224
0.6590888 0.6888222 0.6112054 0.647826 0.63280976 0.6142287 0.6457904 0.6627214
0.60973823 0.57415056 0.53205806 0.532207 0.5739761 0.53331506 0.5509942 0.5246583
3.177854 0.3799843 0.02465086 53.930984

norm_a.weight f4 [2]
00000000: cc89 cd3f 83ed b93f
1.6057677 1.4525608

norm_a.bias f4 [2]
00000000: eb8c fa3d b84c b2bc
0.12233909 -0.021765098

norm_a.running_mean f4 [2]
00000000: c68d 15bd eea2 6d3d
-0.03651216 0.05801671

norm_a.running_var f4 [2]
00000000: ecb6 6b3e e6c3 283e
0.23018998 0.1648098
