turtlebot3_ddpg/save_model_ddpg/2020_12_03-01_44_19/stage_3_3450_actor.pth (torch_old, 588798 bytes, 10 tensors)

fc1.weight f4 [512, 28]
00000000: 1dc0 f0bd e469 ee3d a718 233d 7b8b 46bc
00000010: 238f 8e3c 9f94 093d d81f 80bd d7a7 8bbc
00000020: e10a 3e3d 59f8 d13c c852 66bd b1e6 85bc
00000030: 8b54 5abd fa80 44be 82d6 febd 1a93 4abe
00000040: 5c7c 343d 32d7 06be 8cf3 6dbd 2b0c d9bd
00000050: 5057 73bd 59a0 3e3e 80be 97be 81b8 5ebe
00000060: ef5a d5bd 38ed 1dbe c141 57bd 5bd8 b43d
00000070: 2029 ddbd 1bb2 6abd 18d8 f53d f068 8f3d
00000080: b9e2 50bd 17bd b43e 3aab 93bc 3c7b bdbc
00000090: fb86 ce3d 7372 0f3e 8e6f 2fbe 573f bb3d
000000a0: b2eb 33bd 2108 5fbe 5666 63bc 03a8 713e
000000b0: 5861 a1bd e141 413e cd0c 0a3d a7f2 a53d
000000c0: f86b 413d dd91 dabc bd16 46bc 5096 0a3d
000000d0: 285a 673e f429 0f3d 98d8 e4bd f734 4cbd
000000e0: f10d 51be d75d acbd 1542 ed3d b295 a73e
000000f0: 8b6d 933c 5c4d b4bd 3e38 a9bd b72a a5bd
00000100: e44a 57bd 2d60 1bbd 726f f33d c849 933d
00000110: 9fc2 1d3d 8870 7f3d e532 643d d47a 493e
00000120: 00c4 043e 39a6 233e a9d7 0c3e a80c 69be
00000130: 5c50 b8bd 2a8b 4c3c 4beb a0bd a9d7 083d
00000140: 94c5 913e a028 ae3d 46d2 5a3e 6907 133e
00000150: d640 a3bd 4709 4b3c aa10 cebd 9cc2 243d
00000160: df2d 043e 468a cf3c d124 32be c423 5dbe
00000170: ca61 2cbe 2c73 023e c7eb 5a3e 666d 88be
00000180: 0e2b 20bc 3ec7 7b3e c8eb a7be 8d85 f83d
00000190: 12c0 35be 4c83 ad3d 96c0 febc ab53 f0bb
000001a0: c463 dabd b75f 37bd bb40 123e 52c7 7a3d
000001b0: 6942 02be b2cf 7bbc 4dd0 463e d6db 01be
000001c0: 224d 46bd 0202 ef3d 1e3b 8fbd 7f7d 923b
000001d0: 703a bfbd 0564 1d3e 8c4e a6bd 24f9 463d
000001e0: 431c 403d 7be9 043d 2178 c7bd 6f18 30be
000001f0: e746 b8bd aaa0 14be 3253 193e 4229 e33d
00000200: 7470 0cbe 0323 4ebd 0d04 b2bc f8eb 35bc
00000210: 2cfb d33d bc93 7c3e d1e5 ddbd f5f3 8abe
00000220: 3497 873e d5ac 1d3d 89e6 a8bd b3b9 a53d
00000230: f8ca 2e3d be3a 62bd 570e d23d 6670 2d3e
00000240: 25c6 973e aed8 5c3e 4522 2a3e 2ced 4cbc
00000250: e85b 223e 5230 56bd d3cb 3e3d a154 5e3e
00000260: 2fc7 293d fb03 a53c d949 893d 3525 123e
00000270: c70b 2a3d 11e3 543d 9c57 dc3d 7c11 29be
00000280: 252d 263d c00d 083e 3a11 8dbe 595b a0be
00000290: 588d ecbc 58a4 a5bd f900 19bf b001 cb3d
000002a0: d85e 03bd 181c 36bd c26c fb3d 755b 013e
000002b0: 766d 07be 93ad f43d 80de 4a3e ba7f e63c
000002c0: fecb a4bb c6ef 64bc 2d28 3d3e a8be 863c
000002d0: 7b50 b5bd a534 333e 74d0 e43d 29ff e7bd
000002e0: 23fe 33be 23c1 b8bd 09fa 7f3d 4b5a 1ebd
000002f0: ed70 fd3d 8c5b 373d fc57 febd 8044 cebc
00000300: 007e 3abd 7883 60be 35cf 1a3e 2bb2 313e
00000310: 7630 a63d f379 1a3d fc6a 583c 76e6 05be
00000320: 650c 56bc b0d0 ec3d 064c 993e 1053 1bbe
00000330: 7717 1a3e cce8 923d 00e6 3bbd 5118 563e
00000340: 927f 543e 95d9 293e 9b2b 853d 4ce1 88bd
00000350: f105 dfbd d197 b83d ada0 d43d e80e 153e
00000360: 2187 d0bd 6ba5 f0bd a657 083d 3352 93bd
00000370: 0c01 d03b 7864 353d 0290 063d a0ab 81bd
00000380: e97c 003e 5629 0ebe ce6c 1dbd 19c8 9ebd
00000390: 2c69 a83d 4435 033e ed33 9fbd efe8 c3bd
000003a0: 180e 903d 7702 5a3d 12fd 2a3e 3e18 023d
000003b0: bbdc 11bd 136e 0c3e d60b 06be f7a9 87bd
000003c0: 37d0 91bd 4073 02be d350 523e 4a7a 10bd
000003d0: 0d2f 64be 524c a4bd dda7 873d bbdb c23d
000003e0: 1741 f6bc 680d 77be bfa8 47be e1b7 4a3e
000003f0: 5ca0 fdbd b445 543d 8700 533c 0fef a93e
-0.11755393 0.11641291 0.039818432 -0.012118216 0.017402237 0.033589 -0.06256074 -0.017047806
0.046397094 0.025631117 -0.05623129 -0.016345354 -0.053303283 -0.19189826 -0.12443258 -0.19782677
0.04406391 -0.13168028 -0.058093593 -0.10598024 -0.05940944 0.18615855 -0.29637527 -0.2175007
-0.10417735 -0.15422523 -0.052552942 0.08830329 -0.107988596 -0.05729876 0.12004107 0.07002437
-0.05099747 0.35300514 -0.018025983 -0.023130052 0.10084339 0.14008503 -0.17132398 0.091429405
-0.04392595 -0.21780445 -0.013879379 0.23599248 -0.07879895 0.18872787 0.033703614 0.08102923
0.047222108 -0.026680881 -0.012090382 0.033834755 0.22592986 0.03495212 -0.111741245 -0.0498552
-0.20415474 -0.08416336 0.1158487 0.32731396 0.01799657 -0.08803818 -0.082626805 -0.08064788
-0.052561656 -0.037933517 0.11886491 0.07191807 0.038515683 0.062363178 0.0557126 0.19675761
0.12965393 0.15981378 0.13754143 -0.22758734 -0.08999702 0.012484351 -0.078573786 0.033408795
0.28471053 0.08503842 0.21369275 0.14358296 -0.07971351 0.012392349 -0.10061772 0.040224656
0.12908123 0.025334489 -0.17396857 -0.21595675 -0.16834179 0.12739247 0.21379004 -0.26645964
-0.00977589 0.24587724 -0.32797074 0.12134848 -0.1774905 0.084723085 -0.031097692 -0.0073341927
-0.1066356 -0.044769015 0.14282505 0.061225243 -0.12720646 -0.015369343 0.19415398 -0.12681517
-0.048413403 0.11670305 -0.069936976 0.0044705267 -0.09337318 0.15370186 -0.081204504 0.048577443
0.046901952 0.032449227 -0.0973971 -0.1719682 -0.089978985 -0.14514413 0.14973143 0.11091854
-0.13714772 -0.05032636 -0.021730447 -0.011103623 0.103506416 0.24665731 -0.108348496 -0.2713925
0.26482546 0.038494904 -0.08247096 0.0809206 0.042674035 -0.055231802 0.10256641 0.16937408
0.2964336 0.21567032 0.16614635 -0.012507718 0.15855372 -0.052292176 0.0465811 0.21711971
0.041449722 0.0201435 0.067035384 0.14272006 0.041515138 0.05197436 0.10758898 -0.16510576
0.040570397 0.13286495 -0.27552205 -0.31319693 -0.028875992 -0.08087987 -0.5976711 0.09912431
-0.032072872 -0.044460386 0.12276603 0.12632544 -0.1322535 0.11947169 0.1981144 0.028137077
-0.0050292006 -0.013973182 0.18472357 0.016448334 -0.08853241 0.17500551 0.11172572 -0.11327965
-0.17577414 -0.09021213 0.06249431 -0.03866033 0.123750545 0.04476504 -0.124191254 -0.025179148
-0.04553032 -0.21925151 0.15118106 0.17353122 0.08114712 0.037713956 0.013209101 -0.13076195
-0.0130644785 0.115632415 0.29940814 -0.15168405 0.15048014 0.07173309 -0.045873642 0.20907713
0.20751789 0.16586907 0.06502458 -0.06683597 -0.10889805 0.09013332 0.10382209 0.14556468
-0.10182024 -0.11750301 0.033286713 -0.07193413 0.006347781 0.044285268 0.03285218 -0.06331563
0.1254765 -0.13882956 -0.038433842 -0.07753009 0.08223185 0.12813288 -0.07773576 -0.09565913
0.07033938 0.053225007 0.16698101 0.0317614 -0.035610896 0.13713865 -0.13090453 -0.06624215
-0.07119792 -0.12739277 0.20538644 -0.035272874 -0.22283573 -0.080223694 0.06623814 0.095145665
-0.030060334 -0.24126208 -0.19497965 0.19796707 -0.12384102 0.051824287 0.012878544 0.331902

fc1.bias f4 [512]
00000000: 4b0d 90be e792 ecbd 3b96 12be f712 51be
00000010: d08f abbe 63bb aabe 42c2 b4be f34a 40bc
00000020: ea56 20be 73d7 8bbe 02c4 a5be d110 8abe
00000030: 5734 21bd a0da 82be 1ef3 1a3e f892 62be
00000040: 98af 6b3b 97b0 a6bd 478d efbe 43ad 4ebe
00000050: 52ab f03d 9f56 8fbc f7a8 5bbe 6cab 47be
00000060: ee17 f33d 1493 6d3e d3d5 80bd 9fed 21be
00000070: b500 7dbd f2b3 d53d 5902 80be 253c 0b3e
00000080: 15cd 2bbe 9038 37be c419 80be ff92 86be
00000090: 1bbd 9ebe 2d74 53bd 5f06 70be b72f 353d
000000a0: f2f4 14be efb0 213d 962c 31be 9db9 bcbe
000000b0: 3830 2bbe d239 6cbe f80f 80be fbbf 92be
000000c0: 909a f53c 2c2b 37be 7261 1dbe 0d75 95be
000000d0: 3b99 0bbe c9e9 63be cabf 72be 95b9 67be
000000e0: ec57 aebc ac18 5dbe b787 4bbe 04a6 d0be
000000f0: af76 14be 78c9 e8bd c412 f3bd 5d10 69be
00000100: fda9 89be 19b1 78be 87d8 a7be 3815 eebd
00000110: 9236 583e a385 e3bc 7e84 e0bd 07d6 82bd
00000120: 922b e6bd 96ac 9dbe 9e07 31be d2a1 0dbe
00000130: b890 e7bd 911e 6ebe 2de7 39be f925 2cbe
00000140: 4d17 bebe 2fd5 6cbe 2345 6fbe d25e 193e
00000150: 0a86 bebe 214d 03be fad5 a2be a9e8 59be
00000160: fc70 38be e4e7 90be d567 66be 6143 4f3d
00000170: 22f1 0dbd dc43 2cbe d7bd d5bd 994e 0bbf
00000180: eb09 cbbd d207 cdbd ac11 acbe 161f d4be
00000190: 4c53 e3bc 1739 17be 4a02 72be ce39 92be
000001a0: 2276 74be eaf1 ae3d a6ba 80be 60d9 38be
000001b0: 56c3 1bbe 7be2 b6be 943f c7be ddc1 f2be
000001c0: 6c92 cebd ecac 59bd bb9c 9ebd ec58 1bbe
000001d0: b795 003e 97c9 a2be 6278 893c 2e92 55bd
000001e0: 1c4e 84be 3f9a b83d a0ce b9bd 29cb 3fbe
000001f0: 57c6 ba3d 6faa 813d 7a56 52be 3f0f 813e
00000200: 72dc 4abd dc64 823c ce41 b9be 737b abbc
00000210: 3650 91be ffa6 1dbb c879 08be 4778 9fbe
00000220: 7fa7 ce3d 3fca 8cbe 84a9 f3bd ca87 c8bd
00000230: 1426 b7bd e0a6 90be 2425 54be b235 95be
00000240: 2a2b 6fbe ff85 44be 8462 4dbe 9061 f2be
00000250: c255 91be cf0c b0be 90de 33be c1fb bfbb
00000260: ffda 39be b2cd 45be 5fbb 35be a3d2 a4be
00000270: 813c d4bc b80e 45be 74b6 99be f0a7 30be
00000280: b91c a2be d72e 11bd 1e17 d3be e1fa 63be
00000290: 3514 c6bd f6e5 a2be b99c 2dbe 76b7 85bd
000002a0: 5763 84bd 3b7d d3bd 897c cbbe cd5c 01be
000002b0: 5350 12be 30f8 2abf 5064 68be eba6 6bbc
000002c0: aec3 903d 5529 62be 1e06 c3be 9c91 373e
000002d0: bffa e9bd 3f2e 3cbe 333f 60be 358e 7f3d
000002e0: b11c 19bf 5297 d6bc 7424 83be 4ec7 903e
000002f0: 76b1 09bf ab4a 80be 0f7a b5bc 1582 67be
00000300: 18d7 81be 1d7d 90be 30da 67be 7b13 eebe
00000310: 354c 02be 1739 6dbe 3645 b8be 97d3 c6be
00000320: 383b 6ebe a20b c3be c1a8 32be 72d7 81be
00000330: b601 97be b57c 86be 16ba eabd 8f18 bbbe
00000340: 9da6 40be 7d11 05be 2daf afbe 49b5 f6bb
00000350: 250e 0b3e 4b4c c1be dd7c 07bf c193 dabe
00000360: d17a db3d 9caa 12bd 6fef 02bf ac80 bdbe
00000370: d404 c139 64cc 3cbe 45b7 6fbd 1b7d 87be
00000380: be4d c2be 91e3 a7be 3a1b 81be 67f8 0cbe
00000390: c890 19be 11f8 92bc f4b9 65be 455f 4ebe
000003a0: 259d b7be 95bc 333e 82bc 97bd 517e 3b3d
000003b0: 8558 f8be 010b 17be 10aa 13be 0764 d3be
000003c0: 1235 63be 2c65 393d 57a6 96bc fe74 b3bd
000003d0: 0dd1 243e 34d3 b5be e1ff d8bc 3552 52be
000003e0: 841a 04bb 6ded 6abe 3ed5 97be b5a2 95be
000003f0: dac9 78be cbb8 b0be 90e1 61be c4fa 01be
-0.28135142 -0.11551457 -0.14315121 -0.20417391 -0.33508158 -0.3334609 -0.35304457 -0.011736619
-0.15658155 -0.27312812 -0.32376105 -0.26965955 -0.039356556 -0.25557423 0.15131804 -0.22126377
0.0035962816 -0.081391506 -0.46787474 -0.20183282 0.11751427 -0.017497359 -0.21451174 -0.19498986
0.118697986 0.23200637 -0.06290784 -0.15813302 -0.061768252 0.104347125 -0.2500179 0.13597162
-0.16777451 -0.1789267 -0.25019658 -0.26284024 -0.3100365 -0.051624466 -0.2343993 0.044234958
-0.14546564 0.039475378 -0.17302164 -0.36860362 -0.16717613 -0.23068932 -0.25012183 -0.28662094
0.029980928 -0.17887563 -0.15369204 -0.29190865 -0.13632672 -0.2225715 -0.23705974 -0.22629388
-0.021282159 -0.21591443 -0.1987599 -0.4075166 -0.14498399 -0.11366552 -0.11868814 -0.22760148
-0.26887503 -0.24286307 -0.32782385 -0.11625141 0.21114567 -0.027773684 -0.10962771 -0.06388479
-0.11238779 -0.30795735 -0.17288062 -0.13831261 -0.113069 -0.23253848 -0.18154593 -0.1681136
-0.37127152 -0.23128198 -0.23366217 0.14977577 -0.3721164 -0.12822391 -0.31803876 -0.21280159
-0.1801185 -0.28301919 -0.22500546 0.050601367 -0.03465379 -0.16822761 -0.104366 -0.54416806
-0.09914001 -0.10011257 -0.33607233 -0.41429967 -0.02774968 -0.14767872 -0.23633686 -0.28559726
-0.23873189 0.08542235 -0.251424 -0.18051672 -0.15211233 -0.35719666 -0.38915694 -0.4741353
-0.100865215 -0.053143427 -0.07744738 -0.1517064 0.12557112 -0.31794426 0.016781036 -0.05214136
-0.25840843 0.09013795 -0.09072614 -0.18729843 0.091198616 0.06331336 -0.205408 0.25206944
-0.04952664 0.015917234 -0.36183017 -0.020932889 -0.2838151 -0.0024055836 -0.13327706 -0.31146452
0.10090541 -0.27498052 -0.11897567 -0.09791525 -0.0894281 -0.28252316 -0.20717293 -0.2914253
-0.2335631 -0.1919174 -0.20057112 -0.4734006 -0.2838574 -0.34384772 -0.1756537 -0.005858869
-0.18149947 -0.19316748 -0.17747258 -0.32191953 -0.025907757 -0.19243896 -0.30022013 -0.17251563
-0.3166254 -0.03544506 -0.41228575 -0.22263671 -0.09671823 -0.3181607 -0.16954316 -0.06529133
-0.0646426 -0.1032662 -0.3974345 -0.12633057 -0.14288454 -0.66784954 -0.22694516 -0.014383058
0.07068573 -0.2208608 -0.38090605 0.1792664 -0.11424779 -0.18377016 -0.21899109 0.06239148
-0.59809405 -0.026195202 -0.2561375 0.28277057 -0.5378641 -0.25056967 -0.022152929 -0.22608216
-0.25359416 -0.28220454 -0.22641826 -0.46499237 -0.12724383 -0.2316631 -0.35990304 -0.38833305
-0.23264778 -0.38094813 -0.17447187 -0.25359684 -0.29493493 -0.2626702 -0.11461274 -0.36542174
-0.18813558 -0.12994952 -0.34313336 -0.007528935 0.13579614 -0.3775352 -0.529249 -0.42690852
0.10716785 -0.035807237 -0.51146597 -0.3701223 0.00036815426 -0.18437344 -0.05852439 -0.26462635
-0.37949938 -0.32790807 -0.25216085 -0.13766633 -0.14996636 -0.017940553 -0.22434217 -0.2015353
-0.3586208 0.17552407 -0.07409002 0.04577476 -0.48505035 -0.14750291 -0.14420342 -0.41287252
-0.22188213 0.0452625 -0.018389864 -0.08762549 0.16095372 -0.35512698 -0.0264892 -0.20539172
-0.0020157406 -0.22942133 -0.29654878 -0.29225698 -0.2429575 -0.34515986 -0.22058702 -0.12693316

fc2.weight f4 [256, 512]
00000000: 5cc6 053d 5965 d2bc fd32 0d3d bb29 2dbd
00000010: 7497 72bb 5ffa 51bd 50fe d5bb 560d 53bb
00000020: 2452 22bd 7f6e 58bd 8411 bd3c d654 81bc
00000030: 8627 86bc 1253 203c 06b2 c63c 1e7d 63bc
00000040: ba91 87bd 7722 80bc e275 77bb 5f93 1d3c
00000050: 2154 35bd d844 e4bc 347c 9fbc 4682 61bd
00000060: 5c1f f03b 5c0d 98ba c13d a9bc aae7 c23b
00000070: b6ef 48bd bbe0 f6bc 8546 eebc 57f1 093d
00000080: 9cc8 b63c 6f92 6a3c 061f aebc 6064 afbc
00000090: 24f9 a7bc 6eb7 253c abb6 74bd b1e7 143c
000000a0: ec65 9f3b f5c3 b5bc 8df6 07bc ae73 16bd
000000b0: ac5b 2dbd 9b91 03bd 71e5 64bc 7dea a1bb
000000c0: b83c 033c b6e3 f9bc c215 e3bc accc 0abc
000000d0: e7a2 4abd d2b4 a8bd c288 f7bc 4453 313d
000000e0: 3240 b1bc b62b 6e3c 7b99 20bd 574c ad3c
000000f0: 640e 32bd d119 b93b 4faf 17bd 8f40 14bc
00000100: 0619 66bd d582 6b3c 9c21 e4bb f63e b33c
00000110: 852b 313c 1c6b 0dbd 2f44 b5b7 b2d5 893c
00000120: 02f6 74bd e0de 423c 2989 6dbd d0b2 7dbd
00000130: 59f6 0c3d 4572 63bc a8fb 303b cb38 8cbd
00000140: fbfe 383d c4e0 6dba 5499 1fbc b316 b6ba
00000150: 4208 1abd 541c 193d 10a8 14bc 7e8f 19bd
00000160: 1cbe 23bd 0eae 0abd 5eaf 05bd 5c74 83bc
00000170: 35f4 3e3c 23a3 55bc d31a b23c 43d9 1db8
00000180: 5862 33bd e4f6 a63c 818b 15bd 9ba2 cd3c
00000190: f4a8 073d b86b 63bd 6074 a3bc f3ef d0bc
000001a0: 22fb d8bb 762e 2d3c a4e6 09bd 3a93 85bd
000001b0: ee1a 07bd f83b d6bb abb5 d2b9 eaa7 b2bc
000001c0: e747 12bd 0914 ed3c 2ba3 e2bc f3f9 153c
000001d0: f5a5 e1bb 90ff 1cbc 6c29 70bd d039 9ebc
000001e0: c57b adba 388d 2ebb 3ed5 32bd 2cd4 5dbb
000001f0: c8fb 6a3a 3f17 1bbd 22bb 4f39 d66f f5bb
00000200: fa4a 7e3c 0667 45bd cf95 8b3c 9a61 dcbc
00000210: 7fd8 dabc ea1c 35bd f9e1 53bd 1d63 d73c
00000220: d4cb 13bc 54f0 263c 44bd 19bd b708 813c
00000230: aa66 163d 0a3a 94bc f9d8 70bd d873 52bd
00000240: c86f edbc 122f 83bc 1683 083d 0fd7 3939
00000250: 22ea e03b 2c9a 443b cd9d 05bc 3b8a c8bb
00000260: a274 07bc 47cc 55bc ea8f 1dbd a414 a63c
00000270: b932 f3bc d755 283c b3ec 81bc 30bc e93c
00000280: 5308 6abc b5d5 66bb 9590 95bc 00db 2dbc
00000290: 9d19 fdbc ab1d 98bd 4c08 19bd 0c3a 45bc
000002a0: fed1 0cbd 7268 86bc 28f2 9fbc 1539 4cbd
000002b0: 9aee 163c 2d27 2abc d15d e2bc eba5 593c
000002c0: 9ad7 ae3c c9e3 8cbb b13f 03bd adf3 1e3b
000002d0: 444e 6c3c 5831 22bb 64bf 1cbd 6447 d7bc
000002e0: 8da7 c83c 3582 0dbd 4e1c 04bd 81d8 06bc
000002f0: 3dc6 fc3c e0ce 3dbd e6d3 1c3c 73a1 d2bc
00000300: da7d 48bd 031c b23c f8c6 63bd 365d 2abd
00000310: 462a d9bc 7a7c a9bb d203 65bc 2335 34bd
00000320: d02a 183d ac44 0c3d d6f0 debc 28c3 68bd
00000330: 3160 a33b 58a8 d83c 8a10 83bd ded7 ff3c
00000340: 1e70 123c 920f 44bd 27cd de3c 6210 96bb
00000350: 0b8b 09bc 96e4 af3c dc77 a83c 1fd9 28bd
00000360: 166f de3a 3f69 fb3c c081 233d e49e 2abd
00000370: 8ca5 cd3c 586f 1e3d 9629 96bc e929 1bbd
00000380: 66c6 bebd e715 d33c 65df d33c e18d eb3b
00000390: a360 81bd 4cbe 083a 3050 043d 2530 44bd
000003a0: ca2c 163b 1c1c ca3c 8fab 5bbd 70c0 1bbb
000003b0: 5d43 303d a947 bf3c 3797 90bc c04f 713c
000003c0: fc73 dabc be05 343c 3758 093c 8ed4 c8bc
000003d0: 8545 043d 87b9 58bd 8b3b 63bb b319 0dbd
000003e0: 73bd 60bb 9b5b 87bc 1eb9 b73c a79b 40bd
000003f0: 5d03 16bb 030a 543c ec02 62bd b72f 01bd
0.032659873 -0.025683092 0.034472454 -0.042276125 -0.0037016543 -0.051264163 -0.0065305606 -0.0032203994
-0.039629117 -0.052839752 0.023079641 -0.015787523 -0.016376268 0.0097854305 0.02425481 -0.013884811
-0.06619592 -0.015641434 -0.0037759473 0.009617656 -0.044269685 -0.027864859 -0.019468404 -0.05505588
0.007327957 -0.0011600661 -0.02065933 0.0059480267 -0.04905673 -0.030136457 -0.02908636 0.033677425
0.022312455 0.014317139 -0.021255028 -0.021410167 -0.020504542 0.010114534 -0.05974452 0.009088443
0.004864445 -0.022188166 -0.008298528 -0.036731414 -0.042323753 -0.032121282 -0.013970719 -0.0049412833
0.008010082 -0.030504089 -0.027720336 -0.008471649 -0.049471762 -0.08237614 -0.030216578 0.0432923
-0.021637056 0.014536789 -0.03920887 0.021154566 -0.043470755 0.0056488295 -0.03703242 -0.009048595
-0.056176208 0.0143744545 -0.0069620144 0.021880608 0.0108135985 -0.034525976 -2.1608632e-05 0.01682553
-0.059804924 0.011893958 -0.057992134 -0.061938107 0.034414623 -0.013882224 0.0027005468 -0.0684677
0.045165043 -0.0009074325 -0.009741146 -0.0013892263 -0.03760553 0.03738053 -0.009073272 -0.03749036
-0.039976224 -0.033857398 -0.032637946 -0.016046695 0.011654903 -0.013039383 0.021741306 -3.7634058e-05
-0.04379496 0.020381398 -0.036509994 0.02510195 0.03312011 -0.05552265 -0.019952953 -0.025505042
-0.0066217342 0.010570159 -0.03366722 -0.06522222 -0.032984667 -0.0065379106 -0.00040189674 -0.021808583
-0.035713103 0.028940218 -0.027665695 0.009153831 -0.0068862387 -0.009582415 -0.058633253 -0.019314677
-0.0013235739 -0.0026634466 -0.043660395 -0.0033848388 0.000896391 -0.037863966 0.00019810771 -0.0074901385
0.0155208055 -0.048193954 0.017039208 -0.026902009 -0.026714562 -0.044217028 -0.051729176 0.026292378
-0.009020764 0.010189135 -0.037534013 0.015751226 0.036719 -0.018094081 -0.05880067 -0.05138001
-0.028983966 -0.016013656 0.03332814 0.0001772309 0.0068638483 0.002999912 -0.008155298 -0.006119994
-0.0082675535 -0.013049192 -0.038467325 0.020273514 -0.029687272 0.010274372 -0.015859937 0.028532118
-0.014284211 -0.0035222594 -0.018257419 -0.010611296 -0.030896002 -0.07427534 -0.03736143 -0.012037765
-0.03437995 -0.016407225 -0.019524649 -0.049859125 0.0092121605 -0.010385317 -0.027632626 0.013284187
0.021343041 -0.004299615 -0.032043163 0.0024254129 0.014422957 -0.002474865 -0.03826846 -0.026279159
0.024493957 -0.034548003 -0.032253556 -0.0082303295 0.030856246 -0.04633987 0.009572005 -0.02571175
-0.048948146 0.021741873 -0.055609673 -0.0415928 -0.026509415 -0.0051723095 -0.013977962 -0.043995988
0.037150204 0.034245178 -0.027214449 -0.05682674 0.004985832 0.02644746 -0.06399639 0.031230863
0.008937864 -0.04786641 0.027197434 -0.0045795897 -0.008394967 0.021471303 0.020564966 -0.041222688
0.0016970362 0.030689834 0.03991866 -0.041655436 0.025103353 0.038680404 -0.018330377 -0.037881766
-0.09315185 0.02576728 0.025863359 0.007188544 -0.0631726 0.0005216345 0.032303035 -0.047897477
0.002291488 0.024671607 -0.053630408 -0.0023765825 0.043032993 0.0233496 -0.01765023 0.014728487
-0.026666634 0.010987697 0.008382848 -0.024515416 0.03229286 -0.052911308 -0.0034672942 -0.034448337
-0.0034292608 -0.016523173 0.022427138 -0.04702344 -0.0022890188 0.01294184 -0.055178568 -0.031539645

fc2.bias f4 [256]
00000000: 71eb 7dbc 3de9 493c 1bfb 3a3e 6dd1 0e3d
00000010: 4635 153d ef1a cf3d 5a6b cdbd b3e9 3f3e
00000020: 8c7e 143e f9fe 70bc 4815 84bd 3da7 863d
00000030: bedc 94bd 4cb6 cdbc d76d 863d c71f 393d
00000040: 0395 913d 2360 193c 1824 e83c c111 2bbe
00000050: eb45 67be 6a63 a33d 3d6e 1e3e 94cd 9e3d
00000060: 8a29 8dbe cf42 113e fec3 91be d3e0 823d
00000070: 095d 013e aac3 b23d bffd a6be 9703 f83d
00000080: b0a0 113d ac4b d63d 901e 2fbe 41ab 293e
00000090: b0bd 5e3e a0bd 1b3e 9782 c2bc 6814 493e
000000a0: 5b8d b43e 58d3 50be 4fe5 b1bd 1c09 5f3d
000000b0: 632f 0f3e da4a e1bb 284d 863d e180 583e
000000c0: 7623 cd3d d1d2 173e 435c 2fbd 176f 65bd
000000d0: 1ae5 3dbd 76e5 d53d fb5f 85bd a6be 92bc
000000e0: e3fc 2ebe 99e3 0b3e 7776 673d 7987 f93d
000000f0: 87e7 103e 940a 563d ffc8 bcbc f55f f7bc
00000100: 7507 d73c dbb9 2e3c 44ba 2b3e 11bd 8a3d
00000110: e5d3 c63c f014 8b3e f673 203e 792c 3a3e
00000120: b660 ee3d 0965 4d3c 5f22 493c 3b70 53be
00000130: e411 953e 2e55 563e 6d74 573c 8303 83bd
00000140: aea2 763d 3fff 633d 01c0 933e be54 c63c
00000150: a763 71be c30e f73d b2d7 6ebc 8ab9 4d3e
00000160: 3379 773d 7c34 01be 8920 883e de24 d1bc
00000170: fdc6 4f3e 8963 51be 13f5 8abe 3df5 a4bd
00000180: ab97 4e3d 9994 9a3d 1d48 33be 86f9 113e
00000190: 258c c13d ea85 813e 45d5 1cbd 0332 153e
000001a0: 5dd7 923e 38a2 5e3e a99c 443e b6d6 86bd
000001b0: 3a92 fabc 3a52 f33b 7e0e 003e 2041 283e
000001c0: 2bb7 6dbc 6422 fbbc c305 193d dbdf d23d
000001d0: 35ca 233c 9338 6c3e 7945 fe3d 7484 253c
000001e0: 7622 0a3e cf41 41bb 121e 82bd b3db ccbd
000001f0: 688a 9a3c 89dd 2c3e 3b81 ca3d d472 ad3d
00000200: 5767 473e fcb1 3fbb 13ed 3f3e 85a5 ce3c
00000210: 5d3a 933d fcb3 3c3e a135 133e 27fd a53e
00000220: 3d00 233e a7b9 fa3c 2e21 313e 09e4 093e
00000230: cc6b 6a3d c4f2 1b3d 7e86 ff3c 8010 25bd
00000240: ad96 a43e 896c 143e b0aa 96bc 2bdc 9d3e
00000250: c89f 3a3d 6f4b 083e 429d b4bd 41e6 333e
00000260: ab85 523e b81d 38be daaa 4db9 5845 223b
00000270: 9326 a3be a890 87bd 06d6 ea3d 6f39 8f3e
00000280: d23b 563e 97c2 503e 65a1 0f3d 76f5 f7bb
00000290: 7ee6 4fbc 1b14 803e d4f1 653e ff5a cc3d
000002a0: 0374 03bc a659 563d e3f7 8c3d 7e14 44bd
000002b0: 88cf 5f3e 6b08 103e d3f7 333d d21d 3a3e
000002c0: 6f52 c23d 67c5 903e dbf5 233e ee7f 163b
000002d0: 9144 9d3c 514f de3d f50a 92bc 9995 0d3d
000002e0: 042a 19be 8bf1 0d3e 1485 9fbd 2d95 5f3e
000002f0: 6441 843e 8192 92bc f05a 41be 987c 503d
00000300: ff66 113e 362f 0fbe 8433 7c3d 0b63 a6bd
00000310: 48ba 8cbe b84c 35bd 9f36 823d 09a9 c5bc
00000320: 0ebe ea3d a770 51bd 17e4 d13c b56b c2bd
00000330: 6cea 9d3e e95b d93d 45db 83bc 8336 cd3c
00000340: de25 80bd 0a86 803e 7e94 0e3e 7a99 533c
00000350: 4fa3 3abd fb47 a33d 4507 953d 32a5 a63c
00000360: 2f03 833e b757 9c3e 30a1 d13b c098 3f3c
00000370: caf1 bb3d d14d 7fbc 1dff 443d 6abb 763e
00000380: 92fb 8bbe 08d6 813d deec e83c a190 f53d
00000390: ef84 d43d e023 963e 50a4 133d 82a8 303d
000003a0: ac85 da3d 6d91 86be e588 0bbd bf98 ae3c
000003b0: 7620 ebbc f1d9 55bd 72aa c03e cfa8 f2bd
000003c0: d253 cb3d 712f f6bd e56b 563e c2dd 703d
000003d0: 26ee 733d 56fb 6a3d 45c2 373e 8ada 893e
000003e0: 37a9 b93d 63e3 c7bb d16b ff3d 36e1 ba3e
000003f0: 4925 73be 420e 2f3e 6a6c 763d d677 303d
-0.015498028 0.012323675 0.18259852 0.034867693 0.03642776 0.10112559 -0.10030241 0.18741493
0.14501399 -0.014709228 -0.064493716 0.06574867 -0.07268666 -0.02511134 0.06563919 0.04519632
0.071085 0.0093613 0.028337523 -0.16705991 -0.22585265 0.07977946 0.1547174 0.07754055
-0.27570754 0.14185642 -0.28469843 0.06390538 0.12633146 0.08728726 -0.32615468 0.1211006
0.035553634 0.10463652 -0.17101502 0.16569234 0.21752048 0.15209055 -0.02374391 0.1963669
0.35264096 -0.20393121 -0.08686315 0.054452047 0.1398292 -0.006875378 0.06557685 0.21142913
0.10016529 0.14826514 -0.042812597 -0.056014147 -0.046361066 0.10444157 -0.065124474 -0.017913174
-0.17088656 0.1366104 0.05650946 0.121840425 0.1415082 0.05225618 -0.023045061 -0.030197123
0.026248673 0.010664429 0.16770273 0.06774343 0.024270961 0.27164412 0.15669236 0.18181027
0.1163954 0.012536296 0.012276261 -0.20648281 0.29115212 0.20930931 0.013150317 -0.06397154
0.060213737 0.055663344 0.28857425 0.02421033 -0.2357317 0.120633624 -0.014577793 0.20090309
0.06041832 -0.12617677 0.26587322 -0.025530275 0.20290752 -0.20448126 -0.27140102 -0.08054588
0.05043761 0.07547874 -0.17507978 0.14255342 0.094505586 0.2529748 -0.038289327 0.14569859
0.28679934 0.21741569 0.19200386 -0.065839216 -0.030587304 0.0074255737 0.12505528 0.16431093
-0.014509003 -0.030656047 0.03735901 0.10296603 0.00999694 0.23068456 0.124155946 0.01010238
0.13489708 -0.0029488688 -0.06353392 -0.10002842 0.018864825 0.16881384 0.0988793 0.08469167
0.19473015 -0.0029250374 0.1874278 0.02522541 0.07188866 0.18428034 0.14375927 0.32419702
0.1591806 0.030606104 0.17297813 0.13465895 0.05723171 0.038073316 0.03119206 -0.04029894
0.32146206 0.14494528 -0.018391937 0.30832037 0.045562536 0.13310026 -0.08819057 0.17568304
0.20558803 -0.17980087 -0.0001961397 0.002476057 -0.31865367 -0.06619388 0.11466603 0.27973506
0.20921257 0.2038673 0.035066027 -0.007567103 -0.012689231 0.2501534 0.22455531 0.09978294
-0.008023265 0.05233159 0.06883218 -0.047871105 0.2185651 0.14065711 0.043937515 0.18175438
0.09488379 0.28275606 0.16011755 0.0022964436 0.019197734 0.10854972 -0.01782749 0.034566496
-0.14957434 0.13861673 -0.077890545 0.2183425 0.2583114 -0.017892124 -0.18882346 0.05090007
0.14199446 -0.13982853 0.061572567 -0.0812436 -0.2748587 -0.044262618 0.063580744 -0.024128454
0.11462031 -0.051132824 0.025621457 -0.094932 0.30842912 0.106132336 -0.016095767 0.025050407
-0.062572226 0.25102264 0.13923833 0.01291501 -0.0455659 0.079727136 0.07276777 0.020342443
0.25588366 0.3053567 0.006397389 0.011694133 0.09176977 -0.015582518 0.048094857 0.2409493
-0.2734037 0.06339651 0.02843326 0.119904764 0.103769176 0.29324245 0.036045372 0.04312945
0.10670027 -0.26282826 -0.0340661 0.02131307 -0.028702002 -0.0522098 0.3763004 -0.11848604
0.09928097 -0.120207675 0.20939596 0.058805235 0.059553288 0.0573686 0.17945202 0.26924545
0.09065478 -0.0061001047 0.12471736 0.36499947 -0.23744692 0.17095283 0.060161985 0.043083034

fc3.weight f4 [2, 256]
00000000: 454a a73d 4908 bc3d 8f8a a3bd 7134 ed3c
00000010: e82b 7a3d c00a 483b f964 44bd 1405 72bd
00000020: 2cf9 4b3d 141b 6f3d 38ec 223d 2fb4 06bc
00000030: 8a91 afba a63e 0fbd 6353 22ba 3024 bcbd
00000040: 3e0c 65bd 3bc3 11bc d9e7 88bd 7f75 8abd
00000050: a12b 93bd 05ad be3d b956 09bc e91e 8b3d
00000060: adb4 323d 9684 3ebc 868d 3f3d 5b74 56bd
00000070: 67dd de3c 8434 8bba 2a35 eebd 8f75 9d3d
00000080: 843e 25bc 7112 e33c 08b9 70bc 1b43 b43c
00000090: 72a0 f13d 10fb 0ebd f06c c33c d5e3 273d
000000a0: 4a43 e0bd d5d9 31bd 5129 343d 90e2 103e
000000b0: 9207 683c 168e f13b 8595 803d e0e1 eabc
000000c0: b98c dbbd 8d86 33bd c787 db3c 90ec 123d
000000d0: f637 be3b 46f8 1a3e d20e a03d 5d60 a33a
000000e0: e1de 823d 23f3 873d 0584 8cbb 2496 40bd
000000f0: fd97 d9bc cb0c 5f3d c7a0 80ba 6319 59bd
00000100: 721f 873d 5d05 2ebc 0d3c 693d b133 3dbc
00000110: 8222 6abc fa6b b0bc 0fd2 8dbc 83da 72bd
00000120: ace1 cdbd c401 1dbd c8f6 9c3d f7a1 0f3e
00000130: bc79 91bd 32eb 3ebd 5d62 93bc 5e5a 8b3c
00000140: 0610 acbd 7f2a 293d 549d 3a3d fad6 f33d
00000150: ab7a bdbd b579 073d 165e 21be 00e3 d0bc
00000160: 4710 b1bc d6ed 1fbb 6d5a bf3c ac92 803d
00000170: dc7e ea3d de5d a83d 5684 8ebd c312 9ebd
00000180: 0a35 1ebe 263a 993c 7274 553d c677 0f3d
00000190: a43a 0bbe 984d 26bd 1e8f 01bd a502 23bc
000001a0: fe13 bb3c 204d 093a e289 943d 1ce9 0a3d
000001b0: 7fbf 8e3d 7cdc 6f3d 4441 16bd 4401 333b
000001c0: eae6 d4bb 66e9 5fbd e44c 49bd 05f0 413d
000001d0: 6f4c 8f3d 8c6b 943d e6a9 94bd 080c 153d
000001e0: 8e49 5e3d 627b aa3c 4576 623c a149 64bd
000001f0: 2f9a 78bc 7080 2b3c 4c48 e9bc 1b4c 2e3d
00000200: b0b1 e7bd 23fb 903c 97ec 663d 6af5 93bd
00000210: 06b9 323d bbd2 19bd 3a4d 303c efb1 673d
00000220: 337d 5ebd 35ea 63bd 306e edbd 5f81 9f3c
00000230: 35dd 89bc b274 893d ae3b 423d 64dd 1c3d
00000240: 53fa f0bc 350b 91bd ce18 0d3d c74f 483d
00000250: ca89 c7bd dd2a 9b3d 3636 063c 4953 a83c
00000260: 96d7 2cbd 94d8 653d 2332 a3bd 2cba 0fbe
00000270: 85a9 e83d c134 b93d 250e c83c 3c66 e2bd
00000280: b860 b73d f461 d6bb f5b6 403d 72f1 da3c
00000290: 1f8d d3bc ec89 2fbd 218a 6f3d 7cf0 40bd
000002a0: 89dd be3c 9903 8ebc 0096 38bc 2cf6 9abc
000002b0: 5261 153d d92a 1f3c a8ff 01be 3f73 793d
000002c0: 0661 323d 26a4 dcbc d08c 84bc 833d d2bb
000002d0: a4a8 fcbc cb1d 9cbc 0283 c2bc 2e97 9f3d
000002e0: 953d 5b3d f6af 11bd 1acc f33c f1bc 353d
000002f0: 49ac 13bd 31c9 85bd 284a 9f3c 427c ddbc
00000300: 5610 0a3d 1ef6 193e 23b0 a4be a582 3b3c
00000310: e855 9c3d 2d63 b53c 9949 4cbc d350 063d
00000320: 00eb 823c 1e27 03be a71b 9cbd 4337 abbd
00000330: 2ae7 bd3d c0e8 1a3c b227 ab3c 5718 973c
00000340: 1aec 853d de18 1ebe c068 573d 90fd 62bb
00000350: 7fe9 e8bc 9e54 333d 4fef c4bd 3093 68bc
00000360: 4cdd 1c3d d28a b83c 262c 623b 8c64 f43d
00000370: 304b b83c f2f9 19bd edb6 d1bb da52 08bd
00000380: 0885 e13d 3dc5 d6bc 4421 29bd afc8 80bd
00000390: ac8b 95bd 69d6 073d 477e e03d 156c f9bc
000003a0: 1966 163d 2595 0f3d c6d1 b8bd 0bc5 abbd
000003b0: 941b 113d a3ef 873c 1151 d43c 5804 183d
000003c0: 6a86 7b3d edbd cb3d 4c25 cfbc a498 8e3d
000003d0: 020a 6cbc e2e1 653d 854c 863b bd44 5c3d
000003e0: 6d28 383d ac3b 7c3d b172 8d3b d3ea 1b3d
000003f0: 195e 0d3d b07a 073e 5eab 8bbd 27ef 663c
0.08168463 0.09181268 -0.07985412 0.02895567 0.06107703 0.0030523986 -0.047947858 -0.059086874
0.049798176 0.058375433 0.039776057 -0.00822167 -0.0013394814 -0.034971856 -0.0006192235 -0.0918659
-0.05591988 -0.008896644 -0.066848464 -0.06760692 -0.07186056 0.093103446 -0.008382493 0.06793005
0.043629337 -0.011628291 0.046765827 -0.05235706 0.027205182 -0.0010620509 -0.11631234 0.07688438
-0.010085706 0.027718754 -0.014692552 0.022004655 0.11798181 -0.0349074 0.023855656 0.040988762
-0.10950334 -0.04342063 0.043984715 0.14148927 0.014161961 0.0073716743 0.062785186 -0.028672159
-0.107202 -0.04382949 0.026798142 0.035870135 0.005805011 0.15133771 0.07815327 0.0012464632
0.06390167 0.066381715 -0.004288199 -0.047018185 -0.026561731 0.05445556 -0.000981354 -0.053002726
0.065977946 -0.010621396 0.056942035 -0.011547969 -0.014290454 -0.021535862 -0.017312078 -0.05929042
-0.10052809 -0.038331762 0.07664257 0.14026628 -0.07103297 -0.04661102 -0.01799124 0.017010864
-0.08401494 0.041300293 0.045560196 0.11906238 -0.09251913 0.033075053 -0.15758547 -0.025498867
-0.021614207 -0.0024403236 0.023358548 0.062779754 0.11449978 0.08221029 -0.06958835 -0.07718422
-0.1544992 0.018704485 0.052113004 0.035026334 -0.13596588 -0.040601343 -0.031630628 -0.009949361
0.022836681 0.0005237628 0.072528616 0.033913717 0.06970119 0.05855988 -0.036683336 0.0027313987
-0.0064972537 -0.054665945 -0.049145594 0.04734804 0.069970004 0.072470754 -0.07258968 0.036388427
0.054269366 0.020810787 0.013822143 -0.05573428 -0.015173479 0.010467634 -0.028476857 0.04255305
-0.11313188 0.017697876 0.056377973 -0.072245434 0.043633483 -0.037554484 0.0107606 0.056566175
-0.054318618 -0.05564328 -0.11593282 0.019470869 -0.016829113 0.06711711 0.047420196 0.038297072
-0.029416239 -0.07082216 0.034447484 0.048904207 -0.09743078 0.07576535 0.008191636 0.020547526
-0.042197786 0.056114748 -0.07968547 -0.14035863 0.11360458 0.09043265 0.024420807 -0.11054656
0.089539945 -0.0065424386 0.04704948 0.026726458 -0.025824128 -0.042856142 0.05848134 -0.047104344
0.023298996 -0.0173357 -0.011266232 -0.018916212 0.036469765 0.0097148055 -0.12695181 0.060900923
0.04354956 -0.02693374 -0.016180426 -0.006416024 -0.030842133 -0.019057175 -0.02374411 0.07792507
0.053525526 -0.0355682 0.02976041 0.04436964 -0.036052976 -0.06532515 0.01944454 -0.02703679
0.033706985 0.15035293 -0.32165632 0.011444722 0.07633573 0.022142017 -0.012468719 0.032791924
0.015981197 -0.12807891 -0.07622462 -0.0836015 0.09272607 0.009454906 0.020892952 0.018444223
0.065391734 -0.15439174 0.05259013 -0.0034635998 -0.028431652 0.04378187 -0.09615957 -0.0141952485
0.038296983 0.022527132 0.0034511178 0.1193324 0.02249679 -0.037591882 -0.0063999803 -0.03328214
0.11011702 -0.026217097 -0.04129149 -0.06288277 -0.07302031 0.03316346 0.109615855 -0.030447045
0.03671846 0.035054345 -0.09024386 -0.08387192 0.03542669 0.01659376 0.025917562 0.037113518
0.061407484 0.09948335 -0.02528634 0.06962708 -0.014406683 0.05612362 0.0040984773 0.05377649
0.044960428 0.061580345 0.004316651 0.038065743 0.034513567 0.13230395 -0.06819795 0.014095104

fc3.bias f4 [2]
00000000: 762b dc3d 5015 853d
0.10750477 0.06498206

norm.weight f4 [28]
00000000: 219d 113f 3282 213f 9d5c 0a3f 08b3 0d3f
00000010: c5c7 023f b9e6 023f 1f50 073f dc25 e73e
00000020: 807b 033f da2f 003f b51c 063f f7ac 093f
00000030: 30ca 0e3f d7f1 053f a7df 053f 9cc0 0d3f
00000040: 20d0 0b3f f8d5 fb3e d427 133f 3588 173f
00000050: 3b0b 193f b219 1e3f 22fe 2c3f c9a1 1c3f
00000060: 7863 9b3f c5fc 5a3f 85dd 8e3f fd2e 383f
0.56880385 0.6308929 0.54047567 0.55351305 0.51086074 0.51133305 0.5285663 0.45146072
0.5136032 0.50073016 0.52387553 0.5377955 0.55777264 0.52322143 0.5229439 0.55372024
0.5461445 0.49186683 0.5748265 0.5919221 0.5978276 0.6175796 0.67575276 0.61184365
1.213973 0.85541946 1.1161352 0.719467

norm.bias f4 [28]
00000000: 89b7 093d fadd 103e 8baf 123e 7a8a 4c3e
00000010: 0f39 aabd 156d 2dbe 585c 2abd ad82 5a3d
00000020: f487 063c 7265 5a3c 82b7 c8bd 380a cfbd
00000030: fbac 7bbd 22eb c8bd 76c8 19be 93ca acbd
00000040: 9e80 e5bd 8d3e 32be 9507 ffbd 8f8a cebb
00000050: 5ec5 263b b68c 293e 3019 0b3e 564b 143e
00000060: 4408 3b3d 77a2 e33d b1ae c93e 522a 06bd
0.0336223 0.14147177 0.14324777 0.199747 -0.08311664 -0.16936143 -0.041591972 0.05334728
0.008211125 0.0133298505 -0.09800626 -0.10109371 -0.061444264 -0.09810473 -0.15017876 -0.084370755
-0.112061724 -0.17406674 -0.12452618 -0.0063031386 0.002544723 0.16557583 0.13583827 0.14481863
0.04566218 0.11114972 0.3939109 -0.032755204

norm.running_mean f4 [28]
00000000: 30c9 b83f 0789 bc3f fd23 c33f d045 b93f
00000010: 45e6 c83f 633d cc3f 405b d73f 73af df3f
00000020: bda4 e43f 04ad de3f 810c ed3f 0c4b ed3f
00000030: 145a e63f 97e7 e73f 720a d63f 1c35 d03f
00000040: ce45 c83f 5838 c33f 16d1 bc3f e062 bc3f
00000050: 9c6e b13f 864e b53f d7b5 b83f 96ad b83f
00000060: 02c3 203e ef3c a13f 6d57 d43e 9970 3941
1.4436398 1.4729317 1.5245358 1.447443 1.5695273 1.5956234 1.6824722 1.7475418
1.7862774 1.739655 1.8519441 1.8538527 1.799624 1.8117551 1.6721938 1.6266208
1.5646303 1.525157 1.4751308 1.4717674 1.386188 1.4164588 1.4430493 1.4427974
0.1569939 1.259672 0.4147295 11.58999

norm.running_var f4 [28]
00000000: 1019 f93e 3614 0d3f 4931 1f3f ca58 273f
00000010: cefd 2d3f 644a 2c3f 4fde 2b3f ef1e 303f
00000020: 1f8d 393f f126 283f 295b 153f 6ecd 173f
00000030: f50f 193f fa7f 193f 07e9 243f 2f80 263f
00000040: 02a2 193f 3d5b 143f 6102 133f ba9f 123f
00000050: 7d80 083f a848 003f 8ec7 fe3e 8ff0 f83e
00000060: 1c01 2f40 be0b bf3e f911 c23c 6e5a 5e42
0.48651934 0.55108964 0.6218458 0.65369856 0.679654 0.6730101 0.6713609 0.687972
0.7248096 0.6568442 0.58342224 0.59297836 0.59789973 0.599609 0.6441807 0.6503934
0.6001283 0.5795172 0.57425505 0.57274973 0.5332106 0.50110865 0.49761623 0.48621032
2.7344427 0.37313646 0.02369021 55.58831
