turtlebot3_ddpg/save_model_ddpg/2020_12_03-01_44_19/stage_3_4550_actor.pth (torch_old, 588798 bytes, 10 tensors)

fc1.weight f4 [512, 28]
0	0xbe146be9	-0.1449429
1	0x3e6d6007	0.23181163
2	0x3e6a7f76	0.22900185
3	0xbe275020	-0.16339159
4	0xbe347ebf	-0.17626475
5	0xbdc95b42	-0.09831859
6	0xbe47471f	-0.19460724
7	0xbcf16651	-0.029467734
8	0xbd3d536c	-0.046222135
9	0xbdaf77bc	-0.085677594
10	0xbe02c72c	-0.1277129
11	0xbc08175a	-0.008306349
12	0xbda0eedb	-0.07858058
13	0xbe4d0552	-0.20021561
14	0xbdd7c6bd	-0.10535953
15	0xbe32da12	-0.17466
16	0xbde41419	-0.11136646
17	0xbdf32442	-0.1187215
18	0xbde2aaea	-0.110677555
19	0xbe575a18	-0.21030462
20	0x3bfe5244	0.0077612717
21	0x3bfbb4d8	0.0076814704
22	0xbef9e73b	-0.48809227
23	0xbe5b323d	-0.21405883
24	0xbe3e7beb	-0.18601958
25	0xbdb74609	-0.08948905
26	0xbd12b70a	-0.03581909
27	0x3e37e7cc	0.17959517
28	0xbe2634dc	-0.16231102
29	0xbe0bd53f	-0.13655566
30	0x3dde22ca	0.10846479
31	0x3e5cff97	0.21581875
32	0x3d9f69ff	0.07783889
33	0x3e648309	0.22315611
34	0x3dc0786e	0.0939797
35	0x3d96b8e0	0.07359481
36	0x3e16dea2	0.14733365
37	0x3e2f45b7	0.17116438
38	0xbb52a019	-0.0032138883
39	0x3e0f774b	0.1401035
40	0xbe0d8c55	-0.13823064
41	0xbeec8d7b	-0.4620169
42	0xbd99b702	-0.07505609
43	0x3e860ccf	0.26181647
44	0xbe547405	-0.20747383
45	0x3e5e813d	0.21728988
46	0x3db9d326	0.090734765
47	0x3da19635	0.07889978
48	0xbd255120	-0.04036057
49	0xbd0941c8	-0.03351
50	0x3dc73df4	0.097286135
51	0xbce5cd90	-0.028052121
52	0x3e545932	0.2073715
53	0xbcc3d2a9	-0.023904162
54	0xbd688f67	-0.056777384
55	0xbe34aa0f	-0.17642997
56	0xbe6ee1d3	-0.23328333
57	0xbda72af5	-0.0816249
58	0x3e2c29e4	0.16812855
59	0x3ec72876	0.38898057
60	0x3c729bf0	0.014807686
61	0xbe359c78	-0.1773547
62	0xbdef3d78	-0.11681646
63	0xbe0ceb28	-0.1376158
64	0xbe09698c	-0.13419169
65	0x3d2d20d0	0.04226762
66	0x3e8e746e	0.27823204
67	0x3e15a2b5	0.14612849
68	0xbc8fe0d4	-0.017563261
69	0x3dc8a318	0.09796733
70	0xbd65298b	-0.05594782
71	0x3e14753d	0.14497848
72	0x3e371b58	0.17881525
73	0x3e333976	0.17502388
74	0x3e42eb72	0.19035128
75	0xbdca8c13	-0.09889998
76	0xbda0e038	-0.07855266
77	0x3d8856d6	0.06657188
78	0xbd8379e8	-0.06419736
79	0xbc741e32	-0.014899777
80	0x3e2f8f1d	0.17144437
81	0x3cc2180b	0.023693105
82	0x3da12432	0.07868232
83	0x3e865104	0.26233685
84	0xbd1d6366	-0.03842487
85	0xbd7a2548	-0.06107071
86	0x3c113e84	0.008865003
87	0xbc9c7cf2	-0.019102547
88	0x3d1e8c6f	0.038708147
89	0x3cac155f	0.021006284
90	0xbde90cfe	-0.11379431
91	0xbe017735	-0.1264313
92	0xbe7577b5	-0.23971446
93	0x3dba3153	0.09091439
94	0x3e4c9ab0	0.19980884
95	0xbe7cca5a	-0.24686566
96	0xbc9ad883	-0.018902069
97	0x3eba4e39	0.36387804
98	0xbef89f1c	-0.4855889
99	0x3d78c0c3	0.060730707
100	0xbe8c6af7	-0.27425358
101	0x3d9fd327	0.07803946
102	0xbd628c88	-0.055309802
103	0xbe42155f	-0.18953465
104	0xbe35d27b	-0.17756073
105	0xbcfb6b2e	-0.030690756
106	0x3e57a1a8	0.2105776
107	0x3dcf5688	0.101239264
108	0xbe0dc9a3	-0.1384645
109	0xbce26aae	-0.02763876
110	0x3e154364	0.14576489
111	0xbe55849c	-0.20851368
112	0xbdeed941	-0.11662532
113	0x3e840e11	0.25791982
114	0x3da4394c	0.08018741
115	0x3db72d2e	0.08944164
116	0xbd18c92d	-0.03730123
117	0xbd6951df	-0.056962844
118	0xbdee8577	-0.1164655
119	0xbdbc2abe	-0.0918784
120	0x3d67df97	0.056609716
121	0x3d65adb3	0.056073856
122	0xbbb0469d	-0.0053795115
123	0xbef5dff7	-0.48022434
124	0xbd595b5e	-0.05306565
125	0xbcbde750	-0.023181587
126	0x3e0e1543	0.13875298
127	0x3dd46ca0	0.10372281
128	0xbdada593	-0.084788464
129	0x3d32c298	0.04364261
130	0xbdba9927	-0.09111243
131	0xbbcfb99b	-0.0063392646
132	0x3e0a1410	0.13484216
133	0x3e67fef9	0.22655858
134	0xbc75ae72	-0.014995204
135	0xbeb5fa13	-0.35542354
136	0x3e8b3e3c	0.2719592
137	0x3e0938a9	0.1340052
138	0x3d89eb58	0.067343414
139	0xbbc1110b	-0.0058919243
140	0xbcd52056	-0.026016396
141	0x3c44853e	0.011994658
142	0xbd4dddfe	-0.050260536
143	0x3e4c39c1	0.19943906
144	0x3ea6de2b	0.32591376
145	0x3e820dd5	0.25401178
146	0x3ea4f42a	0.32217532
147	0x3e3bc327	0.18336163
148	0x3e87666b	0.26445326
149	0x3e06dbf7	0.13169847
150	0x3d87362f	0.066021316
151	0x3e7fac9d	0.2496819
152	0x3da0b375	0.07846729
153	0x3e005676	0.12532982
154	0x3c7ad53f	0.015309631
155	0x3e645d2b	0.22301166
156	0x3d1d25f5	0.038366277
157	0x3db628f8	0.08894533
158	0x3c0d2775	0.008615364
159	0xbe9cf209	-0.30653408
160	0xbd29595d	-0.04134499
161	0x3e861d5b	0.2619427
162	0xbee17bb6	-0.44039696
163	0xbed648f7	-0.41852543
164	0xbdc5c034	-0.096558005
165	0xbd9f70f9	-0.0778522
166	0xbf282734	-0.6568482
167	0x3e182d9f	0.14861153
168	0xbcfc432c	-0.030793749
169	0x3d991c98	0.07476157
170	0x3e4ad333	0.19807129
171	0x3e1041a4	0.1408754
172	0xbeb5eb1e	-0.35530943
173	0x3e5ea123	0.21741156
174	0x3e18f41c	0.1493687
175	0x3e0b2e57	0.13591896
176	0x3d937d7e	0.0720167
177	0xbd01a3d6	-0.031650387
178	0x3e51f0d4	0.20502025
179	0x3e54c7eb	0.20779388
180	0xbdd5ed6a	-0.10445674
181	0x3e2bb485	0.16768081
182	0x3d875935	0.06608812
183	0xbd8dc01a	-0.06921406
184	0xbe32d358	-0.17463434
185	0xbe610f1d	-0.21978422
186	0xbbd906b5	-0.006623114
187	0x3e69d767	0.22836076
188	0xbdfd5965	-0.12370566
189	0x3d4d464c	0.05011587
190	0xbe25ea89	-0.1620275
191	0xbc58f827	-0.013242758
192	0xbccb96a9	-0.024852114
193	0xbe927a11	-0.28608754
194	0x3e7e2fdc	0.24822944
195	0x3d77f198	0.060533136
196	0x3c6f54b9	0.014607602
197	0x3d7d3ac8	0.061823636
198	0xbdf8cbb8	-0.12148231
199	0xbe2b1c7b	-0.16710083
200	0xbcfd04d2	-0.030886088
201	0x3e8ae281	0.27125934
202	0x3ee48124	0.44629776
203	0xbe85a1fe	-0.26100153
204	0x3e8187d7	0.2529895
205	0x3ded9462	0.116005674
206	0x3bb8a739	0.005635169
207	0x3e6a559b	0.22884218
208	0x3e3050b9	0.17218293
209	0x3dae4c6e	0.085106716
210	0x3e00017e	0.12500569
211	0xbe3dd266	-0.18537292
212	0x3d722048	0.059112817
213	0x3e41246d	0.18861552
214	0x3dd9c0e7	0.10632496
215	0x3e441726	0.19149455
216	0xbde6e9e4	-0.1127508
217	0xbe0a0cef	-0.13481496
218	0xbc8626ea	-0.016375978
219	0xbdef5a73	-0.11687174
220	0x3d332b94	0.04374273
221	0x3c90661d	0.017626816
222	0x3cbe3cf4	0.023222424
223	0xbd1fd63e	-0.039022677
224	0x3e08145f	0.13289021
225	0xbe64cf7f	-0.22344778
226	0x3d88e31a	0.06683941
227	0x3dd69acd	0.10478745
228	0x3e877aa3	0.26460752
229	0x3e27ccd5	0.16386731
230	0xbc2befbc	-0.010494169
231	0x3ce5da88	0.028058305
232	0x3e36b957	0.17844139
233	0x3e07ec8c	0.13273829
234	0x3e9ae5e2	0.30253512
235	0x3e195ec6	0.1497756
236	0x3bbdac1f	0.0057883407
237	0x3e8c1aad	0.27364102
238	0xbda7efd6	-0.08200042
239	0xbdf290d6	-0.118440315
240	0xbdb1b40d	-0.0867692
241	0xbe4ebf6a	-0.20190206
242	0x3dda715b	0.10666152
243	0x3d78dbbf	0.06075644
244	0xbe90b09d	-0.28259745
245	0x3b49a6ed	0.0030769662
246	0x3e0ede90	0.13952088
247	0x3ddd3347	0.10800796
248	0xbdac44d9	-0.08411569
249	0xbeacd9c6	-0.33759898
250	0xbe7ba2f0	-0.24573874
251	0x3dadb19d	0.08481143
252	0xbd7cf766	-0.061759375
253	0x3dd9c6a9	0.106335945
254	0x3ddec0ee	0.10876642
255	0x3ed031d8	0.40663028

fc1.bias f4 [512]
0	0xbe58dffd	-0.21179195
1	0xbe0388b8	-0.12845123
2	0xbe39655b	-0.1810507
3	0xbe5b5244	-0.214181
4	0xbecac486	-0.3960306
5	0xbee717bc	-0.45135295
6	0xbe9b5d6d	-0.30344716
7	0x3d4ea7c4	0.050452963
8	0xbe128196	-0.14307246
9	0xbe58ae31	-0.21160199
10	0xbe9e9ba9	-0.30978134
11	0xbea900e4	-0.33008492
12	0xbd9f4219	-0.07776279
13	0xbe8d95d6	-0.27653378
14	0xbd0437c9	-0.032279763
15	0xbe4ea672	-0.20180681
16	0xbd829dc3	-0.06377747
17	0xbe19262f	-0.14955972
18	0xbecd1bda	-0.40060312
19	0xbe9fcf7a	-0.3121298
20	0x3d2fddd4	0.04293616
21	0xbd8552cc	-0.06509933
22	0xbe4fcdcd	-0.2029335
23	0xbe57e1ed	-0.21082278
24	0xbcc36fd9	-0.023857044
25	0x3e2bef64	0.16790539
26	0xbe3b842d	-0.1831214
27	0xbe9293ca	-0.2862838
28	0xbe609921	-0.21933414
29	0xbd4f6298	-0.050631136
30	0xbe7e4848	-0.2483226
31	0x3ca604a2	0.020265881
32	0xbe216af4	-0.15763456
33	0xbe4ba96b	-0.19888847
34	0xbe87bb04	-0.2650987
35	0xbe27064d	-0.16310997
36	0xbeba88ac	-0.36432397
37	0xbe218cbc	-0.15776342
38	0xbe56ff6e	-0.20995876
39	0xbd1bd160	-0.038041472
40	0xbe7700ad	-0.24121352
41	0xbc242c9e	-0.010020403
42	0xbe45806b	-0.19287269
43	0xbebfb9bf	-0.374464
44	0xbe971eed	-0.29515782
45	0xbed435d9	-0.41447333
46	0xbe5fdf07	-0.21862422
47	0xbe8f9096	-0.28039998
48	0xbdb7cb7e	-0.0897436
49	0xbe8a345f	-0.2699308
50	0xbe1ca884	-0.15298659
51	0xbe680bf8	-0.22660816
52	0xbd8e5ba5	-0.069510736
53	0xbe8eceb5	-0.2789208
54	0xbe85b9ff	-0.26118466
55	0xbe6b3c24	-0.2297216
56	0xbd5402fe	-0.051760666
57	0xbe3b9d50	-0.18321729
58	0xbe960b9f	-0.2930574
59	0xbeccdced	-0.40012303
60	0xbe585958	-0.21127832
61	0xbe339567	-0.17537461
62	0xbe8ce3a6	-0.27517432
63	0xbe38dd97	-0.1805328
64	0xbeb11b01	-0.34590915
65	0xbe3da076	-0.18518242
66	0xbea772d1	-0.32704785
67	0xbe455a19	-0.19272651
68	0x3d89a52f	0.067209594
69	0xbe025faf	-0.12731813
70	0xbe217853	-0.15768556
71	0xbd9cff0c	-0.07665834
72	0xbe218f2c	-0.15777272
73	0xbea979c9	-0.33100727
74	0xbe205402	-0.15657046
75	0xbe72a910	-0.23697305
76	0xbe054d9c	-0.13017887
77	0xbe9ec2e3	-0.31008062
78	0xbe749582	-0.23885158
79	0xbb9c2219	-0.004764807
80	0xbece4b97	-0.40292045
81	0xbe51e18a	-0.20496193
82	0xbea2819f	-0.31739518
83	0xbd71cf75	-0.059035737
84	0xbecfbcbf	-0.4057369
85	0xbdfc4744	-0.1231828
86	0xbea4a8c6	-0.32160014
87	0xbeb0c4fc	-0.34525287
88	0xbe549527	-0.20760022
89	0xbe6b8939	-0.23001565
90	0xbe541ac1	-0.20713331
91	0xbca2a10b	-0.019852182
92	0x3c781685	0.015142088
93	0xbe31ca3f	-0.17362307
94	0xbe483573	-0.1955164
95	0xbf1c1d7c	-0.6098249
96	0xbe2fb948	-0.17160523
97	0xbe3e960c	-0.18611926
98	0xbe9f69eb	-0.31135496
99	0xbebede82	-0.37279135
100	0x3c9ff83f	0.019527553
101	0xbe200b77	-0.15629373
102	0xbe4c71c4	-0.19965273
103	0xbeace6f4	-0.33769953
104	0xbe785e3b	-0.24254696
105	0xbc5020fa	-0.012703175
106	0xbeaf996a	-0.34296733
107	0xbdea6a28	-0.11446029
108	0xbe43b8e9	-0.19113506
109	0xbed4b3d4	-0.41543448
110	0xbee807a1	-0.4531832
111	0xbf288f49	-0.65843636
112	0xbe4eb834	-0.20187455
113	0xbddb8a36	-0.10719721
114	0xbddc32f0	-0.10751903
115	0xbd91f94f	-0.0712763
116	0xbdc82523	-0.09772708
117	0xbea7159f	-0.32633683
118	0xbe2817ce	-0.16415331
119	0xbe18f05f	-0.14935444
120	0xbe13fcf6	-0.14451966
121	0x3d9807cd	0.07423363
122	0xbda1b766	-0.078963086
123	0xbe31e0d6	-0.17370924
124	0xbd179b11	-0.037013117
125	0xbd37262b	-0.044714134
126	0xbda6ad18	-0.08138484
127	0x3d48f6e4	0.04906358
128	0xbd4de046	-0.050262712
129	0xbd1d04d1	-0.03833467
130	0xbe9664aa	-0.29373676
131	0xbddcf9d0	-0.107898355
132	0xbe832bf4	-0.2561947
133	0xbde86691	-0.11347688
134	0xbe701bde	-0.2344813
135	0xbe8ed624	-0.2789775
136	0x3d752459	0.059849117
137	0xbea92b81	-0.33041003
138	0xbdfb4717	-0.12269419
139	0xbd120fe1	-0.035659675
140	0xbe4f995d	-0.20273347
141	0xbe9781a4	-0.29591095
142	0xbe0f7ebe	-0.14013192
143	0xbea65a94	-0.3249098
144	0xbe37a80e	-0.17935202
145	0xbe68f060	-0.22747946
146	0xbe559c71	-0.20860459
147	0xbedef530	-0.43546438
148	0xbe930be0	-0.28719997
149	0xbec6e029	-0.38842896
150	0xbdd2cd56	-0.10293071
151	0xbe2f457e	-0.17116353
152	0xbe456eba	-0.1928052
153	0xbe4645ee	-0.19362614
154	0xbe410aae	-0.1885173
155	0xbe687d58	-0.22704065
156	0xbdb17815	-0.08665482
157	0xbe203ffa	-0.15649405
158	0xbed8aae7	-0.42317888
159	0xbe348938	-0.1763047
160	0xbebaf80f	-0.3651738
161	0xbd59cbb1	-0.05317277
162	0xbebe13b2	-0.371244
163	0xbe0552e5	-0.13019903
164	0xbe218b98	-0.15775907
165	0xbe55975d	-0.20858522
166	0xbe675265	-0.22590025
167	0xbe14709f	-0.14496087
168	0xbe33498b	-0.17508523
169	0xbe005bbf	-0.12534998
170	0xbeb71e9b	-0.35765538
171	0xbe35e622	-0.1776357
172	0x3c8e1b4f	0.017347006
173	0xbf5e584b	-0.86853474
174	0xbec0c191	-0.3764768
175	0xbd62f990	-0.055413783
176	0xbc9bdd32	-0.019026373
177	0xbe61b56f	-0.22041868
178	0xbec8790a	-0.39154845
179	0xbd240d33	-0.04005165
180	0xbd81ba49	-0.06334359
181	0xbe0ecf4f	-0.1394627
182	0xbe3e79de	-0.18601176
183	0xbe047208	-0.12934124
184	0xbf22c828	-0.63586664
185	0xbd8e7a74	-0.0695695
186	0xbeb81ba2	-0.35958582
187	0x3e862538	0.2620027
188	0xbf45cb6f	-0.7726354
189	0xbe8e7240	-0.2782154
190	0xbccd298d	-0.025044227
191	0xbe70b4bf	-0.23506449
192	0xbea40e4e	-0.32042164
193	0xbe5f1817	-0.21786533
194	0xbe64d00a	-0.22344986
195	0xbf1b2caa	-0.60615027
196	0xbe3a44d5	-0.1819032
197	0xbe4b2ea1	-0.19842006
198	0xbeb452ae	-0.3521933
199	0xbf0a6fe1	-0.54076964
200	0xbe72aebf	-0.23699473
201	0xbe973362	-0.2953139
202	0xbdd6d827	-0.104904465
203	0xbe5a19f8	-0.21298969
204	0xbeb2d4bd	-0.3492793
205	0xbe763c2f	-0.24046396
206	0xbdcf5e56	-0.10125415
207	0xbebbaf98	-0.36657405
208	0xbe2c1a90	-0.16807008
209	0xbe6cbcac	-0.23118848
210	0xbec0689e	-0.37579817
211	0x3bcf4c27	0.0063262167
212	0xbc524deb	-0.01283596
213	0xbecfaba3	-0.40560636
214	0xbf19dcd3	-0.60102576
215	0xbeea3c78	-0.4574926
216	0xbd8cd317	-0.068762
217	0xbcf632f5	-0.030053595
218	0xbf1b451d	-0.60652333
219	0xbf0c0bd8	-0.5470557
220	0xbc37c3ed	-0.011216146
221	0xbe1eb129	-0.15497269
222	0xbe43a053	-0.19104128
223	0xbea74140	-0.3266697
224	0xbee1c80e	-0.44097942
225	0xbe89a1dd	-0.26881304
226	0xbe497463	-0.19673304
227	0xbe52d167	-0.20587693
228	0xbe49abc4	-0.1969443
229	0x3d4433d5	0.047900993
230	0xbe637335	-0.22211917
231	0xbe912afd	-0.2835311
232	0xbee10bc8	-0.439543
233	0x3c8302e4	0.01599259
234	0xbe4c3339	-0.19941415
235	0xbcebcf21	-0.02878529
236	0xbf1f2c1c	-0.6217668
237	0xbe6e9ee0	-0.23302794
238	0xbcbb9d38	-0.022902116
239	0xbecdaa7b	-0.4016913
240	0xbe5d6773	-0.21621494
241	0xbda915a5	-0.082560815
242	0xbd35ed07	-0.0444155
243	0xbe2a83fe	-0.16651914
244	0x3d40d65f	0.04707944
245	0xbed4d336	-0.4156739
246	0xbdf425b7	-0.11921256
247	0xbe782fe7	-0.24237023
248	0xbe11da56	-0.14243445
249	0xbe898ccf	-0.2686524
250	0xbeaae19c	-0.3337525
251	0xbe7c6b88	-0.24650395
252	0xbe60af36	-0.21941838
253	0xbeccf70b	-0.4003223
254	0xbe0d690f	-0.13809608
255	0xbe1bc10c	-0.1521036

fc2.weight f4 [256, 512]
0	0x3d05c65c	0.032659873
1	0xbcd26559	-0.025683092
2	0x3d0d32fd	0.034472454
3	0xbd2d29bb	-0.042276125
4	0xbb729774	-0.0037016543
5	0xbd51fa5f	-0.051264163
6	0xbbd5fe50	-0.0065305606
7	0xbb530d56	-0.0032203994
8	0xbd225224	-0.039629117
9	0xbd586e7f	-0.052839752
10	0x3cbd1184	0.023079641
11	0xbc8154d6	-0.015787523
12	0xbc862786	-0.016376268
13	0x3c205312	0.0097854305
14	0x3cc6b206	0.02425481
15	0xbc637d1e	-0.013884811
16	0xbd8791ba	-0.06619592
17	0xbc802277	-0.015641434
18	0xbb7775e2	-0.0037759473
19	0x3c1d935f	0.009617656
20	0xbd355421	-0.044269685
21	0xbce444d8	-0.027864859
22	0xbc9f7c34	-0.019468404
23	0xbd618246	-0.05505588
24	0x3bf01f5c	0.007327957
25	0xba980d5c	-0.0011600661
26	0xbca93dc1	-0.02065933
27	0x3bc2e7aa	0.0059480267
28	0xbd48efb6	-0.04905673
29	0xbcf6e0bb	-0.030136457
30	0xbcee4685	-0.02908636
31	0x3d09f157	0.033677425
32	0x3cb6c89c	0.022312455
33	0x3c6a926f	0.014317139
34	0xbcae1f06	-0.021255028
35	0xbcaf6460	-0.021410167
36	0xbca7f924	-0.020504542
37	0x3c25b76e	0.010114534
38	0xbd74b6ab	-0.05974452
39	0x3c14e7b1	0.009088443
40	0x3b9f65ec	0.004864445
41	0xbcb5c3f5	-0.022188166
42	0xbc07f68d	-0.008298528
43	0xbd1673ae	-0.036731414
44	0xbd2d5bac	-0.042323753
45	0xbd03919b	-0.032121282
46	0xbc64e571	-0.013970719
47	0xbba1ea7d	-0.0049412833
48	0x3c033cb8	0.008010082
49	0xbcf9e3b6	-0.030504089
50	0xbce315c2	-0.027720336
51	0xbc0accac	-0.008471649
52	0xbd4aa2e7	-0.049471762
53	0xbda8b4d2	-0.08237614
54	0xbcf788c2	-0.030216578
55	0x3d315344	0.0432923
56	0xbcb14032	-0.021637056
57	0x3c6e2bb6	0.014536789
58	0xbd20997b	-0.03920887
59	0x3cad4c57	0.021154566
60	0xbd320e64	-0.043470755
61	0x3bb919d1	0.0056488295
62	0xbd17af4f	-0.03703242
63	0xbc14408f	-0.009048595
64	0xbd661906	-0.056176208
65	0x3c6b82d5	0.0143744545
66	0xbbe4219c	-0.0069620144
67	0x3cb33ef6	0.021880608
68	0x3c312b85	0.0108135985
69	0xbd0d6b1c	-0.034525976
70	0xb7b5442f	-2.1608632e-05
71	0x3c89d5b2	0.01682553
72	0xbd74f602	-0.059804924
73	0x3c42dee0	0.011893958
74	0xbd6d8929	-0.057992134
75	0xbd7db2d0	-0.061938107
76	0x3d0cf659	0.034414623
77	0xbc637245	-0.013882224
78	0x3b30fba8	0.0027005468
79	0xbd8c38cb	-0.0684677
80	0x3d38fefb	0.045165043
81	0xba6de0c4	-0.0009074325
82	0xbc1f9954	-0.009741146
83	0xbab616b3	-0.0013892263
84	0xbd1a0842	-0.03760553
85	0x3d191c54	0.03738053
86	0xbc14a810	-0.009073272
87	0xbd198f7e	-0.03749036
88	0xbd23be1c	-0.039976224
89	0xbd0aae0e	-0.033857398
90	0xbd05af5e	-0.032637946
91	0xbc83745c	-0.016046695
92	0x3c3ef435	0.011654903
93	0xbc55a323	-0.013039383
94	0x3cb21ad3	0.021741306
95	0xb81dd943	-3.7634058e-05
96	0xbd336258	-0.04379496
97	0x3ca6f6e4	0.020381398
98	0xbd158b81	-0.036509994
99	0x3ccda29b	0.02510195
100	0x3d07a8f4	0.03312011
101	0xbd636bb8	-0.05552265
102	0xbca37460	-0.019952953
103	0xbcd0eff3	-0.025505042
104	0xbbd8fb22	-0.0066217342
105	0x3c2d2e76	0.010570159
106	0xbd09e6a4	-0.03366722
107	0xbd85933a	-0.06522222
108	0xbd071aee	-0.032984667
109	0xbbd63bf8	-0.0065379106
110	0xb9d2b5ab	-0.00040189674
111	0xbcb2a7ea	-0.021808583
112	0xbd1247e7	-0.035713103
113	0x3ced1409	0.028940218
114	0xbce2a32b	-0.027665695
115	0x3c15f9f3	0.009153831
116	0xbbe1a5f5	-0.0068862387
117	0xbc1cff90	-0.009582415
118	0xbd70296c	-0.058633253
119	0xbc9e39d0	-0.019314677
120	0xbaad7bc5	-0.0013235739
121	0xbb2e8d38	-0.0026634466
122	0xbd32d53e	-0.043660395
123	0xbb5dd42c	-0.0033848388
124	0x3a6afbc8	0.000896391
125	0xbd1b173f	-0.037863966
126	0x394fbb22	0.00019810771
127	0xbbf56fd6	-0.0074901385
128	0x3c7e4afa	0.0155208055
129	0xbd456706	-0.048193954
130	0x3c8b95cf	0.017039208
131	0xbcdc619a	-0.026902009
132	0xbcdad87f	-0.026714562
133	0xbd351cea	-0.044217028
134	0xbd53e1f9	-0.051729176
135	0x3cd7631d	0.026292378
136	0xbc13cbd4	-0.009020764
137	0x3c26f054	0.010189135
138	0xbd19bd44	-0.037534013
139	0x3c8108b7	0.015751226
140	0x3d1666aa	0.036719
141	0xbc943a0a	-0.018094081
142	0xbd70d8f9	-0.05880067
143	0xbd5273d8	-0.05138001
144	0xbced6fc8	-0.028983966
145	0xbc832f12	-0.016013656
146	0x3d088316	0.03332814
147	0x3939d70f	0.0001772309
148	0x3be0ea22	0.0068638483
149	0x3b449a2c	0.002999912
150	0xbc059dcd	-0.008155298
151	0xbbc88a3b	-0.006119994
152	0xbc0774a2	-0.0082675535
153	0xbc55cc47	-0.013049192
154	0xbd1d8fea	-0.038467325
155	0x3ca614a4	0.020273514
156	0xbcf332b9	-0.029687272
157	0x3c2855d7	0.010274372
158	0xbc81ecb3	-0.015859937
159	0x3ce9bc30	0.028532118
160	0xbc6a0853	-0.014284211
161	0xbb66d5b5	-0.0035222594
162	0xbc959095	-0.018257419
163	0xbc2ddb00	-0.010611296
164	0xbcfd199d	-0.030896002
165	0xbd981dab	-0.07427534
166	0xbd19084c	-0.03736143
167	0xbc453a0c	-0.012037765
168	0xbd0cd1fe	-0.03437995
169	0xbc866872	-0.016407225
170	0xbc9ff228	-0.019524649
171	0xbd4c3915	-0.049859125
172	0x3c16ee9a	0.0092121605
173	0xbc2a272d	-0.010385317
174	0xbce25dd1	-0.027632626
175	0x3c59a5eb	0.013284187
176	0x3caed79a	0.021343041
177	0xbb8ce3c9	-0.004299615
178	0xbd033fb1	-0.032043163
179	0x3b1ef3ad	0.0024254129
180	0x3c6c4e44	0.014422957
181	0xbb223158	-0.002474865
182	0xbd1cbf64	-0.03826846
183	0xbcd74764	-0.026279159
184	0x3cc8a78d	0.024493957
185	0xbd0d8235	-0.034548003
186	0xbd041c4e	-0.032253556
187	0xbc06d881	-0.0082303295
188	0x3cfcc63d	0.030856246
189	0xbd3dcee0	-0.04633987
190	0x3c1cd3e6	0.009572005
191	0xbcd2a173	-0.02571175
192	0xbd487dda	-0.048948146
193	0x3cb21c03	0.021741873
194	0xbd63c6f8	-0.055609673
195	0xbd2a5d36	-0.0415928
196	0xbcd92a46	-0.026509415
197	0xbba97c7a	-0.0051723095
198	0xbc6503d2	-0.013977962
199	0xbd343523	-0.043995988
200	0x3d182ad0	0.037150204
201	0x3d0c44ac	0.034245178
202	0xbcdef0d6	-0.027214449
203	0xbd68c328	-0.05682674
204	0x3ba36031	0.004985832
205	0x3cd8a858	0.02644746
206	0xbd83108a	-0.06399639
207	0x3cffd7de	0.031230863
208	0x3c12701e	0.008937864
209	0xbd440f92	-0.04786641
210	0x3cdecd27	0.027197434
211	0xbb961062	-0.0045795897
212	0xbc098b0b	-0.008394967
213	0x3cafe496	0.021471303
214	0x3ca877dc	0.020564966
215	0xbd28d91f	-0.041222688
216	0x3ade6f16	0.0016970362
217	0x3cfb693f	0.030689834
218	0x3d2381c0	0.03991866
219	0xbd2a9ee4	-0.041655436
220	0x3ccda58c	0.025103353
221	0x3d1e6f58	0.038680404
222	0xbc962996	-0.018330377
223	0xbd1b29e9	-0.037881766
224	0xbdbec666	-0.09315185
225	0x3cd315e7	0.02576728
226	0x3cd3df65	0.025863359
227	0x3beb8de1	0.007188544
228	0xbd8160a3	-0.0631726
229	0x3a08be4c	0.0005216345
230	0x3d045030	0.032303035
231	0xbd443025	-0.047897477
232	0x3b162cca	0.002291488
233	0x3cca1c1c	0.024671607
234	0xbd5bab8f	-0.053630408
235	0xbb1bc070	-0.0023765825
236	0x3d30435d	0.043032993
237	0x3cbf47a9	0.0233496
238	0xbc909737	-0.01765023
239	0x3c714fc0	0.014728487
240	0xbcda73fc	-0.026666634
241	0x3c3405be	0.010987697
242	0x3c095837	0.008382848
243	0xbcc8d48e	-0.024515416
244	0x3d044585	0.03229286
245	0xbd58b987	-0.052911308
246	0xbb633b8b	-0.0034672942
247	0xbd0d19b3	-0.034448337
248	0xbb60bd73	-0.0034292608
249	0xbc875b9b	-0.016523173
250	0x3cb7b91e	0.022427138
251	0xbd409ba7	-0.04702344
252	0xbb16035d	-0.0022890188
253	0x3c540a03	0.01294184
254	0xbd6202ec	-0.055178568
255	0xbd012fb7	-0.031539645

fc2.bias f4 [256]
0	0xbc7deb71	-0.015498028
1	0xbcea4b81	-0.028600456
2	0x3e57df9f	0.21081398
3	0x3d8415e5	0.064494886
4	0xbdbc813d	-0.09204338
5	0x3d71b87a	0.05901382
6	0xbe24a8a8	-0.16079962
7	0x3e1cdd75	0.15318854
8	0x3dff91c2	0.12478973
9	0xbd860e5f	-0.0654571
10	0xbcda68a6	-0.026661228
11	0x3d90e0d3	0.07074132
12	0xbde16a41	-0.110065944
13	0xbccdb64c	-0.02511134
14	0x3d1a37dc	0.037650928
15	0x3e1f8029	0.15576233
16	0x3bcc6f32	0.0062388415
17	0x3aba2e85	0.0014204538
18	0x3de5742b	0.11203798
19	0xbe83c017	-0.2573249
20	0xbe3284d7	-0.17433487
21	0x3e023009	0.12713636
22	0x3e5b53b6	0.21418652
23	0x3e05a177	0.13049875
24	0xbeff963d	-0.4991931
25	0x3e1085d9	0.14113559
26	0xbe54bc06	-0.2077485
27	0x3de49979	0.11162085
28	0x3e80504e	0.25061268
29	0x3e07d386	0.13264284
30	0xbeeae4ca	-0.45877677
31	0x3e0a2b2f	0.13493036
32	0xbc95e1c4	-0.01829613
33	0x3dc0ec82	0.0942011
34	0xbe8d9342	-0.2765141
35	0x3d83a169	0.06427271
36	0x3e613eac	0.21996564
37	0x3e39f626	0.18160304
38	0xbcc28297	-0.02374391
39	0x3e5b690b	0.2142679
40	0x3ee8ba6c	0.4545473
41	0xbe78eb28	-0.24308455
42	0xbe488ea1	-0.19585659
43	0x3d39d090	0.045364916
44	0x3e47c540	0.19508839
45	0xbd276905	-0.04087164
46	0x3dde8dda	0.108669
47	0x3ec36bc2	0.3816815
48	0x3e7e5e2b	0.2484061
49	0x3dbb223e	0.091373906
50	0xbd2f5c43	-0.042812597
51	0xbd70a6bf	-0.05875277
52	0xbd849be1	-0.06475044
53	0x3d63d436	0.055622302
54	0xbbca036a	-0.006164958
55	0xbde0676c	-0.10957226
56	0xbe75e560	-0.24013281
57	0x3d35b13e	0.044358484
58	0x3d093522	0.033497937
59	0x3cae269b	0.021258643
60	0x3e1af6ae	0.15133163
61	0xbd42722f	-0.047472175
62	0x3bae7411	0.005323895
63	0xbd948d99	-0.0725357
64	0x3c3bd3d5	0.011464079
65	0x3cf582c6	0.029969584
66	0x3e0d4d17	0.13798939
67	0x3dc06dde	0.093959555
68	0x3dd26f22	0.10275103
69	0x3ed1e544	0.40995228
70	0x3e19e043	0.15026955
71	0x3e8db052	0.27673584
72	0x3deea3cb	0.11652335
73	0xbd833e3f	-0.06408357
74	0xbd427cab	-0.047482174
75	0xbe4c7d6b	-0.19969718
76	0x3ec55f0d	0.3854908
77	0x3e730203	0.23731236
78	0xbe07d0df	-0.13263272
79	0xbde602f7	-0.11231034
80	0x3e02d4a3	0.12776427
81	0x3d0804e8	0.033207804
82	0x3e9e3a69	0.30903938
83	0x3ce242b2	0.027619693
84	0xbec1d4ed	-0.37857762
85	0x3e3a1b48	0.1817447
86	0xbd84cb2d	-0.06484065
87	0x3e63642e	0.22206184
88	0x3d417c12	0.047237463
89	0xbdfc35db	-0.123149596
90	0x3eae3e6b	0.34031996
91	0xbd0be2f3	-0.034151983
92	0x3e8048d9	0.25055578
93	0xbebb9f0c	-0.3664478
94	0xbee62d1e	-0.44956297
95	0xbdf7d618	-0.12101382
96	0xbc8f2127	-0.017471863
97	0x3dc67ea5	0.09692124
98	0xbe42585b	-0.18979017
99	0x3ddb91e2	0.10721184
100	0x3debdfd1	0.11517299
101	0x3e996643	0.29960832
102	0xbe59d3c8	-0.21272194
103	0x3cb15920	0.021648943
104	0x3eb41b83	0.3517724
105	0x3ea66ac2	0.32503325
106	0x3e8ccc04	0.27499402
107	0xbd86d6b6	-0.065839216
108	0xbd89894d	-0.06715641
109	0x3cb88540	0.022524476
110	0x3e3b38ad	0.18283339
111	0x3db7482a	0.08949311
112	0x3d56f3bc	0.052478537
113	0xbe5b6f69	-0.21429218
114	0xbd044611	-0.032293383
115	0x3cd4635d	0.025926286
116	0xbda53ee6	-0.080686375
117	0x3e8d573e	0.27605623
118	0x3e1a799e	0.15085456
119	0xbcea3172	-0.02858803
120	0x3e0f8092	0.1401389
121	0xbdd0ccf2	-0.1019534
122	0xbe226968	-0.15860522
123	0xbddb5faf	-0.107116096
124	0x3c71c6ff	0.014756917
125	0x3e840da3	0.25791654
126	0x3dca813b	0.0988793
127	0x3d42d76e	0.04756873
128	0x3dd1d11c	0.102449626
129	0x3c37c45c	0.011216249
130	0x3e3976cc	0.18111724
131	0x3df8b02e	0.121429786
132	0x3d90f92e	0.07078777
133	0x3dfef7f6	0.124496385
134	0xbc9c2fa6	-0.01906569
135	0x3eb51b0c	0.35372198
136	0x3eb93edc	0.3618077
137	0x3c5d77e0	0.01351735
138	0x3e923028	0.28552365
139	0x3e7773f2	0.24165323
140	0x3dbeb9c1	0.093127735
141	0x3d22e67a	0.03977058
142	0x3da868ef	0.082231395
143	0xbd38d146	-0.045121454
144	0x3e54f192	0.20795277
145	0x3dd2f335	0.10300294
146	0xbc96aab0	-0.018391937
147	0x3ea74dbc	0.32676494
148	0x3d4df32c	0.050280735
149	0x3dfd367e	0.12363909
150	0xbe678c96	-0.22612223
151	0x3e0a48db	0.13504355
152	0x3e8745f4	0.26420557
153	0xbe349aef	-0.17637227
154	0x3d10a1e2	0.035310633
155	0xbd6f89c5	-0.058480997
156	0xbf09a2f6	-0.53764284
157	0xbe2f7042	-0.17132667
158	0x3e01c670	0.12673354
159	0x3e5a3825	0.2131048
160	0x3e6ea786	0.23306093
161	0x3e73ff9d	0.23827977
162	0x3c3b00e0	0.011413783
163	0xbe8e1aab	-0.2775472
164	0xbd29e6c2	-0.041479833
165	0x3e6b7a3a	0.22995844
166	0x3e90c6dd	0.2827672
167	0x3dc61cb5	0.09673444
168	0xbc037403	-0.008023265
169	0x3cb1f432	0.021722887
170	0xbcf46848	-0.029834881
171	0xbe3145b9	-0.17311753
172	0x3e901623	0.2814189
173	0x3e0dc47e	0.13844487
174	0xbcb78dfe	-0.022406574
175	0x3e23c433	0.15992813
176	0x3deb5cb8	0.11492294
177	0x3f2d510c	0.6770179
178	0x3d143b9c	0.03618966
179	0xbbb8e651	-0.00564269
180	0x3dad1b75	0.08452503
181	0x3e5b9bf7	0.21446215
182	0xbdc901a8	-0.09814769
183	0xbd57ccea	-0.052685656
184	0xbe46586e	-0.19369671
185	0x3d76a62a	0.06021706
186	0xbd9f8514	-0.077890545
187	0x3e27d005	0.16387947
188	0x3e79fed5	0.24413617
189	0x3ce7eaac	0.028310142
190	0xbe589220	-0.21149492
191	0x3d33e36f	0.04391807
192	0x3d8dbe36	0.069210455
193	0xbe4d1f90	-0.20031571
194	0x3d2a1bae	0.041530304
195	0xbdf2e852	-0.11860718
196	0xbe863b44	-0.2621709
197	0xbd354cb8	-0.044262618
198	0xbdd2d459	-0.10294408
199	0xbcc5a909	-0.024128454
200	0x3e051673	0.12996845
201	0xbdba6f3a	-0.09103246
202	0x3cb702b9	0.022340165
203	0xbdb0de66	-0.08636169
204	0x3ea4cce8	0.3218758
205	0x3d03408f	0.03204399
206	0xbbf0524a	-0.0073340284
207	0x3d0f3c62	0.034969695
208	0xbd8025de	-0.062572226
209	0x3ebc2d53	0.3675333
210	0x3e3fd00d	0.18731709
211	0xbe2677dc	-0.1625666
212	0xbd3aa34f	-0.0455659
213	0x3db089ac	0.08620009
214	0x3d6a9ff5	0.057281453
215	0xbdfea202	-0.12433244
216	0x3e764ab3	0.24051933
217	0x3e901201	0.28138736
218	0xbcaa3dbb	-0.020781389
219	0x3dac2271	0.08405007
220	0x3e1dc79a	0.15408173
221	0xbdb0400d	-0.08605967
222	0xbd5e76a2	-0.054312356
223	0x3e7fd1fa	0.24982443
224	0xbea37dc0	-0.31931877
225	0x3d23d7a7	0.040000584
226	0xbd8eb6c4	-0.069684535
227	0x3e1a12ae	0.15046188
228	0x3dfedf51	0.12444938
229	0x3e5bca90	0.2146399
230	0x3d0e4a8e	0.03473907
231	0x3dbb262f	0.09138142
232	0x3dc8fd70	0.09813964
233	0xbea7004f	-0.32617423
234	0xbdad32ff	-0.08456992
235	0x3d8f2802	0.06990053
236	0xbd9b0d7e	-0.07570933
237	0xbda5c288	-0.080937445
238	0x3ec42143	0.38306627
239	0xbd6e3516	-0.058156095
240	0x3c23cc24	0.009997401
241	0xbd6cb440	-0.057789087
242	0x3e868e3e	0.26280397
243	0x3d6ebefc	0.058287606
244	0x3cfd2cc9	0.030905144
245	0x3d127e6c	0.035765097
246	0x3e2b1427	0.16706906
247	0x3ea16f47	0.3153021
248	0x3c032a02	0.008005621
249	0xbc7b0c45	-0.0153227495
250	0x3d5b4b83	0.05353881
251	0x3ec1b938	0.37836623
252	0xbeb54d10	-0.35410357
253	0x3e28974d	0.16463967
254	0x3d4b4be5	0.049632926
255	0x3cb35b1a	0.021894027

fc3.weight f4 [2, 256]
0	0x3da74a45	0.08168463
1	0x3dabb844	0.08384755
2	0xbdfce1a8	-0.12347728
3	0x3c559abf	0.013037383
4	0x3dc1f867	0.09471207
5	0xbb265a84	-0.0025383541
6	0xbd431511	-0.047627512
7	0xbdbf4213	-0.093387745
8	0x3deffdfe	0.11718367
9	0x3e06725f	0.13129567
10	0x3d868bdc	0.06569645
11	0xbdc2f8e7	-0.095201306
12	0x3c5563e5	0.013024305
13	0xbd0f3ea6	-0.034971856
14	0xbd8f64f9	-0.07001681
15	0xbe153a62	-0.14573053
16	0xbd64ab4a	-0.055827416
17	0xbc89e63a	-0.016833413
18	0xbe0d3cb6	-0.1379269
19	0xbd88c0da	-0.066774085
20	0xbddc462f	-0.10755574
21	0x3cc9a1aa	0.02461322
22	0xbd84daca	-0.06487043
23	0x3d6e4f3f	0.058181044
24	0x3dc1d6d8	0.09464806
25	0xbd54211c	-0.051789388
26	0xbbd0be0f	-0.006370313
27	0xbdb343e8	-0.087531865
28	0x3cb98a7c	0.022649042
29	0x3caf1105	0.02137042
30	0xbe086ec6	-0.13323507
31	0x3dee1fba	0.11627145
32	0x3c5f4605	0.013627534
33	0x3cd5d0b1	0.026100488
34	0xbc29c7c2	-0.010362567
35	0x398ff6c2	0.00027458934
36	0x3e14acba	0.14519015
37	0xbd1cd9db	-0.0382937
38	0x3cc36cf0	0.023855656
39	0x3d80cdfd	0.06289289
40	0xbdb42a8f	-0.0879718
41	0xbcafa66c	-0.02144166
42	0x3d8b3973	0.06798067
43	0x3e97b339	0.29628924
44	0xbd8642fa	-0.065557435
45	0xba90666a	-0.001101685
46	0x3cef4b29	0.029210644
47	0xbd171189	-0.036881957
48	0xbe1692d5	-0.1470445
49	0xbd2401ce	-0.040040784
50	0x3cdb87c7	0.026798142
51	0x3c87ffb3	0.01660142
52	0xbbb09be5	-0.005389678
53	0x3de8b36a	0.113623455
54	0x3dc47a46	0.09593634
55	0x3d83f23b	0.06442686
56	0x3de41739	0.11137242
57	0x3d95d6e2	0.07316376
58	0xbd878875	-0.06617824
59	0xbd47fae8	-0.048823267
60	0x3c9684f7	0.01837395
61	0x3df41014	0.11917129
62	0xbddc021a	-0.10742588
63	0xbd81b1e3	-0.06332757
64	0x3d8bfaa7	0.068349175
65	0xbc902c6f	-0.017599313
66	0x3dace820	0.08442712
67	0xbda71618	-0.08158511
68	0xbd84165f	-0.064495794
69	0xbccae292	-0.02476624
70	0xbcd41ad2	-0.025891695
71	0xbd9b8c9f	-0.07595181
72	0xbe5264ed	-0.20546313
73	0xbd92714e	-0.071505174
74	0x3c1533c3	0.009106579
75	0x3dfdcfa2	0.123931184
76	0xbd626b14	-0.0552779
77	0xbdc9e7af	-0.09858643
78	0x3c3d3e21	0.011550457
79	0x3bda9854	0.006670991
80	0xbe11f616	-0.1425403
81	0x3da92d1c	0.08260557
82	0x3d3b0ca7	0.045666363
83	0x3e084af9	0.1330985
84	0xbd9ed132	-0.077547446
85	0x3d9a9b1c	0.07549116
86	0xbe26b299	-0.16279067
87	0xbd202d65	-0.03910579
88	0xbbb9c1b5	-0.0056688436
89	0xbd59183c	-0.053001627
90	0x3d384107	0.04498389
91	0x3dc5ef48	0.0966478
92	0x3e16c6c0	0.14724255
93	0x3d91dc02	0.07122041
94	0xbd9dfba9	-0.07714016
95	0xbdea3926	-0.114366814
96	0xbe0df5ce	-0.13863298
97	0x3d8818c3	0.06645348
98	0x3d9e0de6	0.07717495
99	0x3cddb8d9	0.027065681
100	0xbdf80114	-0.12109581
101	0xbd893752	-0.06700005
102	0xbd0755d2	-0.03304083
103	0xbcb789e6	-0.022404622
104	0x3bc7b2fe	0.0060943356
105	0xbccd9715	-0.025096456
106	0x3d83f07c	0.06442353
107	0x3d0ae91c	0.033913717
108	0x3dc51663	0.096234106
109	0x3dc132f3	0.09433546
110	0xbe21c6c8	-0.15798485
111	0x3c26b3f2	0.010174738
112	0xbc08605a	-0.008323753
113	0xbd933033	-0.07186928
114	0xbdb32881	-0.0874796
115	0x3d6863fa	0.05673597
116	0x3cea5dd1	0.028609188
117	0x3d9edd00	0.07756996
118	0xbdb0d019	-0.086334415
119	0x3d5bb97a	0.05364368
120	0x3d5146b6	0.051092826
121	0xbd10e018	-0.035369962
122	0x3b0c501a	0.002141005
123	0xbd7bca23	-0.06147207
124	0xbc2be6aa	-0.010492006
125	0xbbdd9047	-0.006761584
126	0xbce9484c	-0.028476857
127	0x3d631d17	0.055447664
128	0xbe138fcf	-0.14410327
129	0xbb80cba6	-0.003930527
130	0x3d929db7	0.07158988
131	0xbe00bb62	-0.12571481
132	0x3d4309fa	0.047616936
133	0xbce4ab67	-0.027913762
134	0x3d2b7fdc	0.041869983
135	0x3d7af6ec	0.06127064
136	0xbd44f03d	-0.04808067
137	0xbc98be45	-0.018645415
138	0xbe172b47	-0.14762603
139	0x3cc2930e	0.023751762
140	0xbcab7b5e	-0.02093285
141	0x3da49d93	0.080378674
142	0x3cd3bd71	0.025847169
143	0x3d10fec0	0.0353992
144	0xbd0a6c54	-0.033794716
145	0xbdbf7744	-0.0934892
146	0x3d0d18ce	0.034447484
147	0x3d34a9ac	0.044107124
148	0xbdbcf74f	-0.09226858
149	0x3cb85146	0.022499692
150	0x3cabbc22	0.020963732
151	0xbcfeb961	-0.031094255
152	0xbd11c5b6	-0.035588942
153	0x3d07d54d	0.033162404
154	0xbdc1276a	-0.09431346
155	0xbeb5d67b	-0.35515198
156	0x3dff9b22	0.12480761
157	0x3dcb9802	0.099411026
158	0xbc5c8bf0	-0.013461098
159	0xbd585504	-0.052815452
160	0x3da74578	0.08167547
161	0x3c46eb43	0.012141052
162	0x3c2b203a	0.010444695
163	0x3d8263a4	0.06366661
164	0xbad4e828	-0.0016243504
165	0xbde774c9	-0.11301572
166	0x3d0eecb7	0.034893718
167	0xbd875a04	-0.06608966
168	0x3cbedd89	0.023298996
169	0xbd1de73a	-0.038550593
170	0xbbcb4be7	-0.0062041166
171	0xbb3dc6a3	-0.0028957508
172	0x3c9d564b	0.019206187
173	0xbd5f7ee7	-0.054564383
174	0xbde321da	-0.11090441
175	0x3d094e6c	0.033522055
176	0x3d518a91	0.051157538
177	0xbd09d2b8	-0.033648223
178	0x3baba7a4	0.00523849
179	0x3ac7a575	0.0015231805
180	0xbd59055d	-0.05298363
181	0xbd0736d9	-0.03301129
182	0xbd62ed4b	-0.05540208
183	0xbc61cb1f	-0.013781338
184	0x3dc7741b	0.09738942
185	0xbcd1d1be	-0.025612708
186	0x3cf3cc1a	0.02976041
187	0x3d023f13	0.031798434
188	0xbd3fea58	-0.046854347
189	0xbd50c53a	-0.05096934
190	0x3b54cda6	0.0032471209
191	0xbd4381dd	-0.04773127
192	0x3c9933b5	0.018701414
193	0x3e591ca0	0.21202326
194	0xbe735e74	-0.237665
195	0xbb82654a	-0.0039793598
196	0x3c08706f	0.0083275875
197	0x3cb5632d	0.022142017
198	0xbc2a5966	-0.010397291
199	0x3d0650d3	0.032791924
200	0xbd878988	-0.06618029
201	0xbe15249d	-0.14564748
202	0xbcb5ddba	-0.022200454
203	0xbdb98710	-0.09058964
204	0x3df4408b	0.11926373
205	0x3cdbea75	0.026845196
206	0x3c131538	0.008977227
207	0x3c8fb137	0.017540557
208	0x3d85ec1a	0.065391734
209	0xbe0db2d4	-0.13837749
210	0x3ddc5143	0.10757687
211	0xbd5a0010	-0.053222716
212	0xbce8e97f	-0.028431652
213	0x3d4dedb8	0.050275534
214	0xbe218fcd	-0.15777512
215	0x3c3160f8	0.010826342
216	0x3d28282c	0.041053936
217	0x3d33bc79	0.043880913
218	0x3d317c2e	0.043331318
219	0x3df17dff	0.1179161
220	0xbc7509cd	-0.01495595
221	0xbcd08921	-0.025456013
222	0xbcbc9492	-0.023020063
223	0xbd69fdbc	-0.057126746
224	0x3d5d1312	0.053973265
225	0xbd534892	-0.05158288
226	0xbd3e3c09	-0.046443973
227	0xbd496a4f	-0.04917365
228	0xbdc0ae80	-0.09408283
229	0x3d805385	0.0626593
230	0x3d954988	0.072894156
231	0xbd5ce3d6	-0.05392822
232	0x3d41401c	0.04718028
233	0x3d0e601d	0.03475963
234	0x3c55156e	0.0130055975
235	0xbdda42a2	-0.106572405
236	0x3d1f0a82	0.03882838
237	0xbceeffb3	-0.029174661
238	0x3d2430e4	0.04008569
239	0x3d7826fb	0.06058405
240	0x3d70d1ae	0.058793716
241	0x3da96742	0.08271648
242	0xbce8de67	-0.028426362
243	0x3da41b4a	0.080130175
244	0xbdb0f699	-0.08640785
245	0x3ca45c3e	0.020063516
246	0x3ca4f2ef	0.020135371
247	0x3d6b8264	0.057497397
248	0x3d9121f6	0.07086556
249	0x3dac9dfa	0.08428569
250	0x3bdb7a49	0.006697927
251	0x3c953cec	0.018217526
252	0x3ce735a1	0.028223814
253	0x3e33ae2c	0.1754691
254	0xbdd2a6c9	-0.10285718
255	0x3cd3594b	0.025799414

fc3.bias f4 [2]
0	0x3d4975a4	0.049184456
1	0x3dfc3d02	0.12316324

norm.weight f4 [28]
0	0x3e9f4858	0.3110988
1	0x3ed8019b	0.42188725
2	0x3ebd58ad	0.36981717
3	0x3eb4d432	0.35318142
4	0x3ea09928	0.3136685
5	0x3eaf58ae	0.34247345
6	0x3ea854dd	0.32877246
7	0x3e95b017	0.29235908
8	0x3e946304	0.28981793
9	0x3e9ea32f	0.30983874
10	0x3e9413a7	0.28921244
11	0x3e9890e7	0.29798052
12	0x3e9eb9cf	0.31001136
13	0x3ea6ef24	0.32604325
14	0x3ea613fe	0.32437128
15	0x3eae6729	0.3406308
16	0x3eade660	0.33964825
17	0x3e937765	0.28802028
18	0x3eb5b9ce	0.3549332
19	0x3eb46256	0.35231274
20	0x3ecd600b	0.40112337
21	0x3ed713ee	0.42007393
22	0x3ef25db3	0.47337112
23	0x3ea4fb4e	0.3222298
24	0x3f7815f4	0.969085
25	0x3f25acdb	0.6471688
26	0x3f5e648a	0.8687216
27	0x3ef82b54	0.48470557

norm.bias f4 [28]
0	0x3ced96d0	0.029002577
1	0x3e1341bd	0.14380546
2	0x3ddb2466	0.10700302
3	0x3e035508	0.12825406
4	0xbaf73951	-0.0018861686
5	0xbd9bb731	-0.076033
6	0xbd9edb0f	-0.07756626
7	0x3b200f1a	0.0024423064
8	0xbc1b0dbc	-0.009463724
9	0x3bc141e7	0.0058977487
10	0xbd2b16d8	-0.041769832
11	0xbdb718e8	-0.08940297
12	0xbd800d1a	-0.06252499
13	0xbdaf5746	-0.08561568
14	0xbdccc90f	-0.099992864
15	0xbddbad6c	-0.10726437
16	0xbdbcce90	-0.09219086
17	0xbdf0df87	-0.117613845
18	0xbdac3f9a	-0.084105685
19	0xbaef35da	-0.0018250302
20	0x3c4a54c0	0.012349308
21	0x3e0d9bad	0.13828917
22	0x3e0e2ba7	0.1388384
23	0x3dfadb94	0.122489125
24	0x3de217e9	0.11039717
25	0x3e6849a7	0.22684346
26	0x3eff6be2	0.49886996
27	0xbc806531	-0.015673252

norm.running_mean f4 [28]
0	0x3fc77b4f	1.5584506
1	0x3fcf98b8	1.6218481
2	0x3fd6c116	1.6777675
3	0x3fcec425	1.6153609
4	0x3fd804d4	1.6876473
5	0x3fda4fd9	1.7055618
6	0x3fd5d822	1.6706583
7	0x3fd9433b	1.6973642
8	0x3fe82b8f	1.8138293
9	0x3fe5404c	1.7910247
10	0x3fee9236	1.863837
11	0x3fe6eae6	1.8040435
12	0x3fdef617	1.7418851
13	0x3fd0b140	1.6304092
14	0x3fc1fddf	1.51556
15	0x3fb80a0f	1.437807
16	0x3fb5954b	1.4186186
17	0x3fae0742	1.3595965
18	0x3fa84e0a	1.3148816
19	0x3fab6f00	1.339325
20	0x3faa0004	1.3281255
21	0x3fb6ce6c	1.4281745
22	0x3fbbd0ec	1.4673133
23	0x3fc768b5	1.5578829
24	0x3eb32ef3	0.34996757
25	0x3f9d2e3d	1.2279736
26	0x3ed396bd	0.41325942
27	0x41394dc8	11.58149

norm.running_var f4 [28]
0	0x3ee1e7b6	0.44122094
1	0x3efae0e7	0.48999712
2	0x3f1a5806	0.60290563
3	0x3f3cfaa5	0.73819953
4	0x3f60e9d1	0.87856776
5	0x3f6b9b08	0.92033434
6	0x3f6f8cb3	0.93574065
7	0x3f5a07d8	0.8516822
8	0x3f56a924	0.8385184
9	0x3f373607	0.71566814
10	0x3f10667d	0.56406385
11	0x3f03afaa	0.5143992
12	0x3f09dbe5	0.5385116
13	0x3f0e82b5	0.55668193
14	0x3f1fa90c	0.6236732
15	0x3f19b8b1	0.6004744
16	0x3f2b0ee5	0.668196
17	0x3f277767	0.6541657
18	0x3f1bb84e	0.608281
19	0x3f14048d	0.57819444
20	0x3f0894a2	0.53351796
21	0x3efed8be	0.49774736
22	0x3ee2fc10	0.44332933
23	0x3ee2c1c5	0.4428846
24	0x4009b795	2.15183
25	0x3edadf91	0.42748693
26	0x3ca71c6a	0.020399291
27	0x423b8194	46.87654
