turtlebot3_ddpg/save_model_ddpg/2020_12_06-03:21:16/stage_1_550_actor.pth (torch_old, 587853 bytes, 9 tensors)

fc1.weight f4 [512, 28]
0	0xbd6856b4	-0.05672331
1	0xbc5f2263	-0.013619038
2	0xbdb8d2d9	-0.09024591
3	0xbe237bf0	-0.15965247
4	0xbdcd55b0	-0.10026109
5	0x3b9a078e	0.0047006076
6	0xbcd8677e	-0.026416536
7	0xbc3fd01a	-0.01170733
8	0xbd0e067e	-0.03467416
9	0x3d725298	0.0591608
10	0xbd22fb37	-0.03979036
11	0xbe10fbdf	-0.14158581
12	0x3b88f3ae	0.0041794395
13	0xbe029523	-0.12752204
14	0x3e072486	0.13197526
15	0xbdc75dac	-0.09734663
16	0x3d9adc39	0.075615354
17	0xbdba2aea	-0.090902165
18	0xbc81feac	-0.015868507
19	0xbe1799cc	-0.14804763
20	0xbd97e2b4	-0.07416287
21	0x3e519bb5	0.20469554
22	0xbd9f5378	-0.07779592
23	0xbe10c5a7	-0.14137898
24	0xbd530497	-0.05151805
25	0xbdf1420c	-0.117801756
26	0xbe3250d7	-0.1741365
27	0xbdda490c	-0.10658464
28	0xbd87c7a1	-0.06629873
29	0x3d989a73	0.07451334
30	0x3da91833	0.08256569
31	0xbd8e3533	-0.06943741
32	0x3ba4a2be	0.005024283
33	0x3e2aa6bc	0.16665167
34	0x3d455dbb	0.04818509
35	0x3d3323c1	0.04373527
36	0xbcbee68b	-0.02330329
37	0x3dc6db77	0.09709828
38	0x3bfdb071	0.0077419807
39	0x3dc23d0f	0.09484302
40	0xbd2edccc	-0.042691037
41	0xbd81db28	-0.06340629
42	0xbd416521	-0.047215585
43	0x3e12029e	0.14258811
44	0x3e4220ad	0.18957777
45	0xbdd9cc6f	-0.10634696
46	0x3e13da88	0.14438832
47	0xbe0363c7	-0.12831031
48	0x3ce8b46e	0.028406348
49	0xbd42569e	-0.047445886
50	0x3e158fab	0.14605586
51	0x3dc92247	0.09820991
52	0x3e05ef0f	0.13079475
53	0x3e51bb6a	0.20481649
54	0xbd956916	-0.07295434
55	0xbe3d533b	-0.18488781
56	0xbde9d74d	-0.114180185
57	0x3deba8a4	0.11506775
58	0x3dece6cd	0.11567459
59	0x3dd3f2e1	0.1034906
60	0x3dd752a3	0.105138086
61	0xbdaa344c	-0.08310756
62	0xbcc60212	-0.02417091
63	0xbe457788	-0.19283879
64	0x3d6820e3	0.05667199
65	0x3cec9e0e	0.02888396
66	0xbe0fad59	-0.1403097
67	0xbc848cc4	-0.016180404
68	0xbda4e778	-0.08051962
69	0xbdb69067	-0.08914261
70	0xbe4db993	-0.20090322
71	0xbd810048	-0.06298882
72	0x3dee38bf	0.11631917
73	0x3d263734	0.04057999
74	0x3e123070	0.1427629
75	0x3db01ebb	0.08599611
76	0xbe66372c	-0.22481984
77	0xbc48184d	-0.012212825
78	0xbaca5b98	-0.0015438674
79	0x3e01cb4e	0.12675211
80	0x3e195c36	0.14976582
81	0xbe6d9a40	-0.23203373
82	0x3d65d956	0.05611547
83	0x3d9471b8	0.07248253
84	0xbde948a2	-0.11390807
85	0x3d4310cf	0.04762345
86	0xbd9c7e3d	-0.076412655
87	0x3dab1277	0.08353131
88	0x3da8a46b	0.08234485
89	0xbe292b1c	-0.16520351
90	0xbe512283	-0.20423321
91	0xbe11763f	-0.14205264
92	0xbe036a72	-0.12833574
93	0x3cf235f7	0.029566748
94	0x3de85c23	0.11345699
95	0xbe205bcb	-0.15660016
96	0xbd13e11f	-0.036103364
97	0xbcf181ce	-0.029480841
98	0xbd4fda24	-0.050745144
99	0x3e12f310	0.14350533
100	0xbe3ba315	-0.1832393
101	0x3df6c2f9	0.12048907
102	0xbd0d20e6	-0.034455203
103	0x3d6eb1fb	0.058275204
104	0x3df1817c	0.11792275
105	0x3e12ee2c	0.14348668
106	0x3d9db570	0.07700622
107	0x3cd96fe7	0.026542617
108	0xbef28958	-0.4737041
109	0x3b6ccf40	0.0036134273
110	0x3e7c9bca	0.24668804
111	0xbb529f5d	-0.0032138445
112	0x3e099161	0.13434364
113	0x3da6a2fd	0.08136556
114	0xbccdce06	-0.025122654
115	0x3de32f57	0.11093014
116	0x3dfab2a0	0.12241101
117	0xbc1cff06	-0.009582287
118	0xbeaf5b9c	-0.3424958
119	0xbde2828f	-0.11060058
120	0x3d6ad36e	0.05733054
121	0xbe02a0cd	-0.12756653
122	0x3d0a420a	0.033754386
123	0xbe214115	-0.15747483
124	0xbe469d53	-0.19395952
125	0xbd7bd12d	-0.061478782
126	0x3de749d4	0.112933785
127	0xbcf26610	-0.029589683
128	0xbe0eab47	-0.13932525
129	0xbd4c40b0	-0.04986638
130	0xba373986	-0.00069894677
131	0xbdb98015	-0.09057633
132	0xbdead2bc	-0.11465976
133	0x3c94c94f	0.018162398
134	0xbd68323f	-0.056688543
135	0xbd86a16f	-0.0657376
136	0x3e824c74	0.25448954
137	0xbe057284	-0.13031965
138	0x3e2265f0	0.15859199
139	0x3da119e6	0.07866268
140	0x3e2d1268	0.16901553
141	0xbe04017c	-0.12891191
142	0x3e12b31a	0.14326134
143	0x3d04b7b2	0.032401748
144	0x3d9549ff	0.07289504
145	0x3d9ad1fb	0.07559582
146	0x3def985f	0.11698984
147	0x3cbad4bf	0.022806523
148	0xbe1a4955	-0.15067036
149	0xbe270641	-0.1631098
150	0x3c1e3635	0.009656479
151	0x3e320fa7	0.17388783
152	0x3dda4c78	0.106591165
153	0xbcafd017	-0.02146153
154	0x3e2773a8	0.16352713
155	0x3dd5ffe9	0.104492016
156	0x3d453861	0.04814947
157	0x3e7dfe96	0.24804148
158	0x3dfb8475	0.122811235
159	0xbe1c7cd1	-0.15281989
160	0xbe464040	-0.19360447
161	0xbe53f6fd	-0.20699687
162	0xbde31606	-0.11088185
163	0xbe452b6e	-0.19254848
164	0x3e11bd70	0.14232421
165	0xbd2ef172	-0.04271073
166	0xbe1116e9	-0.14168896
167	0x3e0796dd	0.13241144
168	0x3dd56c94	0.104211
169	0x3cfe3c06	0.03103448
170	0x3dadf1dd	0.084933974
171	0x3e00f8ec	0.12594956
172	0xbe4c569e	-0.19954917
173	0xbd64d9a4	-0.05587162
174	0x3c6c5df7	0.0144267
175	0xbe21a65f	-0.15786122
176	0x3cb1c6c9	0.021701233
177	0xbe3c5c8a	-0.18394676
178	0x3daea942	0.08528377
179	0x3d4d445f	0.050114032
180	0xbde1beb3	-0.11022701
181	0x3e607ce6	0.21922645
182	0x3ea22d96	0.31675404
183	0xbd7667d8	-0.060157627
184	0xbdbb1e95	-0.091366924
185	0x3dd5b370	0.104346156
186	0x3dadedea	0.08492644
187	0xbcdd26e7	-0.02699609
188	0x3df41c29	0.119194336
189	0x3cdd92b9	0.027047502
190	0x3dc1bc4d	0.09459744
191	0x3df74964	0.12074545
192	0xbdaefbe7	-0.0854414
193	0xbd0e9535	-0.034810264
194	0x3e1d4ec3	0.15362076
195	0x3e1aa571	0.15102173
196	0x3d9df338	0.07712406
197	0x3d6eaa4c	0.058267877
198	0xbcab3ea1	-0.020903887
199	0xbdbae51a	-0.09125729
200	0xbe0204df	-0.1269717
201	0x3d06f9a6	0.032952927
202	0x3e19c942	0.1501818
203	0xbe358eb2	-0.17730215
204	0x3d4f3bb9	0.050594065
205	0xbd81dd10	-0.063409925
206	0x3d80223d	0.062565304
207	0x3d295f28	0.041350514
208	0x3caaed1a	0.020865012
209	0xbca0dec0	-0.019637465
210	0xbb10d42e	-0.0022099125
211	0x3d00259e	0.031285875
212	0xbd69675e	-0.056983344
213	0xbc67e005	-0.0141525315
214	0xbe2ecb61	-0.1706977
215	0x3e04d93e	0.12973496
216	0x3c074c3e	0.008257924
217	0x3e4fd204	0.20294958
218	0xbb592044	-0.0033130804
219	0xbd93f34a	-0.07224138
220	0xbd82483a	-0.063614324
221	0xbaeefea6	-0.001823385
222	0x3d9e81f6	0.07739632
223	0x3c71559c	0.0147298835
224	0x3e549b05	0.2076226
225	0xbb5043db	-0.0031778726
226	0xbde5894b	-0.11207827
227	0xbbe8bee7	-0.0071028355
228	0x3deb7ba6	0.114981934
229	0xbd22bbe2	-0.03972996
230	0xbd0b525e	-0.0340141
231	0x3cc98203	0.024598127
232	0x3cdbcc6b	0.026830873
233	0x3d27d23c	0.04097198
234	0x3e01d1c5	0.12677677
235	0xbe2053f3	-0.15657024
236	0xbe3aca24	-0.18241173
237	0x3c3879f7	0.011259547
238	0xbd9e2ff7	-0.07723992
239	0xbe2b2d63	-0.16716532
240	0xbd03395b	-0.03203712
241	0xbd87ecf8	-0.06636995
242	0x3da514fc	0.08060643
243	0xbda8db78	-0.08244985
244	0xbdc78358	-0.09741849
245	0xbe195736	-0.14974675
246	0x3de407c8	0.11134297
247	0x3e36ea36	0.17862782
248	0x3daa4e0e	0.08315669
249	0xbe585025	-0.21124323
250	0xbe0c6ade	-0.13712642
251	0xbcae4867	-0.021274759
252	0x3d3d6da8	0.046247154
253	0x3df7c5d7	0.12098282
254	0xbe00df6f	-0.12585233
255	0x3e3e168d	0.1856329

fc1.bias f4 [512]
0	0xbddb9aaf	-0.10722863
1	0x3e461564	0.19344097
2	0xbded30eb	-0.11581596
3	0xbe3e32ff	-0.18574141
4	0xbdabaa54	-0.08382097
5	0xbebfe7f8	-0.37481666
6	0xbdf17ade	-0.11791013
7	0x3df49540	0.1194253
8	0xbe4466cd	-0.1917984
9	0xbda68c27	-0.08132201
10	0xbc850013	-0.016235387
11	0xbe40796a	-0.18796316
12	0x3d0af542	0.033925302
13	0xbe9ed51c	-0.31021965
14	0x3e58b310	0.21162057
15	0x3d0ae73f	0.03391194
16	0xbcc1e9e2	-0.023671094
17	0xbe20730d	-0.15668888
18	0xbe5a12c7	-0.21296225
19	0xbd4226d4	-0.04740031
20	0x3e5ba6c5	0.21450336
21	0x3e072daa	0.13201013
22	0xbe905f22	-0.2819758
23	0xbddfb52a	-0.10923226
24	0x3ddc5a17	0.10759371
25	0x3a943e09	0.0011309992
26	0xbde24f01	-0.11050225
27	0xbde96c69	-0.11397631
28	0xbe9c7e44	-0.30565083
29	0x3d27e79e	0.04099237
30	0x3dc580ac	0.09643683
31	0x3e3ee980	0.1864376
32	0xbd80e9fd	-0.0629463
33	0x3e2b3d4f	0.16722606
34	0xbe354be4	-0.17704731
35	0xbe318486	-0.1733571
36	0xbe01daba	-0.12681094
37	0x3dd454ed	0.10367761
38	0xbe30a255	-0.17249425
39	0xbde169d0	-0.1100651
40	0x3e0d4e9b	0.13799517
41	0x3de8afd5	0.11361662
42	0xbd14fd16	-0.036374174
43	0xbec1ca84	-0.3784982
44	0x38ded6f3	0.00010625822
45	0xbd44159f	-0.047872182
46	0xbbd0b386	-0.006369057
47	0xbde9e216	-0.114200756
48	0x3d15a6d3	0.03653605
49	0xbd5793d4	-0.052631214
50	0xbc90c091	-0.017669948
51	0xbe14df86	-0.14538392
52	0x3db385b6	0.08765738
53	0xbe2ded5f	-0.16985081
54	0xbdc6d1eb	-0.097080074
55	0xbdc1ba74	-0.09459391
56	0x3cba4267	0.022736741
57	0xbe768b78	-0.2407664
58	0xbe2ce48d	-0.1688406
59	0xbe5d3fe5	-0.21606405
60	0xbe9d9088	-0.3077433
61	0x3ba22f58	0.0049494915
62	0x3e337243	0.17524056
63	0x3c850fcb	0.016242882
64	0xbcddeb34	-0.027089693
65	0xbda960cc	-0.08270416
66	0xbe726b88	-0.23673832
67	0xbdb74bfc	-0.0895004
68	0x3db1ddac	0.08684859
69	0xbbdb6b75	-0.0066961595
70	0x3bab82d1	0.0052341004
71	0x3e5023f6	0.20326218
72	0x3da83f18	0.08215159
73	0xbe1a4671	-0.15065934
74	0xbe5d01c7	-0.21582709
75	0x3e2881c9	0.16455759
76	0x3cb349eb	0.021885833
77	0xbdedf7f3	-0.11619558
78	0xbe494fe5	-0.19659384
79	0x3b81c0eb	0.003959765
80	0xbe2904d2	-0.16505745
81	0x3c3a6b04	0.011378054
82	0xbe50949b	-0.20369188
83	0x3e36a357	0.17835747
84	0xbec061ac	-0.37574518
85	0xbdd093bc	-0.10184428
86	0xbddf19b9	-0.10893578
87	0xbe18f0aa	-0.14935556
88	0xbe0aa11a	-0.13538018
89	0xbe471983	-0.19443326
90	0xbe79c598	-0.24391782
91	0x3e9be3c1	0.304472
92	0x3e34efda	0.17669621
93	0xbcd706da	-0.026248384
94	0xbdb8258d	-0.08991537
95	0xbe283053	-0.16424684
96	0xbe18ea44	-0.14933115
97	0x3ca38fe5	0.019966075
98	0xbe701bba	-0.23448077
99	0xbe5e67d0	-0.21719289
100	0x3dcf8c97	0.10134237
101	0x3cca497a	0.02469324
102	0xbdc6dbff	-0.0970993
103	0x3e466d53	0.19377641
104	0xbd1bf4a6	-0.03807511
105	0x3e636211	0.22205378
106	0x3d64cc4c	0.055858895
107	0x3c0d27b9	0.008615428
108	0x3df33fea	0.11877425
109	0xbe2f66b6	-0.17129025
110	0xbe8c9541	-0.27457622
111	0xbd6a5c1c	-0.05721675
112	0x3d1ad879	0.0378041
113	0xbe1f7d7f	-0.15575217
114	0x3dee55cd	0.11637459
115	0x3c1c5c38	0.009543471
116	0x3e9b784d	0.3036522
117	0x3a44dca1	0.0007509683
118	0x3cb014ac	0.021494232
119	0x3e465756	0.19369254
120	0xbe5425c2	-0.20717528
121	0x3c7de330	0.01549606
122	0xbe32f720	-0.17477083
123	0xbd31969f	-0.043356534
124	0x3e71653d	0.23573776
125	0x3e206e42	0.1566706
126	0xbea91458	-0.33023334
127	0x3e0f1e00	0.13976288
128	0xbd1bb601	-0.03801537
129	0x3cae2790	0.0212591
130	0xbdb6422c	-0.0889934
131	0xbd8ab885	-0.067734756
132	0x3db785bd	0.089610554
133	0xbd416ff8	-0.047225922
134	0xbd57010e	-0.05249124
135	0xbe9ec7ab	-0.3101171
136	0x3e6e4540	0.23268604
137	0xbdf46e48	-0.11935097
138	0xbde2b1d2	-0.11069073
139	0x3d59f290	0.05320984
140	0x3df35d2b	0.11883005
141	0xbe2afd6b	-0.16698234
142	0xbd054f8b	-0.03254656
143	0xbe8a843f	-0.2705402
144	0xbe3e0b28	-0.18558943
145	0x3ad4b500	0.0016228259
146	0xbdaeb604	-0.085308105
147	0xbdd8c94b	-0.105852686
148	0x3e08d7d8	0.13363588
149	0xbe8cd731	-0.27507928
150	0xbe5605f3	-0.20900707
151	0x3df97fb6	0.12182562
152	0xbe1a1211	-0.15045954
153	0x3e110cf5	0.14165099
154	0xbe29d2f4	-0.16584378
155	0xbe3046bc	-0.17214483
156	0x3e5a6a91	0.21329714
157	0xbc070d14	-0.008242864
158	0xbdfbd7d8	-0.12297028
159	0x3e48a6cd	0.1959488
160	0xbe96e404	-0.29470837
161	0xbd2b9a89	-0.041895423
162	0xbe9abdd7	-0.3022296
163	0xbdd71b28	-0.105032265
164	0x3e54852f	0.2075393
165	0xbe434c06	-0.1907197
166	0x3db7f97f	0.089831345
167	0xbc3863e1	-0.011254282
168	0x3d57461d	0.0525571
169	0xbd82a27c	-0.06378648
170	0xbe2820a1	-0.16418697
171	0x3e65af9a	0.22430268
172	0xbe2b1a44	-0.16709238
173	0xbebce102	-0.36890417
174	0x3c7c9d27	0.015418327
175	0xbd37a0c0	-0.044831038
176	0xbd422958	-0.04740271
177	0xbe64ab4e	-0.22330973
178	0xbea49ef2	-0.32152516
179	0x3e85cec2	0.26134306
180	0xbe19ccd9	-0.1501955
181	0xbe221a49	-0.1583034
182	0xbe418bc1	-0.18900968
183	0x3e5e74d9	0.21724261
184	0xbe3d6b12	-0.18497875
185	0x3bdf7da0	0.0068203956
186	0x3e07eccb	0.13273923
187	0x3e5acdad	0.21367522
188	0xbe591765	-0.2120033
189	0xbe194870	-0.14969039
190	0x3d82de4e	0.063900575
191	0xbe575746	-0.21029386
192	0xbe1c296b	-0.15250175
193	0xbe89609d	-0.26831523
194	0x3da0ee55	0.07857958
195	0xbdb42072	-0.08795251
196	0x3cd465b3	0.0259274
197	0xbe060c5a	-0.13090649
198	0x3ccd979e	0.02509671
199	0xbe048091	-0.12939669
200	0xbd5a857f	-0.053349968
201	0xbdb5cd97	-0.08877104
202	0x3da5eea0	0.08102155
203	0x3d761ff9	0.060089085
204	0xbe17f1f4	-0.14838392
205	0xbdffc241	-0.12488223
206	0xbe90f592	-0.28312355
207	0xbe9605c7	-0.29301283
208	0x3d96d8c8	0.073655665
209	0xbd293881	-0.041313652
210	0xbe9e7ed6	-0.30956143
211	0xbd946ba7	-0.072470956
212	0x3e37d235	0.17951281
213	0xbe4e423d	-0.20142455
214	0xbe9a6529	-0.30155304
215	0xbe87d671	-0.26530793
216	0x3e0db39a	0.13838044
217	0xbe1587a7	-0.14602529
218	0xbe7bb42d	-0.2458045
219	0x3cc75d55	0.024336496
220	0x3ccd6071	0.0250704
221	0xbd7b00c5	-0.06128003
222	0xbd1e8cdd	-0.038708556
223	0xbe1f709e	-0.15570304
224	0xbe7661a4	-0.24060684
225	0xbe5e9a25	-0.21738489
226	0xbe939d58	-0.2883098
227	0xbc5831a4	-0.013195429
228	0xbbfa2f21	-0.0076350127
229	0xbd24d5ac	-0.040242836
230	0x3d0daec1	0.034590486
231	0xbe578e5f	-0.21050404
232	0xbe33804d	-0.17529412
233	0x3e5675f5	0.20943435
234	0xbdd2395a	-0.10264845
235	0x3e0f1527	0.13972913
236	0xbe44cb93	-0.19218282
237	0xbdd77157	-0.10519665
238	0xbdd08866	-0.10182266
239	0xbe422b6a	-0.18961874
240	0xbe70f099	-0.2352928
241	0x3d3f8b69	0.04676381
242	0x3e121447	0.14265548
243	0x3d591c40	0.053005457
244	0x3e18d1af	0.14923738
245	0xbe7d0e5e	-0.24712512
246	0x3e11b6d8	0.14229906
247	0xbd8ca634	-0.06867638
248	0x3defe3aa	0.11713345
249	0x3ac291e3	0.0014844503
250	0xbe8855df	-0.26628014
251	0xbe675f72	-0.22595003
252	0xbe44d04c	-0.19220084
253	0xbea4a4d7	-0.32157013
254	0xbe27edf0	-0.1639936
255	0x3d3d3f7c	0.04620312

fc2.weight f4 [256, 512]
0	0x3ca974f3	0.020685649
1	0xbcf79f34	-0.030227281
2	0xbd99a220	-0.07501626
3	0x3bec801f	0.0072174217
4	0xbde46b29	-0.11153252
5	0xbcfa9166	-0.03058691
6	0x3c312b3a	0.010813529
7	0x3c8b6488	0.01701571
8	0x3c89c540	0.016817689
9	0xbdc5732c	-0.09641108
10	0x3c4ecbf8	0.012621872
11	0x3ca592b9	0.020211564
12	0xbc1d2a26	-0.0095925685
13	0x3d477ba9	0.048701916
14	0x3c8abbfb	0.01693534
15	0xbd00241a	-0.03128443
16	0xbd71be25	-0.059019227
17	0x3a3add3b	0.0007128303
18	0x3d6b2e19	0.05741701
19	0x3da15ddf	0.078792326
20	0xbd0a585e	-0.03377568
21	0xbbe513d4	-0.006990889
22	0xbd63b11e	-0.055588834
23	0xbcf0b132	-0.029381368
24	0xbd8d093f	-0.06886529
25	0x3d1ddffe	0.038543694
26	0xbbeeab11	-0.0072835763
27	0x3b048c14	0.0020225095
28	0xbcf54a4e	-0.029942658
29	0x3cb91ce6	0.022596788
30	0xbd147510	-0.036244452
31	0xbd18c0c0	-0.037293196
32	0xbd5340a8	-0.051575333
33	0xbd6f097d	-0.058358658
34	0xbde4d76e	-0.111739025
35	0xbd84e10b	-0.06488236
36	0xbd701ff0	-0.058624208
37	0xbd0e62ef	-0.03476232
38	0xbd1a7f9c	-0.037719354
39	0x3a13dc06	0.0005640391
40	0x3d6f4f64	0.058425322
41	0xbcd74ed9	-0.026282715
42	0xbcc4e3fa	-0.024034489
43	0xbd392adc	-0.04520689
44	0xbba4709a	-0.005018306
45	0xbd9e263c	-0.077221364
46	0xbd67ce85	-0.056593437
47	0x39a91aa2	0.00032254035
48	0x3ba80857	0.0051279473
49	0xbd8eb221	-0.06967569
50	0xbc9000c9	-0.0175785
51	0xbd170ab5	-0.036875445
52	0xbdd71c5a	-0.105034545
53	0xbd40c2af	-0.047060665
54	0xbde6659c	-0.11249849
55	0xbdc331b6	-0.09530966
56	0x3b426974	0.0029664906
57	0xbd5bcae2	-0.05366028
58	0xbd1bcec1	-0.038038973
59	0x3ceda9a0	0.029011548
60	0xbc95edcd	-0.018301869
61	0xbd1d2341	-0.0383637
62	0xbc498e7c	-0.012302037
63	0xbcc1448e	-0.02359226
64	0xb9b4acdc	-0.00034461066
65	0x3c457012	0.012050645
66	0xbd87bd3e	-0.06627892
67	0x3c401511	0.011723773
68	0xbcf6bd43	-0.030119544
69	0x3a72d48a	0.0009263238
70	0x3cbe35b3	0.023218965
71	0x3d91c8cb	0.07118376
72	0xbd912bdf	-0.07088446
73	0xbacc1f8b	-0.0015573365
74	0xbd11a34a	-0.035556115
75	0xbd2615dd	-0.040548194
76	0xbd11b67c	-0.03557442
77	0x3ccba02d	0.024856651
78	0x3caaa602	0.020831112
79	0xbb060a51	-0.0020452926
80	0x3d6fb8e9	0.058525953
81	0xbe23a125	-0.1597944
82	0xbbdd5c83	-0.006755413
83	0x3ca366ec	0.019946538
84	0xbc21e4d6	-0.009881219
85	0x3dbbb944	0.09166196
86	0x3c4ce815	0.012506505
87	0xbc207651	-0.009793834
88	0x3ca99151	0.020699175
89	0xbc5bfe65	-0.013427352
90	0x3d5239d4	0.05132468
91	0xbbd0bc3c	-0.0063700955
92	0xbdd73e1c	-0.10509893
93	0xbda3e2e0	-0.08002257
94	0x3d895e3b	0.06707426
95	0x3c548a82	0.012972476
96	0x3c0d44b1	0.008622334
97	0xbd2dea3c	-0.04245971
98	0xbdd5033f	-0.1040101
99	0x3d55bdc0	0.052182913
100	0xbc6d5243	-0.014484945
101	0xbd127f56	-0.03576597
102	0xbd1990a7	-0.037491467
103	0xbd689be5	-0.056789298
104	0xbb980c78	-0.0046401583
105	0x3c1260e4	0.008934233
106	0xbd322c80	-0.04349947
107	0xbd8f8054	-0.070068985
108	0xbda148fd	-0.078752495
109	0x3c995be3	0.018720573
110	0x3ca997cc	0.020702265
111	0xbcb8acd4	-0.022543348
112	0x3c277f69	0.010223248
113	0x3cd475ab	0.025935015
114	0xbc23c772	-0.009996282
115	0x3cbe2750	0.023212105
116	0xbc6c30b2	-0.014415907
117	0x3ccf0639	0.025271522
118	0xbcc0151e	-0.02344757
119	0xbd0d456a	-0.034490027
120	0x3bc0e347	0.0058864686
121	0xbd7f2bde	-0.062297694
122	0xbd137af8	-0.036005944
123	0xbc40f6d6	-0.0117776
124	0xbda524b2	-0.0806364
125	0xbd046d14	-0.032330588
126	0xbd30d694	-0.043173388
127	0xbcf10a48	-0.029423848
128	0x3d2faf22	0.04289163
129	0xbd3f29d9	-0.04667077
130	0x3b7c15be	0.0038465108
131	0x3b941cfa	0.004520056
132	0x3ce2ffd0	0.027709872
133	0x3c924eb0	0.017859787
134	0xbd717ae2	-0.05895508
135	0x3d2db1e3	0.042405974
136	0xbcb19d49	-0.021681445
137	0x3da7da72	0.08195962
138	0xbdf87548	-0.121317446
139	0x3d2a7d7e	0.041623585
140	0x3d026c37	0.031841483
141	0xbc8f955f	-0.01752728
142	0x3d1c76ea	0.038199343
143	0xbd7c9f37	-0.061675277
144	0x3bd1fbd2	0.006408193
145	0xbbe95ca1	-0.007121638
146	0x3d5be632	0.05368633
147	0xbe10a81d	-0.1412663
148	0xbd610426	-0.054935597
149	0x3d4441c6	0.04791429
150	0xbb0123ad	-0.0019705102
151	0x3c84e75b	0.0162236
152	0xbb33b049	-0.0027418307
153	0xbded9367	-0.116003804
154	0xbc88b96c	-0.016689979
155	0xbb3d0250	-0.002884049
156	0xbde4de04	-0.111751586
157	0x3b61b2cb	0.0034438844
158	0x3aca655a	0.0015441582
159	0x3d8d3d0c	0.068964094
160	0xbafd88de	-0.0019343158
161	0xbdc1ff5f	-0.09472536
162	0x3d404178	0.046937436
163	0xbd3d9656	-0.04628595
164	0xbd2e01f5	-0.042482335
165	0xbd3729ca	-0.044717588
166	0xbb0a9df1	-0.002115127
167	0xbdc49302	-0.09598352
168	0x3a8d5f4b	0.0010785846
169	0xbb60eb23	-0.003431984
170	0xbd7adaf1	-0.061243955
171	0xbe14ef2e	-0.14544365
172	0xbb96f5e4	-0.004606949
173	0x3cf0c231	0.029389473
174	0xbc95494f	-0.018223433
175	0x3d729a75	0.059229333
176	0xbd1a2a11	-0.037637774
177	0xbe20f302	-0.157177
178	0xbcaf9949	-0.021435397
179	0xbd4256cc	-0.047446057
180	0x3cb21a50	0.021741062
181	0xbdc0efe0	-0.094207525
182	0xbbed161b	-0.007235301
183	0xbda03d67	-0.078242116
184	0x3d5b1ab2	0.053492256
185	0xbd000787	-0.03125718
186	0xbcfbd683	-0.030741936
187	0xbd2fb2fb	-0.0428953
188	0x3c02bbc5	0.007979338
189	0xbb399ae9	-0.0028321093
190	0x3bb2a757	0.0054520774
191	0x3c0a4dc0	0.008441389
192	0xbd6ec249	-0.058290754
193	0xbb2929c8	-0.0025812257
194	0xbd24089a	-0.040047266
195	0xbd889f48	-0.066710055
196	0xbb72f647	-0.0037073062
197	0xbcce3dee	-0.025176015
198	0xbd87efbb	-0.06637522
199	0xbd804907	-0.06263929
200	0xbc378b88	-0.0112027
201	0xbd75b776	-0.059989415
202	0xbd80165a	-0.06254263
203	0xbdad7f03	-0.08471491
204	0x3d11c6a1	0.035589818
205	0x3cbef153	0.023308432
206	0x3cd2fb6c	0.025754653
207	0x3d6fef06	0.05857756
208	0xbd6b7b44	-0.057490602
209	0xbd1e0dc7	-0.038587358
210	0x3dd534e1	0.104104765
211	0x3cdb3841	0.026760222
212	0xbd1ea6b3	-0.038733196
213	0x3db34945	0.087542094
214	0x3db5ad68	0.08870965
215	0x3badad57	0.0053002047
216	0xbdafd9af	-0.08586442
217	0x3dd52363	0.1040714
218	0x3d0b850c	0.03406243
219	0xbd53ee4c	-0.05174093
220	0x3d76c6dd	0.060248245
221	0x3d0b81a2	0.034059174
222	0xbb493aaf	-0.0030705144
223	0x3d282c7e	0.041058056
224	0xbcd581e3	-0.026062911
225	0x3cdb3a06	0.026761066
226	0xbd1c3977	-0.03814074
227	0x3b52fe9e	0.003219522
228	0xbd44fe65	-0.048094172
229	0xbd45ba37	-0.04827329
230	0xbc8a4792	-0.01687983
231	0x3cfa85cb	0.030581376
232	0x3bd3fcb8	0.0064693354
233	0xbccd29bf	-0.02504432
234	0xbce19c35	-0.027540306
235	0xbcfd9623	-0.03095538
236	0x3d323488	0.04350713
237	0x3d2487ce	0.040168576
238	0xbcc04b47	-0.023473395
239	0x3d1719df	0.036889907
240	0xbcc26bf3	-0.023733115
241	0x3c9f318d	0.019432807
242	0x3c6918c4	0.014227096
243	0xbc3998fe	-0.01132798
244	0x3c1ab93c	0.009443577
245	0xbd2ad7e4	-0.041709796
246	0xbd9ce070	-0.076599956
247	0xba161829	-0.0005725646
248	0x3a39d127	0.0007088356
249	0xbd615daf	-0.055020984
250	0x3b5f0933	0.0034032583
251	0x3bac10a1	0.0052510058
252	0xbcce56dc	-0.025187902
253	0xbc9e5802	-0.019329075
254	0xbd2fe5c8	-0.042943746
255	0xbda6bec5	-0.08141855

fc2.bias f4 [256]
0	0xbcb660d0	-0.02226296
1	0xbd46c1f1	-0.0485248
2	0xbdb98207	-0.09058004
3	0x3c1a42e6	0.009415364
4	0x3cf706af	0.030154554
5	0x3d58cf7e	0.052932255
6	0x3bb027c2	0.0053758333
7	0xb9ec440f	-0.00045064135
8	0x3e102c5b	0.1407942
9	0x3e526af2	0.20548609
10	0xbd35fd71	-0.044431154
11	0xbb3311f6	-0.0027323938
12	0xbdc3fd90	-0.095698476
13	0xbd77eb38	-0.060527056
14	0xbb0666ed	-0.0020508126
15	0xbcc80b85	-0.024419555
16	0x3e0244cb	0.12721555
17	0x3d781bd3	0.06057341
18	0xbd9c5c90	-0.076348424
19	0xbcaa641e	-0.020799693
20	0x3caef4b0	0.02135691
21	0xbc146f54	-0.009059746
22	0x3e6ebd64	0.23314434
23	0x3e4925b4	0.19643289
24	0x3d7f2a92	0.062296458
25	0xbd9234b2	-0.07138957
26	0xbd66a7f0	-0.0563125
27	0xbe19abc0	-0.15006924
28	0x3e159d24	0.14610726
29	0xbdb74bab	-0.089499794
30	0x3c1dbc63	0.009627434
31	0xbc4f6fb5	-0.01266091
32	0xbb52855f	-0.0032122952
33	0xbdbc518f	-0.091952436
34	0x3e24a797	0.16079555
35	0x3ccae35f	0.024766622
36	0x3c6daa88	0.01450599
37	0xbd361687	-0.044455077
38	0x3cf03c56	0.029325645
39	0xbd8c392c	-0.06846842
40	0x3c43684c	0.011926722
41	0x3bdef8c5	0.006804558
42	0xbd6ee0c2	-0.058319815
43	0xbcb34026	-0.021881174
44	0x3e6984ab	0.22804515
45	0xbd529d2f	-0.051419433
46	0x3d36cf1e	0.044631116
47	0xbd1674b3	-0.036732387
48	0x3d9fc047	0.07800346
49	0x3ba67b99	0.005080652
50	0xbd41bd68	-0.047299773
51	0xbd550d3f	-0.052014586
52	0x3d8c8aa6	0.068623826
53	0x3bff572d	0.0077923746
54	0xbd0b860e	-0.03406339
55	0xbd978724	-0.07398823
56	0x3a241b27	0.00062601495
57	0xbd2cc005	-0.04217531
58	0x3d2fe442	0.042942293
59	0xbda2b0d8	-0.079438865
60	0x3d93fa96	0.0722553
61	0x3dfd64e2	0.123727575
62	0xbd79c60d	-0.06097989
63	0x3bfd161e	0.007723584
64	0xbcaaeb28	-0.020864084
65	0xbdc1ad7d	-0.094569184
66	0x38e80295	0.00011063103
67	0xbd8e9e0a	-0.06963737
68	0x3d28bfae	0.041198425
69	0x3e586cd7	0.21135269
70	0xbd0f9b6d	-0.035060335
71	0xbdfb1c11	-0.122612126
72	0x3c7c9493	0.015416282
73	0xbdd3a7d3	-0.10334744
74	0xba2d5dfd	-0.00066134316
75	0x3d2f12a5	0.04274239
76	0x3bb27a26	0.00544669
77	0xbd885dff	-0.06658553
78	0xbca2f527	-0.019892288
79	0xbd52e90c	-0.051491782
80	0xbd00499a	-0.031320192
81	0x3d04bb6f	0.032405313
82	0x3d1b83aa	0.03796736
83	0xbd3bde86	-0.04586651
84	0xbdab77c3	-0.08372452
85	0xbd84713d	-0.06466911
86	0xbcff839e	-0.03119069
87	0xbd8c85d7	-0.068614654
88	0xbd909377	-0.07059377
89	0xbc6f1038	-0.014591269
90	0xbb1f45a9	-0.0024302995
91	0x3c5bd48e	0.013417376
92	0xbd2d8be6	-0.042369746
93	0xbcdfa878	-0.027302012
94	0x3d699c11	0.057033602
95	0xbc5e8468	-0.013581373
96	0xbd805339	-0.062658735
97	0xbd3ceeea	-0.046126284
98	0x3cc1fa6f	0.023678986
99	0xb89e2888	-7.5415766e-05
100	0x3d042b5e	0.03226792
101	0x3c8f7d5a	0.017515827
102	0x3e38f6db	0.18062918
103	0x3da283b5	0.079352774
104	0x3d97d328	0.07413322
105	0xbbff29f1	-0.007786982
106	0x3d4880e5	0.04895105
107	0x3e24be0b	0.1608812
108	0x3b8cb5ce	0.0042941337
109	0xbc8bf4c9	-0.017084496
110	0xbdde54c8	-0.108560145
111	0x3d336cfe	0.043805115
112	0xbcf6ef1b	-0.030143311
113	0xbc89063b	-0.016726604
114	0xbd92beb2	-0.071652785
115	0x3cbc04dc	0.022951536
116	0x3da573a1	0.08078695
117	0x3bf1aad9	0.007375103
118	0xbc3186fe	-0.010835407
119	0x3e013c42	0.12620643
120	0xbb74fc22	-0.0037381728
121	0x3c393b1f	0.0113055995
122	0xbd852adb	-0.06502315
123	0xbda265e5	-0.07929591
124	0x3c6a753d	0.014310178
125	0x3d9a50cc	0.07534942
126	0xbcfb11f8	-0.030648217
127	0xbbe9c8ba	-0.007134524
128	0xbd0c452e	-0.034245662
129	0x3d61f696	0.055166803
130	0x3dc53e61	0.096310385
131	0xbcbe5db6	-0.023238044
132	0xbca5cf75	-0.020240525
133	0x3ba3d5e0	0.004999861
134	0x3ca3aae2	0.019978944
135	0x3ca4f621	0.020136895
136	0xbd33cc05	-0.04389574
137	0xbcf7383d	-0.030178184
138	0x3e210ff6	0.15728745
139	0xbb9057f9	-0.0044050184
140	0xbd3b6fdc	-0.045760974
141	0xbd85b580	-0.06528759
142	0xbd338787	-0.04383042
143	0xbd31f78b	-0.043448966
144	0xbc8094c1	-0.015695931
145	0x3ddb0561	0.10694385
146	0x3c863356	0.0163819
147	0xbd7e9743	-0.062155973
148	0xbd92ba05	-0.07164387
149	0xbd0d303d	-0.03446983
150	0xbdaaff1a	-0.08349438
151	0x3c4033b2	0.011731075
152	0xbc800e3b	-0.015631786
153	0xbd5b1568	-0.05348721
154	0xbdb1a380	-0.08673763
155	0x3e1aa02f	0.15100168
156	0xbc1201d3	-0.008911568
157	0xbbccb362	-0.00624697
158	0xbcd4c39e	-0.025972184
159	0x3de1de9c	0.110287875
160	0xbc3ab2db	-0.0113951815
161	0x3b8b422d	0.004249832
162	0x3b79915f	0.0038081033
163	0xbd79fe68	-0.061033636
164	0xbcfbc980	-0.030735731
165	0xbd46cf69	-0.048537645
166	0xbd42f3b8	-0.04759571
167	0x3e078ca0	0.13237238
168	0x3cba2a64	0.022725292
169	0x3d725b40	0.059169054
170	0x3e52c536	0.20583043
171	0xbe20c31c	-0.15699428
172	0xbd57a973	-0.052651834
173	0xb9e54764	-0.00043731474
174	0x3e177330	0.14790034
175	0xbd9b3bfa	-0.07579799
176	0x3e4860a1	0.19568111
177	0xbdd192a6	-0.10233049
178	0xbd925cc6	-0.071466014
179	0x3e22f0df	0.15912198
180	0x3d69e743	0.057105314
181	0xbdaabe9e	-0.083371386
182	0x3d1963be	0.037448637
183	0x3c4e75e0	0.012601346
184	0x3ba2e1e6	0.004970777
185	0xbd23f9c1	-0.040033106
186	0x3d126840	0.03574395
187	0xbd46bbf8	-0.048519105
188	0xbce897a4	-0.02839262
189	0xbd8d0b11	-0.068868764
190	0xbd4932db	-0.049120765
191	0xbcd636c2	-0.026149157
192	0x3d35484a	0.044258393
193	0x3abca7d6	0.0014393281
194	0x3c5a73af	0.013333245
195	0xbd53fe81	-0.051756386
196	0xbda2bdd1	-0.07946361
197	0xbbbadc1e	-0.0057025095
198	0x3d5b6383	0.0535617
199	0xbc05dcdc	-0.008170333
200	0xbd1511bb	-0.036393862
201	0xbdbf031d	-0.09326766
202	0xbdb356ab	-0.08756765
203	0xbd500bc3	-0.050792467
204	0x3d758f82	0.059951313
205	0x3bac716e	0.0052625453
206	0xbd151ac4	-0.03640248
207	0x3c80c718	0.015719935
208	0xbd59e103	-0.053193104
209	0xbb9ec4a0	-0.004845217
210	0x3caa3f2f	0.020782081
211	0xbc6be7bd	-0.014398512
212	0xbd6d5878	-0.0579457
213	0x3df29a81	0.118458755
214	0xbc63e1cf	-0.013908817
215	0x3c98c18c	0.018646978
216	0xbc310499	-0.010804319
217	0xbc9cec04	-0.01915551
218	0x3c93b9d0	0.018032938
219	0xbd3e4e2b	-0.046461266
220	0xbd12d70f	-0.035849627
221	0x3e385de9	0.18004574
222	0x3b0c7b33	0.0021435737
223	0xbbce9004	-0.006303789
224	0xbbe90c65	-0.0071120732
225	0x3e74e90c	0.23917025
226	0xbd8f3efa	-0.06994434
227	0x3b86e445	0.0041165673
228	0xbd1ab29d	-0.037767995
229	0x3dcfc7b5	0.10145513
230	0xbd184cc0	-0.03718257
231	0xbd1467c5	-0.036231775
232	0xbdb93af4	-0.090444475
233	0xbd58d50d	-0.052937556
234	0x3c79f3a9	0.015255847
235	0xbd558988	-0.052133113
236	0x3d135a38	0.03597471
237	0xbd025fd0	-0.031829655
238	0x3d3d6662	0.046240218
239	0xbda95c86	-0.082696006
240	0xbb4b7606	-0.003104569
241	0xbe28cad6	-0.16483626
242	0xbd8d144e	-0.068886384
243	0x3b95c7c8	0.004570935
244	0xbce8b9f4	-0.028408982
245	0x3d47724a	0.04869298
246	0x3dc84cf4	0.09780303
247	0x3c21fe25	0.009887253
248	0xbcbb3b6a	-0.02285548
249	0x3c93d41d	0.01804548
250	0xbd873d8e	-0.066035375
251	0x3c04cfb8	0.008106165
252	0xbd82ce63	-0.063870214
253	0x3d084c7b	0.033276062
254	0xbe2ce9c8	-0.16886055
255	0xbd301d88	-0.042996913

fc3.weight f4 [1, 256]
0	0xbb5a01ff	-0.003326535
1	0x3e13908f	0.14410613
2	0xbd5a3297	-0.053270902
3	0x3d1520ee	0.036408357
4	0x3e191dbb	0.14952748
5	0x3e49140d	0.19636555
6	0x3bff9018	0.0077991597
7	0xbd29e9c2	-0.041482694
8	0x3dc8e9bc	0.09810206
9	0xbd40a36e	-0.04703086
10	0x3dd1c87b	0.10243317
11	0xbd47fd60	-0.04882562
12	0x3d938300	0.07202721
13	0xbccfad36	-0.025351148
14	0x3c03cbc1	0.008044184
15	0xbafd7cb2	-0.001933953
16	0xbe5a3168	-0.2130791
17	0x3d4526de	0.04813277
18	0xbda5a9ca	-0.08089025
19	0x3c767281	0.015041948
20	0x3d4a4b6e	0.04938834
21	0x3dffa9f3	0.12483587
22	0xbd7dbbe9	-0.061946783
23	0xbd68e9b4	-0.0568635
24	0x3d0afeaa	0.033934273
25	0xbd913242	-0.07089664
26	0xbaa72145	-0.0012751004
27	0xbdc20a18	-0.094745815
28	0x3d2df74d	0.042472173
29	0xbd4919f7	-0.049097028
30	0xbd4438ba	-0.04790566
31	0x3e105cf3	0.14097957
32	0x3d084759	0.033271167
33	0xbc81ab05	-0.015828619
34	0xbd106366	-0.035251044
35	0x3d81d2c1	0.06339026
36	0x3e1425b8	0.14467514
37	0xbd289378	-0.041156262
38	0x3d658078	0.05603072
39	0x3dca6d78	0.09884161
40	0xbc882081	-0.016617062
41	0xbd4ee854	-0.050514534
42	0x3c884efa	0.016639221
43	0x3d265b01	0.04061413
44	0xbd3f14f9	-0.04665086
45	0xba5ede06	-0.0008501712
46	0x3d440026	0.047851704
47	0xbd17d215	-0.037065584
48	0xbdb140dd	-0.0865495
49	0xbe0c8b63	-0.13725047
50	0x3dd0beac	0.10192618
51	0x3daa7fe9	0.08325178
52	0x3d4a90e8	0.0494546
53	0x3dc37e9e	0.09545635
54	0x3d8e29a3	0.06941535
55	0xbcf1f5d5	-0.029536167
56	0x3dda1e7d	0.106503464
57	0xbc8c53f1	-0.01712987
58	0x3d98b527	0.07456427
59	0x3d7f3e7e	0.062315457
60	0x3d15b46a	0.03654901
61	0x3d6d0b9e	0.057872407
62	0x3d835545	0.06412748
63	0xbd9d2d0e	-0.07674609
64	0xbb866e8b	-0.004102533
65	0xbcf127e1	-0.029437961
66	0xbbb99bd2	-0.005664327
67	0xbcdd725c	-0.02703207
68	0x3dc176b0	0.09446466
69	0xbc9d7288	-0.019219652
70	0x3b8c824e	0.0042879945
71	0xbd88075b	-0.06642028
72	0xbcb2e1cd	-0.021836186
73	0xbcf04d44	-0.029333718
74	0x3db5d3d0	0.08878291
75	0x3e22a578	0.15883434
76	0x3b81ac90	0.0039573386
77	0xbd960bc7	-0.07326465
78	0x3b65efd2	0.003508557
79	0x3bf530ce	0.0074826246
80	0x3aa70d60	0.0012745075
81	0x3d2c1d07	0.04201987
82	0x3d063d12	0.032773085
83	0xbd654df6	-0.055982552
84	0x3d3df072	0.046371885
85	0xbca70456	-0.02038781
86	0x3a9e46a9	0.0012075502
87	0xbd21cc7b	-0.03950165
88	0xbd580455	-0.052738506
89	0x3d7bd262	0.061479934
90	0x3c2355d4	0.0099691935
91	0x3d6ae115	0.05734356
92	0x3c08494f	0.008318259
93	0x3de2217e	0.110415444
94	0xbddca8bd	-0.10774372
95	0xbcebdb96	-0.02879123
96	0xbd683fc3	-0.056701433
97	0x3d9938d7	0.074815445
98	0x3e008bf0	0.12553382
99	0x3d451f39	0.04812548
100	0xbd2c199f	-0.04201662
101	0x3cedc4b7	0.029024465
102	0x3d7dfa79	0.062006447
103	0x3cd47188	0.025933042
104	0x3dab2df1	0.08358372
105	0x3c8799c8	0.01655282
106	0x3d8bac1d	0.068199374
107	0x3d97c9bc	0.07411525
108	0x3cf74943	0.030186301
109	0x3d428c90	0.047497332
110	0xbc0fbd1f	-0.008773117
111	0x3df00bdc	0.11721012
112	0xbd1a9f9f	-0.037749883
113	0xbdac9fce	-0.08428918
114	0xbd105e28	-0.035246044
115	0x3d3d44f8	0.04620835
116	0xbda1bb2d	-0.07897029
117	0x3e1d3fe4	0.15356404
118	0xbd8eb637	-0.069683485
119	0xbdbfffaf	-0.0937494
120	0x3e2a5bdc	0.16636604
121	0x3df61e1f	0.12017464
122	0xbd823681	-0.06358052
123	0xbd7f4caf	-0.06232899
124	0xbd04bf00	-0.032408714
125	0x3e005395	0.12531884
126	0xbc85214a	-0.016251225
127	0x3ce983e5	0.028505275
128	0xbe15eb3b	-0.14640515
129	0x3d7b8537	0.06140634
130	0x3c9b8c10	0.018987685
131	0xbd453d6a	-0.048154272
132	0x3ddd811e	0.10815643
133	0xbd491899	-0.049095724
134	0x3e083ba3	0.13304
135	0x3d678e49	0.056532178
136	0x3d34b3fa	0.04411695
137	0x3b495522	0.003072091
138	0xbd0d82fe	-0.034548752
139	0x3c11aa49	0.008890697
140	0xbca893f7	-0.020578368
141	0x3c3fe692	0.011712687
142	0x3cdcc885	0.026951084
143	0x3dbfe04e	0.093689546
144	0xbd1cb961	-0.03826273
145	0xbd8c570f	-0.068525426
146	0x3cac62ec	0.021043263
147	0x3dc3a88d	0.09553633
148	0xbcfcee28	-0.03087528
149	0x3d6ce6e8	0.057837397
150	0xbdc916f1	-0.09818829
151	0xbc8b54b2	-0.01700816
152	0x3c5d66bb	0.013513262
153	0x3c7a68cd	0.0152837755
154	0xbb0ab1a6	-0.0021163016
155	0xbba1a58b	-0.0049330643
156	0x3cd3a209	0.0258341
157	0x3e0d5197	0.13800655
158	0x3e1c9957	0.1529287
159	0xbe32ef1e	-0.17474028
160	0x3c832a23	0.016011303
161	0xbcd812eb	-0.026376208
162	0x3dd00626	0.10157423
163	0xbc9239ce	-0.017849829
164	0x3bbcf594	0.00576658
165	0xbd73d2ad	-0.059527088
166	0x3d317b98	0.04333076
167	0xbd4814d2	-0.04884798
168	0x3d87c732	0.0662979
169	0x3e05c6a0	0.1306405
170	0xbdf5d962	-0.12004353
171	0xbdbe9052	-0.09304871
172	0x3b9089bc	0.0044109505
173	0x3d2c4a6e	0.04206317
174	0xbde98a9b	-0.1140339
175	0x3d9749e2	0.07387139
176	0x3dbe1bcb	0.09282645
177	0xbd1e6c14	-0.03867729
178	0xbcfd6768	-0.030933097
179	0xbdc2ed81	-0.095179565
180	0xbdd4eee5	-0.10397128
181	0xbc77d418	-0.015126251
182	0xbda03779	-0.078230806
183	0x3cebe6b6	0.028796535
184	0x3c8b3570	0.016993254
185	0xbcde2f16	-0.027122062
186	0x3d8582f0	0.06519115
187	0x3e2eca45	0.17069347
188	0xbcb09655	-0.021556059
189	0xbd962b8f	-0.07332527
190	0x3d82cad7	0.06386345
191	0xba2566a5	-0.0006309546
192	0x3d9a439e	0.07532428
193	0x3b98e9e3	0.0046665533
194	0xbc3b345e	-0.0114260595
195	0xbd3622eb	-0.044466894
196	0x3d9642ac	0.073369354
197	0x3db767ba	0.08955331
198	0x3d430772	0.047614522
199	0x3ccfb269	0.025353627
200	0xbdcb1cce	-0.099176034
201	0xbd9377e6	-0.07200603
202	0xbd597e48	-0.053098947
203	0xbd614337	-0.05499574
204	0x3d09d315	0.03364857
205	0x3e5fff65	0.21874769
206	0x3cf02c25	0.029317925
207	0x3dd18fed	0.1023253
208	0x3da79d2e	0.081842765
209	0xbd3c0094	-0.04589899
210	0x3da46d1a	0.08028622
211	0x3ce96c8a	0.028494138
212	0xbcc75add	-0.02433532
213	0xbdb2fe57	-0.08739918
214	0xbced9550	-0.029001862
215	0xbba81f76	-0.0051307036
216	0x3dac2f49	0.084074564
217	0x3d7d5ed8	0.06185803
218	0x3d2e838d	0.042605925
219	0x3e3ffc9b	0.18748705
220	0x3e003c19	0.12522925
221	0xbd58dcbf	-0.052944895
222	0x3d2576cf	0.040396508
223	0xbcb87ab2	-0.022519443
224	0x3ab5c6fb	0.0013868505
225	0xbc64f725	-0.0139749395
226	0xbc87ce4e	-0.016577866
227	0xbda3c287	-0.079960875
228	0xbd13d70a	-0.03609375
229	0x3d812674	0.063061625
230	0x3dc7b304	0.097509414
231	0xbd7643a6	-0.06012311
232	0xbce711fe	-0.028206822
233	0x3e0c72a5	0.13715608
234	0xbd76cbe5	-0.060253043
235	0xbda08200	-0.078372955
236	0x3e04c7aa	0.12966791
237	0x3b1ce086	0.0023937537
238	0x3d0d2275	0.03445669
239	0x3dfa7e1f	0.12231087
240	0x3db6df68	0.0892933
241	0x3e0a7253	0.13520174
242	0xbc9e0cfc	-0.0192933
243	0x3d8a3e85	0.06750206
244	0xbb4ece44	-0.003155605
245	0x3d9f8bbb	0.07790323
246	0x3df456b5	0.119306006
247	0x3c8a8de0	0.016913354
248	0xbd9d97fa	-0.07695003
249	0x3da4e06d	0.08050618
250	0x3d887e68	0.06664735
251	0x3d55c16f	0.052186426
252	0xbd612a0b	-0.054971736
253	0x3c6b1e0e	0.014350427
254	0x3e0283f6	0.12745652
255	0x3ceac790	0.028659612

norm.weight f4 [28]
0	0x3f4e4976	0.8058084
1	0x3f5369ba	0.825832
2	0x3f62960c	0.88510203
3	0x3f794f99	0.9738708
4	0x3f673ca8	0.9032693
5	0x3f5e0a97	0.8673491
6	0x3f48d349	0.78447396
7	0x3f5376a1	0.8260289
8	0x3f6264eb	0.8843524
9	0x3f6f9b5e	0.93596447
10	0x3f5350b8	0.8254504
11	0x3f4a7ecc	0.79099727
12	0x3f64457c	0.89168525
13	0x3f5ae181	0.8550034
14	0x3f66b3d3	0.9011814
15	0x3f5db03e	0.8659705
16	0x3f64e692	0.8941432
17	0x3f6b71ec	0.91970706
18	0x3f487d4d	0.78316194
19	0x3f691370	0.91045284
20	0x3f6c138e	0.9221734
21	0x3f7d7af7	0.99015754
22	0x3f80f15a	1.0073655
23	0x3f64401c	0.89160323
24	0x3f9a9366	1.2076232
25	0x3f9022e2	1.1260645
26	0x3f8eca67	1.1155518
27	0x3f6a5b96	0.91546

norm.bias f4 [28]
0	0x3d057a85	0.032587547
1	0x3dbd2f2d	0.09237514
2	0xbc31a3e5	-0.010842298
3	0x3e275301	0.16340257
4	0x3e33f2e1	0.1757312
5	0x3e0356c5	0.12826069
6	0x3d013d1a	0.03155241
7	0x3db59f3a	0.08868261
8	0xbca052d9	-0.019570755
9	0xbd9bf67e	-0.07615374
10	0x3cb70c4c	0.02234473
11	0xbd7f28a4	-0.062294617
12	0xbe13d7ad	-0.14437743
13	0xbd9f5e59	-0.07781667
14	0xbd6d9e55	-0.058012325
15	0x3d580538	0.052739352
16	0x3b9f3a9d	0.004859282
17	0x3d7101db	0.05883966
18	0x3df0d9ec	0.11760315
19	0x3d654a47	0.05597904
20	0x3cf04459	0.029329466
21	0x3c8e80c4	0.017395385
22	0x3d79efb0	0.0610196
23	0x3d8c8fa1	0.068633325
24	0x3ca6bbb9	0.020353185
25	0x3e04616b	0.12927787
26	0x3e060b7c	0.13090318
27	0xbaae1aa0	-0.0013283081

norm.running_mean f4 [28]
0	0x3fa34650	1.2755833
1	0x3fa3f46c	1.2808967
2	0x3fabc0cc	1.3418212
3	0x3fc70c56	1.555064
4	0x3fcb5374	1.5884843
5	0x3fcfab52	1.6224158
6	0x3fd38991	1.6526357
7	0x3fd84d82	1.6898654
8	0x3fee5b50	1.8621616
9	0x3feb3d03	1.8377994
10	0x3fea6e75	1.8314959
11	0x3ff15020	1.8852577
12	0x3fe8a299	1.8174621
13	0x3fea9c48	1.8328943
14	0x3ff09cae	1.8797815
15	0x3ff68c4d	1.9261566
16	0x3ff6ac58	1.9271345
17	0x3fe71066	1.805188
18	0x3fdb697a	1.7141564
19	0x3fd3ed09	1.6556712
20	0x3fce03d9	1.6094924
21	0x3fb546fa	1.4162285
22	0x3fac758b	1.3473371
23	0x3fa36815	1.2766138
24	0xbe093d9c	-0.13402408
25	0x3fd1a9f4	1.637999
26	0x3eed3cb9	0.4633539
27	0x413997e4	11.599583

norm.running_var f4 [28]
0	0x3f2b73b4	0.66973424
1	0x3f22cc32	0.6359283
2	0x3f2dd3d4	0.6790135
3	0x3f3ce442	0.73785794
4	0x3f3609c1	0.71108633
5	0x3f27dde0	0.6557293
6	0x3f244147	0.64162105
7	0x3f2ad1af	0.667262
8	0x3f3a6446	0.72809255
9	0x3f42a3a6	0.7603096
10	0x3f4af054	0.7927296
11	0x3f5035fa	0.8133236
12	0x3f476c6b	0.7789981
13	0x3f492228	0.78567743
14	0x3f43daf0	0.7650595
15	0x3f4cec43	0.80048007
16	0x3f4e0f4d	0.804921
17	0x3f44fe3a	0.7695042
18	0x3f3ad92c	0.7298763
19	0x3f4e6522	0.80623066
20	0x3f547adf	0.82999986
21	0x3f42f71a	0.761583
22	0x3f3c5123	0.73561305
23	0x3f2bb598	0.67073965
24	0x4051e812	3.2797894
25	0x3f01f949	0.50771004
26	0x3d0e82af	0.0347926
27	0x42714bbb	60.323956
