turtlebot3_ddpg/save_model_ddpg/2020_12_06-03:21:16/stage_1_1050_actor.pth (torch_old, 587853 bytes, 9 tensors)

fc1.weight f4 [512, 28]
000000 c9 54 af bd 7b 3e 1a bd b9 7d 94 bd f0 cd 19 be
       -0.08561093 -0.037657242 -0.07250542 -0.15019965
000010 2b df 3e be ff 68 85 bd 60 8e a2 bb 29 db 0e 3d
       -0.1863982 -0.06514167 -0.00496082 0.034876976
000020 b2 a9 56 bd e4 c6 0a bc 25 7c 31 3d cb 6a d2 bd
       -0.052407928 -0.008470271 0.043331284 -0.102742754
000030 28 2a 93 3d 5c 85 86 bd 9a 55 22 3d 56 49 b4 bd
       0.07185775 -0.06568405 0.039632417 -0.0880305
000040 0d f6 9e ba bb 28 8c bd aa fd 22 bd 89 a7 14 be
       -0.0012127772 -0.06843706 -0.039792694 -0.14517035
000050 9a e4 85 bd d4 67 61 3e ce b9 bc bd ad e3 36 be
       -0.06537743 0.22012264 -0.09215127 -0.17860289
000060 38 0d 77 bc 0d 84 ea bd 77 f9 6f be 4d b9 cb bd
       -0.015078835 -0.11450968 -0.23435007 -0.09947453
000070 05 6c 2e bd 56 58 70 3d 96 5f cd 3d 36 06 56 bd
       -0.042583484 0.058677994 0.10027997 -0.052252017
000080 dc f7 6a 3d 76 fe d5 3d d8 34 89 bc ba c2 79 3d
       0.057365283 0.10448925 -0.01674883 0.06097672
000090 e4 4f 56 3c 71 84 ba 3d 3f 21 b0 3b 20 f5 cb 3d
       0.013080571 0.091072924 0.005375057 0.09958863
0000a0 fb 2a 0b 3d 44 91 4b bd 4c 6d 25 bd dc e0 cd 3d
       0.033976536 -0.049699083 -0.040387437 0.10052654
0000b0 5c 62 0f 3e d5 98 1a be a1 12 c9 3d 22 06 39 be
       0.14002365 -0.15097363 0.09818006 -0.18068746
0000c0 73 6e 40 3d 4b 32 18 bd 98 91 ea 3d dc 17 fa 3d
       0.046980333 -0.037157338 0.11453551 0.12211582
0000d0 cd ec 12 3e 80 e9 15 3e f0 47 2f 3c a9 ca 5c be
       0.14348145 0.14639854 0.010698304 -0.21561684
0000e0 cb 60 96 bd ae 7f e0 3d 9f 1b f1 3d 92 6b 78 3c
       -0.073426805 0.10961853 0.117728464 0.0151623655
0000f0 7c aa 2d 3c ab 84 16 be 7d 8e 4f bd f7 e9 4d be
       0.010599729 -0.14699046 -0.050672997 -0.20108782
000100 32 30 11 bc b6 57 82 bd a9 84 ed bd 01 1b 27 bd
       -0.008861588 -0.06364386 -0.115975685 -0.040797237
000110 0f 93 72 bd a0 52 95 bd 8f c7 fb bd 07 25 40 bd
       -0.059222277 -0.0729115 -0.12293922 -0.046910312
000120 97 39 56 3e a0 88 e7 3c 17 76 33 3e 44 48 02 3e
       0.20920406 0.02826339 0.17525516 0.1272288
000130 43 c2 36 be eb c4 95 3d fc 13 cc 3d d0 29 28 3e
       -0.17847542 0.0731295 0.09964749 0.164222
000140 c6 83 56 3e 6d ae 6b be e1 89 e9 3d d1 fa ba 3d
       0.20948705 -0.23015757 0.114032514 0.09129871
000150 85 a2 9c bd f6 a5 c7 3d cd 17 85 bc 47 26 e9 bb
       -0.07648186 0.097484514 -0.0162467 -0.0071151587
000160 4d 66 3d 3d d7 b1 30 be 47 c1 1e be 0b fe e6 bd
       0.04624014 -0.1725534 -0.15503417 -0.112789236
000170 e4 21 b4 bd 4b da 69 3d 5c c6 6c 3d 36 db f1 bd
       -0.087955266 0.057092946 0.057806358 -0.11809389
000180 a9 e8 eb bc 20 a0 23 bd d7 76 54 bd 6a 5e 21 3e
       -0.028797464 -0.03994763 -0.051871147 0.15758672
000190 d8 93 fe bd 49 94 ed 3c 0b 89 b3 bc 86 48 68 3d
       -0.12430543 0.029001372 -0.021915933 0.05670979
0001a0 05 6f f2 3d 71 1d 3d 3e 7c 38 2e 3e e3 9c 73 3d
       0.118375815 0.18468262 0.17013735 0.05947579
0001b0 9e bb 12 bf a1 06 45 be e5 4b f7 3d 68 9e 98 bd
       -0.5731753 -0.1924081 0.120750226 -0.074520886
0001c0 27 9c 7e 3e 41 6d d2 3d 82 e3 8c 3c dc 15 31 3d
       0.24864255 0.10274745 0.017198328 0.043233737
0001d0 86 30 3f 3d 03 2d 3c be 83 90 f2 be 54 2b d0 bd
       0.046677135 -0.18376546 -0.4737588 -0.10164514
0001e0 01 9b 88 3d e2 80 ec bd b2 b5 9b 3d 9a be 3a be
       0.0667019 -0.1154802 0.07603015 -0.18236771
0001f0 33 1a 25 be a8 f2 24 be df 50 46 3e 5b 80 54 bd
       -0.16123275 -0.16108191 0.19366787 -0.05188022
000200 ce 2c 22 be 54 a6 9c bd 1d 0b b1 3c 3d 68 11 bd
       -0.15837404 -0.07648912 0.021611745 -0.0354998
000210 d8 f8 48 3c ce f0 f1 3d 5d c1 9d 3c 8a 77 3d 3d
       0.01226636 0.11813508 0.019257242 0.04625658
000220 81 b8 11 3e ee 19 90 bd 64 ce 2e 3e 0c 25 90 3c
       0.14230539 -0.07036196 0.1707092 0.01759579
000230 24 cb 57 3e 63 bc a1 bd 28 bd fb 3d 23 6f 3d 3d
       0.21073586 -0.0789726 0.12291938 0.046248566
000240 2e f6 b9 3c c8 74 e3 3d 77 1d 79 3d 1c c8 9d bd
       0.022700395 0.11106259 0.060819115 -0.077041835
000250 a9 4f bb bd 95 3e 0f be 9d a5 99 3d f9 f2 f7 3d
       -0.09146053 -0.13988717 0.07502291 0.1210689
000260 2d b6 dd 3d 66 a5 e9 3c 16 b1 16 3e e6 f6 1a 3d
       0.10825763 0.028521251 0.1471599 0.037833117
000270 9f 18 6d 3c b5 99 84 3e a7 c8 21 3e 66 d3 a3 bd
       0.014471202 0.2589852 0.15799199 -0.079993054
000280 af 5c 17 be fe 32 ad bd 7a 24 64 bd 2d 4f 16 be
       -0.1478145 -0.084569916 -0.05569885 -0.1467864
000290 32 91 02 3e ea 35 0a be 75 c9 1d be 5f c2 0c 3e
       0.127507 -0.13497129 -0.15408881 0.13746022
0002a0 9a 8c 44 3e 2f f9 8e 3d b7 2f 20 3e 3a f2 d4 3d
       0.1919426 0.06981122 0.15643202 0.103977636
0002b0 4f 3a df bd 08 a0 29 be de a8 36 bd 48 5e aa bd
       -0.10899793 -0.16564953 -0.044594638 -0.08318764
0002c0 6d eb b2 3d 79 e5 71 bd 07 e1 88 3d ac f7 62 3d
       0.0873631 -0.059056733 0.066835456 0.05541198
0002d0 5c dc 9e bc c0 c8 91 3e 44 4b ca 3e 5c 95 89 bd
       -0.019392185 0.28473473 0.39510548 -0.06717941
0002e0 6a 70 7a bd 6a 84 e3 3d a2 83 53 3e 46 7a 12 bd
       -0.061142363 0.1110924 0.20655683 -0.03576114
0002f0 22 d0 9d 3d 9d 6a dc 3d c9 28 dc 3d d6 90 4d 3e
       0.07705714 0.10762522 0.10749967 0.20074782
000300 44 a7 61 bd 0e a3 48 bd 50 42 30 3d c4 21 0c 3e
       -0.055091158 -0.048983626 0.04303199 0.13684756
000310 10 01 d3 3d ca fc ea 3d a5 5f b4 bc 66 de ce bd
       0.10302937 0.11473997 -0.022018263 -0.10101013
000320 2a bb 61 be 92 37 52 3d 65 ce e5 3d 19 b1 e5 bd
       -0.22044054 0.051322527 0.11221007 -0.11215419
000330 ec ff a4 3d c1 38 1d bd 94 fb 33 3e 29 4b 72 3d
       0.08056626 -0.038384203 0.17576438 0.05915371
000340 f7 ff 34 3d 8a b9 8c bc 35 22 bf bd 6d bc 3c 3c
       0.04418942 -0.017178316 -0.09332696 0.011519534
000350 b4 ff 6e 3c d3 e3 15 bc e1 55 09 be c1 e0 c7 3d
       0.014587332 -0.009148556 -0.13411666 0.09759665
000360 af 47 e1 bc 1d 4f 08 3e 7f d1 a8 bc 10 dc 70 bd
       -0.027500002 0.1331143 -0.020607708 -0.058803618
000370 b3 b8 9b bd 6c 87 bf bb a3 c3 01 3c 41 ed fb bc
       -0.07603588 -0.005845001 0.007920179 -0.03075278
000380 5a fd 78 3e 3c cc c9 3c 41 91 ea bd e1 7e 56 bd
       0.24315396 0.02463352 -0.11453486 -0.052367095
000390 ed 9b 8d 3b 4e 43 95 bd 14 d3 48 bd 1f f3 b8 bc
       0.0043215663 -0.07288228 -0.049029425 -0.022576867
0003a0 fb c5 05 bd 64 b6 c4 3d e0 69 ab 3d 73 cf f8 bd
       -0.032659512 0.09605101 0.083698034 -0.12148943
0003b0 d7 4f 38 be 65 07 db 3b e4 78 e2 bc 8b e6 bd bd
       -0.17999206 0.006684231 -0.027645536 -0.09272488
0003c0 16 29 89 3d a8 be ed bd 7b 87 ae 3d 79 1d b2 bd
       0.0669729 -0.116086304 0.085219346 -0.08697028
0003d0 09 45 cc bd 7a 7c 3a be ad 74 0d bc d7 5a 53 3e
       -0.09974105 -0.18211547 -0.008633775 0.20640121
0003e0 ad ee 72 3d 12 60 9a be 37 cc 09 be d6 bc 2e 3c
       0.05930965 -0.3015142 -0.13456808 0.010665139
0003f0 0b 4d 1a 3d c9 dd 30 3e 99 d6 ee 3c 9a 2f 51 3e
       0.03767113 0.17272104 0.029155063 0.20428315

fc1.bias f4 [512]
000000 82 ec 54 be 47 06 34 3e 4b 1b 10 be c7 f3 3b be
       -0.20793346 0.1758052 -0.14072911 -0.18354712
000010 39 f5 80 bd d4 12 c6 be 48 43 16 be 9f a1 97 bc
       -0.062967725 -0.3868624 -0.14674103 -0.018509684
000020 86 d8 85 be 59 07 cf bd 96 b4 42 be fc 7f 89 be
       -0.26141757 -0.10108823 -0.190142 -0.26855457
000030 ba a9 35 bc b5 a3 aa be f8 15 06 3e 84 32 c3 bd
       -0.011087829 -0.33328024 0.13094318 -0.095311195
000040 a4 c9 98 bd e7 f2 74 be 3f a0 c9 be 5c b2 3d be
       -0.07460335 -0.23920785 -0.3938007 -0.1852507
000050 9a b0 29 3e ae 53 e4 3d 55 7a 7c be 62 4a 11 be
       0.16571274 0.11148773 -0.24656041 -0.14188531
000060 0b c2 1a 3e d5 98 01 be d8 af 72 be 53 73 33 be
       0.15113084 -0.12655957 -0.23699892 -0.17524461
000070 a3 6c e7 be 7c 2b f8 bc 26 9a 06 3d 2e 38 11 3e
       -0.4520007 -0.030294172 0.03286185 0.14181587
000080 4e 7a 10 be 06 dc 89 3e 11 ac 67 be 05 4d a9 be
       -0.14109156 0.26925677 -0.22624232 -0.33066574
000090 8d 61 84 be b2 07 06 3a 4a 4f 7a be 6b 9a 6f bd
       -0.25855675 0.0005112841 -0.24444309 -0.058496874
0000a0 18 41 64 bd 3f 7d 75 3d 29 22 4d bd 37 4f cb be
       -0.05572614 0.059933897 -0.050081406 -0.39708874
0000b0 d9 0a 4d bd 6b d7 a7 bd 28 94 af bd 23 ba 88 be
       -0.050059173 -0.081953846 -0.085731804 -0.2670451
0000c0 9f 0e b9 bd 0f ac 46 be 90 d0 62 bd b4 65 80 be
       -0.09035992 -0.19401573 -0.055374682 -0.25077593
0000d0 16 f7 8c 3a 6e e7 ac be a0 c0 fd bd 03 bf c7 bd
       0.001075479 -0.33770317 -0.12390256 -0.097532295
0000e0 6a bf 92 bd b4 b3 92 be 09 86 06 be 8e cd 57 be
       -0.071654156 -0.28652728 -0.13137068 -0.21074507
0000f0 fc ca cf be 4a ac 0a bc 61 0f 8d 3d 1c fd 3a bd
       -0.40584552 -0.0084639285 0.06887699 -0.04565154
000100 18 2e 82 bd 46 9c 86 be 64 f9 80 be c3 31 94 be
       -0.06356448 -0.26291102 -0.2519027 -0.28944215
000110 1a 69 ff 3d d1 c4 08 bd 04 03 39 bc d8 28 20 3e
       0.124712184 -0.033390824 -0.011292223 0.1564058
000120 7b e0 1d 3d 06 af 48 be dd 1a ab be 57 d6 3e 3e
       0.03854416 -0.19598016 -0.33418933 0.18636452
000130 f6 09 61 bd b7 53 1d be 82 03 4f be 60 24 06 be
       -0.05494114 -0.15363966 -0.20216182 -0.13099813
000140 10 be 9d be 63 dd 64 3c 95 13 61 be bb f2 76 3e
       -0.3080907 0.013968798 -0.21980126 0.24116032
000150 d1 a5 ef be 1d 86 c3 bd 30 f7 69 be bd 6c 7a be
       -0.46806195 -0.095470645 -0.22848201 -0.24455543
000160 5d 02 4f be 48 cf 7d be c1 17 82 be 51 41 cb 3e
       -0.20215745 -0.24786103 -0.25408748 0.3969827
000170 70 f1 50 3e 0d 93 99 bd f9 4e 2d be da fb 7d be
       0.20404601 -0.07498751 -0.16924657 -0.24803105
000180 de 5c 84 be 79 c7 da bc 67 33 92 be 64 11 b1 be
       -0.25852102 -0.026706444 -0.28554842 -0.3458358
000190 90 bb 9b 3c 07 95 9b bd 87 1a 50 be cf 94 ed 3d
       0.019010335 -0.07596784 -0.2032262 0.116006486
0001a0 1a f8 52 be 3a 3f 42 3e 90 64 30 bd 90 dc 18 3d
       -0.20602456 0.18969432 -0.043064654 0.03731972
0001b0 d4 b6 5d 3e dd 98 92 be 42 3b d2 be 66 b9 86 bd
       0.21651775 -0.2863225 -0.41060835 -0.06578331
0001c0 4b d9 bb bd 8b 4d 5e be d0 8c ce 3d 54 64 2a bd
       -0.09172305 -0.21709268 0.100854516 -0.041599587
0001d0 f5 1c 8c 3e 91 75 b0 bd 11 2b 12 bd 08 93 37 3e
       0.27365842 -0.08616174 -0.035685603 0.17927182
0001e0 41 3a 82 be d1 9a 68 3d 11 c7 9c be 14 1d 8c bd
       -0.2543507 0.05678827 -0.30620626 -0.06841484
0001f0 49 f2 4e 3e 60 da 3a 3e 92 4c d0 be 33 6e a4 3d
       0.20209612 0.18247366 -0.4068342 0.08028831
000200 1b 13 4f be 88 ad 2f bc 9c 17 47 bd eb 1b 13 be
       -0.20222132 -0.010722525 -0.0486065 -0.14366119
000210 cd 4c e8 bb be 1b da bd e3 71 e4 bc 3e f6 cc be
       -0.0070892335 -0.10649823 -0.027886337 -0.40031618
000220 07 c8 44 3e a7 b1 2c be e2 9d b3 bd 43 83 93 3c
       0.1921693 -0.16864644 -0.08770348 0.018006926
000230 67 05 a9 3d 57 ad 3f be 7a e7 50 bd b7 36 cc be
       0.082529835 -0.18718468 -0.051002003 -0.39885494
000240 fa 6f 8e be 00 5c a3 bd d4 30 da bd 51 36 07 be
       -0.27819806 -0.07976532 -0.106538445 -0.13204314
000250 c1 d8 75 3e 81 e4 a8 be bc e1 ad be 35 ec f9 3d
       0.24008466 -0.32986835 -0.33961284 0.12203256
000260 03 a6 7c be c2 6b 0d 3e dd a6 6c be 79 cd 8c be
       -0.24672703 0.13810638 -0.23110528 -0.27500513
000270 e0 6a 72 3e 10 e6 de bd 48 cb 57 be cc 15 a3 3d
       0.23673582 -0.10883725 -0.2107364 0.07963142
000280 91 cc b1 be e1 ba ab bd 9f f4 c1 be 84 e7 e2 bd
       -0.34726384 -0.08385254 -0.37881944 -0.11079314
000290 88 4e 72 3e ec 67 70 be b3 75 8e 3d f6 96 12 3d
       0.2366277 -0.23477143 0.06956043 0.0357885
0002a0 0f 07 e3 bd 8b a7 25 be b0 f0 9f be 76 c2 94 3e
       -0.11085331 -0.16177194 -0.31238317 0.29054612
0002b0 bd 1a 43 be 63 3c e6 be d4 ae c6 bd f0 9e 40 be
       -0.19053169 -0.44967946 -0.097013146 -0.1881063
0002c0 ad 35 1d be 38 8e 83 be 42 f3 c3 be a8 d0 82 3e
       -0.15352507 -0.25694442 -0.38271528 0.25549817
0002d0 f0 cc 57 be 63 1e 10 be 76 df 81 be dd b8 65 3e
       -0.21074271 -0.14074092 -0.253658 0.22433801
0002e0 e1 15 20 be 16 15 17 be 49 75 79 3b bb 51 52 3e
       -0.15633346 -0.14754137 0.0038064292 0.2053899
0002f0 8e a2 8f be 25 23 4b be 21 e7 16 3d 9d 57 b3 be
       -0.28053707 -0.19837625 0.036841515 -0.3502778
000300 1c 83 6e be 85 af b9 be 64 aa 7a bc 04 4a 25 be
       -0.23292202 -0.36266723 -0.015299413 -0.16141516
000310 58 11 b7 bd bc 3a 7e be 56 e7 04 3d 3d 8f 97 be
       -0.08938855 -0.24827093 0.03244718 -0.2960147
000320 24 2b 06 be c3 1c b2 be 7a a6 36 3d 20 12 0d bc
       -0.13102394 -0.34787568 0.04459236 -0.008610278
000330 0a 7b 33 be 15 13 7e be 75 2a c6 be fb f5 8e be
       -0.17527404 -0.24811967 -0.38704267 -0.27922043
000340 fb d8 c7 3c 51 55 f7 bd ba 79 a7 be 0d 0e e7 bd
       0.024395457 -0.1207682 -0.32710057 -0.11281977
000350 e6 ed 3e 3e 61 10 84 be 6e 6d 9f be 35 e3 92 be
       0.18645439 -0.25793746 -0.31138176 -0.2868897
000360 cb b0 33 3e 74 4b 4a be c7 40 01 bf 54 0d 08 3e
       0.1754791 -0.19755346 -0.5048947 0.13286334
000370 cc eb d9 bc c6 c1 1c be 67 78 39 be 9c 5a 4f be
       -0.026601695 -0.15308294 -0.18112336 -0.20249408
000380 d6 b3 a9 be 26 0b 81 be 49 8c 63 be 18 d1 e4 bd
       -0.33145016 -0.25203818 -0.22221483 -0.11172694
000390 75 b8 39 bd 55 02 30 bd 0f 98 ad 3c 77 78 51 be
       -0.045341928 -0.042970974 0.021190671 -0.2045611
0003a0 e7 46 94 be 5b 76 0b 3e 1e 29 09 be 6e 08 25 3e
       -0.28960344 0.13619368 -0.13394591 0.16116497
0003b0 9b b5 26 be 5c 27 26 be f5 4d 14 be f1 a7 97 be
       -0.16280214 -0.16225952 -0.14482863 -0.29620317
0003c0 4d 89 89 be 44 e6 05 bc 6d fe c1 3b b7 29 92 bd
       -0.26862565 -0.008172575 0.0059202225 -0.07136863
0003d0 25 c4 29 3e 67 c1 e0 be bc 4e df 3d c3 8f 95 bd
       0.1657873 -0.43897554 0.10903689 -0.07302811
0003e0 f7 a2 0a 3e 06 65 e4 bc e3 6a 9e be d4 25 7b be
       0.13538729 -0.027880203 -0.30940923 -0.24526149
0003f0 0a ff 73 be 97 7a f3 be 46 1c 92 be 86 a5 dd bd
       -0.23827758 -0.47554466 -0.28537196 -0.10822587

fc2.weight f4 [256, 512]
000000 15 49 35 3d 0c 4e 06 be 83 fd da bd 3d eb 43 3d
       0.04425915 -0.1311571 -0.10692885 0.047831763
000010 9e 7b 6c be b4 67 6e bd 50 7f c4 3c 57 9f 3d 3d
       -0.23094031 -0.058204368 0.023986489 0.046294536
000020 5b 31 76 bd f5 ce a2 bd a6 2f 11 bc 8d 66 e7 bb
       -0.060105663 -0.0794963 -0.008861458 -0.0070617856
000030 35 58 66 bd 67 83 01 3e c2 08 8c 3c 4f 4f 0b be
       -0.056236465 0.12647782 0.01709402 -0.13604473
000040 1c 9a 07 be d0 2a a3 bc fd fe b4 3d 64 84 85 3d
       -0.13242382 -0.019917876 0.08837698 0.06519392
000050 ee f2 e2 bb 4c ee 33 bd d2 19 3c be 3f bc b4 bd
       -0.006925932 -0.04392843 -0.18369225 -0.088249676
000060 90 25 14 be fc 0e 1d 3d b3 9f 01 bd 1e b3 d9 bd
       -0.14467454 0.03834437 -0.03164644 -0.10629867
000070 ae e9 98 3a af e4 69 3c 99 6c 90 bd 05 bd 0c be
       0.0011666322 0.014275714 -0.07051963 -0.1374398
000080 f3 81 59 be 04 b7 04 be 95 ea ba bd 24 4b d0 bd
       -0.21240978 -0.1296044 -0.09126774 -0.10170582
000090 d3 dd 70 bd ee a8 69 bd 7f 89 fd bb 32 96 e8 bc
       -0.058805298 -0.05704587 -0.007737338 -0.028391931
0000a0 74 f6 b1 3d bb 5b 9f bd bb 1f f6 bd e7 c5 26 be
       0.08689585 -0.07781168 -0.12017771 -0.16286431
0000b0 10 0e 33 3d 0f 72 dc bd 19 c0 f3 bd 44 dd 96 bd
       0.043714583 -0.107639425 -0.11901874 -0.07366422
0000c0 f9 de 09 be a8 c8 44 3b 47 4c ca bd f9 cf 63 bd
       -0.13463964 0.0030026827 -0.0987783 -0.05561826
0000d0 53 c3 2f be 9a a5 44 bd e7 ee 60 be 5b 86 16 be
       -0.17164354 -0.048009492 -0.21966134 -0.1469969
0000e0 06 0f 88 bb ad 67 0d be d3 ab 0c bd c4 17 81 bd
       -0.0041521816 -0.1380908 -0.03434355 -0.06303361
0000f0 40 10 42 3c 3c 8c 74 bc 71 eb af 3b 11 08 ce bd
       0.011844695 -0.014926013 0.005368643 -0.10060132
000100 fd b0 ea bc c8 1e 63 bd ad 6f 10 be ce 4b 3c bd
       -0.028648848 -0.055449277 -0.14105101 -0.04597073
000110 f4 9f 41 be 2f ba 9c 3c ae a7 9a bd 53 de 89 3c
       -0.18908674 0.019131748 -0.075515136 0.016829645
000120 05 64 17 bd 08 7c 82 3d 6f 4a b0 bd 72 0e a0 bd
       -0.03696062 0.06371313 -0.08607947 -0.07815255
000130 d5 07 7e bd 8a bc 5e bd 73 12 21 be 4f 10 6f bb
       -0.062019188 -0.054379024 -0.15729694 -0.0036478227
000140 1c f2 38 3c d2 fa 54 be 73 a8 96 3b 60 c1 34 bd
       0.011288192 -0.20798805 0.0045977174 -0.04412973
000150 27 a2 28 bc e4 52 ae 3d b9 06 2f bd 34 fe a8 bd
       -0.010292566 0.08511904 -0.04273102 -0.082516104
000160 52 43 d5 3c e6 dd 81 3d b5 7d a9 3d 4a dc 02 bd
       0.026033077 0.06341152 0.0827593 -0.031948365
000170 99 74 26 be 86 5e f3 bd a9 20 aa 3d ab 73 ea 3c
       -0.16255416 -0.11883263 0.08307011 0.028619608
000180 de 51 88 bc a3 73 ee bc 43 f3 d9 bd 80 f1 98 3d
       -0.0166406 -0.029107874 -0.106421016 0.074679375
000190 f7 ca a7 bd cd e3 1e bd e9 91 8e bb 10 b7 44 bd
       -0.08193009 -0.038791467 -0.00435089 -0.048026145
0001a0 3a 07 f0 3c c8 75 1e be d0 04 a9 bd 13 5a 42 be
       0.02930032 -0.15474617 -0.08252871 -0.18979673
0001b0 c4 4c 1b be 83 f6 c3 bd 46 20 bd bc d2 9d eb bd
       -0.15166003 -0.09568503 -0.023086678 -0.11504711
0001c0 99 b9 9a 3c b1 61 24 bd d5 26 23 bd 86 58 d0 bc
       0.018887328 -0.04013223 -0.039831955 -0.025432836
0001d0 cc 2f 07 bd 53 7c 61 bd 3a 09 30 bb 66 9b ae bd
       -0.033004567 -0.055050205 -0.0026860968 -0.08525734
0001e0 1b 2c 03 be bd fd 3d be aa 4f 07 bc b1 2c c3 bd
       -0.12809794 -0.18553825 -0.0082587395 -0.095300086
0001f0 77 4a f8 bd 53 ad a4 bd 9e c5 ad bd ab cd 85 3c
       -0.12123578 -0.080408715 -0.08484958 0.016333422
000200 6b 3b df 3b 8b 00 92 3b f7 ca fb bb f9 69 d1 3c
       0.006812503 0.004455631 -0.0076841074 0.025563227
000210 55 42 8d 3d b0 bf 6b 3d d0 49 81 bd ff 4a 20 be
       0.068974175 0.057555854 -0.06312907 -0.15653609
000220 b0 7a c0 bd 32 ef b7 3d 8a 85 c2 bd be 02 92 3d
       -0.09398401 0.0898117 -0.09498127 0.07129429
000230 82 ba 4d bb 39 64 26 3c d9 ba 81 3d d2 27 10 be
       -0.0031391685 0.010155731 0.063344665 -0.1407769
000240 57 a7 a1 3c b7 16 d5 3c 35 74 89 bd e8 d2 4b be
       0.019733114 0.026011808 -0.06711618 -0.19904673
000250 51 5b bf bd 1e a7 7b 3d bc 4b 89 3c f1 ca 55 bd
       -0.09343589 0.061438672 0.016759746 -0.052195493
000260 bc ca 7c bb c4 e0 22 be 5e 20 25 bd a6 04 cd bd
       -0.0038572988 -0.15906054 -0.04031407 -0.10010652
000270 ee 02 12 be 79 54 7d bc 5a ed 48 bd 97 b1 20 3d
       -0.1425893 -0.015462034 -0.04905448 0.039231863
000280 de 23 36 3c 21 88 da bd 86 fa cb 3d 18 b8 b9 bc
       0.01111695 -0.10670496 0.09959893 -0.02267079
000290 75 d8 82 bd 0c 40 24 bd 4e a8 f2 bd ba f4 3c be
       -0.06388942 -0.040100142 -0.11848508 -0.18452731
0002a0 ec de 9f 3c 0a 75 37 3d 4c 0b 1d be c5 c1 d6 bd
       0.019515477 0.04478935 -0.1533634 -0.10486177
0002b0 88 49 f7 bd 24 2e 62 3b c5 cc 80 3b 69 8d e9 3d
       -0.12074572 0.0034512365 0.0039306604 0.11403925
0002c0 58 dc 0c be b5 56 3c be d7 22 9f bd 0c 2a c7 bc
       -0.1375593 -0.18392451 -0.07770317 -0.024312042
0002d0 30 94 9e bc 8e d4 0b be c6 47 43 bd b4 31 16 be
       -0.01935777 -0.13655302 -0.04767587 -0.14667398
0002e0 6d c5 5c 3c b0 c2 0d bd e2 97 bb bd 02 83 65 be
       0.013474804 -0.034609497 -0.09159829 -0.22413257
0002f0 35 95 b1 bd 7e 99 1c 3b 9c a1 06 be ca 16 37 3b
       -0.08671037 0.00238952 -0.13147587 0.0027937167
000300 2f 7d 86 bd f7 aa f5 bb 26 f5 39 bd c0 03 6e bd
       -0.065668456 -0.0074971872 -0.045399807 -0.058109045
000310 e4 2b 21 3d 06 ac a3 bd b2 61 05 be f1 e3 0d be
       0.039348498 -0.07991795 -0.13025549 -0.13856484
000320 73 fc 07 3c 3b 21 46 be ea c3 99 bd 22 b9 4d be
       0.008299935 -0.19348614 -0.07508071 -0.20090154
000330 98 0a 3e bd 01 00 ae bc 69 e7 3a 3d 83 f0 26 3d
       -0.04639682 -0.021240236 0.045630846 0.040756714
000340 9d 00 4d be ca de e0 bd 71 47 50 3d 57 6f d3 3d
       -0.20019765 -0.10979994 0.05084938 0.10323971
000350 4b a6 4e bc 10 cf 39 3e 39 38 06 3e 29 9f ca bc
       -0.0126128895 0.18145394 0.13107385 -0.024734097
000360 d1 a0 f3 bd f1 85 f1 3c d5 cd 6e bd 6b 40 5f bc
       -0.11895908 0.029482814 -0.058301765 -0.013626198
000370 08 4a 0c 3d f4 34 64 bc 13 c7 14 bd 84 d8 89 bc
       0.03425029 -0.013928641 -0.036322664 -0.016826876
000380 94 8d 10 bd 49 92 1d bc 2c ac 40 bd c0 a9 0f be
       -0.03529127 -0.009617397 -0.047039196 -0.14029598
000390 fb d8 12 be 96 3a 41 be ee 37 1f be d2 d8 4d bd
       -0.14340584 -0.18870005 -0.15548679 -0.050255604
0003a0 e6 c9 ca bb 31 df 01 be fb 29 47 bd c1 1b 39 bd
       -0.006188619 -0.12682797 -0.04862402 -0.045192484
0003b0 cf 75 06 be e7 e3 f1 bc d0 ca 85 bc 69 38 4a bd
       -0.13130878 -0.029527618 -0.01633206 -0.049370203
0003c0 e3 42 3f bd 9e c6 32 3d 70 c0 0c bd 4d e3 bc bd
       -0.046694648 0.043646447 -0.03436321 -0.09223042
0003d0 46 ca 88 bd 6d bd ce 3c 2c 09 35 be b7 c4 0b 3d
       -0.066792056 0.02523681 -0.1767928 0.03412315
0003e0 e6 e0 a0 bd a0 66 6d bd cb df bb bd 60 c7 94 3b
       -0.07855396 -0.0579592 -0.091735445 0.004540369
0003f0 91 c3 48 be 27 1a 6e 3d d6 df 01 3b f1 4a 07 be
       -0.19605853 0.05813041 0.0019817255 -0.13212182

fc2.bias f4 [256]
000000 19 86 64 bd 93 49 10 bd ea c1 f8 bd 78 8b 06 3e
       -0.055791948 -0.035226416 -0.12146361 0.1313914
000010 91 70 c3 3c 8b ff 29 bb c2 27 b0 3b 1a 62 d3 bc
       0.023857387 -0.002593967 0.0053758333 -0.025803614
000020 2c 8d 48 3e 71 d4 71 3e 70 c7 47 bd d0 f3 7f 3d
       0.19585103 0.23616196 -0.048774183 0.062488377
000030 1d c3 1e be 56 2b 43 bd 74 b6 2a bd 85 0b c8 bc
       -0.15504117 -0.04764875 -0.041677907 -0.024419555
000040 65 dd 0a 3e 32 09 46 3d 90 5c 9c bd 1e 64 aa bc
       0.13561018 0.048348613 -0.076348424 -0.020799693
000050 e0 ee f5 3c 54 6f 14 bc 91 9b 80 3e cd b8 76 3e
       0.030021131 -0.009059746 0.25118688 0.24093933
000060 1c fe c3 3d ce 4b fd bd f0 a7 66 bd f0 89 2f be
       0.09569952 -0.12367974 -0.0563125 -0.17142463
000070 9d 46 84 3e 21 0e 44 be 37 a5 15 3d b5 6f 4f bc
       0.25835124 -0.19146015 0.036534514 -0.01266091
000080 5f 85 52 bb 74 91 cc bd 4a 52 52 3e ae 29 8f bc
       -0.0032122952 -0.099886805 0.20539203 -0.01747593
000090 88 aa 6d 3c 20 59 00 be 51 9a 7e 3d 2c 39 8c bd
       0.01450599 -0.12533998 0.062158886 -0.06846842
0000a0 28 38 59 3d c5 f8 de 3b c2 e0 6e bd 20 56 9a bc
       0.05303207 0.006804558 -0.058319815 -0.018839896
0000b0 6f dd 9f 3e 2f 9d 52 bd 95 04 ea 3d b3 74 16 bd
       0.31223628 -0.051419433 0.11426655 -0.036732387
0000c0 d5 86 ce 3d 32 6c 8c 3c 68 bd 41 bd ba 90 75 bd
       0.10084311 0.017141435 -0.047299773 -0.059952475
0000d0 c6 d4 da 3d 0a 67 ae 3b 0e 86 0b bd 64 4a 08 be
       0.106851146 0.005322342 -0.03406339 -0.13309628
0000e0 68 91 0f 3d 05 c0 2c bd 3b 21 69 3d e4 1a 92 bd
       0.03505078 -0.04217531 0.056916457 -0.07134035
0000f0 b1 71 a7 3d ad 77 44 3e c8 9e ff bd 50 92 2e 3c
       0.08175982 0.19186278 -0.12481457 0.010655001
000100 28 eb aa bc de 29 01 be 95 02 e8 38 0a 9e 8e bd
       -0.020864084 -0.12613627 0.00011063103 -0.06963737
000110 96 7b 68 3d ca 72 92 3e 6a 9d 15 bd d8 9a 2d be
       0.056758486 0.28603202 -0.036527075 -0.169536
000120 93 94 7c 3c 30 15 ca bd a9 34 1e 3d fd 3c 7d 3c
       0.015416282 -0.098673224 0.03862444 0.015456435
000130 8e ec 20 bb 00 f1 08 be 27 f5 a2 bc 0c e9 52 bd
       -0.002455506 -0.13373184 -0.019892288 -0.051491782
000140 9a 49 00 bd ca bd a9 3b f5 6a b5 3d 53 f3 2e bd
       -0.031320192 0.0051800953 0.08858291 -0.04271252
000150 74 c6 d5 bd d2 54 b7 bd 9e 83 ff bc 90 5f 71 bc
       -0.104382426 -0.08951725 -0.03119069 -0.0147322565
000160 77 93 90 bd 81 47 bb bb 68 4c da 3b 12 08 24 bb
       -0.07059377 -0.005715311 0.0066619404 -0.0025029224
000170 e6 8b 2d bd 78 a8 df bc 44 a7 68 3d 11 db 7f bc
       -0.042369746 -0.027302012 0.056800142 -0.015616194
000180 ae ac a3 bd ea ee 3c bd 54 77 7d 3d 88 28 9e b8
       -0.079919204 -0.046126284 0.06188138 -7.5415766e-05
000190 9f ae 7b 3c e2 7a 08 3d 04 30 71 3e 1a ef f3 3d
       0.015361457 0.033320315 0.23553473 0.119108394
0001a0 88 fa f6 3d 34 a6 8d bb 6e c1 d1 bc 26 c7 54 3e
       0.12059504 -0.0043227915 -0.02560493 0.20779094
0001b0 ce b5 8c 3b 96 3b 91 3d fe 9e cc bd 61 2a 36 3d
       0.0042941337 0.07091443 -0.09991263 0.04447401
0001c0 1b ef f6 bc 1a 1a c4 bc b2 be 92 bd dc 04 bc 3c
       -0.030143311 -0.023938227 -0.071652785 0.022951536
0001d0 0e d1 97 3d d9 aa f1 3b 8d b6 34 3b a8 55 2e 3e
       0.07412921 0.007375103 0.002757463 0.17024863
0001e0 ee 4c 0e 3d 18 f5 f7 bc 33 4b ef bd 52 1b ca bd
       0.034741335 -0.030268237 -0.11684265 -0.09868492
0001f0 3d 75 6a 3c 66 a9 04 3e c1 55 30 bd b4 26 45 3c
       0.014310178 0.12955245 -0.04305053 0.012033153
000200 44 f3 0a bd b4 ba 0b 3e f7 c0 2e 3e 1d a3 c5 ba
       -0.033923402 0.1364544 0.17065798 -0.0015078519
000210 75 cf a5 bc e0 d5 a3 3b e2 aa a3 3c 21 f6 a4 3c
       -0.020240525 0.004999861 0.019978944 0.020136895
000220 e9 48 70 bc 3d 38 f7 bc 75 7b 32 3e 23 eb ae bc
       -0.014665821 -0.030178184 0.17429908 -0.021352356
000230 8b 97 92 bd 80 b5 85 bd 87 87 33 bd 8b f7 31 bd
       -0.07157811 -0.06528759 -0.04383042 -0.043448966
000240 c1 94 80 bc 30 7a 18 3e 16 2b 31 3d 43 97 7e bd
       -0.015695931 0.14890361 0.04325398 -0.062155973
000250 05 ba 92 bd ee 16 86 bc 1a ff aa bd 25 ab 78 3b
       -0.07164387 -0.016368356 -0.08349438 0.0037943807
000260 3b 0e 80 bc 68 15 5b bd 6c 29 b4 bd da 8e 92 3e
       -0.015631786 -0.05348721 -0.08796963 0.28624612
000270 d8 dc 29 bd 62 b3 cc bb 9e c3 d4 bc 24 5f 07 3e
       -0.04147038 -0.00624697 -0.025972184 0.13219887
000280 96 a6 ba bb 2d 42 8b 3b 5f 91 79 3b 68 fe 79 bd
       -0.005696128 0.004249832 0.0038081033 -0.061033636
000290 80 c9 fb bc e1 c3 e9 bd 1e 93 4b bd fb 14 20 3e
       -0.030735731 -0.11414314 -0.04970085 0.15633003
0002a0 66 77 7e 3c 69 fa cd 3d 9a 30 87 3e d6 7c 1b be
       0.0155313965 0.100575276 0.26404268 -0.1518434
0002b0 73 a9 57 bd 64 47 e5 b9 7c 80 36 3e 15 61 c1 bd
       -0.052651834 -0.00043731474 0.1782245 -0.09442345
0002c0 02 7b 62 3e d0 68 82 bd c6 5c 92 bd 43 16 50 3e
       0.22117236 -0.06367648 -0.071466014 0.20320992
0002d0 06 dc 90 3d 9e be aa bd 20 41 4c 3d e0 75 4e 3c
       0.07073216 -0.083371386 0.049866796 0.012601346
0002e0 e6 e1 a2 3b 4b 92 89 bc 84 79 cd 3d f8 bb 46 bd
       0.004970777 -0.01679339 0.10032943 -0.048519105
0002f0 4a 56 6b bd 54 4e 9d bd 01 fa 00 bd 88 57 0b bd
       -0.05745534 -0.076809555 -0.031488422 -0.034019023
000300 7e f7 9d 3d 56 09 09 bb 33 41 1b 3c 81 8b 09 bd
       0.07713221 -0.0020910106 0.009475994 -0.033580307
000310 88 50 0d be 37 3e 41 bc bd d7 9b 3d dc dc 05 bc
       -0.13800251 -0.011794618 0.07609508 -0.008170333
000320 80 79 1e bd 5f 49 d3 bd ab 56 b3 bd 73 90 70 bd
       -0.03869009 -0.10316729 -0.08756765 -0.058731508
000330 5c 03 fc 3d e2 23 22 bd c4 1a 15 bd e0 cc b4 bc
       0.12305328 -0.039585 -0.03640248 -0.022070348
000340 03 e1 59 bd a0 c4 9e bb 69 48 49 3d bd e7 6b bc
       -0.053193104 -0.004845217 0.04914132 -0.014398512
000350 78 58 6d bd 19 c8 1f 3e cf e1 63 bc 50 03 31 3c
       -0.0579457 0.15603675 -0.013908817 0.010804012
000360 3a d5 e6 bc 04 ec 9c bc 97 94 0d 3c 2b 4e 3e bd
       -0.028177846 -0.01915551 0.008641384 -0.046461266
000370 ba 2f f1 bc 29 33 77 3e 11 8d 28 3d 04 90 ce bb
       -0.029441703 0.2414061 0.041150156 -0.006303789
000380 65 0c e9 bb 24 c0 8d 3e 76 d8 dd bd 5e c8 e2 bc
       -0.0071120732 0.27685654 -0.10832302 -0.027683433
000390 7b 63 31 bd 22 a1 1e 3e f9 fc ba bd c5 67 14 bd
       -0.043307763 0.15491155 -0.09130282 -0.036231775
0003a0 f2 8f a4 bd 0d d5 58 bd 46 f6 d1 3c 88 89 55 bd
       -0.08035268 -0.052937556 0.025630128 -0.052133113
0003b0 66 1a 78 3d d0 5f 02 bd 2f d3 dd 3c ae ea c3 bd
       0.06057205 -0.031829655 0.02707824 -0.09566246
0003c0 5a 5f a9 bc b6 21 79 be 4e 14 8d bd 01 46 ee 3b
       -0.02067535 -0.24329266 -0.068886384 0.0072715287
0003d0 2d 9f 7a bd e0 7e be 3d 99 e2 ec 3d 25 fe 21 3c
       -0.061186958 0.09301543 0.115666576 0.009887253
0003e0 6a 3b bb bc 49 07 8f 3d 12 cf da bd 9a 64 87 3c
       -0.02285548 0.069838114 -0.10684027 0.016527463
0003f0 ab 60 cf bd c7 f8 c4 3d a5 71 83 be 88 1d 30 bd
       -0.1012586 0.09617763 -0.2567264 -0.042996913

fc3.weight f4 [1, 256]
000000 17 05 0f be fc 19 09 3e 49 37 bc bc d3 94 70 3d
       -0.13966785 0.13388819 -0.02297558 0.05873568
000010 4f d2 15 3e c4 b6 cf 3e 18 90 ff 3b 45 0d 0d bd
       0.14631008 0.40569127 0.0077991597 -0.034436483
000020 57 09 3e 3d c6 08 27 bd ab a7 d1 3d da 60 94 bd
       0.046395626 -0.04077985 0.10237058 -0.072450355
000030 aa c5 30 3d 38 cb 0a bd a2 fd 3b bd b2 7c fd ba
       0.043157257 -0.03388521 -0.04589618 -0.001933953
000040 3a d9 85 be 3c 27 3c 3d ca a9 a5 bd 81 72 76 3c
       -0.26142293 0.045935854 -0.08089025 0.015041948
000050 4a 48 ce 3c f3 a9 ff 3d 57 06 f0 bc 72 53 eb bd
       0.025180954 0.12483587 -0.029299898 -0.11490525
000060 f7 39 91 3d 0d d4 ab bd 45 21 a7 ba c2 2b 26 bd
       0.07091134 -0.08390055 -0.0012751004 -0.040569074
000070 5b 51 1c 3d 1d a5 db bd 0f 19 8b bd f3 5c 10 3e
       0.038163524 -0.10724852 -0.06791889 0.14097957
000080 59 47 08 3d 5e 84 01 bc 32 74 df bc 0f 66 8e 3d
       0.033271167 -0.007905094 -0.027277086 0.0695306
000090 b8 25 14 3e 40 96 94 bd 14 b2 b3 3d 78 6d ca 3d
       0.14467514 -0.072552204 0.087742 0.09884161
0000a0 32 29 b3 bc 54 e8 4e bd fa 4e 88 3c 68 48 71 3d
       -0.02187023 -0.050514534 0.016639221 0.058906943
0000b0 fe 24 c4 bc 06 de 5e ba e5 b9 4d 3d 15 d2 17 bd
       -0.02394342 -0.0008501712 0.05022611 -0.037065584
0000c0 6e 08 3f bd ee f5 e1 bd ac be d0 3d 1b 50 9a 3d
       -0.0466389 -0.110332355 0.10192618 0.0753481
0000d0 d4 f8 5b 3d 6a 4b d6 3d a3 29 8e 3d 4b 8b ae bd
       0.053704098 0.10463603 0.06941535 -0.08522662
0000e0 72 2b 95 3d f1 53 8c bc 2f d7 94 3d 76 ff f4 3d
       0.07283677 -0.01712987 0.072676055 0.11962788
0000f0 54 2f a4 3c d3 1e fe 3c ac 58 00 3e c0 b0 73 bd
       0.020042099 0.031020558 0.12533826 -0.059494734
000100 8b 6e 86 bb 7f 13 58 bd d2 9b b9 bb 5c 72 dd bc
       -0.004102533 -0.052752968 -0.005664327 -0.02703207
000110 86 da 7b 3d 56 47 87 bc a7 44 68 3b 7a 9c 7d bc
       0.061487697 -0.016513508 0.003544131 -0.015479201
000120 cd e1 b2 bc 0e 06 24 bd 4f 50 88 3d de e2 d2 3d
       -0.021836186 -0.040044837 0.06655943 0.10297178
000130 f6 66 81 bb f3 da 58 bc d2 ef 65 3b ce 30 f5 3b
       -0.0039490415 -0.013235795 0.003508557 0.0074826246
000140 60 0d a7 3a ae ed 56 3d 42 23 a7 3d b6 36 34 bd
       0.0012745075 0.052472763 0.08161022 -0.04399749
000150 3f 81 bb 3c b6 25 b6 bc a9 46 9e 3a 93 fd b9 bc
       0.022888778 -0.022234779 0.0012075502 -0.022703921
000160 55 04 58 bd 43 d1 d6 3d fd f6 27 3d b9 62 46 3d
       -0.052738506 0.10489132 0.04100703 0.048433993
000170 4f 49 08 3c 7e 21 e2 3d 26 ae c5 bd f0 b7 f6 bc
       0.008318259 0.110415444 -0.09652357 -0.030117005
000180 5f b9 09 bd d7 38 99 3d e8 58 91 3d 39 1f 45 3d
       -0.03362405 0.074815445 0.07097036 0.04812548
000190 c4 c4 91 bc 78 71 41 3d ad f1 83 3d bd 13 4a 3c
       -0.01779402 0.047227353 0.0644258 0.012333808
0001a0 73 dc 12 3d 58 a4 25 3d e9 71 90 3d ac 32 6a 3d
       0.035854768 0.040439934 0.07052977 0.05717723
0001b0 43 49 f7 3c 13 f3 92 3d 89 de dd bc 0a e7 07 3e
       0.030186301 0.07175269 -0.027083652 0.13271728
0001c0 9f 9f 1a bd a5 c7 88 bd 28 5e 10 bd f8 44 3d 3d
       -0.037749883 -0.06678704 -0.035246044 0.04620835
0001d0 e6 c1 88 bd e4 3f 1d 3e 71 24 4c bd ed 68 54 bd
       -0.06677608 0.15356404 -0.04983944 -0.051857878
0001e0 ba 77 de 3d f8 20 a6 3d 3f 65 a7 bd 86 84 10 bd
       0.1086268 0.08111757 -0.08173608 -0.035282634
0001f0 00 bf 04 bd b7 56 eb 3d 63 5a b1 ba 55 4d 10 3d
       -0.032408714 0.11491149 -0.0013530966 0.03523
000200 33 f5 1b be 11 98 e4 3c d2 a8 2a 3d 35 00 92 bd
       -0.15230255 0.027904542 0.041664906 -0.07128946
000210 1e 81 dd 3d 99 18 49 bd a3 3b 08 3e 49 8e 67 3d
       0.10815643 -0.049095724 0.13304 0.056532178
000220 be d1 ff 3c 22 55 49 3b 43 51 cb bc 63 ac 5b 3d
       0.031227943 0.003072091 -0.024819022 0.053631198
000230 58 93 5f 3c 92 e6 3f 3c 85 c8 dc 3c 4e e0 bf 3d
       0.013645969 0.011712687 0.026951084 0.093689546
000240 61 b9 1c bd dc 10 42 bd ea f6 48 3c 8d a8 c3 3d
       -0.03826273 -0.04737936 0.0122659 0.09553633
000250 28 ee fc bc d2 20 79 3d f1 16 c9 bd 36 ed 35 bc
       -0.03087528 0.060822316 -0.09818829 -0.011103919
000260 bb 66 5d 3c cd 68 7a 3c 82 f3 1c ba 8d 5d 90 bd
       0.013513262 0.0152837755 -0.0005987213 -0.070490934
000270 27 e3 b1 37 97 51 0d 3e 57 99 1c 3e 18 af 10 be
       2.120582e-05 0.13800655 0.1529287 -0.14129293
000280 2f ee c5 3c eb 12 d8 bc 26 06 d0 3d ce 39 92 bc
       0.024161426 -0.026376208 0.10157423 -0.017849829
000290 94 f5 bc 3b 0f 58 89 bd 89 3b 17 3d 56 f5 1f bd
       0.00576658 -0.06706249 0.03692201 -0.03905233
0002a0 27 3b 77 3d 4a 9d 19 3e ed 30 44 bd 24 a3 b4 bd
       0.060359146 0.15001407 -0.04789822 -0.08820179
0002b0 bc 89 90 3b 6e 4a 2c 3d 1d 55 1d be 1e 43 4d 3d
       0.0044109505 0.04206317 -0.153645 0.050112836
0002c0 c7 34 dd 3d a6 03 26 bd 68 67 fd bc ea 04 56 bd
       0.10801082 -0.040530823 -0.030933097 -0.05225078
0002d0 1f 0a b5 bd 18 d4 77 bc 48 34 ba bd b6 e6 eb 3c
       -0.08839821 -0.015126251 -0.09092003 0.028796535
0002e0 70 35 8b 3c 31 72 0c bd fb b7 64 3d 45 ca 2e 3e
       0.016993254 -0.03428859 0.05583952 0.17069347
0002f0 9a 0d 58 bd 86 f7 85 bd c5 3b ab 3d 1e 4f ef 3b
       -0.052747346 -0.06541352 0.083610095 0.0073031327
000300 ad 40 94 3d 3e 30 a0 3c 9f 6f 4a bc 04 69 95 bd
       0.072388984 0.019554254 -0.012355714 -0.07295421
000310 9d a5 ae 3d 4d 87 82 3e 77 7b 8c 3d 69 b2 cf 3c
       0.08527682 0.2549385 0.068594866 0.025353627
000320 2f 4d 56 bd 04 61 3f bd 48 7e 59 bd 63 29 41 bd
       -0.0523197 -0.04672338 -0.053098947 -0.04715861
000330 48 c6 24 3d 0d b2 30 3e 25 2c f0 3c d2 8b 0d 3d
       0.04022816 0.17255421 0.029317925 0.03455717
000340 2e 9d a7 3d 94 00 3c bd 86 52 88 3d 8a 6c e9 3c
       0.081842765 -0.04589899 0.06656365 0.028494138
000350 dd 5a c7 bc 5f ad 87 bd 50 95 ed bc 79 ca 36 3b
       -0.02433532 -0.06624865 -0.029001862 0.002789168
000360 84 fe aa 3d d8 5e 7d 3d 10 21 95 3d 9b fc 3f 3e
       0.08349326 0.06185803 0.07281697 0.18748705
000370 bb f2 87 3e ce 86 1f bd 89 47 29 3d b2 7a b8 bc
       0.26552376 -0.03894692 0.041327987 -0.022519443
000380 fb c6 b5 3a 97 08 b3 bc cc af cb bc 0a 4d b5 bd
       0.0013868505 -0.021854682 -0.0248641 -0.08852585
000390 eb 69 34 bd e6 dd 42 3d c9 0c 02 3e a6 43 76 bd
       -0.044046324 0.0475749 0.1270019 -0.06012311
0003a0 b9 d6 bc bb a5 72 0c 3e 73 a0 86 bd 00 82 a0 bd
       -0.0057629016 0.13715608 -0.06573572 -0.078372955
0003b0 58 9b 1e 3e 86 e0 1c 3b 8d f5 76 3d 40 aa b6 3d
       0.15488946 0.0023937537 0.06029277 0.08919191
0003c0 c7 80 a8 3d 77 d3 2b 3e fc 0c 9e bc ee 84 bf 3d
       0.08227687 0.16779886 -0.0192933 0.09351526
0003d0 e1 e7 69 3b 81 64 04 3e a8 15 ed 3d e0 8d 8a 3c
       0.003569119 0.12928964 0.11576396 0.016913354
0003e0 fa 97 9d bd e8 f3 9a 3c 23 80 ab 3d 4d 20 a9 3d
       -0.07695003 0.018915132 0.083740495 0.08258114
0003f0 b2 54 06 bd b8 71 10 3d b6 5b 92 3d 90 c7 ea 3c
       -0.032795615 0.0352647 0.07146399 0.028659612

norm.weight f4 [28]
000000 fa 83 3a 3f 0a cd 51 3f c9 dd 54 3f 54 ff 55 3f
       0.7285763 0.8195349 0.8315092 0.83592725
000010 56 66 4d 3f e6 a2 3f 3f ab 78 2b 3f 7a f7 2a 3f
       0.8023428 0.7485794 0.66981 0.6678387
000020 16 1e 3c 3f f3 24 51 3f d7 fe 2e 3f d2 05 2a 3f
       0.7348341 0.81697005 0.68357605 0.6641513
000030 59 7b 35 3f 7c 01 39 3f 78 13 45 3f 63 75 35 3f
       0.7089134 0.7226789 0.7698283 0.7088224
000040 e7 66 2d 3f 08 65 46 3f 90 2b 23 3f 3b 0a 38 3f
       0.6773514 0.7749791 0.63738346 0.7189061
000050 00 7d 4a 3f d8 82 63 3f 6b 48 69 3f 21 c9 52 3f
       0.79096985 0.88871527 0.91126126 0.8233815
000060 7a a5 ac 3f aa 57 89 3f b4 04 8c 3f 33 54 70 3f
       1.3488 1.0729878 1.0938935 0.9387848

norm.bias f4 [28]
000000 dc 5f 12 3d dc a3 5e 3e 9d c5 87 3d ee 3a 73 3e
       0.03573595 0.21742195 0.066294886 0.23752949
000010 98 1f 6b 3e a8 5f 36 3e 3b 82 86 bc cf 5b bf 3d
       0.22961271 0.17809927 -0.01641952 0.09343683
000020 68 71 05 bd 9f 31 05 be f1 6f a9 3c c0 70 85 bd
       -0.032578856 -0.1300721 0.02068326 -0.06515646
000030 e1 8d 4c be 48 e3 d6 bd 32 95 af bd 0f 6b 13 3d
       -0.19975998 -0.10492569 -0.085733786 0.03599077
000040 6b 65 28 bd 77 2c a6 3d 89 0c e4 3d c1 7a 9d 3d
       -0.041112345 0.0811395 0.111352034 0.07689429
000050 8a c8 b0 bc fb 64 22 b9 15 ed e4 3d ae ac 34 3e
       -0.02158 -0.00015487142 0.11178032 0.17643997
000060 dd 72 96 3c 0b 78 52 3e 4b 3f 57 3e fa c0 ec 3b
       0.018365318 0.20553605 0.21020238 0.007225153

norm.running_mean f4 [28]
000000 8a 0d a9 3f cc 97 a8 3f 1c 8f b4 3f 61 71 c3 3f
       1.3207257 1.3171325 1.4106174 1.5268975
000010 84 e1 cd 3f 15 67 ce 3f 76 9c d1 3f 41 92 d6 3f
       1.6084447 1.6125208 1.6375873 1.6763383
000020 87 f4 ed 3f 22 47 ee 3f bf 5f eb 3f 4f 99 e5 3f
       1.8590249 1.8615458 1.8388594 1.7937411
000030 16 0f f0 3f 88 c6 ee 3f 76 d2 e9 3f ea 7a e9 3f
       1.8754604 1.8654337 1.8267353 1.8240635
000040 ea 89 e5 3f 00 11 df 3f 4e 89 d7 3f a8 28 d4 3f
       1.7932713 1.7427063 1.6838777 1.6574907
000050 05 9c d0 3f 4d a7 bd 3f d9 0b ae 3f 85 40 a9 3f
       1.6297613 1.4816681 1.3597366 1.3222815
000060 7a ee d2 3c 11 c7 e6 3f 91 fb e8 3e 24 a7 38 41
       0.02574848 1.80295 0.4550443 11.540806

norm.running_var f4 [28]
000000 8f 6c 28 3f 28 54 26 3f 1a 1a 2e 3f f7 85 35 3f
       0.6579065 0.6497216 0.6800858 0.7090754
000010 09 84 37 3f f5 b2 35 3f 34 9c 30 3f bb f7 3b 3f
       0.71685845 0.7097619 0.6898835 0.7342488
000020 a2 07 48 3f ec 03 4c 3f 08 e9 4e 3f 79 a1 44 3f
       0.78136647 0.79693484 0.8082433 0.7680889
000030 32 cd 5e 3f 0a 19 5a 3f e6 b2 46 3f 8c 51 55 3f
       0.87031853 0.85194457 0.7761673 0.83327556
000040 b4 8a 58 3f a0 88 5b 3f 8e 68 55 3f 4f 37 5e 3f
       0.84586644 0.8575535 0.8336266 0.86803144
000050 73 71 65 3f 9a 5b 49 3f fb 36 31 3f db 66 28 3f
       0.89626235 0.786554 0.6922452 0.65781945
000060 c5 be 2d 40 23 aa 24 3f 50 b8 05 3d b5 8f 66 42
       2.7147686 0.6432211 0.032646477 57.64034
