turtlebot3_ddpg/save_model_ddpg/2020_12_06-03:21:16/stage_1_1650_critic.pth (torch_old, 589481 bytes, 9 tensors)

fc1.weight f4 [512, 28]
0.19492465 0.18041892 -0.06848057 -0.17676985 -0.21466337 0.21953967 -0.045977406 0.051771466
0.18217918 -0.023733838 0.21882243 -0.071705826 0.20698081 -0.013133646 0.09238025 -0.23896356
-0.24891512 -0.36349523 -0.29863122 0.01123471 -0.19301277 -0.23292948 0.34468758 -0.08856889
0.49059364 0.3205994 0.20191278 0.1343192 0.13861415 0.14925966 -0.23394684 -0.28965268
-0.013512208 -0.105953954 0.122751385 0.048937034 -0.32534528 -0.24342436 -0.09273001 -0.046219982
0.0031007007 -0.020358806 0.26361918 0.0020755685 0.09459072 0.007876489 -0.0852025 0.17904799
0.23328896 0.23331937 0.11192394 -0.11461896 0.42165935 -0.023131713 0.025572414 -0.03745928
0.11754026 0.13682227 -0.5188649 -0.0099598365 0.21511333 -0.023558432 -0.2534657 0.07030808
0.09923648 -0.023299322 0.08860035 0.17288582 0.16267598 -0.08511835 -0.07954258 0.14038564
0.08189325 0.024095468 -0.06495754 0.065327935 -0.020472782 -0.19008124 0.015921988 -0.062953055
-0.1245428 -0.5034334 -0.20482218 -0.275067 -0.13247132 -0.12803692 -0.12877278 -0.10655883
0.06445515 0.09082575 -0.18195084 0.23662536 -0.0670753 -0.12447439 0.23368932 0.044010844
0.012442822 -0.29418424 -0.14636931 -0.017527029 0.03676412 0.18307869 0.049882073 0.065676115
-0.051240604 0.16121638 -0.48156393 0.106809266 0.011473293 0.0008073668 -0.27809015 0.15034954
0.35957575 0.2696181 0.07617833 0.012724673 0.274273 -0.07570746 -0.22534615 -0.21631578
-0.36174002 -0.1827551 0.11750656 -0.052305054 0.016526634 0.21897945 0.25289685 0.01278622
0.23993969 0.2675279 -0.30386448 0.023696417 -0.20132981 -0.10795555 0.26095003 0.024174633
-0.17368919 0.10407714 0.2331782 0.091875724 0.11215173 0.12281686 0.09501491 0.123972274
-0.004804881 0.043066274 -0.29318416 -0.10262451 -0.3715315 -0.2779344 0.18755811 0.07829881
-0.112703376 -0.25813553 -0.1978834 0.27473554 -0.015638607 -0.10463213 0.2780026 0.002543158
-0.036445927 -0.10667234 -0.009054952 -0.0553201 0.06448221 0.24470237 -0.12834628 0.1684211
-0.01131359 -0.020018378 0.26511276 0.21802576 -0.44660532 -0.14999759 0.1291364 0.11359636
0.13031965 -0.26947215 -0.109188624 0.070537634 -0.05611092 -0.15611394 0.18806462 -0.29075605
-0.3414099 0.14054576 0.13161498 -0.03770264 -0.40518484 0.21376407 -0.1753104 0.26035014
-0.13559768 0.054858923 0.096702464 -0.050743062 -0.15438889 0.12572978 0.3235166 0.24291033
-0.15112215 0.085401 -0.1885708 -0.17491913 -0.045547117 -0.09151956 0.18565471 0.05690779
0.15288903 0.012096962 -0.08587796 0.23620725 -0.10945429 0.24324311 -0.28012145 -0.31644288
-0.0108545665 -0.12230775 -0.30054072 -0.270225 0.052506734 -0.091369756 -0.1243492 -0.018003648
0.087276496 -0.123173766 0.024223756 -0.0018600639 0.052493725 0.12730013 0.030813066 -0.05791391
-0.12558433 0.13489018 0.22802047 0.20120594 0.011568921 -0.12888512 -0.24692672 0.024842352
0.16706729 -0.18098572 -0.2915101 -0.4895472 0.041199055 -0.12109979 -0.10188608 0.106049985
-0.7323185 0.0941887 0.14278106 0.045119654 0.0070209242 -0.056843672 -0.079104684 0.19003089
00000000: 549a 473e bdbf 383e 8b3f 8cbd 2803 35be
00000010: b7d0 5bbe 02cf 603e ce52 3cbd 510e 543d
00000020: 2e8d 3a3e 776d c2bc fd12 603e 81da 92bd
00000030: c7f2 533e 812e 57bc db31 bd3d ddb2 74be
00000040: 9be3 7ebe 0c1c babe 31e6 98be ca11 383c
00000050: 24a5 45be 1185 6ebe e47a b03e 9b63 b5bd
00000060: 172f fb3e 9b25 a43e 39c2 4e3e f98a 093e
00000070: def0 0d3e 86d7 183e c38f 6fbe 5b4d 94be
00000080: 4f62 5dbc 63fe d8bd 1465 fb3d 3372 483d
00000090: a893 a6be 3c44 79be 3be9 bdbd 2a51 3dbd
000000a0: 2035 4b3b 83c7 a6bc 18f9 863e 4306 083b
000000b0: c8b8 c13d 640c 013c a67e aebd 5b58 373e
000000c0: 4de3 6e3e 46eb 6e3e 6138 e53d 58bd eabd
000000d0: bce3 d73e b87e bdbc 3d7d d13c e76e 19bd
000000e0: f3b8 f03d 231b 0c3e 55d4 04bf 952e 23bc
000000f0: ab46 5c3e 9dfd c0bc 42c6 81be affd 8f3d
00000100: 7f3c cb3d 38de bebc 1a74 b53d fb08 313e
00000110: 8894 263e 8852 aebd 38e7 a2bd 41c1 0f3e
00000120: a6b7 a73d dc63 c53c 7508 85bd a7ca 853d
00000130: 89b6 a7bc a8a4 42be d46e 823c 88ed 80bd
00000140: 4c10 ffbd 03e1 00bf e8bc 51be 95d5 8cbe
00000150: 90a6 07be 1c1c 03be 03dd 03be 843b dabd
00000160: 1001 843d da02 ba3d 5251 3abe eb4d 723e
00000170: c65e 89bd 6eec febd 414c 6f3e b744 343d
00000180: fadc 4b3c 519f 96be d6e1 15be d894 8fbc
00000190: f995 163d fb78 3b3e 2551 4c3d 3381 863d
000001a0: abe1 51bd e815 253e 8c8f f6be d1be da3d
000001b0: 7bfa 3b3c 78a5 533a d561 8ebe 3bf5 193e
000001c0: 501a b83e 620b 8a3e 6203 9c3d 267b 503c
000001d0: 836d 8c3e 830c 9bbd 24c1 66be e281 5dbe
000001e0: fd35 b9be 2724 3bbe 48a7 f03d d33d 56bd
000001f0: dd62 873c 263c 603e b27b 813e 4b7d 513c
00000200: c0b2 753e 6bf9 883e 2094 9bbe fd1e c23c
00000210: 6729 4ebe cd17 ddbd 3e9b 853e e109 c63c
00000220: 94db 31be 6526 d53d 44c6 6e3e 5729 bc3d
00000230: ceaf e53d 6887 fb3d 2d97 c23d 2de5 fd3d
00000240: 4372 9dbb 4366 303d 3c1c 96be cd2c d2bd
00000250: 6039 bebe 6b4d 8ebe 3c0f 403e 205b a03d
00000260: 07d1 e6bd 572a 84be f2a1 4abe 23aa 8c3e
00000270: 891c 80bc 5f49 d6bd 5b56 8e3e 1cab 263b
00000280: 5348 15bd 0777 dabd 395b 14bc 5497 62bd
00000290: 400f 843d 4293 7a3e 356d 03be 9576 2c3e
000002a0: a35c 39bc 95fd a3bc dcbc 873e 2542 5f3e
000002b0: 74a9 e4be f898 19be 553c 043e 35a5 e83d
000002c0: 8472 053e 41f8 89be 499e dfbd 0976 903d
000002d0: 90d4 65bd 55dc 1fbe 0394 403e fadd 94be
000002e0: 47cd aebe 3aeb 0f3e 14c6 063e 156e 1abd
000002f0: 6374 cfbe f8e4 5a3e 9284 33be 9d4c 853e
00000300: 1eda 0abe c0b3 603d f10b c63d f5d7 4fbd
00000310: 1f18 1ebe 4fbf 003e f8a3 a53e 7cbd 783e
00000320: c4bf 1abe b8e6 ae3d b418 41be 001e 33be
00000330: 9d8f 3abd 9b6e bbbd 451c 3e3e 2518 693d
00000340: f18e 1c3e 5632 463c c9e0 afbd 50e0 713e
00000350: 9229 e0bd b914 793e 146c 8fbe cd04 a2be
00000360: 5ad7 31bc 7c7c fabd 79e0 99be ee5a 8abe
00000370: 4d11 573d 1120 bbbd cbaa febd 637c 93bc
00000380: 05be b23d 8742 fcbd e670 c63c 63cd f3ba
00000390: a903 573d f75a 023e af6b fc3c 2337 6dbd
000003a0: 2e99 00be a720 0a3e 337e 693e ee08 4e3e
000003b0: 928b 3d3c 76fa 03be 5cda 7cbe 3082 cb3c
000003c0: b013 2b3e 5254 39be d040 95be eea5 fabe
000003d0: 57c0 283d 2b03 f8bd a6a9 d0bd bc30 d93d
000003e0: 3a79 3bbf 01e6 c03d 3335 123e 63cf 383d
000003f0: c80f e63b e9d4 68bd a301 a2bd 7597 423e

fc1.bias f4 [512]
0.08957969 -0.15338834 0.1469028 -0.03048359 0.45230457 0.24554594 0.14557742 0.13805448
-0.29894596 -0.04892271 -0.43978927 0.04587438 -0.34846014 0.3454795 0.15638374 -0.16015086
0.33413437 -0.29609904 0.26049638 0.205236 -0.2659011 0.2267713 0.19065203 0.14633314
-0.1258433 0.29971194 -0.43133476 -0.43037137 -0.31873745 -0.048200496 -0.08729363 -0.17705615
-0.05813981 -0.5779799 0.05905315 0.08067315 0.114532374 -0.46684414 0.042264022 -0.0045047337
-0.11902979 0.35345054 -0.43076038 -0.5774536 0.3353174 -0.20209661 0.43528926 0.1963025
0.3394255 -0.35703757 -0.277058 -0.09351236 -0.08104079 0.33913696 -0.44376498 -0.054498143
-0.21654493 -0.12139124 0.30009583 -0.40959033 0.6333671 0.5931392 0.0030324515 0.4212616
0.018229702 -0.42137086 0.54634774 -0.067285836 0.19504151 -0.44086447 -0.002807638 -0.3067961
-0.118420504 -0.19996653 0.032974564 0.101575196 -0.16312636 0.002841566 -0.22933553 -0.4834691
-0.21250984 -0.008006598 -0.17612271 0.46941596 0.091594614 -0.20010836 -0.12741908 0.028748995
-0.20039687 0.07607159 -0.04300698 -0.31821865 -0.2648314 0.1435123 0.23477371 0.031977486
-0.12683876 -0.08468975 0.05576339 0.63232154 -0.30434942 -0.41539145 -0.1201925 -0.12735663
-0.29317975 -0.11494834 -0.42979664 -0.28215033 0.04778353 0.13788906 0.114088714 0.18379915
0.45942923 -0.1485682 -0.19420584 -0.14346807 -0.056372374 0.25524706 -0.35304856 0.31824484
-0.2551409 0.36283967 0.12282032 0.17115083 -0.47431126 0.23257703 0.15894902 -0.35489944
0.5280268 -0.06248472 -0.109372266 -0.30117884 -0.30834857 0.32976693 -0.43332237 0.30323038
0.47015128 0.02249086 0.18555044 0.029244043 -0.33882543 0.059617177 0.04043081 -0.2060022
-0.13560094 0.30978662 -0.05435034 0.4491895 -0.025797112 0.28237194 0.26852039 0.42001995
-0.07892572 -0.6464211 -0.1917702 -0.17152835 -0.3110756 -0.0883199 0.022898702 0.14666829
0.09812553 0.018883143 -0.40352112 -0.22787236 -0.05586814 0.019121123 0.61060995 -0.08554348
-0.28179723 -0.024324384 -0.14602637 -0.4745365 -0.064651 -0.029998071 -0.15531471 -0.2017451
-0.062121004 -0.05287421 0.18969318 0.0672819 0.115300424 -0.081507854 0.1181596 -0.22975966
-0.15009695 -0.58924556 -0.14648896 0.18659335 0.01596983 -0.054170057 -0.14347321 0.10989667
0.31256363 -0.34141856 -0.15658137 -0.04010854 -0.16622455 -0.27876472 0.018709812 -0.08178687
-0.37298736 0.42599824 -0.018348433 0.06461515 0.07884966 0.3238893 0.0648586 -0.032427385
0.14448225 -0.16410926 0.24152441 -0.08202334 0.31163368 -0.2544409 -0.49566704 0.37128198
-0.051437076 -0.029547548 -0.3904379 -0.14403085 -0.19003507 0.22112915 -0.15997021 -0.086753584
0.06480917 -0.221326 0.01344777 0.30028775 -0.47484133 -0.29171333 -0.2121389 -0.047588427
-0.40270832 -0.15880111 0.4727147 -0.010267939 0.0951876 -0.50952363 -0.06880203 0.09887722
0.28619853 -0.1048694 -0.20079556 -0.36255094 -0.113220155 -0.09811038 -0.17666785 -0.16683005
-0.06317827 0.2757243 0.04840845 0.1341008 -0.108897075 -0.48644045 -0.008080423 0.18674931
00000000: 8e75 b73d d511 1dbe b06d 163e b9b8 f9bc
00000010: 7794 e73e 6570 7b3e 3f12 153e 275e 0d3e
00000020: 720f 99be 2e63 48bd 0f2c e1be c6e6 3b3d
00000030: 5e69 b2be b0e2 b03e 0f23 203e 96fe 23be
00000040: a913 ab3e 4b9a 97be c85f 853e 6329 523e
00000050: 3024 88be bc36 683e 493a 433e 5bd8 153e
00000060: 11dd 00be d873 993e e9d7 dcbe a359 dcbe
00000070: 8e31 a3be e26d 45bd 01c7 b2bd 354e 35be
00000080: 0224 6ebd 7ef6 13bf b7e1 713d f737 a53d
00000090: f38f ea3d 3206 efbe 0a1d 2d3d 729c 93bb
000000a0: e4c5 f3bd 78f7 b43e a08c dcbe 00d4 13bf
000000b0: b9ae ab3e 6af2 4ebe 3cde de3e 8603 493e
000000c0: 2ec9 ad3e a1cd b6be 8cda 8dbe 6883 bfbd
000000d0: b7f8 a5bd 5ca3 ad3e 2a35 e3be 7239 5fbd
000000e0: f4bd 5dbe f89b f8bd 29a6 993e d3b5 d1be
000000f0: 5924 223f f8d7 173f 18bc 463b 9aaf d73e
00000100: 7556 953c ecbd d7be 72dd 0b3f 28cd 89bd
00000110: f6b8 473e fdb8 e1be 5900 38bb 6114 9dbe
00000120: 7386 f2bd 07c4 4cbe 5610 073d a806 d03d
00000130: 990a 27be 9139 3a3b efd6 6abe 4389 f7be
00000140: 2e9c 59be 1b2e 03bc 8359 34be 4a57 f03e
00000150: f595 bb3d 35e9 4cbe 267a 02be 0383 eb3c
00000160: d634 4dbe 6ccb 9b3d 1628 30bd 8eed a2be
00000170: fb97 87be e3f4 123e 8568 703e d3fa 023d
00000180: 05e2 01be d271 adbd 2768 643d d3df 213f
00000190: b0d3 9bbe 30ae d4be 7c27 f6bd c769 02be
000001a0: a81b 96be 096a ebbd 4e0e dcbe 0276 90be
000001b0: aab8 433d ca32 0d3e 58a7 e93d d835 3c3e
000001c0: 4f3a eb3e 4322 18be e5dd 46be 4be9 12be
000001d0: b8e6 66bd beaf 823e c8c2 b4be fdf0 a23e
000001e0: d4a1 82be 1fc6 b93e 3889 fb3d 2a42 2f3e
000001f0: edd8 f2be ac28 6e3e 88c3 223e 61b5 b5be
00000200: c42c 073f faef 7fbd 91fe dfbd 1d34 9abe
00000210: dddf 9dbe 36d7 a83e 6edc ddbe 0341 9b3e
00000220: abb7 f03e c13e b83c ef00 3e3e 3491 ef3c
00000230: 877a adbe 2431 743d c79a 253d 3ef2 52be
00000240: f9da 0abe 5a9c 9e3e 769e 5ebd 2bfc e53e
00000250: 7754 d3bc 0e93 903e 817b 893e db0c d73e
00000260: cfa3 a1bd da7b 25bf 685f 44be 21a5 2fbe
00000270: 4d45 9fbe 10e1 b4bd 0f96 bb3c 3630 163e
00000280: 0af6 c83d d2b0 9a3c 529a cebe 5f57 69be
00000290: fed5 64bd e7a3 9c3c ef50 1c3f 6c31 afbd
000002a0: ba47 90be ee43 c7bc f087 15be 73f6 f2be
000002b0: be67 84bd 84be f5bc d20a 1fbe 4496 4ebe
000002c0: 9872 7ebd a192 58bd ee3e 423e 18cb 893d
000002d0: a122 ec3d 97ed a6bd a9fd f13d 1e46 6bbe
000002e0: 04b3 19be ccd8 16bf 3401 16be 5412 3f3e
000002f0: 29d3 823c 6ce1 5dbd a4ea 12be 8111 e13d
00000300: 5708 a03e 6ace aebe de56 20be da48 24bd
00000310: c536 2abe 40ba 8ebe 5245 993c e07f a7bd
00000320: 33f8 bebe 711c da3e 744f 96bc f354 843d
00000330: ee7b a13d d1d4 a53e 96d4 843d 94d2 04bd
00000340: 28f3 133e 420c 28be 2d52 773e dafb a7bd
00000350: 738e 9f3e 1446 82be 12c8 fdbe ac18 be3e
00000360: afaf 52bd b30d f2bc 7ae7 c7be d37c 13be
00000370: 8e98 42be ae6f 623e 3bcf 23be ddab b1bd
00000380: acba 843d 48a3 62be 0954 5c3c 51bf 993e
00000390: 671e f3be 735b 95be f13a 59be 15ec 42bd
000003a0: c92f cebe c29c 22be a907 f23e dc3a 28bc
000003b0: b7f1 c23d 2470 02bf 14e8 8cbd 2480 ca3d
000003c0: 9d88 923e c5c5 d6bd 5a9d 4dbe 47a0 b9be
000003d0: f8df e7bd 18ee c8bd 6be8 34be 7fd5 2abe
000003e0: 9c63 81bd bc2b 8d3e f047 463d b851 093e
000003f0: 6e05 dfbd b90e f9be c063 04bc 363b 3f3e

fc2.weight f4 [256, 513]
0.0379074 0.18753766 -0.12994902 -0.18536052 0.12003467 0.31411433 0.0028025194 -0.041832075
-0.2931363 0.049905133 0.0041016564 -0.08521924 0.34281337 0.109563455 0.13467516 -0.028696148
0.2814457 0.17114335 -0.12591335 0.17982614 -0.09990903 -0.028946899 0.032989908 0.22982728
-0.19428153 -0.13242473 -0.05950791 -0.1594027 -0.042437285 0.116819136 0.026538812 -0.002702096
0.0148917 0.21430025 0.19768406 0.096251644 0.008688232 -0.16461071 -0.17343673 -0.039427202
-0.13403441 0.34953895 0.17225243 -0.21075639 -0.062193036 -0.078152776 0.10435426 -0.010988492
0.054888863 0.11167434 0.035670698 -0.22544515 0.05552531 0.14137343 -0.15495989 -0.36315393
-0.10660849 -0.060940232 -0.08950908 0.14973128 0.13797553 0.38588303 0.01227854 -0.010246161
0.05344181 0.014715033 -0.03333201 -0.4080459 0.08020414 -0.1781948 -0.25235724 -0.17473616
-0.43066138 -0.41590336 0.07377002 0.0629872 0.06769262 -0.3903007 -0.6646815 0.01863885
-0.00034861453 0.13745098 -0.027149793 0.007494165 0.06947426 -0.26929563 0.16483112 0.11748832
0.04438679 0.2262741 0.22926012 -0.07811185 0.11608631 -0.21659137 -0.30841354 0.18572797
0.26572135 0.092202686 0.033615828 0.11523737 0.21866651 0.0040490497 -0.115686506 -0.104155704
0.066668116 0.122335956 -0.25832906 -0.17328827 0.05588661 0.25848463 -0.13159773 0.20274332
0.14698648 -0.11370301 -0.32401925 0.09839737 0.07658385 -0.13009499 0.07057364 -0.18393938
0.019898238 0.1588408 0.06008949 0.19351764 -0.044465832 0.017324058 0.13574365 0.04807504
0.03496425 0.2642284 -0.15687662 -0.02857078 -0.18930665 0.18028992 -0.10247848 -0.13433163
0.16675426 -0.15274772 0.039165117 0.037762124 -0.09234158 0.14291558 0.2390652 -0.055446565
0.027940327 0.34066945 0.059344545 0.23789494 -0.25017107 0.041950777 -0.07678759 0.1152904
0.21295042 0.09114492 0.001980964 0.09090993 -0.09075342 0.03405316 0.112427466 0.03233585
-0.278123 -0.031299893 -0.31666055 -0.05921778 -0.22607663 -0.041969202 0.46289787 -0.07847169
0.4612488 0.055904217 -0.20221853 -0.14707689 0.07889876 0.030733421 0.046732083 0.13810924
-0.063046135 -0.15124787 0.28086305 0.107950345 0.3265648 -0.21805774 0.10423501 -0.010576542
-0.017395115 -0.030136686 -0.38920778 0.22559811 -0.022940027 0.22251093 0.017203573 -0.22421032
0.17297487 -0.21090075 0.23685223 0.094511405 0.2051654 0.021140948 -0.23862524 -0.10602303
0.090035446 0.12788232 -0.21922983 -0.09275786 0.1487142 0.26062092 0.11311958 0.1377342
0.11720144 -0.02595774 -0.0011465156 -0.14956763 0.1624782 -0.32361773 -0.48737374 0.386767
0.11847326 -0.18750595 0.17736953 0.016571453 0.16501029 0.20512265 -0.06853636 0.2937728
0.076981306 -0.10313099 -0.44194776 0.070149265 -0.12171017 0.074560836 0.31518963 0.017631028
-0.17519502 0.03590409 0.12988932 0.10471184 -0.96585745 -0.18897852 0.17041694 -0.03684228
0.27262616 0.16490288 0.043635305 0.085762374 0.11052261 -0.056281682 -0.033240624 0.17425828
-0.3243195 0.2529239 -0.22388381 0.15816177 0.30650422 -0.15150557 0.041501593 0.23962446
00000000: ca44 1b3d df09 403e 5b11 05be 26cf 3dbe
00000010: bdd4 f53d 98d3 a03e 79aa 373b 1c58 2bbd
00000020: f615 96be 5369 4c3d 3067 863b 6d87 aebd
00000030: 3c85 af3e ce62 e03d 49e8 093e 2f14 ebbc
00000040: a719 903e 3440 2f3e 6eef 00be 5824 383e
00000050: 1b9d ccbd 0c22 edbc 6d20 073d d857 6b3e
00000060: bdf1 46be 599a 07be 91be 73bd 763a 23be
00000070: b8d2 2dbd df3e ef3d ec67 d93c a615 31bb
00000080: 51fc 733c 8671 5b3e b16d 4a3e 951f c53d
00000090: 1659 0e3c b68f 28be 6699 31be 6b7e 21bd
000000a0: 5140 09be c5f6 b23e f162 303e 86d0 57be
000000b0: 20be 7ebd 900e a0bd b0b7 d53d 1309 34bc
000000c0: 25d3 603d 84b5 e43d 701b 123d 18db 66be
000000d0: 826e 633d 32c4 103e cead 1ebe 50ef b9be
000000e0: 8d55 dabd 779c 79bd 8950 b7bd 2853 193e
000000f0: 7549 0d3e 7692 c53e ee2b 493c 84df 27bc
00000100: cde5 5a3d 5217 713c 2587 08bd 64eb d0be
00000110: 1142 a43d b378 36be f834 81be 09ee 32be
00000120: a67f dcbe 49f1 d4be bc14 973d 6fff 803d
00000130: 6ea2 8a3d 7ed5 c7be 9128 2abf 80b0 983c
00000140: 40c6 b6b9 f3bf 0c3e 3e69 debc 9d91 f53b
00000150: 8548 8e3d 1ee1 89be 7dc9 283e b79d f03d
00000160: ecce 353d 66b4 673e 2ac3 6a3e 1bf9 9fbd
00000170: a9be ed3d 21ca 5dbe 61e8 9dbe 792f 3e3e
00000180: a10c 883e c3d4 bc3d c0b0 093d 9201 ec3d
00000190: 1dea 5f3e e4ad 843b 0ced ecbd 964f d5bd
000001a0: 4b89 883d 468b fa3d b543 84be 7b72 31be
000001b0: 5ce9 643d 1958 843e 8ec1 06be f29b 4f3e
000001c0: a083 163e 20dd e8bd dae5 a5be 8f84 c93d
000001d0: fed7 9c3d 9f37 05be ea88 903d 9b5a 3cbe
000001e0: a101 a33c 2aa7 223e 6620 763d 7d29 463e
000001f0: ce21 36bd 2feb 8d3c 6200 0b3e 55ea 443d
00000200: ac36 0f3d f248 873e 44a4 20be 450d eabc
00000210: 9ad9 41be ec9d 383e 3de0 d1bd 3b8e 09be
00000220: a1c1 2a3e e669 1cbe 9a6b 203d 75ac 1a3d
00000230: 951d bdbd 7658 123e 82cd 743e f01b 63bd
00000240: 1de3 e43c 3a6c ae3e 4413 733d bb9a 733e
00000250: 6c16 80be 94d4 2b3d d042 9dbd 601d ec3d
00000260: ad0f 5a3e 30aa ba3d 10d3 013b fc2e ba3d
00000270: eedc b9bd 547b 0b3d 5f40 e63d 9972 043d
00000280: 2366 8ebe 5134 00bd 5521 a2be 588e 72bd
00000290: a280 67be e6e7 2bbd f300 ed3e c4b5 a0bd
000002a0: cd28 ec3e d2fb 643d 6012 4fbe 539b 16be
000002b0: ac95 a13d a8c4 fb3c 246a 3f3d 826c 0d3e
000002c0: 551e 81bd b9e0 1abe 48cd 8f3e 1215 dd3d
000002d0: 8033 a73e 874a 5fbe 2a79 d53d 3b49 2dbc
000002e0: 3380 8ebc 36e1 f6bc 3e46 c7be 3103 673e
000002f0: b9ec bbbc e8d9 633e 82ee 8c3c 6497 65be
00000300: 5320 313e 5ef6 57be 6489 723e 328f c13d
00000310: e116 523e c82f ad3c 2d5a 74be 9a22 d9bd
00000320: 8164 b83d 95f3 023e c97d 60be d5f7 bdbd
00000330: 8948 183e 1b70 853e 3dab e73d 320a 0d3e
00000340: 4f07 f03d 54a5 d4bc ae46 96ba 4228 19be
00000350: af60 263e 39b1 a5be 0d89 f9be 5306 c63e
00000360: 1ca2 f23d 8f01 40be 5ca0 353e dbc0 873c
00000370: 75f8 283e ac0b 523e cb5c 8cbd 6369 963e
00000380: 60a8 9d3d 5736 d3bd fa46 e2be 6baa 8f3d
00000390: 2e43 f9bd 5ab3 983d 8960 a13e f26e 903c
000003a0: 5366 33be 2b10 133d b501 053e 2973 d63d
000003b0: 6f42 77bf 9683 41be c781 2e3e eee7 16bd
000003c0: a895 8b3e 4ddc 283e efba 323d 2fa4 af3d
000003d0: ae59 e23d 9f87 66bd 5227 08bd c370 323e
000003e0: 350d a6be 3e7f 813e cc41 65be 29f5 213e
000003f0: 1fee 9c3e 4724 1bbe 93fd 293d 1d60 753e

fc2.bias f4 [256]
0.40475422 -0.2509099 0.5044328 0.55701935 0.051435143 -0.0052048652 -0.1504325 -0.20244214
-0.20433605 -0.22458832 0.054842573 -0.1926136 0.41738513 0.5210113 0.5424202 -0.2391154
-0.14638987 0.002907367 -0.042545363 -0.18863104 -0.16692896 0.56083703 -0.18822284 -0.19146158
-0.017579494 0.24558073 0.54548407 -0.2569262 -0.030407317 -0.20298909 0.038556945 0.037646856
-0.2528619 -0.16364081 0.48276168 -0.0972046 0.005496921 -0.20506366 -0.21013847 -0.17938283
0.0059385677 -0.1825373 -0.012276273 -0.163773 0.55205476 0.582251 -0.25373763 0.11504769
0.48689336 -0.24557261 0.07567181 0.03437462 -0.19432807 -0.22189285 -0.18593591 -0.2229748
-0.18725787 -0.19356889 -0.2093764 -0.15897311 -0.23168094 0.1350209 0.4527927 -0.20665382
-0.14935435 -0.1691215 -0.15087155 -0.113633715 -0.049784634 0.49391085 -0.27209207 -0.19431047
-0.14750786 0.55674815 -0.19507617 0.59022033 -0.1655255 0.24639176 0.02047464 -0.20737028
0.49854937 0.46400717 0.56819963 -0.3029321 -0.2399236 -0.17849709 -0.15336733 -0.03668501
-0.16001232 -0.2247568 0.039134827 -0.21904926 -0.21311788 -0.16761343 -0.22911085 -0.18133098
0.27281034 0.5559675 0.28780255 -0.2420789 0.58148605 0.11413798 0.07876312 -0.18590993
-0.19229922 -0.17913628 0.258694 -0.22395702 -0.19891454 -0.21168257 0.4701487 -0.19682802
-0.26147103 0.24707398 -0.15086985 -0.2457874 -0.2789955 0.55002546 0.017968982 0.04192524
-0.17702 -0.20333482 -0.22481716 0.5380619 0.39566708 0.095990896 -0.19412754 -0.060290545
-0.07503784 -0.25401926 -0.19067569 -0.22246549 0.4959219 0.034312077 -0.2268907 0.048285995
-0.20136814 0.021588294 0.5497632 -0.20860654 0.0282585 0.59092695 -0.2067427 -0.25553164
-0.14885184 0.078866705 -0.18723364 0.08033962 0.25055563 -0.050914712 0.022496453 0.44919235
0.26555967 0.11742719 -0.17888717 -0.27700317 -0.003766854 0.25648168 -0.21890083 -0.1612391
-0.15000783 0.5698054 -0.06959139 0.58763546 -0.020727504 -0.20129728 -0.17620945 0.06788494
0.6025946 0.4702297 -0.20374964 0.60793376 -0.14370723 -0.13157795 -0.20663577 -0.014133342
-0.27545807 0.5292312 0.28706726 -0.20002168 0.35101944 -0.18790956 0.057335407 -0.17295103
-0.24165958 0.22196203 -0.23558648 -0.18126965 0.0067286007 0.1229148 0.5860117 -0.240203
0.5625955 0.5339078 -0.23845756 0.018002776 -0.2807059 -0.25470388 -0.239103 0.2989176
0.40761858 0.3668006 -0.1823351 -0.040343385 0.46118915 -0.2607181 0.053141486 0.004839767
-0.20182705 -0.16520669 -0.16365777 -0.22155944 0.094881296 0.50104475 -0.27881965 0.40559554
-0.12005235 0.55531883 0.10800997 -0.1766184 -0.20009454 -0.22646362 -0.30233318 -0.21949854
-0.20104784 0.5327064 -0.18407542 -0.28785414 -0.23430108 -0.18376364 0.43069974 -0.15816116
-0.21275492 -0.28068858 0.5719634 -0.19261262 -0.092819005 -0.013552689 0.41513422 0.56797767
-0.24322672 -0.24172184 0.20921025 0.17178594 -0.022297466 -0.22103906 -0.18551594 -0.1664151
0.056308925 -0.2745796 -0.15588254 0.52893275 0.5519086 0.39640582 -0.17584062 0.5306232
00000000: f23b cf3e 4377 80be 8222 013f d298 0e3f
00000010: a8ad 523d 938d aabb fa0a 1abe fe4c 4fbe
00000020: 783d 51be 7bfa 65be 9ba2 603d 803c 45be
00000030: 81b3 d53e ff60 053f 0ddc 0a3f abda 74be
00000040: 3ae7 15be 8689 3e3b 0c44 2ebd 7f28 41be
00000050: 6def 2abe 0493 0f3f 7dbd 40be 810e 44be
00000060: df02 90bc 8479 7b3e d8a4 0b3f d58b 83be
00000070: c418 f9bc 5fdc 4fbe e3ed 1d3d 9733 1a3d
00000080: 1d77 81be 7591 27be 8a2c f73e 3513 c7bd
00000090: 841f b43b 35fc 51be 8a2e 57be 22b0 37be
000000a0: 5198 c23b 0feb 3abe 6c22 49bc 1cb4 27be
000000b0: 7653 0d3f 670e 153f e6e9 81be 209e eb3d
000000c0: 164a f93e 6377 7bbe d2f9 9a3d 67cc 0c3d
000000d0: f0fd 46be e137 63be fc65 3ebe 8253 64be
000000e0: 87c0 3fbe ec36 46be c466 56be d9c9 22be
000000f0: c53d 6dbe eb42 0a3e 72d4 e73e 0f9d 53be
00000100: 59f0 18be 302e 2dbe 127e 1abe cbb8 e8bd
00000110: f9ea 4bbd e2e1 fc3e a74f 8bbe 53f9 46be
00000120: 4d0c 17be 0c87 0e3f 0cc2 47be ae18 173f
00000130: 847f 29be 1f4e 7c3e 6fba a73c e058 54be
00000140: dd41 ff3e 5992 ed3e 8875 113f eb19 9bbe
00000150: 88ae 75be f1c7 36be 530c 1dbe 0543 16bd
00000160: 45da 23be a626 66be d74b 203d 734e 60be
00000170: 933b 5abe dba2 2bbe 099c 6abe d4ae 39be
00000180: ccad 8b3e e353 0e3f db5a 933e 88e3 77be
00000190: 45dc 143f 2cc1 e93d 8f4e a13d 2c5f 3ebe
000001a0: 16ea 44be 806f 37be 8a73 843e fd54 65be
000001b0: 41b0 4bbe 51c3 58be 55b7 f03e 498d 49be
000001c0: 88df 85be f600 7d3e a07d 1abe b1af 7bbe
000001d0: 80d8 8ebe 78ce 0c3f b033 933c cdb9 2b3d
000001e0: bb44 35be 0137 50be 7836 66be 6dbe 093f
000001f0: e094 ca3e e096 c43d 5fc9 46be 38f3 76bd
00000200: 70ad 99bd d00e 82be 7d40 43be fecd 63be
00000210: 7ae9 fd3e d28a 0c3d 0956 68be 89c7 453d
00000220: 7333 4ebe efd9 b03c 48bd 0c3f f49c 55be
00000230: 5f7e e73c fd46 173f 5cb4 53be 0bd5 82be
00000240: 9e6c 18be de84 a13d 2dba 3fbe 1989 a43d
00000250: d448 803e f28b 50bd 7b4a b83c 8afc e53e
00000260: 70f7 873e ab7d f03d 332e 37be 5cd3 8dbe
00000270: 53dd 76bb 9151 833e 8a27 60be dd1b 25be
00000280: a79b 19be c4de 113f ee85 8ebd 476f 163f
00000290: bacc a9bc e020 4ebe 4070 34be 4207 8b3d
000002a0: a443 1a3f f2c1 f03e bfa3 50be 8ca1 1b3f
000002b0: fd27 13be 5fbc 06be 5498 53be 888f 67bc
000002c0: d708 8dbe b27b 073f 7bfa 923e 7cd2 4cbe
000002d0: d2b8 b33e 5d6b 40be 88d8 6a3d 131a 31be
000002e0: 9c75 77be 044a 633e 953d 71be c09e 39be
000002f0: 987b dc3b c1ba fb3d dd04 163f c6f7 75be
00000300: 4206 103f 2eae 083f 382e 74be 8f7a 933c
00000310: afb8 8fbe 8c68 82be 6bd7 74be ba0b 993e
00000320: 62b3 d03e 4acd bb3e 0db6 3abe 1b3f 25bd
00000330: fc20 ec3e d87c 85be e3aa 593d e896 9e3b
00000340: c0ab 4ebe f12b 29be e795 27be 7ae0 62be
00000350: 2051 c23d 7844 003f 73c1 8ebe 38aa cf3e
00000360: 02de f5bd 6029 0e3f 5534 dd3d 74db 34be
00000370: 95e5 4cbe 14e6 67be 6acb 9abe 3ac4 60be
00000380: 7cdf 4dbe 725f 083f 447e 3cbe 9e61 93be
00000390: 9fec 6fbe 892c 3cbe ad84 dc3e 00f5 21be
000003a0: 6ddc 59be 6ab6 8fbe 326c 123f 3e3c 45be
000003b0: e417 bebd 190c 5ebc 798c d43e fc66 113f
000003c0: 6d10 79be ee85 77be 363b 563e a7e8 2f3e
000003d0: 2da9 b6bc 1058 62be e4f7 3dbe b868 2abe
000003e0: 30a4 663d b395 8cbe ac9f 1fbe 2368 073f
000003f0: e249 0d3f b4f5 ca3e 900f 34be ecd6 073f

fc3.weight f4 [1, 256]
1.1145312 -0.11853209 0.77056426 0.57420087 0.8221225 0.6230332 -1.7939105 -0.6522911
-1.2067955 -1.4540515 0.64366823 -0.93217504 1.1503916 0.59823185 0.59856915 -0.8739945
-1.2077129 0.5757353 0.7246424 -0.16743591 -0.16810587 0.6668706 -0.65262264 -0.53343844
1.3868517 0.86681324 0.6270891 1.0981066 1.282063 -0.12856545 0.73005164 1.0340511
-0.87185436 -0.15380254 0.7298159 1.0526447 1.2479135 -0.1275854 -0.8345536 -1.395112
0.69969267 -0.6046434 1.1026195 -0.97467214 0.6743073 0.63836473 -0.81789833 0.9551451
0.77642566 -0.117843375 0.7835328 0.9064572 -0.11474699 -1.1356996 -0.76374435 -0.5760632
-0.15789987 -0.11177757 -0.1361798 -0.56865984 -0.13618024 0.8794045 0.79453766 -0.12126035
-0.5341724 -0.4839738 -0.34301186 1.0610403 1.0191921 0.69058347 1.3712702 -1.2722363
-0.6907681 0.5669093 -0.35251573 0.7360749 -1.3925831 1.2937893 0.9560402 -0.13112439
0.5840719 0.80324215 0.6686722 -0.9848419 -0.1598469 -0.12167591 -0.26977494 1.4044482
-1.0559067 -1.3374313 1.6908613 -0.13578287 -1.1545954 -1.434691 -0.13347206 -0.71954
1.0747509 0.4823396 1.1128333 -1.076921 0.6037892 1.3046529 0.8327831 -0.12717764
-0.13806885 -0.29828927 0.89487725 -0.12240226 -0.16278253 -0.16318415 0.9477286 -0.11466216
-0.92867637 0.8998388 1.2184608 -0.15723749 -0.18435785 0.91288996 1.3606627 1.401695
-1.4316663 -1.2722032 -0.1705305 0.5905243 1.5199428 0.6922534 -1.2338045 1.025783
0.5837528 -0.57681304 -0.10676433 -0.5781182 1.3389457 1.1960838 -0.9956683 0.9259858
-0.16452865 0.68950814 0.59414303 -0.49487355 1.2310866 0.63566536 -0.12100803 -1.2969538
-1.3364321 1.0187174 -1.0557015 1.0584852 1.6768587 1.3650261 1.331859 0.5260237
1.0030196 1.1762362 -0.12449082 -1.8839145 0.8543936 0.9947159 -0.14771183 -0.4354601
-0.31051028 0.542568 1.035361 0.70436436 0.72854364 -0.14218216 1.2580291 1.6755884
0.717711 1.2901915 -0.12990418 0.65765655 -0.3075475 1.2796772 -0.9443947 0.71787554
-0.14782666 0.6975268 0.8388873 -0.11833351 1.0103742 -0.14920154 0.98383987 -0.3208131
-0.91548437 1.5551022 -0.5111193 -1.1040069 1.7361614 1.4234318 0.65788245 -0.88877606
0.716752 0.61355215 -0.126803 0.848984 -0.7953876 -0.1459661 -0.16400878 1.5364507
1.423461 0.8956705 1.2091409 1.9342222 0.68679726 -0.15359825 1.2637016 0.734259
-0.96836466 -1.1481287 -0.1319577 -0.8371116 1.0126247 0.66587687 -0.8919457 0.7024313
0.9176037 0.53115165 1.1142684 -0.580438 -0.15396053 -0.15782432 -0.88222533 -1.6001811
-0.49307272 0.6425339 -0.1503456 -1.0536298 -0.14249186 -0.35561633 0.9535783 -0.16222768
-1.1888621 -0.7076986 0.5654583 -0.16413873 1.0396518 -1.3270023 0.79044443 0.5586038
-1.4034629 -1.1489421 1.0029128 1.0197321 0.58285457 -0.110845506 -0.9269435 -0.15647413
0.8119603 -1.0934285 -0.1753744 0.6461259 0.5294885 0.9635682 -0.8675131 0.5748191
00000000: f5a8 8e3f f4c0 f2bd b343 453f d4fe 123f
00000010: 9f76 523f 1b7f 1f3f dc9e e5bf 8dfc 26bf
00000020: 4678 9abf 5c1e babf 71c7 243f 06a3 6ebf
00000030: 0840 933f b925 193f d43b 193f 1bbe 5fbf
00000040: 5696 9abf 6363 133f 2a82 393f 5274 2bbe
00000050: f223 2cbe 08b8 2a3f 4712 27bf 6c8f 08bf
00000060: 5b84 b13f 79e7 5d3f e988 203f c28e 8c3f
00000070: a41a a43f a9a6 03be aae4 3a3f c95b 843f
00000080: d931 5fbf 6a7e 1dbe 37d5 3a3f 10bd 863f
00000090: a1bb 9f3f bfa5 02be 4ea5 55bf 0893 b2bf
000000a0: 0f1f 333f e9c9 1abf a322 8d3f 1d84 79bf
000000b0: 679f 2c3f df6b 233f c961 51bf 6484 743f
000000c0: d5c3 463f de57 f1bd 9b95 483f 940d 683f
000000d0: 7800 ebbd 9b5e 91bf c084 43bf e178 13bf
000000e0: 81b0 21be a3eb e4bd b872 0bbe b193 11bf
000000f0: d572 0bbe a720 613f d266 4b3f 5957 f8bd
00000100: 86bf 08bf 6acb f7be 409f afbe 2bd0 873f
00000110: e374 823f 14ca 303f c885 af3f a4d8 a2bf
00000120: 2ed6 30bf f820 113f f17c b4be 686f 3c3f
00000130: 2a40 b2bf e39a a53f 0dbf 743f 7945 06be
00000140: bc85 153f 47a1 4d3f 1a2e 2b3f 991e 7cbf
00000150: e8ae 23be 3831 f9bd f11f 8abe f5c4 b33f
00000160: f327 87bf f330 abbf 256e d83f aa0a 0bbe
00000170: c8c9 93bf f4a3 b7bf e6ac 08be c633 38bf
00000180: 7091 893f 37f5 f63e 5271 8e3f 8cd8 89bf
00000190: ee91 1a3f defe a63f 4631 553f db3a 02be
000001a0: ec61 0dbe 5fb9 98be ad16 653f 09ae fabd
000001b0: 77b0 26be bf19 27be 579e 723f ffd3 eabd
000001c0: bcbd 6dbf d65b 663f 86f6 9b3f dd02 21be
000001d0: 4ec8 3cbe 28b3 693f 322a ae3f be6a b33f
000001e0: d740 b7bf 8ed7 a2bf 8c9f 2ebe 9a2c 173f
000001f0: 7c8d c23f 8537 313f 4eed 9dbf db4c 833f
00000200: d370 153f 05aa 13bf 42a7 dabd 8eff 13bf
00000210: 9362 ab3f 4619 993f 1ee4 7ebf 680d 6d3f
00000220: 337a 28be 9b83 303f c219 183f 1160 fdbe
00000230: 3f94 9d3f f7ba 223f 0fd3 f7bd 9502 a6bf
00000240: 3510 abbf 5565 823f 3a21 87bf 717c 873f
00000250: 4ea3 d63f 2db9 ae3f 5b7a aa3f 7da9 063f
00000260: f262 803f e88e 963f 0bf5 febd 1c24 f1bf
00000270: 8ab9 5a3f b4a5 7e3f c541 17be a0f4 debe
00000280: 34fb 9ebe bde5 0a3f b686 843f 3951 343f
00000290: d681 3a3f 3398 11be 1907 a13f ae79 d63f
000002a0: e8bb 373f ff24 a53f 9a05 05be 2e5c 283f
000002b0: de76 9dbe 76cc a33f dac3 71bf b1c6 373f
000002c0: df5f 17be 1e91 323f 51c1 563f d758 f2bd
000002d0: f153 813f 4ac8 18be eedc 7b3f 9d41 a4be
000002e0: 2f5d 6abf 970d c73f b7d8 02bf 1950 8dbf
000002f0: 893a de3f 0333 b63f fc6a 283f d486 63bf
00000300: 0f7d 373f c111 1d3f a5d8 01be 0457 593f
00000310: 869e 4bbf 2378 15be ebf1 27be 6baa c43f
00000320: f833 b63f a94a 653f 21c5 9a3f 9894 f73f
00000330: f2d1 2f3f dc48 1dbe f9c0 a13f 66f8 3b3f
00000340: bfe6 77bf e2f5 92bf eb1f 07be f24c 56bf
00000350: b09d 813f e876 2a3f 8e56 64bf 8ad2 333f
00000360: 13e8 6a3f 8ef9 073f 59a0 8e3f 9697 14bf
00000370: d4a7 1dbe b39c 21be 85d9 61bf bcd2 ccbf
00000380: 0774 fcbe 1a7d 243f 32f4 19be 57dd 86bf
00000390: 63e9 11be 5813 b6be b51d 743f 031f 26be
000003a0: a22c 98bf bc2b 35bf e0c1 103f fc13 28be
000003b0: 4f13 853f 36db a9bf 915a 4a3f a900 0f3f
000003c0: aca4 b3bf 8910 93bf 725f 803f 9586 823f
000003d0: f535 153f f802 e3bd 2b4c 6dbf c13a 20be
000003e0: a1dc 4f3f 77f5 8bbf 5995 33be 8268 253f
000003f0: 8f8c 073f 68ac 763f 5715 5ebf 5827 133f

norm.weight f4 [28]
1.240214 1.4341036 1.3428589 1.2957017 1.2171785 1.1790823 1.2846907 1.1563977
1.325845 1.535441 1.27518 1.2830696 1.3918289 1.2857378 1.4390795 1.1841127
1.20539 1.3119817 1.1329532 1.2071148 1.3529278 1.4644967 1.3906513 1.2090354
2.4354112 1.4898672 1.2744846 1.5908386
00000000: 55bf 9e3f b590 b73f cde2 ab3f 8ed9 a53f
00000010: 81cc 9b3f 2bec 963f bf70 a43f d704 943f
00000020: 4ab5 a93f 5589 c43f 1939 a33f a03b a43f
00000030: 7327 b23f 0e93 a43f c233 b83f 0191 973f
00000040: 384a 9a3f 04ef a73f 9c04 913f bd82 9a3f
00000050: bd2c ad3f a174 bb3f dd00 b23f acc1 9a3f
00000060: c7dd 1b40 f8b3 be3f 5022 a33f 99a0 cb3f

norm.bias f4 [28]
0.22893384 0.35133746 0.30089793 0.37055486 0.4638015 0.46102667 0.09271202 0.23744689
-0.091987215 -0.09862628 -0.09608886 -0.10698143 -0.046779945 0.29690874 -0.06652939 0.027890569
-0.14594175 -0.010555405 0.4856629 0.49057117 0.22779667 0.10802858 0.3038796 0.34326735
0.23264693 0.44575423 0.35834837 0.14336276
00000000: a26d 6a3e 81e2 b33e 4b0f 9a3e 5eb9 bd3e
00000010: 6477 ed3e b00b ec3e cddf bd3d 4725 733e
00000020: cb63 bcbd 93fc c9bd 3cca c4bd 1419 dbbd
00000030: 549c 3fbd 6c04 983e 9040 88bd c37a e43c
00000040: c171 15be 94f0 2cbc cfa8 f83e 252c fb3e
00000050: 8843 693e 173e dd3d 1b96 9b3e bdc0 af3e
00000060: ff3a 6e3e e639 e43e 7079 b73e b0cd 123e

norm.running_mean f4 [28]
1.3134739 1.3626769 1.3706808 1.5212839 1.4961046 1.5076805 1.5889529 1.6479332
1.7741021 1.7848767 1.8703027 1.8898447 1.9229316 1.8182044 1.8632295 1.8294907
1.7219876 1.6860342 1.5967909 1.6020689 1.5493689 1.4239293 1.37398 1.3152626
-0.07699231 1.7880967 0.4487316 12.211943
00000000: ea1f a83f 326c ae3f 7872 af3f 6eb9 c23f
00000010: 5b80 bf3f adfb c03f cf62 cb3f 7aef d23f
00000020: c715 e33f d776 e43f 1466 ef3f 6ee6 f13f
00000030: 9f22 f63f ecba e83f 4e7e ee3f c02c ea3f
00000040: 176a dc3f f8cf d73f a563 cc3f 9810 cd3f
00000050: b851 c63f 5143 b63f 94de af3f 865a a83f
00000060: 25ae 9dbd 5ae0 e43f 26c0 e53e 1e64 4341

norm.running_var f4 [28]
0.5912393 0.6550762 0.5782642 0.73837304 0.6654261 0.6422744 0.66739404 0.69554967
0.7472688 0.73428255 0.8169353 0.81514025 0.8829451 0.8676656 0.9166751 0.9893392
1.0536249 1.0377121 0.9225623 0.92098355 0.9378386 0.7204532 0.66582495 0.5895087
2.05913 0.62383705 0.031005232 54.148525
00000000: 755b 173f 13b3 273f 1f09 143f 0406 3d3f
00000010: 5d59 2a3f 186c 243f 56da 2a3f 8b0f 323f
00000020: 024d 3f3f f1f9 3b3f ac22 513f 08ad 503f
00000030: b108 623f 551f 5e3f 38ab 6a3f 5545 7d3f
00000040: 2edd 863f c0d3 843f 0b2d 6c3f 94c5 6b3f
00000050: 3116 703f 9f6f 383f 8173 2a3f 0bea 163f
00000060: c9c8 0340 c9b3 1f3f affe fd3c 1798 5842
