turtlebot3_ddpg/save_model_ddpg/2020_12_06-03:21:16/stage_1_600_actor.pth (torch_old, 587853 bytes, 9 tensors)

fc1.weight f4 [512, 28]
-0.049548 0.0006307185 -0.076751746 -0.14905302 -0.09883907 -0.007109112 -0.022568833 0.0072522713
-0.026241686 0.054694876 -0.030226732 -0.13741028 0.014043943 -0.122883104 0.12832023 -0.11495481
0.05866648 -0.11246087 -0.025065 -0.15414606 -0.07973013 0.19990811 -0.07842908 -0.13395032
-0.04376283 -0.098988876 -0.18191119 -0.098683976 -0.073794045 0.06705027 0.06656768 -0.07434773
6.865902e-05 0.16704808 0.052081924 0.046874106 -0.011755316 0.1016855 0.022929097 0.1097771
-0.038437184 -0.07082027 -0.04344902 0.14777166 0.19466397 -0.093142636 0.13851671 -0.12576619
0.04411636 -0.037360612 0.14114755 0.09032086 0.15353052 0.19968046 -0.07370423 -0.18064897
-0.10190142 0.12125441 0.13143206 0.08314412 0.11939873 -0.09751802 -0.038104758 -0.19959858
0.065707706 0.02687147 -0.13810836 0.0014515043 -0.08702285 -0.093743466 -0.1754377 -0.04462818
0.12344758 0.047748312 0.15122733 0.100978665 -0.19679521 0.0037947923 0.018392408 0.13903886
0.1578328 -0.2488588 0.051196773 0.0733211 -0.10918261 0.084743164 -0.040936388 0.090317324
0.11053417 -0.15467492 -0.21168752 -0.1639945 -0.13008834 0.033529177 0.10788162 -0.15497565
-0.020685935 -0.010238202 -0.05832193 0.15077199 -0.1786839 0.1288357 -0.027196659 0.049192194
0.09344213 0.14356536 0.09665141 0.030912308 -0.5111944 -0.020176945 0.2303152 -0.032241687
0.12715578 0.075722255 -0.030311836 0.1050179 0.13857712 -0.022705741 -0.35951096 -0.10269045
0.06483661 -0.112252824 0.017313778 -0.16928083 -0.19793105 -0.060794454 0.107080035 -0.024345692
-0.13207126 -0.048720002 0.014635825 -0.07271826 -0.0668671 0.01506294 -0.082241304 -0.07247066
0.24493976 -0.11506348 0.18086213 0.102256484 0.17171153 -0.12437515 0.14790401 0.037353132
0.058471393 0.068421476 0.124411665 0.040334158 -0.15771651 -0.15980504 0.010824866 0.17087395
0.13273874 -0.022499215 0.14463383 0.08930201 0.0554133 0.25666246 0.12318732 -0.13185638
-0.18153061 -0.1909377 -0.10282288 -0.18991408 0.16300154 -0.06034311 -0.1301844 0.11983492
0.12416122 0.046063233 0.100443274 0.1176399 -0.1860092 -0.062445648 0.022635983 -0.14527865
0.0149938 -0.17352603 0.054354303 0.055699177 -0.08198992 0.20152943 0.3149033 -0.03626785
-0.08583213 0.099903874 0.07887007 -0.051149763 0.10071951 0.019290878 0.08779764 0.14058916
-0.08870976 -0.03557712 0.15928657 0.16931836 0.07636484 0.05731428 -0.01956901 -0.10220375
-0.14399025 0.042179406 0.1469521 -0.16739428 0.061505776 -0.07640037 0.072666734 0.027693043
0.034900207 0.025229873 0.0062944456 0.026051793 -0.047086567 -0.007166118 -0.15991917 0.14132021
0.010545503 0.18798669 -0.01209658 -0.07303644 -0.07161763 0.00020294733 0.07056426 0.0030752916
0.21600987 0.007835256 -0.1243573 -0.008221201 0.090684615 -0.051540066 -0.04283899 0.021782853
0.0074512567 0.031521674 0.11217559 -0.12456988 -0.18564852 -0.0021978004 -0.08609072 -0.1616433
-0.020707238 -0.06824537 0.09354165 -0.066801764 -0.07893166 -0.15073961 0.10838823 0.18570071
0.07322184 -0.22108425 -0.14104451 -0.0038423683 0.056900345 0.15190636 -0.08897999 0.20428215
00000000: d8f2 4abd cd56 253a 0530 9dbd 5ba1 18be
00000010: 236c cabd 8ef3 e8bb 46e2 b8bc 76a4 ed3b
00000020: cef8 d6bc bc07 603d 0d9e f7bc 48b5 0cbe
00000030: 9118 663c 23aa fbbd 6166 033e 6d6d ebbd
00000040: 434c 703d e251 e6bd 1d55 cdbc 77d8 1dbe
00000050: 8d49 a3bd b6b4 4c3e 6d9f a0bd 462a 09be
00000060: a740 33bd aeba cabd ed46 3abe d31a cabd
00000070: 5521 97bd a751 893d a354 883d 9f43 98bd
00000080: 08fd 8f38 a70e 2b3e db53 553d 10ff 3f3d
00000090: 5e99 40bc 7d40 d03d cdd5 bb3c d1d2 e03d
000000a0: 4f70 1dbd 380a 91bd 99f7 31bd 7451 173e
000000b0: fe55 473e 91c1 bebd 53d7 0d3e dac8 00be
000000c0: 5bb3 343d 7107 19bd fc88 103e 25fa b83d
000000d0: 1b37 1d3e 0979 4c3e 3ef2 96bd 0bfc 38be
000000e0: b1b1 d0bd 3b54 f83d 2096 063e 7747 aa3d
000000f0: 5287 f43d 87b7 c7bd bc13 1cbd 9263 4cbe
00000100: c391 863d 8f21 dc3c 476c 0dbe 6740 be3a
00000110: 0939 b2bd 93fc bfbd f1a5 33be 0acc 36bd
00000120: 16d2 fc3d bc93 433d 56db 1a3e e7cd ce3d
00000130: af84 49be 0db2 783b adab 963c 3460 0e3e
00000140: ec9e 213e d7d4 7ebe b5b3 513d 5f29 963d
00000150: 229b dfbd d38d ad3d eaac 27bd 4af8 b83d
00000160: bd5f e23d 1a63 1ebe 9dc4 58be 2dee 27be
00000170: e135 05be e455 093d 0af1 dc3d f0b1 1ebe
00000180: 8d75 a9bc 22be 27bc fae2 6ebd f963 1a3e
00000190: eaf8 36be 81ed 033e 87cb debc c17d 493d
000001a0: 965e bf3d cc02 133e 2df1 c53d cf3b fd3c
000001b0: a3dd 02bf 1f4a a5bc bfd7 6b3e dc0f 04bd
000001c0: 2035 023e 4514 9b3d 8750 f8bc a013 d73d
000001d0: 29e7 0d3e 6401 babc d211 b8be 5f4f d2bd
000001e0: 0ec9 843d cfe4 e5bd a0d5 8d3c f457 2dbe
000001f0: 70ae 4abe 9b03 79bd c74c db3d 9e70 c7bc
00000200: b03d 07be a08e 47bd 19cb 6f3c 50ed 94bd
00000210: 9ef1 88bd 8dca 763c 216e a8bd 7f6b 94bd
00000220: 7dd1 7a3e 67a6 ebbd ec33 393e d96b d13d
00000230: 26d5 2f3e 66b8 febd 2674 173e 99ff 183d
00000240: b37f 6f3d 8f20 8c3d 8bcb fe3d 6e35 253d
00000250: 7080 21be efa3 23be c75a 313c 95f9 2e3e
00000260: aaec 073e 4650 b8bc e41a 143e f9e3 b63d
00000270: 0ef9 623d 4369 833e a249 fc3d 5c05 07be
00000280: 29e3 39be 2c85 43be cd94 d2bd d678 42be
00000290: e0e9 263e 562a 77bd 0f4f 05be 036c f53d
000002a0: 3d48 fe3d cdac 3c3d 34b5 cd3d 30ed f03d
000002b0: 3279 3ebe 02c7 7fbd 196f b93c edc3 14be
000002c0: 8ea8 753c cfb0 31be 9ea2 5e3d d224 643d
000002d0: 55ea a7bd bb5d 4e3e 013b a13e 998d 14bd
000002e0: c1c8 afbd 679a cc3d a286 a13d 6a82 51bd
000002f0: 0846 ce3d e707 9e3c 40cf b33d 9bf6 0f3e
00000300: 76ad b5bd 50b9 11bd 051c 233e cb61 2d3e
00000310: 2b65 9c3d 61c2 6a3d 304f a0bc 3350 d1bd
00000320: 2e72 13be 50c4 2c3d 9c7a 163e 6869 2bbe
00000330: 7bed 7b3d cc77 9cbd 4cd2 943d 85dc e23c
00000340: 85f3 0e3d e1ae ce3c a341 ce3b 926a d53c
00000350: d8dd 40bd c1d1 eabb dac1 23be 3fb6 103e
00000360: 0cc7 2c3c 957f 403e bc30 46bc 2194 95bd
00000370: 44ac 92bd 42ce 5439 ff83 903d d58a 493b
00000380: b131 5d3e 725f 003c 0aaf febd 37b2 06bc
00000390: dbb8 b93d ad1b 53bd f077 2fbd f471 b23c
000003a0: ac29 f43b df1c 013d 51bc e53d 7e1e ffbd
000003b0: a51a 3ebe f908 10bb 5550 b0bd d285 25be
000003c0: 3aa2 a9bc 3bc4 8bbd c492 bf3d 5dcf 88bd
000003d0: eca6 a1bd 7c5b 1abe a6fa dd3d 5428 3e3e
000003e0: 55f5 953d e963 62be f96d 10be 3ed0 7bbb
000003f0: 5610 693d 578d 1b3e 243b b6bd 572f 513e

fc1.bias f4 [512]
-0.11747436 0.18574499 -0.111464 -0.1837504 -0.0713702 -0.3868961 -0.12945955 0.11488847
-0.20375952 -0.10044461 -0.019963559 -0.21362568 0.034256347 -0.329783 0.20181918 0.019542685
-0.032350097 -0.16444632 -0.24686086 -0.053029727 0.21186398 0.14040446 -0.28780803 -0.113144785
0.10351589 0.0007400755 -0.12812285 -0.13185987 -0.30995667 0.040930696 0.08984035 0.16802531
-0.06697108 0.17878868 -0.19854428 -0.19635445 -0.13806105 0.088279076 -0.18742584 -0.117249236
0.11819182 0.09055975 -0.048299 -0.3713507 -0.018726783 -0.05318305 -0.017879933 -0.11319749
0.02896149 -0.08029049 -0.02561865 -0.1638943 0.07784125 -0.1895834 -0.098165736 -0.09421868
0.010799879 -0.2403301 -0.16210634 -0.24013384 -0.3179682 -0.009691676 0.17438231 0.0041793985
-0.040790316 -0.10369284 -0.2247246 -0.10353958 0.08995701 7.646343e-05 -0.009155687 0.19446395
0.064160034 -0.16169299 -0.24316616 0.182495 -0.0055495263 -0.11096417 -0.18469523 -0.0035734987
-0.17478782 0.011560327 -0.20876946 0.18894689 -0.39095616 -0.12739952 -0.14221166 -0.15164252
-0.14326036 -0.20636548 -0.26160446 0.31300896 0.17104645 -0.037144642 -0.11519757 -0.19634515
-0.16002017 -0.0010754042 -0.26738825 -0.21931706 0.097462766 0.02139783 -0.09292305 0.18378505
-0.053307436 0.2224587 0.058226008 -0.0035127285 0.14599529 -0.18799454 -0.31273434 -0.057878733
0.020256491 -0.14647752 0.10564804 0.020666879 0.28730953 -0.0057503963 0.016418597 0.17262506
-0.23608127 0.0011038494 -0.19156875 -0.032150343 0.22808672 0.16932973 -0.33903506 0.13208166
-0.06417031 0.009762502 -0.06715837 -0.06481822 0.06521829 -0.04232215 -0.060532212 -0.3320826
0.21815285 -0.13457686 -0.09979777 0.05182128 0.11017951 -0.1647756 -0.033959243 -0.27110848
-0.19739896 -0.008357874 -0.060319357 -0.094180696 0.14899018 -0.3067312 -0.24350633 0.12997459
-0.17046726 0.15093994 -0.19247358 -0.18029477 0.20744535 -0.018435806 -0.1369966 0.20229101
-0.32175866 -0.048082117 -0.32841188 -0.08850785 0.20901217 -0.1944272 0.09008027 -0.0100184195
0.015746955 -0.08166134 -0.19186361 0.22346999 -0.16335203 -0.3634696 -0.0007578667 -0.086069815
-0.048607178 -0.20225644 -0.33253187 0.27634525 -0.17830412 -0.1702774 -0.20248358 0.1899076
-0.1906633 0.0066924053 0.12566811 0.21249822 -0.22324437 -0.16732259 0.08328946 -0.2280103
-0.15680368 -0.2787788 0.092741184 -0.10933223 -0.0067199464 -0.1488365 0.04720907 -0.13704851
-0.07795804 -0.12207662 0.06962164 0.070024945 -0.16452655 -0.14356406 -0.29782993 -0.28544372
0.050717015 -0.036104195 -0.3119241 -0.08946139 0.16994374 -0.20124365 -0.32629704 -0.2880679
0.1284354 -0.14555246 -0.25846562 0.039337218 0.015191222 -0.07496064 -0.055590708 -0.1650021
-0.24229965 -0.2220448 -0.2735095 -0.035279036 -0.0277555 -0.04763004 0.022517769 -0.20493624
-0.1970911 0.19510387 -0.119091585 0.12545612 -0.18645056 -0.09916333 -0.11175856 -0.19842434
-0.24126367 0.040577043 0.1169427 0.069844455 0.13242242 -0.25505033 0.15480542 -0.07122284
0.117276795 0.0063637756 -0.2751824 -0.2531005 -0.1979635 -0.34680367 -0.17946474 0.03202013
00000000: 6696 f0bd ef33 3e3e 3d47 e4bd 1129 3cbe
00000010: 8a2a 92bd 3f17 c6be 0b91 04be a54a eb3d
00000020: 56a6 50be e7b5 cdbd 9e8a a3bc b1c0 5abe
00000030: 6250 0c3d 51d9 a8be b0a9 4e3e fb17 a03c
00000040: 8981 04bd 9e64 28be 18c9 7cbe b335 59bd
00000050: dff2 583e 30c6 0f3e 935b 93be 74b8 e7bd
00000060: 2400 d43d a001 423a a332 03be 4606 07be
00000070: a4b2 9ebe f2a6 273d 38fe b73d d40e 2c3e
00000080: 2228 89bd 6114 373e 314f 4bbe 2411 49be
00000090: e05f 0dbe a9cb b43d 8fec 3fbe 5e20 f0bd
000000a0: 8e0e f23d 6477 b93d 2cd5 45bd ae21 bebe
000000b0: e968 99bc 78d6 59bd f078 92bc 16d4 e7bd
000000c0: a640 ed3c 576f a4bd 34de d1bc e8d3 27be
000000d0: 3c6b 9f3d 2722 42be 1e0b c9bd b9f5 c0bd
000000e0: faf1 303c 1819 76be 34ff 25be a5e5 75be
000000f0: bacc a2be d6c9 1ebc 4791 323e 56f3 883b
00000100: bf13 27bd e95c d4bd 351e 66be 8f0c d4bd
00000110: 613b b83d fe5a a038 bc01 16bc 8f21 473e
00000120: 5666 833d d992 25be 8d00 79be f8df 3a3e
00000130: cdd8 b5bb 2f41 e3bd bf20 3dbe 5c31 6abb
00000140: 94fb 32be 8767 3d3c a9c7 55be 4b7b 413e
00000150: 682b c8be 0575 02be ef9f 11be 2d48 1bbe
00000160: d8b2 12be 7951 53be 05f1 85be b642 a03e
00000170: cd26 2f3e fb24 18bd b4ec ebbd b40e 49be
00000180: 54dc 23be 94f4 8cba 1de7 88be a794 60be
00000190: 8f9a c73d 814a af3c 714e bebd 2632 3c3e
000001a0: e658 5abd 37cc 633e 657e 6e3d ce35 66bb
000001b0: ca7f 153e a481 40be b71e a0be 4012 6dbd
000001c0: f1f0 a53c 34fe 15be 005e d83d 964d a93c
000001d0: 3c1a 933e d26d bcbb 4b80 863c a0c4 303e
000001e0: 4abf 71be 0aaf 903a 992a 44be 14b0 03bd
000001f0: 918f 693e c664 2d3e 0196 adbe 6a40 073e
00000200: b96b 83bd e7f2 1f3c 548a 89bd 6abf 84bd
00000210: 2b91 853d fe59 2dbd a0f0 77bd bb06 aabe
00000220: 7663 5f3e 84ce 09be c662 ccbd 8d42 543d
00000230: cca5 e13d efba 28be d918 0bbd bbce 8abe
00000240: f422 4abe 77ef 08bc 6e11 77bd cfe1 c0bd
00000250: e290 183e df0b 9dbe b959 79be 0f18 053e
00000260: f88e 2ebe 0090 1a3e cb17 45be 319f 38be
00000270: 8e6c 543e b006 97bc d648 0cbe 6025 4f3e
00000280: 8dbd a4be c1f1 44bd 9a25 a8be 9b43 b5bd
00000290: 4907 563e ed17 47be 017c b83d 4c24 24bc
000002a0: c2ff 803c 103e a7bd e577 44be 51d5 643e
000002b0: c145 27be b018 babe 93ab 46ba 5f45 b0bd
000002c0: 5218 47bd 501c 4fbe 9e41 aabe 207d 8d3e
000002d0: 5b95 36be 335d 2ebe db57 4fbe 2377 423e
000002e0: 3d3d 43be f74b db3b 24af 003e 2299 593e
000002f0: 2c9a 64be 9d56 2bbe aa93 aa3d 887b 69be
00000300: 2591 20be 18bc 8ebe 17ef bd3d 94e9 dfbd
00000310: ff32 dcbb 9868 18be 4c5e 413d 7256 0cbe
00000320: 77a8 9fbd 4f03 fabd ca95 8e3d 3d69 8f3d
00000330: a679 28be 7502 13be 2a7d 98be ae25 92be
00000340: a5bc 4f3d fee1 13bd 84b4 9fbe 8937 b7bd
00000350: bb05 2e3e d112 4ebe 6810 a7be a37d 93be
00000360: 9284 033e b40b 15be 9b55 84be 1020 213d
00000370: 9ae4 783c f784 99bd 15b3 63bd 4ff6 28be
00000380: 661d 78be b65f 63be 7009 8cbe c080 10bd
00000390: 815f e3bc b817 43bd 2f77 b83c ceda 51be
000003a0: 40d2 49be 4fc9 473e 4ae6 f3bd 9277 003e
000003b0: e5ec 3ebe 2516 cbbd ace1 e4bd c02f 4bbe
000003c0: d30d 77be 1d34 263d a87f ef3d 9c0a 8f3d
000003d0: be99 073e f595 82be 5085 1e3e 48dd 91bd
000003e0: d12e f03d 3887 d03b b5e4 8cbe 6496 81be
000003f0: f2b6 4abe 4090 b1be 9bc5 37be 8a27 033d

fc2.weight f4 [256, 512]
0.0055272854 -0.061589014 -0.09374006 0.007737404 -0.111853965 -0.0133673875 0.015598091 0.0019415257
-0.00089322194 -0.11369794 0.013104388 -0.0021921312 -0.008749947 0.05905252 0.017361902 -0.021462256
-0.08314703 -0.015063697 0.039670635 0.0887013 -0.043812606 -0.00824531 -0.0736808 -0.035794076
-0.06532485 0.043906603 -0.0023815462 -0.016565982 -0.03421797 0.019547917 -0.036313955 -0.052406184
-0.07675951 -0.084068395 -0.10629402 -0.06073966 -0.08677146 -0.046690058 -0.038280167 -0.004273317
0.05668407 -0.0492887 -0.027729291 -0.06220769 -0.007997533 -0.059319604 -0.054816935 -0.028178906
-0.02102376 -0.058527265 -0.044938814 -0.030587668 -0.10521048 -0.03994582 -0.1358254 -0.097119115
0.009002493 -0.08573968 -0.056984913 0.024837574 -0.010423164 -0.044826403 -0.016297016 -0.02787548
-0.0015654298 0.025554242 -0.086007416 -0.0054453663 -0.05965761 -0.010740656 0.0013996314 0.044838365
-0.07486953 -0.01794744 -0.06665626 -0.04878616 -0.054395698 0.0033028766 0.009128532 -0.0036810671
0.05190139 -0.16551691 -0.00060387916 -0.009534308 -0.015176023 0.074889354 0.006800633 -0.051986232
0.013126541 0.00020859498 0.04817041 -0.0038586927 -0.14401728 -0.08490586 0.041083395 0.040040087
-0.012770036 -0.051741842 -0.11506888 0.049865395 -0.020453643 -0.034606252 -0.027978467 -0.05177537
0.0130968075 -0.01749718 -0.03791413 -0.07460353 -0.09612393 -0.013685386 0.0046609836 -0.033659104
0.030814417 0.03443452 -0.0059655746 0.02340592 -0.01929761 0.016636038 -0.012062378 -0.039833754
-0.016115947 -0.08273512 -0.044147234 -0.035444733 -0.11105061 -0.020727547 -0.06331973 -0.03757645
0.050119106 -0.026318962 -0.009189823 0.0079067 0.024129484 0.026590168 -0.053352572 0.036679335
-0.037378814 0.096313134 -0.12723048 0.05147742 0.02482342 8.7372355e-05 0.04891328 -0.09338794
0.018450487 0.008908632 0.06529171 -0.1656417 -0.06776224 0.017399875 -2.9441226e-05 0.026158849
-0.005582014 -0.1310194 -0.018359886 -0.03046498 -0.10028172 -0.014455138 -0.017136656 0.06177962
0.0053424854 -0.10101406 0.049488816 -0.0498436 -0.041438185 -0.030234689 -0.017767642 -0.11665665
0.0036793074 -0.0013967777 -0.075800814 -0.15316212 0.00096504076 0.017827472 -0.0050981296 0.06294619
-0.07785737 -0.17629258 -0.026562955 -0.0448114 0.0130607 -0.108461104 -0.020985868 -0.08047202
0.043905288 -0.056405965 -0.030905671 -0.07138087 0.022203896 -0.014932205 -0.030758856 0.018108662
-0.07712711 -0.014811778 -0.040636357 -0.08113962 -0.00021110519 -0.042711776 -0.08636194 -0.074375026
-0.028963355 -0.0723758 -0.05525073 -0.13134693 0.040028058 0.0067015276 0.022723261 0.057160858
-0.06764387 -0.07066913 0.09655719 0.017416088 -0.023164725 0.10369401 0.1004238 -0.0013390019
-0.0745232 0.08437141 0.021108655 -0.051296983 0.05046377 0.037699822 0.00045955332 0.0217291
-0.031819493 0.03874533 -0.042296417 0.00596822 -0.061135147 -0.053392787 -0.032247353 0.026649447
-0.013441802 -0.024319585 -0.03743653 -0.040745374 0.031588387 0.030534731 -0.03209108 0.024570027
-0.03112191 0.024524191 -0.01433577 -0.026620038 0.007238155 -0.032633986 -0.05138487 0.0040479074
-0.035736658 -0.037028104 0.0047628586 0.0129316775 -0.03543852 -0.03248019 -0.043436974 -0.06568487
00000000: 3b1e b53b c344 7cbd cafa bfbd 0d8a fd3b
00000010: b113 e5bd e302 5bbc 238f 7f3c cb7a fe3a
00000020: 1c27 6aba 77da e8bd c9b3 563c dca9 0fbb
00000030: f05b 0fbc 0ee1 713d 8c3a 8e3c 9dd1 afbc
00000040: fd48 aabd b9cd 76bc ad7d 223d 07a9 b53d
00000050: d974 33bd 5617 07bc f6e5 96bd cf9c 12bd
00000060: 09c9 85bd 69d7 333d b713 1cbb 62b5 87bc
00000070: 2428 0cbd f422 a03c f1bd 14bd dea7 56bd
00000080: 1734 9dbd 0d2c acbd aeb0 d9bd 26ca 78bd
00000090: 3cb5 b1bd 133e 3fbd aacb 1cbd 2e07 8cbb
000000a0: 8e2d 683d f3e2 49bd 8a28 e3bc 7ecd 7ebd
000000b0: 1608 03bc 1df9 72bd b987 60bd 73d7 e6bc
000000c0: 053a acbc 49ba 6fbd c311 38bd fd92 fabc
000000d0: 9878 d7bd 3a9e 23bd d015 0bbe 63e6 c6bd
000000e0: 317f 133c 4998 afbd 0369 69bd 2b78 cb3c
000000f0: ebc5 2abc e49b 37bd 5281 85bc 1e5b e4bc
00000100: 1c2f cdba 2157 d13c a824 b0bd 0b6f b2bb
00000110: 8a5b 74bd 94f9 2fbc d673 b73a 6fa8 373d
00000120: 3255 99bd 8206 93bc 1483 88bd ffd3 47bd
00000130: 06ce 5ebd 1375 583b d78f 153c 0f3e 71bb
00000140: 8d96 543d 447d 29be a54d 1eba c935 1cbc
00000150: dba4 78bc 975f 993d d8d7 de3b 84ef 54bd
00000160: b410 573c 4aba 5a39 564e 453d 1fe2 7cbb
00000170: 4479 13be 20e3 adbd 1047 283d 1301 243d
00000180: 6a39 51bc 41ef 53bd 3ca9 ebbd a83f 4c3d
00000190: 668e a7bc 49bf 0dbd 1933 e5bc 6912 54bd
000001a0: fe93 563c 3f56 8fbc d94b 1bbd bcc9 98bd
000001b0: 9fdc c4bd ab38 60bc 2abb 983b 21de 09bd
000001c0: 846e fc3c 360b 0d3d de7a c3bb c6bd bf3c
000001d0: 0516 9ebc 4d48 883c 48a1 45bc b828 23bd
000001e0: 9705 84bc 0871 a9bd bbd3 34bd 7f2e 11bd
000001f0: 816e e3bd d1cc a9bc c6ad 81bd c3e9 19bd
00000200: b149 4d3d dd9a d7bc e990 16bc 1a8b 013c
00000210: 32ab c53c a0d3 d93c 3a88 5abd 123d 163d
00000220: 871a 19bd d23f c53d b548 02be fdd9 523d
00000230: 7c5a cb3c ad3b b738 4b59 483d 2d42 bfbd
00000240: 7a25 973c 83f5 113c a9b7 853d fa9d 29be
00000250: eec6 8abd 2f8a 8e3c 8df8 f6b7 154b d63c
00000260: 54e9 b6bb f329 06be 7967 96bc b291 f9bc
00000270: 8160 cdbd 3ed5 6cbc 2c62 8cbc a00c 7d3d
00000280: 0410 af3b 76e0 cebd c9b4 4a3d cd28 4cbd
00000290: 16bb 29bd bdae f7bc 728d 91bc afe9 eebd
000002a0: 8920 713b 1514 b7ba 753d 9bbd 88d6 1cbe
000002b0: cafa 7c3a eb0a 923c 360e a7bb efe9 803d
000002c0: af73 9fbd 0b86 34be 8e9a d9bc 298c 37bd
000002d0: 8cfc 553c db20 debd 8eea abbc 84ce a4bd
000002e0: 08d6 333d f109 67bd e42d fdbc 2230 92bd
000002f0: f2e4 b53c 35a6 74bc fff9 fbbc 9e58 943c
00000300: d1f4 9dbd 1aad 72bc 4f72 26bd 872c a6bd
00000310: 1e5c 5db9 8bf2 2ebd 87de b0bd ef51 98bd
00000320: 8f44 edbc c339 94bd 974e 62bd cf7f 06be
00000330: 76f4 233d 7d98 db3b 2226 ba3c 8121 6a3d
00000340: df88 8abd faba 90bd c7bf c53d 2fac 8e3c
00000350: f3c3 bdbc 865d d43d feaa cd3d 7381 afba
00000360: 9f9f 98bd ebca ac3d 0fec ac3c c91c 52bd
00000370: 19b3 4e3d 216b 1a3d 34f0 f039 3a01 b23c
00000380: 2855 02bd 6cb3 1e3d 023f 2dbd 0f91 c33b
00000390: d968 7abd 65b2 5abd cd15 04bd f14f da3c
000003a0: 013b 5cbc de39 c7bc 0c57 19bd 9fe4 26bd
000003b0: d362 013d f923 fa3c f071 03bd 1547 c93c
000003c0: 60f3 febc f5e6 c83c 94e0 6abc 4412 dabc
000003d0: 0c2e ed3b 37ab 05bd f178 52bd 4fa4 843b
000003e0: 9a60 12bd c8aa 17bd c111 9c3b 63df 533c
000003f0: fb27 11bd f309 05bd f8ea 31bd ca85 86bd

fc2.bias f4 [256]
-0.02578921 -0.0485248 -0.0906148 0.014960961 0.029592982 0.04458984 0.0053758333 -0.0043194336
0.15260994 0.20767893 -0.044431154 0.0035843872 -0.10915422 -0.06308666 -0.01222919 -0.024419555
0.12545426 0.06297446 -0.076348424 -0.020799693 0.027236428 -0.009059746 0.24320331 0.1956169
0.061571814 -0.075410515 -0.0563125 -0.16113184 0.15765575 -0.0948475 0.0124299945 -0.01266091
-0.0032122952 -0.099886805 0.16183332 0.02455018 0.01450599 -0.051305614 0.040082347 -0.06846842
0.015014541 0.006804558 -0.058319815 -0.014884306 0.23508298 -0.051419433 0.05947532 -0.036732387
0.08584757 0.009817349 -0.047299773 -0.052014586 0.06563646 0.002893618 -0.03406339 -0.07433919
0.0011325742 -0.04217531 0.047891926 -0.08304 0.07862041 0.13824682 -0.06471575 0.00851547
-0.020864084 -0.09841756 0.00011063103 -0.06963737 0.029126257 0.22074816 -0.036527075 -0.12683178
0.015416282 -0.10703854 0.007264178 0.043776248 0.00544669 -0.073006056 -0.019892288 -0.051491782
-0.031320192 0.033446185 0.050186176 -0.05544062 -0.089308664 -0.06726388 -0.03119069 -0.058326203
-0.07059377 -0.015191268 0.0029281126 -0.0025029224 -0.042369746 -0.027302012 0.05559988 -0.024120279
-0.06652837 -0.046126284 0.027285933 -7.5415766e-05 0.03226792 0.011994341 0.18251596 0.080307074
0.07628345 -0.005412438 0.03834745 0.16155279 0.0042941337 -0.0132164145 -0.10683028 0.04219894
-0.030143311 -0.016726604 -0.071652785 0.022951536 0.08041107 0.007375103 -0.009901453 0.1281625
-0.0010477676 0.009465842 -0.0624318 -0.08351164 0.014310178 0.086927086 -0.030648217 -0.0037397218
-0.02932001 0.072968684 0.097137846 -0.023003526 -0.020240525 0.004999861 0.019978944 0.020136895
-0.043964088 -0.030178184 0.16349348 -0.0016317955 -0.05081838 -0.06528759 -0.04383042 -0.043448966
-0.015695931 0.11084102 0.016221656 -0.062155973 -0.07164387 -0.035503834 -0.08349438 0.011731075
-0.015631786 -0.05348721 -0.08673763 0.1622773 -0.010957835 -0.00624697 -0.025972184 0.10931354
0.0006114785 0.004249832 0.0038081033 -0.061033636 -0.030735731 -0.057121158 -0.04189799 0.13978685
0.020208318 0.06954812 0.21280842 -0.16301802 -0.052651834 -0.00043731474 0.15663984 -0.08431001
0.19611123 -0.100799404 -0.071466014 0.16160643 0.056075368 -0.083371386 0.03989391 0.012601346
0.004970777 -0.04225892 0.048571937 -0.048519105 -0.02779289 -0.068868764 -0.05030031 -0.026149157
0.04714592 0.00078397547 0.013333245 -0.051830474 -0.08289633 -0.013487011 0.060711347 -0.008170333
-0.040103912 -0.09599017 -0.08756765 -0.050792467 0.06629499 -0.00051275344 -0.03640248 0.002478558
-0.053193104 -0.004845217 0.027623355 -0.014398512 -0.0579457 0.12631576 -0.013908817 0.018646978
-0.0130626075 -0.01915551 0.018364359 -0.046461266 -0.038339946 0.18054676 0.0066672596 -0.006303789
-0.0071120732 0.2397245 -0.06780871 0.01224339 -0.041739598 0.11282054 -0.037873086 -0.036231775
-0.08918157 -0.052937556 0.010536594 -0.052133113 0.038514968 -0.031829655 0.04343797 -0.085297495
-0.012754331 -0.18093051 -0.068886384 0.00634229 -0.0424853 0.049487475 0.10016482 0.009887253
-0.02285548 0.025009952 -0.07381489 0.008106165 -0.059132833 0.043653414 -0.18704274 -0.042996913
00000000: e543 d3bc f1c1 46bd 4194 b9bd d21e 753c
00000010: fb6c f23c d6a3 363d c227 b03b 098a 8dbb
00000020: c845 1c3e c9a9 543e 71fd 35bd 0ae8 6a3b
00000030: 3f8c dfbd 9433 81bd f15c 48bc 850b c8bc
00000040: 1577 003e c1f8 803d 905c 9cbd 1e64 aabc
00000050: ee1e df3c 546f 14bc 4a0a 793e cc4f 483e
00000060: ba32 7c3d d470 9abd f0a7 66bd bfff 24be
00000070: 8270 213e 683f c2bd 2da7 4b3c b56f 4fbc
00000080: 5f85 52bb 7491 ccbd a2b7 253e 761d c93c
00000090: 88aa 6d3c d625 52bd 632d 243d 2c39 8cbd
000000a0: 8dff 753c c5f8 de3b c2e0 6ebd 4edd 73bc
000000b0: 98b9 703e 2f9d 52bd 659c 733d b374 16bd
000000c0: dad0 af3d f2d8 203c 68bd 41bd 3f0d 55bd
000000d0: 696c 863d dba2 3d3b 0e86 0bbd 253f 98bd
000000e0: e272 943a 05c0 2cbd 532a 443d e010 aabd
000000f0: bd03 a13d 9390 0d3e b189 84bd 7884 0b3c
00000100: 28eb aabc 258f c9bd 9502 e838 0a9e 8ebd
00000110: 309a ee3c ce0b 623e 6a9d 15bd 31e0 01be
00000120: 9394 7c3c 0637 dbbd 5708 ee3b b94e 333d
00000130: 267a b23b 3384 95bd 27f5 a2bc 0ce9 52bd
00000140: 9a49 00bd defe 083d 0590 4d3d b415 63bd
00000150: 76e7 b6bd a5c1 89bd 9e83 ffbc 75e7 6ebd
00000160: 7793 90bd cce4 78bc 94e5 3f3b 1208 24bb
00000170: e68b 2dbd 78a8 dfbc b3bc 633d e497 c5bc
00000180: 0740 88bd eaee 3cbd c086 df3c 8828 9eb8
00000190: 5e2b 043d ea83 443c 77e5 3a3e 0978 a43d
000001a0: 7f3a 9c3d d25a b1bb 3712 1d3d 186e 253e
000001b0: ceb5 8c3b a989 58bc d5c9 dabd ccd8 2c3d
000001c0: 1bef f6bc 3b06 89bc b2be 92bd dc04 bc3c
000001d0: 8fae a43d d9aa f13b b439 22bc 083d 033e
000001e0: 3f55 89ba 9e16 1b3c 7db8 7fbd 2708 abbd
000001f0: 3d75 6a3c d406 b23d f811 fbbc 1f16 75bb
00000200: 8530 f0bc 9b70 953d 35f0 c63d e471 bcbc
00000210: 75cf a5bc e0d5 a33b e2aa a33c 21f6 a43c
00000220: b013 34bd 3d38 f7bc d66a 273e f9e1 d5ba
00000230: ef26 50bd 80b5 85bd 8787 33bd 8bf7 31bd
00000240: c194 80bc 9e00 e33d 47e3 843c 4397 7ebd
00000250: 05ba 92bd 786c 11bd 1aff aabd b233 403c
00000260: 3b0e 80bc 6815 5bbd 80a3 b1bd 052c 263e
00000270: 7e88 33bc 62b3 ccbb 9ec3 d4bc c7df df3d
00000280: a14b 203a 2d42 8b3b 5f91 793b 68fe 79bd
00000290: 80c9 fbbc e0f7 69bd 3a9d 2bbd 4924 0f3e
000002a0: ea8b a53c 3f6f 8e3d 73ea 593e 32ee 26be
000002b0: 73a9 57bd 6447 e5b9 3266 203e baaa acbd
000002c0: 62d1 483e eb6f cebd c65c 92bd 287c 253e
000002d0: 49af 653d 9ebe aabd cc67 233d e075 4e3c
000002e0: e6e1 a23b b017 2dbd 5ef3 463d f8bb 46bd
000002f0: eaad e3bc 110b 8dbd b307 4ebd c236 d6bc
00000300: 151c 413d b483 4d3a af73 5a3c 314c 54bd
00000310: 8dc5 a9bd a0f8 5cbc 76ac 783d dcdc 05bc
00000320: 0044 24bd 7f96 c4bd ab56 b3bd c30b 50bd
00000330: abc5 873d 4d6a 06ba c41a 15bd 4e6f 223b
00000340: 03e1 59bd a0c4 9ebb 604a e23c bde7 6bbc
00000350: 7858 6dbd eb58 013e cfe1 63bc 8cc1 983c
00000360: 8c04 56bc 04ec 9cbc da70 963c 2b4e 3ebd
00000370: 590a 1dbd 40e1 383e 0779 da3b 0490 cebb
00000380: 650c e9bb 577a 753e 4bdf 8abd 8098 483c
00000390: 24f7 2abd 750e e73d cf20 1bbd c567 14bd
000003a0: d4a4 b6bd 0dd5 58bd aea1 2c3c 8889 55bd
000003b0: dfc1 1d3d d05f 02bd 03ec 313d 74b0 aebd
000003c0: 8bf7 50bc d945 39be 4e14 8dbd fcd2 cf3b
000003d0: 1105 2ebd 61b3 4a3d 3723 cd3d 25fe 213c
000003e0: 6a3b bbbc ace1 cc3c 432c 97bd b8cf 043c
000003f0: 4535 72bd eccd 323d 2288 3fbe 881d 30bd

fc3.weight f4 [1, 256]
-0.01653011 0.14410613 -0.049796883 0.044538714 0.15747559 0.20735402 0.0077991597 -0.039558347
0.09217768 -0.049173143 0.10243317 -0.06058757 0.06533484 -0.029290112 0.0019399942 -0.001933953
-0.19282693 0.043363176 -0.08089025 0.015041948 0.0340279 0.12483587 -0.057508834 -0.05496294
0.013468228 -0.07803058 -0.0012751004 -0.08598995 0.033163518 -0.07427743 -0.048103206 0.14097957
0.033271167 -0.007905094 -0.035489954 0.06146104 0.14467514 -0.043446343 0.05787172 0.09884161
-0.00831547 -0.050514534 0.016639221 0.050633784 -0.0397835 -0.0008501712 0.05543749 -0.037065584
-0.08421553 -0.13464557 0.10192618 0.08325178 0.06805608 0.088627204 0.06941535 -0.029177127
0.10874867 -0.01712987 0.06878802 0.056879476 0.030763028 0.05679959 0.060045864 -0.07042846
-0.004102533 -0.031893548 -0.005664327 -0.02703207 0.07375783 -0.0133447945 0.003544131 -0.049015496
-0.021836186 -0.028382296 0.08419717 0.13842258 0.0039573386 -0.062362272 0.003508557 0.0074826246
0.0012745075 0.0423502 0.039513193 -0.07079092 0.040295564 -0.015262297 0.0012075502 -0.026249947
-0.052738506 0.05834923 0.035907865 0.048433993 0.008318259 0.110415444 -0.11277617 -0.025250454
-0.04721071 0.074815445 0.1063321 0.04812548 -0.04201662 0.025158381 0.06556714 0.02601028
0.077354215 0.018562282 0.067811385 0.06488077 0.030186301 0.04227336 -0.012246041 0.11321507
-0.037749883 -0.08428918 -0.035246044 0.04620835 -0.07719259 0.15356404 -0.07584247 -0.08472379
0.14577675 0.11314776 -0.053272653 -0.05772234 -0.032408714 0.12937127 -0.016251225 0.035659675
-0.1566729 0.061543547 0.021300467 -0.044097964 0.10815643 -0.049095724 0.13304 0.056532178
0.051236413 0.003072091 -0.034489695 0.0072880564 -0.02835997 0.011712687 0.026951084 0.093689546
-0.03826273 -0.067771725 0.018796768 0.09553633 -0.03087528 0.056072555 -0.09818829 -0.01700816
0.013513262 0.0152837755 -0.0021163016 -0.0091819195 0.023941673 0.13800655 0.1529287 -0.15635993
0.021648023 -0.026376208 0.10157423 -0.017849829 0.00576658 -0.06258817 0.036738504 -0.05051699
0.067557156 0.12233953 -0.108605586 -0.08283947 0.0044109505 0.04206317 -0.12427489 0.08158409
0.090090744 -0.0277643 -0.030933097 -0.07851291 -0.104923435 -0.015126251 -0.0730799 0.028796535
0.016993254 -0.025975812 0.067312054 0.17069347 -0.017827172 -0.07332527 0.07437414 -0.0006309546
0.051277984 0.0047916993 -0.0114260595 -0.04457734 0.07604141 0.09654087 0.052140757 0.025353627
-0.09171979 -0.07251085 -0.053098947 -0.05499574 0.025652237 0.2562654 0.029317925 0.08105441
0.081842765 -0.04589899 0.077959284 0.028494138 -0.02433532 -0.08328244 -0.029001862 -0.0051307036
0.076632574 0.06185803 0.060940713 0.18748705 0.1365774 -0.042807944 0.034704506 -0.022519443
0.0013868505 -0.015987512 -0.01384258 -0.06594384 -0.04013181 0.057163887 0.10999509 -0.06012311
-0.018626828 0.13715608 -0.055554338 -0.078372955 0.13791719 0.0023937537 0.029952494 0.12438543
0.09412968 0.14457849 -0.0192933 0.07491361 0.0027111208 0.09000209 0.13174875 0.016913354
-0.07695003 0.068937145 0.07210976 0.052186426 -0.054591794 0.015922902 0.103427514 0.028659612
00000000: 276a 87bc 8f90 133e d1f7 4bbd 3a6e 363d
00000010: 4841 213e 9d54 543e 1890 ff3b ef07 22bd
00000020: a7c7 bc3d c769 49bd 7bc8 d13d ac2a 78bd
00000030: 46ce 853d d1f1 efbc 6747 fe3a b27c fdba
00000040: 6c74 45be 969d 313d caa9 a5bd 8172 763c
00000050: d760 0b3d f3a9 ff3d 628e 6bbd d220 61bd
00000060: d8a9 5c3c 7fce 9fbd 4521 a7ba 801b b0bd
00000070: 78d6 073d c41e 98bd de07 45bd f35c 103e
00000080: 5947 083d 5e84 01bc ea5d 11bd 92be 7b3d
00000090: b825 143e cbf4 31bd e60a 6d3d 786d ca3d
000000a0: 9c3d 08bc 54e8 4ebd fa4e 883c 5f65 4f3d
000000b0: 06f4 22bd 06de 5eba 6c12 633d 15d2 17bd
000000c0: 3179 acbd 87e0 09be acbe d03d e97f aa3d
000000d0: fc60 8b3d 2e82 b53d a329 8e3d df04 efbc
000000e0: 9fb7 de3d f153 8cbc bce0 8c3d 74fa 683d
000000f0: bf02 fc3c b0a6 683d a7f2 753d cc3c 90bd
00000100: 8b6e 86bb cfa2 02bd d29b b9bb 5c72 ddbc
00000110: 580e 973d 20a4 5abc a744 683b 79c4 48bd
00000120: cde1 b2bc fd81 e8bc 916f ac3d a6be 0d3e
00000130: 90ac 813b 956f 7fbd d2ef 653b ce30 f53b
00000140: 600d a73a 6777 2d3d 96d8 213d d4fa 90bd
00000150: f60c 253d b70e 7abc a946 9e3a 210a d7bc
00000160: 5504 58bd 9aff 6e3d 2014 133d b962 463d
00000170: 4f49 083c 7e21 e23d 31f7 e6bd 0ada cebc
00000180: 0460 41bd d738 993d a5c4 d93d 391f 453d
00000190: 9f19 2cbd f318 ce3c 1148 863d 8313 d53c
000001a0: e36b 9e3d ed0f 983c b2e0 8a3d 36e0 843d
000001b0: 4349 f73c d526 2d3d 9ea3 48bc 4ddd e73d
000001c0: 9f9f 1abd ce9f acbd 285e 10bd f844 3d3d
000001d0: 2617 9ebd e43f 1d3e 4c53 9bbd ab83 adbd
000001e0: 8046 153e 03ba e73d 6d34 5abd 436e 6cbd
000001f0: 00bf 04bd e779 043e 4a21 85bc e10f 123d
00000200: dc6e 20be 1615 7c3d 517e ae3c 11a0 34bd
00000210: 1e81 dd3d 9918 49bd a33b 083e 498e 673d
00000220: 46dd 513d 2255 493b 1145 0dbd a6d0 ee3b
00000230: 2b53 e8bc 92e6 3f3c 85c8 dc3c 4ee0 bf3d
00000240: 61b9 1cbd e7cb 8abd aefb 993c 8da8 c33d
00000250: 28ee fcbc 56ac 653d f116 c9bd b254 8bbc
00000260: bb66 5d3c cd68 7a3c a6b1 0abb c36f 16bc
00000270: 5421 c43c 9751 0d3e 5799 1c3e d11c 20be
00000280: 3257 b13c eb12 d8bc 2606 d03d ce39 92bc
00000290: 94f5 bc3b 3a2e 80bd 1d7b 163d e7ea 4ebd
000002a0: 685b 8a3d 268d fa3d 9b6c debd bda7 a9bd
000002b0: bc89 903b 6e4a 2c3d d583 febd 8f15 a73d
000002c0: 7f81 b83d f571 e3bc 6867 fdbc 60cb a0bd
000002d0: 19e2 d6bd 18d4 77bc eaaa 95bd b6e6 eb3c
000002e0: 7035 8b3c 3acb d4bc e7da 893d 45ca 2e3e
000002f0: 4a0a 92bc 8f2b 96bd 7851 983d a566 25ba
00000300: dd08 523d b003 9d3b 5e34 3bbc bb96 36bd
00000310: 99bb 9b3d 38b7 c53d 8c91 553d 69b2 cf3c
00000320: 96d7 bbbd 9280 94bd 487e 59bd 3743 61bd
00000330: a424 d23c 3835 833e 252c f03c dbff a53d
00000340: 2e9d a73d 9400 3cbd 1ea9 9f3d 8a6c e93c
00000350: dd5a c7bc fc8f aabd 5095 edbc 761f a8bb
00000360: 8af1 9c3d d85e 7d3d f89c 793d 9bfc 3f3e
00000370: f2da 0b3e 6257 2fbd 5026 0e3d b27a b8bc
00000380: fbc6 b53a 3ef8 82bc fdcb 62bc 900d 87bd
00000390: 4161 24bd ae24 6a3d 1b45 e13d a643 76bd
000003a0: 4a97 98bc a572 0c3e f28c 63bd 0082 a0bd
000003b0: 2a3a 0d3e 86e0 1c3b ef5e f53c cabd fe3d
000003c0: 10c7 c03d 620c 143e fc0c 9ebc 4f6c 993d
000003d0: 0fad 313b 0453 b83d 25e9 063e e08d 8a3c
000003e0: fa97 9dbd eb2e 8d3d 48ae 933d 6fc1 553d
000003f0: a59b 5fbd bf70 823c ced1 d33d 90c7 ea3c

norm.weight f4 [28]
0.78874874 0.82437396 0.8796947 0.95365787 0.89809203 0.85414857 0.7589669 0.80776465
0.8733796 0.9096099 0.80792075 0.77271503 0.85821664 0.83877605 0.872074 0.8451212
0.8558071 0.9079625 0.7601423 0.8892985 0.90290517 0.97868997 0.99363863 0.8780932
1.2462103 1.1158825 1.1124318 0.9092237
00000000: 70eb 493f 2c0a 533f ac33 613f ec22 743f
00000010: 5ce9 653f 7ba9 5a3f a84b 423f aac9 4e3f
00000020: ce95 5f3f 32dc 683f e5d3 4e3f a7d0 453f
00000030: 16b4 5b3f 07ba 563f 3e40 5f3f dd59 583f
00000040: 2d16 5b3f 3b70 683f b098 423f 11a9 633f
00000050: cb24 673f 6d8b 7a3f 1a5f 7e3f b7ca 603f
00000060: d283 9f3f 3dd5 8e3f 2a64 8e3f e2c2 683f

norm.bias f4 [28]
0.025235435 0.11631024 0.004430407 0.18282226 0.18906695 0.14086291 0.03610437 0.07761453
-0.033450525 -0.09017659 0.012332981 -0.061252624 -0.1646003 -0.08784771 -0.06151746 0.044188622
-0.0020942038 0.05438356 0.11635878 0.059555877 0.02458458 0.016850803 0.06623118 0.07934609
0.02827191 0.13342454 0.14379625 0.0026966163
00000000: 8bba ce3c 1034 ee3d f32c 913b c235 3b3e
00000010: c49a 413e 5e3e 103e 2de2 133d 5ef4 9e3d
00000020: 6b03 09bd 81ae b8bd 4610 4a3c 08e4 7abd
00000030: fb8c 28be 80e9 b3bd bbf9 7bbd 21ff 343d
00000040: e93e 09bb 4cc1 5e3d 834d ee3d ddf0 733d
00000050: 9a65 c93c b20a 8a3c 37a4 873d 3480 a23d
00000060: 7e9a e73c 71a0 083e 533f 133e b7b9 303b

norm.running_mean f4 [28]
1.3000462 1.3047748 1.3717145 1.5361335 1.5900506 1.6232554 1.6186934 1.6742295
1.8716569 1.8401359 1.8421408 1.8626769 1.828908 1.8298901 1.8595971 1.8955158
1.8955008 1.7897623 1.7066491 1.6653488 1.6423 1.455451 1.3348006 1.3018304
0.015165546 1.6761234 0.45770967 11.385934
00000000: ea67 a63f dc02 a73f 5794 af3f 06a0 c43f
00000010: c786 cb3f d5c6 cf3f 5831 cf3f 274d d63f
00000020: 7492 ef3f 9389 eb3f 45cb eb3f 326c ee3f
00000030: a819 ea3f d739 ea3f 4707 ee3f 43a0 f23f
00000040: c59f f23f ee16 e53f 7a73 da3f 262a d53f
00000050: e336 d23f 384c ba3f bfda aa3f 61a2 a63f
00000060: e978 783c 368b d63f ec58 ea3e c92c 3641

norm.running_var f4 [28]
0.65781987 0.6586505 0.6653264 0.7294737 0.7228787 0.72744745 0.67358994 0.67110825
0.7545395 0.77670455 0.8133087 0.85395145 0.8010254 0.78456897 0.7339921 0.78773963
0.8107195 0.78279513 0.7714454 0.7982924 0.8724766 0.7587991 0.6820414 0.6563759
3.4801843 0.50778735 0.03410409 60.11863
00000000: e266 283f 529d 283f d552 2a3f cabe 3a3f
00000010: 940e 393f ff39 3a3f 6470 2c3f c0cd 2b3f
00000020: 8029 413f 1cd6 463f 0035 503f 909c 5a3f
00000030: 0010 4d3f 83d9 483f e8e6 3b3f 4ea9 493f
00000040: 508b 4f3f 4365 483f 727d 453f e45c 4c3f
00000050: a05a 5f3f a840 423f 449a 2e3f 4008 283f
00000060: 57bb 5e40 5afe 013f bbb0 0b3d 7a79 7042
