turtlebot3_move_base/save_model_ddpg/2020_11_27-22:09:07/stage_1_200_actor.pth (torch_old, 584753 bytes, 10 tensors)

fc1.weight f4 [512, 26]
-0.06847621 0.047579087 -0.023301857 -0.10059666 -0.08899526 0.026173798 -0.022053782 -0.015831262
-0.020083265 0.026313035 -0.07427409 -0.04026012 -0.093744196 -0.14678061 0.068139955 -0.17861976
0.06832773 -0.10406788 0.10161831 -0.12287676 -0.13170506 0.09987275 -0.1701299 -0.15955399
0.005049027 -0.11446313 0.043708365 -0.06275986 -0.10231855 0.027339071 0.08531329 -0.14891742
0.016284766 0.14832015 0.119327895 0.1801042 -0.056303605 0.057512518 -0.0665493 0.040137473
-0.031432115 -0.14400774 -0.010817587 0.17757423 0.14861497 0.06011319 0.19807471 -0.14134409
0.05523257 -0.06941157 0.3367944 0.21536103 0.109659776 0.064695545 -0.08741047 -0.116772726
-0.1758195 0.040458284 0.10820779 0.1633748 0.05737673 -0.048858844 -0.002253054 -0.16674608
0.0589748 0.0219564 -0.12746465 0.028484574 0.042436965 -0.024368627 -0.16779396 -0.044778302
0.04699846 -0.011415451 0.13198136 0.07525384 -0.2127061 0.2229141 -0.03700366 0.09533945
0.11540522 -0.15094341 0.030643547 0.09086798 -0.18287404 0.018347679 -0.052814096 0.114318304
0.12653142 0.031858698 -0.06852128 -0.11911271 -0.13630657 0.008582383 0.1335829 -0.13244188
0.08990017 0.09451675 -0.09347977 0.19358392 -0.15382366 0.19240996 -0.060590085 0.2668045
0.01567407 0.03067053 -0.006617079 -0.050735496 -0.20010498 -0.037449345 0.110958524 -0.011561942
0.0968392 0.07232249 -0.14704959 0.009208688 -0.013960043 0.060969546 -0.14092317 -0.0075582652
0.025696363 -0.048166428 0.14732036 -0.15166937 -0.14020681 -0.0033135044 0.14243181 -0.07838457
-0.28428236 0.07855507 -0.010550303 -0.08576048 -0.07377807 -0.018080039 0.00019098763 -0.05128501
0.19098027 -0.036803097 0.08801479 0.08774116 0.14613768 -0.21246766 0.11568354 0.089123584
0.10822333 0.046863604 0.08958936 -0.010260822 -0.07115296 -0.016764928 0.051332746 0.0884802
-0.01363042 -0.052279487 0.17666051 0.14131705 -0.030336045 0.19890964 0.15989166 -0.16372782
-0.11002668 -0.09451003 0.037092105 -0.13014452 0.1783043 0.052007426 -0.20314017 0.027990201
0.16823952 -0.0038855523 0.050247896 0.1852229 -0.07005077 0.072697796 0.062208228 -0.06792858
0.06989158 -0.105202034 0.10247611 -0.055832393 -0.10581816 0.10337638 0.24048099 -0.028916162
-0.089582905 0.14022598 0.07446325 -0.08277081 0.114406385 -0.09096325 -0.0067736325 0.110466115
-0.12773246 -0.06791808 0.09100352 0.160844 0.16039021 0.22375017 0.10521232 0.01203514
-0.013098984 0.13496117 0.26182806 -0.018287186 0.12683672 -0.023206018 0.31983086 0.03945546
0.010542723 -0.035540562 -0.06750331 -0.066937566 -0.070565045 0.0389319 -0.084439486 0.09039083
-0.09635484 0.042564966 0.08171855 -0.007814009 0.05536532 -0.1069487 0.04772889 -0.0019951216
0.18581869 0.060386784 -0.11335266 -0.006226448 0.16562138 -0.08623866 -0.10089792 -0.013190705
0.057163347 -0.033180848 0.1366266 -0.06906889 -0.08954184 0.028172076 -0.15285261 -0.09197445
-0.0008735216 -0.038893655 0.07617362 -0.14181702 -0.18860091 -0.19942433 0.09423903 0.17016415
0.08637531 -0.11432395 -0.13750501 -0.043985356 -0.051220234 0.00464267 -0.07811014 0.176333
00000000: 413d 8cbd 4ae2 423d 89e3 bebc 9f05 cebd
00000010: 2643 b6bd 6f6a d63c 22aa b4bc 90b0 81bc
00000020: a985 a4bc 6f8e d73c 041d 98bd cce7 24bd
00000030: f5fc bfbd a84d 16be f68c 8b3d 19e8 36be
00000040: 69ef 8b3d 8a21 d5bd 431d d03d d0a6 fbbd
00000050: b1dd 06be 168a cc3d 8836 2ebe 1f62 23be
00000060: 4f72 a53b a56b eabd 8b07 333d 3e88 80bd
00000070: 638c d1bd 30f6 df3c bcb8 ae3d cf7d 18be
00000080: a167 853c 3de1 173e 2f62 f43d 3c6d 383e
00000090: 9c9e 66bd 3f92 6b3d 004b 88bd 3167 243d
000000a0: f6be 00bd c476 13be 403c 31bc 05d6 353e
000000b0: 862e 183e 4039 763d 19d4 4a3e 81bc 10be
000000c0: 8c3b 623d a727 8ebd 5170 ac3e 9a87 5c3e
000000d0: 4e95 e03d 197f 843d 4304 b3bd 8a26 efbd
000000e0: 070a 34be 96b7 253d 0c9c dd3d b94b 273e
000000f0: dd03 6b3d 3620 48bd f9a7 13bb 7cbf 2abe
00000100: 8f8f 713d e8dd b33c 1886 02be 7b58 e93c
00000110: 62d2 2d3d b7a0 c7bc 2ed2 2bbe 7469 37bd
00000120: 7581 403d df07 3bbc 1f26 073e af1e 9a3d
00000130: a1cf 59be 9843 643e 2691 17bd 5441 c33d
00000140: 9259 ec3d e990 1abe 2d08 fb3c fe18 ba3d
00000150: 5543 3bbe df4d 963c 9853 58bd b71f ea3d
00000160: 7491 013e 447e 023d e354 8cbd 5df1 f3bd
00000170: f393 0bbe 209d 0c3c f5c9 083e d89e 07be
00000180: 951d b83d ff91 c13d 5272 bfbd dd3a 463e
00000190: f383 1dbe 1e07 453e 4f2d 78bd 999a 883e
000001a0: e866 803c c340 fb3c 15d4 d8bb 06d0 4fbd
000001b0: 52e8 4cbe 7c64 19bd 393e e33d 4d6e 3dbc
000001c0: a153 c63d d01d 943d 2b94 16be 09e0 163c
000001d0: aab8 64bc 34bb 793d 2a4e 10be 53ab f7bb
000001e0: 2e81 d23c 294a 45bd 26db 163e 374f 1bbe
000001f0: 6092 0fbe 6127 59bb a5d9 113e 1788 a0bd
00000200: 758d 91be 7be1 a03d 2edb 2cbc 31a3 afbd
00000210: f518 97bd 971c 94bc da43 4839 3b10 52bd
00000220: 5590 433e d8be 16bd 1941 b43d a3b1 b33d
00000230: 1ea5 153e 1f91 59be 7eeb ec3d 6d86 b63d
00000240: 31a4 dd3d 0df4 3f3d a07a b73d 021d 28bc
00000250: a5b8 91bd 9a56 89bc 4942 523d 1b35 b53d
00000260: 2052 5fbc 0423 56bd 7ee6 343e 6bb5 103e
00000270: 4c83 f8bc f8ae 4b3e a4ba 233e 44a8 27be
00000280: ab55 e1bd 798e c1bd e4ed 173d 9b44 05be
00000290: 6795 363e bd05 553d fa03 50be b54b e53c
000002a0: fb46 2c3e c0a4 7ebb bdd0 4d3d 12ab 3d3e
000002b0: c776 8fbd 95e2 943d 0ece 7e3d 241e 8bbd
000002c0: 5123 8f3d 2a74 d7bd ffde d13d 82b0 64bd
000002d0: 31b7 d8bd ffb6 d33d a640 763e 96e1 ecbc
000002e0: 3e77 b7bd 6697 0f3e 3080 983d be83 a9bd
000002f0: e54d ea3d f14a babd 59f5 ddbb 0f3c e23d
00000300: 4ccc 02be a218 8bbd 0e60 ba3d 4ab4 243e
00000310: 553d 243e c41e 653e 8f79 d73d 092f 453c
00000320: 1f9d 56bc 4333 0a3e 540e 863e 02cf 95bc
00000330: 7ce1 013e 8c1a bebc dfc0 a33e 0c9c 213d
00000340: 63bb 2c3c fb92 11bd 2d3f 8abd 9016 89bd
00000350: 6884 90bd 0e77 1f3d 9cee acbd d41e b93d
00000360: b055 c5bd 9a58 2e3d 0e5c a73d 5406 00bc
00000370: bfc6 623d ec07 dbbd 5e7f 433d 96c0 02bb
00000380: 4147 3e3e 2258 773d 7025 e8bd 3b07 ccbb
00000390: a798 293e e59d b0bd 92a3 cebd d41d 58bc
000003a0: 1d24 6a3d a4e8 07bd d8e7 0b3e fd73 8dbd
000003b0: b661 b7bd 20c9 e63c 6585 1cbe 1a5d bcbd
000003c0: 0bfd 64ba f44e 1fbd ea00 9c3d 7b38 11be
000003d0: 9920 41be e435 4cbe 6400 c13d 833f 2e3e
000003e0: 8ae5 b03d ad22 eabd 1dce 0cbe fd29 34bd
000003f0: 4fcc 51bd 8a21 983b 36f8 9fbd a390 343e

fc1.bias f4 [512]
0.008091201 0.17122212 -0.1117753 0.035579436 0.023244549 -0.10399044 -0.20466 -0.14122303
0.14091139 0.0805658 -0.0482723 -0.1434294 -0.067494705 0.13733342 -0.27303737 -0.00053052296
-0.26057294 0.03219799 -0.23526806 -0.05569815 -0.21160954 0.022453202 -0.0064408313 -0.034612913
0.06403257 0.004371165 -0.15522689 0.0012488039 -0.16289721 -0.11142649 -0.03368101 0.044401772
0.11127143 0.15757696 -0.26094276 -0.1916267 0.020228975 -0.18103246 0.07055569 -0.17310748
-0.14034109 -0.14457974 0.033876825 0.04611607 -0.17617686 0.10958009 -0.056483567 -0.07935191
-0.17479295 -0.05206149 0.12875453 -0.12722152 0.1805141 0.048508056 0.18574703 0.0032565123
0.20458096 -0.17782016 -0.082522094 0.10454505 -0.2514022 -0.08718464 0.07353976 -0.106026515
0.01786501 0.25154313 0.05976161 -0.0048053777 -0.10128495 -0.044549514 -0.122320496 -0.1598984
0.24462318 -0.18653989 0.09324557 -0.12959786 -0.057519376 -0.14695649 -0.10951333 0.20423283
0.053168878 -0.04576961 -0.042908907 -0.11083699 0.031516507 -0.07679836 -0.052342363 0.16633087
0.2388964 -0.058521222 0.098255396 0.06457772 0.1276492 -0.29820117 -0.17874077 0.10711808
-0.24042852 0.13532427 0.19419053 -0.07254908 -0.20469865 -0.13058876 0.17432535 -0.11148575
0.10855436 0.059248216 0.02948495 -0.106858954 0.062898465 0.12265885 -0.13942222 -0.1099973
-0.11169158 0.13629602 -0.12621427 -0.15936051 -0.055369217 -0.0005073131 0.16209635 -0.13038693
0.138341 -0.12100492 0.05966106 0.054810982 -0.24808583 -0.02660569 -0.09412064 0.21530426
-0.1442751 -0.13173333 -0.076086454 0.044331107 -0.23080765 -0.09105266 0.06476929 0.15521528
0.16202256 -0.008702248 0.025803877 0.015773116 -0.23120472 -0.14841075 -0.28977752 0.065507434
-0.22842136 -0.14246616 -0.035665527 0.07769229 0.08554381 0.1477214 0.10751101 0.15347156
-0.079338245 0.04250649 -0.052582417 0.18690419 0.038972408 0.19021265 -0.10685284 -0.13353382
-0.18997677 0.12113993 0.12046402 -0.06651839 0.061365098 0.1039959 0.14650749 -0.10316891
-0.08091058 0.06969088 -0.12794384 -0.018774841 0.22887124 -0.01688118 0.046028882 -0.14563751
0.14196974 -0.0942713 -0.07293469 -0.14444621 -0.20618145 -0.061404254 0.1129373 0.020200485
-0.24001136 0.030030042 -0.18199392 -0.0024441814 0.12512429 -0.16938943 -0.1052364 -0.038242
0.004074785 -0.10283182 0.13564071 0.113252334 -0.07167939 -0.17462993 0.0477988 -0.1515832
-0.2617307 -0.15984356 0.1805495 -0.23006149 -0.052449945 0.06598812 -0.14147992 -0.22904235
-0.12514712 0.07381133 0.02410743 -0.053306095 0.037716117 -0.19045375 -0.10416484 -0.06401136
0.06178523 -0.0044466327 0.14821249 -0.2160727 -0.043402813 -0.017500157 -0.052492984 -0.09867827
-0.032738883 -0.082315765 0.1263169 -0.030839179 -0.15328053 0.061042897 0.099549726 -0.17488901
-0.17922133 0.1493913 -0.0425881 -0.10432147 -0.072650515 -0.018362394 -0.15963258 -0.18165198
0.06083727 -0.098860376 -0.302802 0.05828173 0.060871214 -0.25045496 0.09815488 -0.013133557
-0.13506252 0.011275877 -0.094023585 -0.025070619 0.02430217 0.015451459 -0.05692148 -0.19794461
00000000: f590 043c da54 2f3e 73ea e4bd bebb 113d
00000010: 5a6b be3c f1f8 d4bd 6492 51be c59c 10be
00000020: 134b 103e afff a43d 2db9 45bd 28df 12be
00000030: aa3a 8abd 22a1 0c3e 8ecb 8bbe cb12 0bba
00000040: d169 85be 0ae2 033d 1cea 70be be23 64bd
00000050: 2cb0 58be c7ef b73c 9c0d d3bb 45c6 0dbd
00000060: 8223 833d fd3b 8f3b ccf3 1ebe e8ae a33a
00000070: 87ce 26be 9233 e4bd 19f5 09bd a2de 353d
00000080: 47e2 e33d db5b 213e 4a9a 85be ca39 44be
00000090: 3cb7 a53c 9360 39be 807f 903d 1643 31be
000000a0: 93b5 0fbe b60c 14be 6dc2 0a3d 34e4 3c3d
000000b0: b567 34be 876b e03d 505b 67bd 4183 a2bd
000000c0: ecfc 32be 6e3e 55bd 3ad8 033e 5c46 02be
000000d0: b0d8 383e 62b0 463d 7834 3e3e 366b 553b
000000e0: ac7d 513e 7d16 36be 5801 a9bd b71b d63d
000000f0: cab7 80be dc8d b2bd 049c 963d 6e24 d9bd
00000100: a459 923c 43ca 803e 97c8 743d 6e76 9dbb
00000110: 7c6e cfbd 8d79 36bd 2b83 fabd 68bc 23be
00000120: 807e 7a3e 5004 3fbe 89f7 be3d 4db5 04be
00000130: 7099 6bbd c37b 16be 8648 e0bd 6922 513e
00000140: 9cc7 593d ea78 3bbd 40c1 2fbd 81fe e2bd
00000150: 7417 013d 7548 9dbd f264 56bd a452 2a3e
00000160: 42a1 743e f3b3 6fbd 203a c93d 5341 843d
00000170: 79b6 023e d3ad 98be d207 37be b960 db3d
00000180: e532 76be 7292 0a3e e2d9 463e 9d94 94bd
00000190: 869c 51be 0fb9 05be 5882 323e a452 e4bd
000001a0: c051 de3d 42ae 723d 6c8a f13c ded8 dabd
000001b0: e9d0 803d 9034 fb3d b3c4 0ebe 4446 e1bd
000001c0: 8ebe e4bd 2f91 0b3e 503e 01be 672f 23be
000001d0: d5ca 62bd 35fd 04ba 96fc 253e 2784 05be
000001e0: 43a9 0d3e 6dd1 f7bd 285f 743d 7b81 603d
000001f0: 360a 7ebe 2df4 d9bc 52c2 c0bd b878 5c3e
00000200: dabc 13be 1ae5 06be 37d3 9bbd 8994 353d
00000210: d758 6cbe d179 babd c3a5 843d c1f0 1e3e
00000220: 3ee9 253e e093 0ebc a762 d33c 9f36 813c
00000230: eec0 6cbe fdf8 17be b85d 94be c328 863d
00000240: 4ae7 69be a6e2 11be 0416 12bd 231d 9f3d
00000250: 9831 af3d 4744 173e bb2e dc3d a627 1d3e
00000260: 177c a2bd 491b 2e3d a960 57bd d063 3f3e
00000270: 88a1 1f3d 1bc7 423e a9d5 dabd 17bd 08be
00000280: 4589 42be 3618 f83d d7b5 f63d cb3a 88bd
00000290: f859 7b3d cdfb d43d 0f06 163e 394a d3bd
000002a0: 72b4 a5bd 18ba 8e3d b603 03be b2cd 99bc
000002b0: 395d 6a3e 674a 8abc c888 3c3d 0022 15be
000002c0: 8460 113e 5011 c1bd c85e 95bd b5e9 13be
000002d0: 3b21 53be 0783 7bbd ac4b e73d 7d7b a53c
000002e0: 8ac5 75be 9001 f63c 9d5c 3abe 8f2e 20bb
000002f0: 9520 003e 6c74 2dbe 2f86 d7bd a5a3 1cbd
00000300: c685 853b 7d99 d2bd 66e5 0a3e d7f0 e73d
00000310: a5cc 92bd 30d2 32be adc8 433d a038 1bbe
00000320: 9101 86be 08ae 23be f8e1 383e 3d95 6bbe
00000330: c1d5 56bd c824 873d 1de0 10be 148a 6abe
00000340: 9126 00be 652a 973d f27c c53c 7e57 5abd
00000350: 377c 1a3d 4f06 43be 6054 d5bd 6318 83bd
00000360: 8212 7d3d 0fb5 91bb 04c5 173e 2942 5dbe
00000370: 26c7 31bd 7d5c 8fbc e202 57bd d517 cabd
00000380: 3519 06bd 2b95 a8bd 3859 013e 72a2 fcbc
00000390: 92f5 1cbe 1e08 7a3d bae0 cb3d 1b16 33be
000003a0: cc85 37be 08fa 183e dc70 2ebd 7fa6 d5bd
000003b0: cbc9 94bd bb6c 96bc b976 23be fa02 3abe
000003c0: 8030 793d 4f77 cabd dd08 9bbe d3b8 6e3d
000003d0: 1854 793d a23b 80be 6d05 c93d 212e 57bc
000003e0: d44d 0abe 75be 383c 708f c0bd e660 cdbc
000003f0: 5815 c73c 1e28 7d3c 7f26 69bd feb1 4abe

fc2.weight f4 [256, 512]
0.040954728 -0.011612211 0.032100506 0.036554147 -0.009003162 -0.01986948 -0.023395214 -0.012643638
0.026195101 -0.038603302 -0.0146238785 -0.017138096 -0.018844156 -0.022611279 0.011865544 -0.037504245
0.0424367 -0.04342271 0.0115136895 -0.018235758 0.0014195185 -0.02302556 -0.0130956285 -0.025911238
-0.0076649864 -0.03547057 -0.005486605 0.033775907 -0.012795618 0.035910986 -0.03717458 -0.010210963
0.017765056 -0.012302683 0.036122978 0.033188645 0.00483714 0.005687821 -0.026899565 0.013706104
0.033433396 -0.05270578 -0.03977997 -0.03676303 -0.029022867 -0.0063685575 -0.011243242 -0.043808106
0.028231999 -0.04736066 -0.034084387 0.027712356 -0.0118731605 -0.012862805 0.008186616 0.0023205385
-0.044253368 -0.020874681 -0.048137154 0.021943882 -0.040425066 0.027120497 -0.043299235 -0.015925406
0.040398523 -0.0002499806 0.027319381 -0.02332342 -0.041514978 -0.042325467 -0.010598043 -0.011661435
-0.028210772 0.0050856327 -0.011359486 -0.015932515 -0.02516326 0.013186366 -0.007289957 0.0041625067
0.03629036 0.023219947 -0.0042108805 -0.04332345 0.0062697683 -0.009393508 -0.0249878 0.014982167
0.034192298 0.012945587 0.030706694 -0.009177286 0.023597457 0.034610927 -0.029125893 -0.03699108
-0.02142488 0.033602007 0.039965708 0.030762069 -0.019912062 -0.013710868 -0.025980633 -0.033807762
0.026785132 0.02592077 -0.038703375 -0.012511966 -0.009690863 -0.026495844 0.0309498 -0.034726072
-0.038211245 0.03568565 -0.038858857 -0.016071862 0.0072784666 -0.046378814 0.017820455 0.034587257
-0.04388135 0.016261421 0.006648883 0.015414121 -0.02746702 0.018291648 -0.047361486 0.022674873
-0.016842153 0.027141023 -0.008533463 0.01586256 -0.016538568 -0.01159266 0.017878827 0.024102582
-0.011804093 0.03228199 0.014059617 -0.04380299 -0.038357954 -0.0372967 0.029561708 0.018260883
0.008547851 0.0063655567 0.0012053831 0.021364644 -0.00727175 -0.035280798 -0.000403389 0.030199531
0.027135024 0.012775513 0.004791509 -0.035371322 -0.037304975 0.0036231296 -0.006845405 -0.033463914
0.02760004 0.009698875 0.007865948 0.020462405 0.009681906 0.016857184 0.036656655 -0.031520177
0.032984875 0.0319496 0.02112071 -0.028810577 -0.012409412 5.856145e-05 0.0016370354 -0.04435907
0.011991953 -0.015474475 -0.035945445 -0.049686156 -0.039008725 -0.037585136 -0.057784438 0.02292896
0.012296253 0.007283196 -0.046043057 -0.034643013 -0.018318836 -0.037129 0.02550934 -0.02969949
-0.036785632 0.03504059 -0.0421336 0.035300728 -0.030956665 -0.0135680875 0.03392106 0.008249901
0.019248573 -0.0035729532 -0.02011292 0.0155938445 0.007390057 0.016480463 -0.03717139 0.036144465
-0.010802967 0.010201071 -0.037035458 0.0076365983 -0.035096098 -0.007979209 -0.020254316 -0.0015693381
0.037625182 -0.03655729 0.023006996 -0.04334368 -0.038249504 -0.0064898734 -0.05022142 0.016994366
-0.03866034 0.008481954 -0.03916041 0.029064912 0.014664653 0.006813968 -0.028945023 0.02498482
0.02772378 -0.010535831 -0.005272071 -0.044257484 -0.04977899 -0.029919064 -0.03891922 -0.0021343373
-0.040575784 0.019112315 -0.013600635 -0.007763125 -0.033123422 -0.020159632 0.037730332 -0.020624913
0.019807903 0.03222941 -0.01850382 -0.03043267 -0.032345064 0.020715464 -0.022239212 0.017444618
00000000: 25c0 273d 2541 3ebc d27b 033d cdb9 153d
00000010: 0082 13bc 52c5 a2bc 52a7 bfbc 4327 4fbc
00000020: 1c97 d63c 7f1e 1ebd fe98 6fbc 3165 8cbc
00000030: 0f5f 9abc 4a3b b9bc b367 423c 0d9e 19bd
00000040: 1bd2 2d3d 03dc 31bd eaa3 3c3c 2863 95bc
00000050: 230f ba3a 19a0 bcbc 0c8f 56bc ce43 d4bc
00000060: 912a fbbb 9749 11bd fbc8 b3bb 9b58 0a3d
00000070: b6a4 51bc 6617 133d 5f44 18bd e24b 27bc
00000080: 0688 913c 3191 49bc b0f5 133d d1f0 073d
00000090: df80 9e3b e760 ba3b 7a5c dcbc 918f 603c
000000a0: 75f1 083d 04e2 57bd 52f0 22bd d594 16bd
000000b0: 5dc1 edbc 55af d0bb 9335 38bc 2170 33bd
000000c0: cb46 e73c 40fd 41bd 129c 0bbd 0605 e33c
000000d0: a587 42bc 84be 52bc 2821 063c 2d14 183b
000000e0: 0543 35bd 6101 abbc 772b 45bd a8c3 b33c
000000f0: c194 25bd ce2b de3c 8a5a 31bd ff75 82bc
00000100: ec78 253d d40f 83b9 e5cc df3c c210 bfbc
00000110: 9c0b 2abd 785d 2dbd 6aa3 2dbc 9a0f 3fbc
00000120: 471a e7bc 61a5 a63b 231d 3abc e884 82bc
00000130: 2e23 cebc a10b 583c 97e0 eebb a365 883b
00000140: 33a5 143d c237 be3c 6dfb 89bb ee73 31bd
00000150: a172 cd3b 3ae7 19bc 37b3 ccbc c377 753c
00000160: 390d 0c3d ba19 543c 9b8c fb3c 545c 16bc
00000170: 744f c13c 30c4 0d3d 6d99 eebc f583 17bd
00000180: 3b83 afbc 42a2 093d 15b3 233d bc00 fc3c
00000190: 9f1e a3bc 8ca3 60bc 56d5 d4bc 027a 0abd
000001a0: 7e6c db3c cb57 d43c 6e87 1ebd fdfe 4cbc
000001b0: 6dc6 1ebc d00d d9bc 6f8a fd3c ed3c 0ebd
000001c0: 6583 1cbd 1e2b 123d 772a 1fbd 23a9 83bc
000001d0: 3480 ee3b b6f7 3dbd 34fc 913c 5eab 0d3d
000001e0: eebc 33bd ac36 853c e0de d93b 828b 7c3c
000001f0: 8402 e1bc 5ed8 953c 1efe 41bd a8c0 b93c
00000200: 8ef8 89bc da56 de3c f0cf 0bbc 33f2 813c
00000210: e47b 87bc 24ef 3dbc 9e76 923c c772 c53c
00000220: f465 41bc 1f3a 043d 4f5a 663c c46a 33bd
00000230: 3b1d 1dbd 6dc4 18bd 652b f23c d997 953c
00000240: 490c 0c3c 2996 d03b f2fd 9d3a e804 af3c
00000250: dc47 eebb 9982 10bd f57d d3b9 0265 f73c
00000260: 454a de3c 6350 513c 1702 9d3b 85e1 10bd
00000270: 1acd 18bd 0772 6d3b 6b4f e0bb 7511 09bd
00000280: 7b19 e23c 08e8 1e3c 2de0 003c c6a0 a73c
00000290: dba0 1e3c 1418 8a3c 4a25 163d 4d1b 01bd
000002a0: 261b 073d 95dd 023d 5705 ad3c 2904 ecbc
000002b0: d950 4bbc e19f 7538 cb91 d63a dbb1 35bd
000002c0: e579 443c a788 7dbc 883b 13bd b683 4bbd
000002d0: 9dc7 1fbd dff2 19bd 60af 6cbd 84d5 bb3c
000002e0: 3976 493c e0a7 ee3b a597 3cbd d5e5 0dbd
000002f0: 6211 96bc 9414 18bd f7f8 d03c 584c f3bc
00000300: 88ac 16bd b986 0f3d 4894 2cbd 7f97 103d
00000310: d598 fdbc af4c 5ebc cff0 0a3d 982a 073c
00000320: 2faf 9d3c 3528 6abb dac3 a4bc 537d 7f3c
00000330: 4b28 f23b 0902 873c 0741 18bd 380c 143d
00000340: edfe 30bc 6522 273c 7eb2 17bd 6e3c fa3b
00000350: edc0 0fbd 3abb 02bc 61ec a5bc 40b2 cdba
00000360: dd1c 1a3d 19bd 15bd 2b79 bc3c 2589 31bd
00000370: 83ab 1cbd 01a9 d4bb fab4 4dbd c537 8b3c
00000380: 4e5a 1ebd e5f7 0a3c ab66 20bd 8a19 ee3c
00000390: 0344 703c b547 df3b 1d1e edbc f7ac cc3c
000003a0: fb1c e33c 7a9e 2cbc 56c1 acbb 5647 35bd
000003b0: 0ee5 4bbd d318 f5bc c369 1fbd 3de0 0bbb
000003c0: cb32 26bd 6e91 9c3c 33d5 5ebc d061 febb
000003d0: 6dac 07bd d025 a5bc 1f8b 1a3d 94f5 a8bc
000003e0: 2f44 a23c fc02 043d 5395 97bc ef4d f9bc
000003f0: 427c 04bd 7ab3 a93c 022f b6bc 04e8 8e3c

fc2.bias f4 [256]
0.018079355 0.0066075446 0.050972927 0.013920881 0.056097973 0.07161365 -0.072911695 -0.05245088
-0.08140803 -0.012980796 0.050723065 -0.04047459 0.0090687815 0.031256497 0.035144802 0.07067087
0.004736564 -0.049279977 -0.035916712 -0.059378788 -0.056573734 0.037947048 0.029302778 0.06537607
-0.025673231 0.022980534 0.016119346 0.022816097 -0.0074430564 -0.036242284 -0.037356324 -0.0432639
0.011195205 0.0010045834 -0.049453825 0.10182137 0.005372408 -0.022021445 -0.032038417 0.045668904
-0.04253549 -0.0031274303 0.037432555 -0.028874265 -0.1377521 -0.0042763636 0.039156687 -0.08339762
-0.03608628 -0.034827907 -0.0047255685 -0.06215073 -0.0146767385 0.017035319 -0.025119826 0.0016263636
-0.034606583 -0.00466161 0.023101764 0.062481996 0.054383006 0.029915648 -0.015120606 0.024340304
0.06781595 0.072793625 -0.000463179 -0.011127279 -0.000114731025 0.04542301 -0.01770362 0.0154344635
-0.012614024 0.038892515 -0.017003706 -0.07834929 -0.0137164 0.007441456 -0.09825997 -0.09033205
-0.0298445 0.0100933565 0.097808994 0.107407965 -0.0884883 -0.09824314 0.10613025 -0.07639765
0.059078645 -0.0076018944 -0.07102562 -0.006914585 -0.010717348 0.083916746 -0.005768234 0.09926226
-0.02475981 0.057725094 -0.014664842 0.009155405 -0.09408231 0.13351883 0.074345395 -0.03303568
-0.04155485 -0.022009078 0.12356574 0.011950378 0.07782992 0.010824865 0.026573835 0.008775763
-0.024476655 -0.01569266 0.031141175 -0.02731243 -0.050130747 0.006347056 0.0007812759 0.051740855
0.046586175 0.022390636 0.005207713 0.015308389 0.074906886 -0.013166678 -0.002504463 0.022279536
0.06941975 -0.0120316865 -0.011182198 0.051651027 -0.041889332 -0.047340654 0.041566525 -0.012443265
0.00056441914 0.039632846 0.011985563 0.039981063 -0.052002706 0.048751984 0.05389832 0.025620576
-0.035135858 0.08528247 -0.05448779 -0.0025442054 0.11030709 -0.04729296 -0.029362038 0.047174543
0.09321562 -0.04783607 -0.06450215 -0.018619725 -0.018570945 0.042456686 0.04105284 0.07851618
-0.021398002 0.046032563 0.02348468 0.13672405 0.023488423 -0.04166553 -0.0050569903 0.04479359
-0.015560729 0.008952706 -0.042874858 0.03920391 0.017453272 -0.05164038 0.07138504 0.021216687
0.029781025 0.062318496 0.029941848 0.011151594 0.022573343 -0.04329832 0.09593805 0.099700995
0.025852926 0.072968796 0.016668709 0.041506346 -0.010269723 0.029913796 0.01719007 0.11149206
0.009904751 -0.015139433 0.010250325 -0.034665853 0.03213484 -0.036979176 0.016275277 -0.08309397
0.03243917 0.01770238 -0.0845554 0.016032396 0.055946264 -0.038468827 0.026880274 0.044013835
-0.048081156 -0.028931689 0.054885108 0.05522222 0.093776986 -0.004245482 0.0518293 0.006416855
0.084093206 0.09931493 0.015498651 0.09565495 -0.013627428 0.07575639 -0.056356344 -0.021254828
-0.040932495 0.027370349 -0.062112954 0.026754292 -0.021563528 0.0015217445 0.00051523035 0.08200508
-0.0015430554 0.025955128 -0.053173333 0.064780556 -0.0400143 -0.042676285 0.033660904 0.025050376
-0.003779554 0.021273904 0.02437639 0.019476708 0.016782941 -0.051277746 0.047906764 -0.01722773
0.0005510154 0.00952879 0.050054852 0.040305264 0.118691996 0.025547888 0.012656227 0.076714896
00000000: 281b 943c 1a84 d83b fdc8 503d 6814 643c
00000010: fdc6 653d 2daa 923d ba52 95bd bcd6 56bd
00000020: 41b9 a6bd 68ad 54bc fdc2 4f3d afc8 25bd
00000030: 3a95 143c d006 003d fff3 0f3d e4bb 903d
00000040: 2e35 9b3b cdd9 49bd 671d 13bd 2c37 73bd
00000050: dcb9 67bd 5d6e 1b3d 610c f03c e4e3 853d
00000060: ab50 d2bc ac41 bc3c b80c 843c d3e8 ba3c
00000070: e2e4 f3bb ca72 14bd f202 19bd 7d35 31bd
00000080: 186c 373c 3aac 833a 1890 4abd b987 d03d
00000090: 060b b03b 5166 b4bc b73a 03bd 510f 3b3d
000000a0: b239 2ebd 93f5 4cbb e152 193d b989 ecbc
000000b0: e30e 0dbe bd20 8cbb c362 203d 5fcc aabd
000000c0: 35cf 13bd b5a7 0ebd f1d8 9abb c491 7ebd
000000d0: b476 70bc a78d 8b3c 18c8 cdbc b52b d53a
000000e0: a2bf 0dbd 6bc0 98bb e93f bd3c 1fed 7f3d
000000f0: b7c0 5e3d a911 f53c 6bbc 77bc 5165 c73c
00000100: 17e3 8a3d d314 953d d5d6 f2b9 314f 36bc
00000110: c09b f0b8 7a0d 3a3d 2f07 91bc d5e0 7c3c
00000120: 0dab 4ebc c24d 1f3d 5b4b 8bbc 9875 a0bd
00000130: c0ba 60bc 75d7 f33b 863c c9bd 0300 b9bd
00000140: 747c f4bc 9b5e 253c 1550 c83d b5f8 db3d
00000150: 5b39 b5bd b333 c9bd d15a d93d 5f76 9cbd
00000160: 73fc 713d 5019 f9bb e175 91bd be93 e2bb
00000170: d197 2fbc 8bdc ab3d 7403 bdbb 034a cb3d
00000180: 16d5 cabc 2671 6c3d ce44 70bc 8d00 163c
00000190: 3aae c0bd 29b9 083e 6642 983d 6c50 07bd
000001a0: 6b35 2abd 624c b4bc 0910 fd3d 85cb 433c
000001b0: 4b65 9f3d c65a 313c 5fb1 d93c 38c8 0f3c
000001c0: 4483 c8bc e58d 80bc c71b ff3c 51be dfbc
000001d0: e655 4dbd f7fa cf3b 8ace 4c3a 38ee 533d
000001e0: 25d1 3e3d 916c b73c 77a5 aa3b 0ad0 7a3c
000001f0: c868 993d 0db9 57bc eb21 24bb 9383 b63c
00000200: f12b 8e3d 8d20 45bc 8a35 37bc 0790 533d
00000210: 2694 2bbd 46e8 41bd a941 2a3d d6de 4bbc
00000220: 87f5 133a 0d56 223d 185f 443c 2fc3 233d
00000230: ca00 55bd 29b0 473d 7cc4 5c3d 3ee2 d13c
00000240: 9eea 0fbd 93a8 ae3d 972e 5fbd afbc 26bb
00000250: afe8 e13d 43b6 41bd a888 f0bc 183a 413d
00000260: d5e7 be3d c1ef 43bd b419 84bd 6588 98bc
00000270: 1822 98bc 10e7 2d3d 0627 283d 17cd a03d
00000280: dd4a afbc a48c 3c3d f262 c03c 6401 0c3e
00000290: cb6a c03c 7aa9 2abd 1cb5 a5bb 7c79 373d
000002a0: 6ef2 7ebc 5fae 123c 8c9d 2fbd 4794 203d
000002b0: 2afa 8e3c dd84 53bd 5232 923d 9ece ad3c
000002c0: 56f7 f33c ae41 7f3d 9b48 f53c 2db5 363c
000002d0: bbeb b83c 9459 31bd 2b7b c43d 0930 cc3d
000002e0: 84c9 d33c aa70 953d d18c 883c 8f02 2a3d
000002f0: 5742 28bc c70d f53c 31d2 8c3c f355 e43d
00000300: 8947 223c 620b 78bc fbf0 273c c8fd 0dbd
00000310: d29f 033d 7a77 17bd bb53 853c 2c2d aabd
00000320: efde 043d 9504 913c 622b adbd 5f56 833c
00000330: e927 653d 7d91 1dbd 0534 dc3c da47 343d
00000340: bff0 44bd 2602 edbc 35cf 603d b230 623d
00000350: 260e c03d af1d 8bbb f64a 543d 7b44 d23b
00000360: 0f39 ac3d a065 cb3d 0eee 7d3c bee6 c33d
00000370: 9345 5fbc 2b26 9b3d e9d5 66bd 9b1e aebc
00000380: d5a8 27bd c837 e03c 276a 7ebd d12b db3c
00000390: ffa5 b0bc 4675 c73a 8610 073a 48f2 a73d
000003a0: 5940 caba d99f d43c 48cc 59bd abab 843d
000003b0: 09e6 23bd 54cd 2ebd 04e0 093d 7236 cd3c
000003c0: 65b2 77bb 9c46 ae3c ffb0 c73c 9e8d 9f3c
000003d0: 617c 893c 9d08 52bd e239 443d 2b21 8dbc
000003e0: 0472 103a a41e 1c3c 5106 4d3d 2217 253d
000003f0: ca14 f33d ce49 d13c 105c 4f3c b31c 9d3d

fc3.weight f4 [2, 256]
0.013544872 -0.0013174505 -0.076806575 -0.024776496 -0.051209275 -0.03845111 -0.043396447 -0.005996654
0.06284043 0.0027252212 0.1961811 -0.057996083 -0.11367142 -0.0295176 -0.08185503 -0.01705256
0.034671985 0.16143078 -0.022133011 0.05004292 -0.24478129 -0.02657984 -0.041335557 -0.08849181
0.02787085 0.07766781 0.04670862 0.24181244 -0.1412853 -0.12172164 0.06314547 0.050631404
0.041868646 -0.08163322 0.050931063 0.019769656 -0.040575426 0.021823382 -0.010794153 0.07498591
0.03639905 -9.280813e-05 0.040087692 -0.00034149125 -0.108375974 0.031459823 -0.0403055 0.18132307
-0.021920983 -0.0021234646 0.014855238 -0.11124814 -0.06405802 -0.060345218 0.026675446 -0.0100263255
0.067074485 0.0039697173 0.0068886564 -0.05471388 0.08022259 -0.06335448 -0.0043270285 -0.09976812
-0.0575778 -0.037201326 0.015597568 -0.093842566 -0.0023473145 -0.054686084 -0.029954487 0.008724794
-0.049156003 0.0014650085 0.041109025 0.009360794 0.017100373 -0.019772273 0.07379025 -0.06920923
0.06549511 0.006720673 0.09011477 0.009104151 -0.075052 0.09126321 -0.022484308 -0.05845538
0.037958942 0.045963455 -0.03973221 0.009656901 -0.033610772 -9.214145e-05 0.12299854 -0.05988446
0.010074765 -0.10916791 0.09283617 0.01666229 0.03168553 0.026238577 -0.046473987 -0.049861796
0.05409545 -0.11381928 0.104552485 0.02406347 0.28156194 0.05835841 0.0038897 0.00027404362
0.017252665 0.042524397 0.057652827 0.026658045 -0.081587054 0.011740128 -0.027876807 0.07936726
-0.09228893 -0.030134264 -0.06896151 -0.0715527 0.062267855 0.0044829184 0.077753216 -0.0006748123
0.017267969 0.059158877 0.035739463 -0.024756951 -0.04632437 0.07115003 0.021842487 0.014206009
-0.16731511 -0.13018267 -0.032353528 -0.018483428 0.00015503977 -0.025252992 0.00256922 0.1310264
0.1165394 0.141404 -0.014210914 -0.014574737 -0.0033010538 0.08233795 -0.023661507 0.048837114
0.03902671 0.07025041 0.115305096 0.13028881 0.022301966 -0.07772313 0.1304181 0.09836379
-0.012189274 -0.04706093 0.0319907 0.017027006 0.005640738 -0.0033373744 0.018026253 -0.026467348
-0.014325881 0.004308141 -0.010995045 -0.08869632 -0.054475725 0.0024318807 -0.06487837 -0.03390446
0.017341128 -0.053797767 0.035262126 -0.0489439 0.016140737 -0.0038737794 0.060277615 -0.30795082
0.018368917 0.014343842 -0.098542154 -0.055606972 -0.020090576 -0.020908877 -0.019315682 0.069287024
-0.07653231 0.023998404 0.033179678 -0.05043345 -0.16520266 0.00409713 0.0036094352 0.106693916
0.00457354 -0.08179339 -0.034367368 0.002665341 0.15656486 0.04109738 0.0020679443 -0.033649255
-0.029416764 -0.0030323404 0.08745509 0.07853487 0.088463336 -0.033361908 -0.025848752 0.007721359
0.03421912 -0.053463206 -0.042880286 0.097329326 0.057721976 0.03889521 0.069786735 -0.0006786826
-0.043995753 0.005302972 -0.12557322 0.041237842 0.054363765 0.0017818109 -0.081567995 -0.12198602
-0.029651605 0.15807717 0.04081056 -0.07690104 0.14577302 -0.0053260927 -0.046468534 0.0033632277
0.05399925 0.04359298 -0.19609693 0.05124668 -0.033216733 0.024386382 0.04898672 -0.075020924
0.025020994 0.048993386 0.309165 0.0017615733 0.09638057 -0.06929206 0.06706916 0.07528688
00000000: 50eb 5d3c 4eae acba c44c 9dbd 14f8 cabc
00000010: d1c0 51bd e97e 1dbd 79c0 31bd 947f c4bb
00000020: 7cb2 803d a099 323b b3e3 483e 4d8d 6dbd
00000030: 90cc e8bd e5ce f1bc 9ca3 a7bd cfb1 8bbc
00000040: 3604 0e3d 1c4e 253e 4a50 b5bc cef9 4c3d
00000050: f2a7 7abe f7bd d9bc 794f 29bd 323b b5bd
00000060: 6951 e43c 4d10 9f3d 8a51 3f3d ae9d 773e
00000070: 18ad 10be 3249 f9bd 6a52 813d e062 4f3d
00000080: 757e 2b3d 512f a7bd 179d 503d f9f3 a13c
00000090: 6b32 26bd f3c6 b23c f6d9 30bc 3692 993d
000000a0: 2c17 153d fca1 c2b8 fe32 243d 2e0a b3b9
000000b0: 39f4 ddbd 04dc 003d 6117 25bd c1ac 393e
000000c0: a293 b3bc d329 0bbb 6263 733c 11d6 e3bd
000000d0: da30 83bd 8c2c 77bd 7786 da3c 7545 24bc
000000e0: 595e 893d 6714 823b 3dba e13b a91b 60bd
000000f0: be4b a43d febf 81bd bfc9 8dbb 3a53 ccbd
00000100: b3d6 6bbd 6b60 18bd f18c 7f3c 8830 c0bd
00000110: 67d5 19bb 84fe 5fbd 1d63 f5bc 70f2 0e3c
00000120: ce57 49bd 8705 c03a f061 283d 045e 193c
00000130: 1516 8c3c 76f9 a1bc 581f 973d 92bd 8dbd
00000140: 4d22 863d 1739 dc3b 188e b83d 9429 153c
00000150: ddb4 99bd 35e8 ba3d 0331 b8bc e96e 6fbd
00000160: d67a 1b3d 2d44 3c3d 3ebe 22bd fa37 1e3c
00000170: 73ab 09bd 103c c1b8 a9e6 fb3d 6849 75bd
00000180: a110 253c 6d93 dfbd e420 be3d 5b7f 883c
00000190: b0c8 013d 49f2 d63c 825b 3ebd e23b 4cbd
000001a0: 3193 5d3d 151a e9bd 9d1f d63d c120 c53c
000001b0: e328 903e 3a09 6f3d 56ea 7e3b 83ad 8f39
000001c0: 7655 8d3c 102e 2e3d 5f25 6c3d f961 da3c
000001d0: 1d17 a7bd aa59 403c e75d e4bc 4d8b a23d
000001e0: fb01 bdbd 22dc f6bc b13b 8dbd 398a 92bd
000001f0: 940c 7f3d 72e5 923b 143d 9f3d e3e5 30ba
00000200: 8e75 8d3c 9450 723d 8b63 123d 17cf cabc
00000210: 9fbe 3dbd 1bb7 913d 04ef b23c 52c0 683c
00000220: a754 2bbe 9b4e 05be 2285 04bd 8f6a 97bc
00000230: 2c92 2239 5ddf cebc 5c60 283b c92b 063e
00000240: 35ac ee3d 36cc 103e e5d4 68bc e1ca 6ebc
00000250: 7e56 58bb cda0 a83d c7d5 c1bc 6d09 483d
00000260: 79da 1f3d 72df 8f3d 1425 ec3d 6e6a 053e
00000270: 9db2 b63c 4e2d 9fbd 538c 053e f472 c93d
00000280: 85b5 47bc f6c2 40bd ae08 033d 387c 8b3c
00000290: f1d5 b83b dab7 5abb cbab 933c 0dd2 d8bc
000002a0: 1ab7 6abc 4e2b 8d3b 9024 34bc 6ba6 b5bd
000002b0: f021 5fbd 3060 1f3b f3de 84bd 67df 0abd
000002c0: fb0e 8e3c 0c5b 5cbd 056f 103d 6679 48bd
000002d0: 9439 843c 3cdf 7dbb a9e5 763d bbab 9dbe
000002e0: 697a 963c 6f02 6b3c 78d0 c9bd 23c4 63bd
000002f0: fe94 a4bc 1849 abbc ec3b 9ebc 5be6 8d3d
00000300: f9bc 9cbd 4d98 c43c 6ae7 073d 4e93 4ebd
00000310: e32a 29be 3841 863b 468c 6c3b 5782 da3d
00000320: a2dd 953b 4b83 a7bd ccc4 0cbd 00ad 2e3b
00000330: 8a52 203e ba55 283d 5986 073b cdd3 09bd
00000340: 6dfb f0bc 3bba 46bb a71b b33d e4d6 a03d
00000350: 442c b53d 7fa6 08bd c3c0 d3bc 7403 fd3b
00000360: 5929 0c3d 3cfc 5abd 3da3 2fbd 9954 c73d
00000370: e16d 6c3d 9550 1f3d 59ec 8e3d 9ee9 31ba
00000380: e434 34bd 8ec4 ad3b 4496 00be 03e9 283d
00000390: 8aac 5e3d a78b e93a 1f0d a7bd ced3 f9bd
000003a0: ece7 f2bc fbde 213e f928 273d 4b7e 9dbd
000003b0: 8645 153e 8186 aebb ca55 3ebd 9969 5c3b
000003c0: 512e 5d3d 8d8e 323d a2cd 48be 0ae8 513d
000003d0: 450e 08bd f3c5 c73c 4da6 483d 92a4 99bd
000003e0: d4f8 cc3c 4aad 483d e04a 9e3e 97e4 e63a
000003f0: 2d63 c53d ffe8 8dbd 8e5b 893d 0230 9a3d

fc3.bias f4 [2]
0.032745402 -0.09224986
00000000: 0b20 063d 7fed bcbd

norm.weight f4 [26]
0.90171504 0.9027557 0.88038373 0.90635896 0.8961104 0.9364761 0.9835623 0.9593554
0.9995339 0.9855689 0.91904336 0.8457471 0.96425986 0.8924267 0.9509867 0.93975294
1.0241091 0.989548 0.8926433 0.9275251 0.8639379 0.9008253 0.9374112 0.8885145
1.1322484 1.1441355
00000000: ccd6 663f ff1a 673f d460 613f 2407 683f
00000010: 7e67 653f e6bc 6f3f bdca 7b3f 5198 753f
00000020: 74e1 7f3f 3e4e 7c3f 6d46 6b3f e282 583f
00000030: bcd9 763f 1476 643f dd73 733f a693 703f
00000040: 0216 833f 0553 7d3f 4584 643f 4972 6d3f
00000050: 092b 5d3f 7d9c 663f 2efa 6f3f b075 633f
00000060: 84ed 903f 0873 923f

norm.bias f4 [26]
0.07848031 0.13765194 0.10398198 0.087209694 0.09788899 0.08591028 0.0028867496 -0.010895342
-0.057715498 -0.047443535 -0.061598342 -0.06374591 -0.017856816 -0.03820004 -0.023141047 0.029939765
0.025342375 0.019334415 -0.0025176364 0.04343802 0.084266804 0.06794751 0.108034536 0.18100375
0.0098229805 -0.033086963
00000000: 49ba a03d a1f4 0c3e 81f4 d43d ff9a b23d
00000010: 067a c83d bbf1 af3d 9f2f 3d3b 6082 32bc
00000020: 1667 6cbd 2754 42bd 8b4e 7cbd 378d 82bd
00000030: 7548 92bc a577 1cbd 4b92 bdbc 3d44 f53c
00000040: d09a cf3c 3563 9e3c eefe 24bb 11ec 313d
00000050: 1394 ac3d 1028 8b3d 3641 dd3d 0c59 393e
00000060: 91f0 203c 3286 07bd

norm.running_mean f4 [26]
1.2797318 1.2978119 1.3576216 1.4374396 1.5163895 1.6308383 1.7988231 1.9895815
2.1723754 2.316189 2.4307528 2.4881265 2.5252318 2.5144742 2.4665346 2.3266072
2.1506715 1.9721456 1.8053919 1.6459869 1.5284601 1.3985207 1.3139824 1.2810553
-0.18546636 1.7341318
00000000: 40ce a33f b31e a63f 8bc6 ad3f 05fe b73f
00000010: 0d19 c23f 4fbf d03f d63f e63f 9baa fe3f
00000020: 3308 0b40 713c 1440 7491 1b40 773d 1f40
00000030: 669d 2140 25ed 2040 b4db 1d40 22e7 1440
00000040: 9aa4 0940 446f fc3f 1517 e73f b3af d23f
00000050: 95a4 c33f ba02 b33f 9330 a83f 9ff9 a33f
00000060: e5ea 3dbe 08f8 dd3f

norm.running_var f4 [26]
0.3810362 0.40861562 0.465902 0.52242357 0.5435988 0.58742195 0.65128154 0.6621815
0.6341601 0.5609828 0.5232707 0.47042277 0.46819153 0.47727495 0.53165185 0.59017044
0.64094204 0.6480727 0.6298389 0.57773066 0.5455388 0.46085408 0.3992099 0.3808258
4.950237 0.44840202
00000000: 2d17 c33e 1136 d13e b58a ee3e 8dbd 053f
00000010: 4a29 0b3f 4961 163f 63ba 263f ba84 293f
00000020: 5158 223f 929c 0f3f 12f5 053f 41db f03e
00000030: cdb6 ef3e 625d f43e 561a 083f 6915 173f
00000040: c714 243f 18e8 253f 1f3d 213f 28e6 133f
00000050: 6ea8 0b3f 11f5 eb3e 3d65 cc3e 99fb c23e
00000060: 5768 9e40 f394 e53e
